results/MoveToGoal8/MoveToGoal.onnx (onnx, 2351 bytes, 5 tensors)

action_model._continuous_distribution.log_sigma f4 [1, 2]
000000 8e 6d 64 bd 34 78 d1 bd
       -0.055768542 -0.10228005

action_model._continuous_distribution.mu.bias f4 [2]
000000 70 4e 59 bc e1 4c ad bc
       -0.01326333 -0.021154823

action_model._continuous_distribution.mu.weight f4 [2, 20]
000000 6e cd 82 3c d5 ef fc bc 25 58 70 bd d6 bb b8 bd
       0.015967097 -0.03087608 -0.05867781 -0.09020202
000010 c0 a2 05 3d a9 09 83 3d ad b2 5e 3d cf 69 5f bd
       0.032625914 0.06398327 0.054369617 -0.054544266
000020 db ce b1 3c cd 6f 18 3e ba fd 7b bc 44 cf 51 bd
       0.021705082 0.14886399 -0.015380317 -0.051223055
000030 50 7e b3 3d a3 5c 97 3d e9 e6 43 3d e2 45 7c be
       0.087643266 0.07390716 0.047827635 -0.24636033
000040 bf 70 2c bc cc 8b 05 3d 4e 6e 04 bd e0 22 b9 3d
       -0.010524928 0.032604024 -0.032331757 0.09039855
000050 c2 b5 ca 3d 5c 99 9c 3d 82 c8 7e bc 22 c1 49 bb
       0.09897949 0.076464385 -0.0155507345 -0.0030785282
000060 57 3b a4 3b a7 40 0c 3e 4d 64 a8 bd b3 78 3c bc
       0.0050119567 0.13696538 -0.08222256 -0.011503386
000070 2d fb 24 bd 86 0f e0 bd f2 45 14 3d f6 72 e6 bb
       -0.040278602 -0.10940461 0.036199518 -0.0070327474
000080 24 95 3a bc 8f 52 7b 3d 82 ca 0d be 3b b0 1d 3e
       -0.011388097 0.06135803 -0.13846782 0.15399258
000090 2e 46 b2 3c d2 3a 5c bd 21 51 42 bc 78 d8 20 3d
       0.02176198 -0.053767033 -0.011860163 0.03926894

network_body._body_endoder.seq_layers.0.bias f4 [20]
000000 82 1f ac 3c d5 35 0c 3d 71 b5 82 bc e3 33 1c 3c
       0.021011118 0.034231026 -0.015955659 0.009533855
000010 29 67 8f bc 94 e6 22 bc f0 c3 d1 3c 8c ce 03 3d
       -0.017505245 -0.009942669 0.025606126 0.0321794
000020 c5 4c 30 bd c4 35 fd 3d 6c 9d 62 bd bb 41 f0 3c
       -0.043041963 0.123637706 -0.05532591 0.029328218
000030 12 17 cf bc ea d1 6a bb d0 cc de 3c 41 a0 4d 3e
       -0.025279555 -0.0035830685 0.027197272 0.20080663
000040 2a 3d b7 bc 8a 9c 65 bc be da aa 3c e7 a0 97 bc
       -0.022368032 -0.014014373 0.020856258 -0.018509341

network_body._body_endoder.seq_layers.0.weight f4 [20, 6]
000000 5c b4 99 bd 56 cd b5 3e 20 4d 77 3f e4 b6 48 bf
       -0.07505104 0.3550822 0.9660206 -0.7840407
000010 bd 28 19 bf b5 09 0c bf 83 12 ee 3d 66 09 3a bd
       -0.59827787 -0.5470231 0.116246246 -0.04541912
000020 a9 c6 e9 3e c5 0d 6f bf b3 2a f0 bd ca a2 a6 3e
       0.45659378 -0.93380386 -0.11726894 0.32546073
000030 47 61 0c bd 1c f6 08 3f d6 e4 7d 3d 78 95 2b 3f
       -0.03427246 0.53500533 0.061985813 0.67024946
000040 b1 42 a8 bf cf f4 c4 3e 13 ec ca 3e 8d 5c c5 3e
       -1.3145353 0.38468024 0.39633235 0.38547173
000050 54 96 10 3e 1d 74 ea 3e 93 81 8c bd 46 0d ee be
       0.14119846 0.45791712 -0.06860652 -0.46494502
000060 38 0d 51 bd 83 58 96 3e 9e f3 93 3e ce d2 9b be
       -0.051037997 0.29364404 0.28896803 -0.3043427
000070 02 58 3a 3f 55 38 1e bf c2 7e bd bd be c0 9a be
       0.7279054 -0.61804706 -0.09252693 -0.30225176
000080 16 a0 6b be d0 60 60 be 9b 83 e2 bd 56 21 57 bf
       -0.23010287 -0.21911931 -0.11060258 -0.8403524
000090 13 cd e6 be 61 e7 d9 3c 95 9e 00 3f 5e 4d e3 3e
       -0.45078334 0.026599588 0.50241977 0.44394964
0000a0 40 9f 26 bd 70 dd a4 bc e8 4e 94 3e 44 fd e3 be
       -0.040679216 -0.02012512 0.2896645 -0.44529164
0000b0 8d 13 9a bd 48 dc f4 3e 7d 80 16 3f ca 53 00 bf
       -0.0752326 0.4782431 0.5878981 -0.5012785
0000c0 b7 d5 ef 3c 98 80 77 bc e8 7a e3 be 4a 34 d8 be
       0.029276712 -0.015106343 -0.44429708 -0.42227393
0000d0 e0 39 7b bd 4a 44 d8 3e 61 7c 9b 3e 69 39 2d bf
       -0.06133449 0.422396 0.3036833 -0.67665726
0000e0 ef 7b 42 bf 1b d7 7b 3f 26 19 02 bf 7d 65 6e 3e
       -0.7597036 0.983751 -0.50819623 0.23280902
0000f0 7e 09 f1 bd 50 75 aa 3d 57 b8 8f 3d c8 bc b6 3e
       -0.117693886 0.08323157 0.07017582 0.35690904
000100 c6 05 01 bf 1c 68 9d bc 39 f4 13 3e 4a 8f 58 3e
       -0.50399435 -0.019214682 0.14448632 0.2114841
000110 73 95 a7 be 09 10 9e be bc 35 b4 3e e1 78 a3 bd
       -0.32731208 -0.3087161 0.35197246 -0.0798204
000120 e3 bf 1c bf 80 4c da 3e b0 9a 6e 3e 3d 6f b2 be
       -0.61230296 0.4263649 0.23301196 -0.34850493
000130 6f c4 bc bc d2 11 5b be e2 b4 80 be b8 86 a0 3b
       -0.023042886 -0.21393517 -0.25138003 0.004898872
000140 58 e7 f0 be 70 f6 9f 3e fc 47 86 3e c3 69 d4 3e
       -0.470515 0.31242704 0.26226795 0.4148694
000150 ba 62 f4 bd a6 c3 af 3e 28 30 de 3e 11 48 19 bf
       -0.11932893 0.34328955 0.43396115 -0.5987559
000160 2c 37 8d bd ee a8 ea be d5 df 40 3f 2a 7d b9 be
       -0.06895289 -0.45832008 0.7534154 -0.36228305
000170 70 11 86 bf 01 17 1d 3e e8 4e 92 bc 6b 4b 1e bf
       -1.0474072 0.15340807 -0.017859891 -0.6183383
000180 3a 6b 17 3b e6 d8 97 3e 55 bd 9b bd 43 10 b7 be
       0.0023104683 0.29657668 -0.076044716 -0.35754594
000190 bd 09 3d 3d 78 96 c1 be 03 45 9f be 0d c3 fa 3d
       0.046151865 -0.3781011 -0.3110734 0.12244234
0001a0 8e 55 06 3f 78 8f e9 3e 05 01 74 3e 84 ff b0 3e
       0.52474296 0.4561727 0.23828514 0.34569943
0001b0 dd 48 01 3f f9 cf 61 3e a7 76 5a bd ea f5 aa be
       0.50501806 0.22051992 -0.053335812 -0.33390743
0001c0 45 0e 9e 3d c2 86 04 be ec d8 2f bf f5 40 c4 3e
       0.077175654 -0.12942031 -0.6869037 0.38330808
0001d0 02 1f 91 bd ce dc 81 be 0c 25 d9 be 5a 15 ac be
       -0.070859924 -0.25363773 -0.42411077 -0.3361004
