results/MoveToGoal4/MoveToGoal/MoveToGoal-148351.pt (torch, 439199 bytes, 36 tensors)

network_body._body_endoder.seq_layers.0.weight f4 [128, 6]
000000 e0 17 16 be bf 43 fd 3d 20 7d a2 3e 13 d0 aa 3d
       -0.14657545 0.12366437 0.31736088 0.08340468
000010 56 7b 39 bf 51 27 bb be 2a 77 90 be 0c f8 23 be
       -0.7245382 -0.36553434 -0.28215915 -0.16012591
000020 75 f6 b6 be 07 87 6e 3e 34 a7 15 bf ce 39 96 3e
       -0.35734907 0.23293696 -0.58458257 0.29340976
000030 45 be 20 bd 9b 08 15 3e 67 c0 0d bd 09 76 34 3f
       -0.039243955 0.14554064 -0.034607317 0.7049261
000040 7e 2f 15 3f 79 19 44 bf 33 e9 26 3f 20 6e c0 be
       0.5827559 -0.7660137 0.65199584 -0.3758402
000050 89 20 c9 be 07 f8 63 3f d7 64 f9 be e1 65 27 bd
       -0.39282635 0.89050335 -0.48709747 -0.040868644
000060 fe fd 14 be 13 da 55 be 25 36 1d be 8d b7 34 3f
       -0.14550015 -0.2088397 -0.15352686 0.70592576
000070 b2 dc 93 3a 71 09 7d 3e 87 a8 e1 be 67 8e 92 be
       0.0011280982 0.24710633 -0.4407389 -0.2862427
000080 9d 27 8b 3e 35 1d 2b be cd 8a c0 3c a6 e6 00 bd
       0.2717866 -0.1671036 0.023503685 -0.031469963
000090 74 9a 09 3e ea 00 3b 3d 99 ea a8 bd 5c 8a 1d bd
       0.13437825 0.04565517 -0.08247871 -0.038462028
0000a0 c5 35 05 bf 99 60 cf 3d aa 5a 95 be 78 a2 c8 3e
       -0.5203517 0.101258464 -0.29170734 0.39186454
0000b0 3f e2 ba 3e 3c e4 30 3f 07 40 e2 3e 9a 98 4d bf
       0.36500737 0.6909826 0.44189474 -0.80310977
0000c0 80 67 8b be 1d fe 40 be 57 4a 27 3f 6c 40 8c 3e
       -0.27227402 -0.18846937 0.6534781 0.273929
0000d0 ae 38 50 bf 49 ab 2c 3f 29 0a e4 3d fc d3 b4 be
       -0.81336486 0.6744886 0.111347504 -0.3531798
0000e0 f3 69 88 be 40 4f 96 bd 5a 33 76 bf 8c 68 52 bf
       -0.26643333 -0.073393345 -0.96172106 -0.82190776
0000f0 2d 5c 32 3e fb 01 24 3e 36 e6 34 3c 5a c1 cc bc
       0.17417975 0.1601638 0.011041215 -0.024994541
000100 66 18 d4 3d 4c 32 db 3d a7 b2 6f be c1 50 31 3e
       0.10356216 0.10702953 -0.23407994 0.17315961
000110 f8 e3 2c 3c e3 5f 7e be 66 fd bb be 0e 6e 9c 3e
       0.010552399 -0.24841265 -0.36716765 0.30552715
000120 54 ea 44 be cb b3 c6 3e 93 7d 17 3f 64 8c d3 3d
       -0.19230014 0.38809046 0.59175986 0.10329512
000130 89 78 8b be f7 fe 29 be 9d f3 ba 3e e8 01 73 3c
       -0.272404 -0.16601168 0.36513987 0.014831997
000140 82 b2 f8 bd b5 9d 93 3e 75 33 8b be 5c 7d c2 be
       -0.12143423 0.28831258 -0.27187696 -0.37986267
000150 f2 41 85 bd f4 de 56 bf e6 75 1c bf 0e 68 dd be
       -0.06506719 -0.8393395 -0.611174 -0.4324345
000160 6b 59 22 3e 26 cd 67 bc e4 32 0c bf 98 11 b3 3e
       0.15854423 -0.014148032 -0.5476515 0.3497436
000170 69 3c ac 3e 2c d2 85 3c 02 f2 1c 3e 2d 78 32 3f
       0.3363984 0.01633557 0.15326694 0.69714624
000180 a0 b6 1e 3f b0 e2 79 3e ff c7 fa 3d a3 92 34 be
       0.61997414 0.2440288 0.122451775 -0.17634062
000190 f1 cd ad 3e 57 af 75 be f2 b7 f5 3e 3b d0 a7 be
       0.33946183 -0.23992668 0.47991902 -0.32776055
0001a0 3d 52 a5 be f3 96 9e be ca 5e 61 3e 39 1f 8e be
       -0.32289305 -0.3097454 0.22008815 -0.27758196
0001b0 4f aa 9f be 8f d0 f0 3d d5 34 42 bd e4 0e 9a 3f
       -0.31184623 0.117585294 -0.047413666 1.2035794
0001c0 2e b3 3e 3e 40 9c 84 bc b1 47 56 be 57 18 28 bf
       0.18623039 -0.016187787 -0.20925786 -0.6566214
0001d0 df b5 2e 3e 40 47 f6 bb 07 a5 da be 64 4f d3 3e
       0.17061566 -0.007515818 -0.4270403 0.41271508
0001e0 cd 98 7a bf 15 f0 02 3f 57 c3 b6 be 42 c5 12 3e
       -0.97889405 0.51147586 -0.35695907 0.1433306
0001f0 c3 aa 53 bc 0b 43 c9 3e fc 00 0b 3d a0 51 98 3d
       -0.012919131 0.39308962 0.033936486 0.07437444
000200 64 57 38 be ef eb 1f be 05 b0 57 be 73 4a 86 bd
       -0.18002087 -0.15617345 -0.2106324 -0.06557169
000210 b5 e0 24 3f 8c 5c be bd 12 c0 1a bf ac 91 3e 3e
       0.64405376 -0.09294996 -0.60449326 0.18610257
000220 d2 12 f6 be 0a 98 97 3d 88 1c 00 3f 5f bd 22 3f
       -0.48061234 0.07402046 0.50043535 0.6357021
000230 71 3f 1b bf 54 69 92 3e c7 ee b4 3c cb 44 59 3f
       -0.6064368 0.28595984 0.022086514 0.84870595
000240 0c 0b 0c 3e e3 e0 9c be 8a 47 37 3e 94 cd 70 be
       0.13676089 -0.30640325 0.17898384 -0.23515922
000250 d5 a2 fe be fd 76 d3 be 19 a6 b9 3d e3 00 1e bf
       -0.49733606 -0.41301718 0.09064884 -0.61720103
000260 63 0c 60 be 6f 7c 0e 3f 68 2c fd 3d cb 40 12 bf
       -0.21879725 0.5565862 0.123619854 -0.57130116
000270 44 0c 59 3f 0a 81 16 bf d5 8d d1 be 0b 16 63 bd
       0.8478434 -0.5879065 -0.40928522 -0.055440944
000280 81 d8 27 3f b3 83 53 be f8 bc 7b be 3e c7 09 3f
       0.65564734 -0.20655708 -0.24583805 0.53819644
000290 c5 f9 23 3e 3f 46 9a 3e 54 fc 48 bf 33 20 17 be
       0.16013248 0.3013172 -0.7851002 -0.14758377
0002a0 50 ee 98 be 50 05 23 3e 78 63 59 be e4 03 4e be
       -0.29869318 0.15919995 -0.2122935 -0.20118672
0002b0 e3 a8 43 3d 3b 6e 21 be 7e be 20 3f da aa c1 3e
       0.047768485 -0.15764706 0.6279067 0.37825662
0002c0 ec 67 11 3e 74 85 ed 3d 55 fc 69 3f e0 cd ba be
       0.141998 0.1159772 0.91400653 -0.36485195
0002d0 90 d3 73 3e 98 2b 93 3e 88 6d 2d bf 3a 1d db 3a
       0.23811173 0.28744197 -0.67745256 0.0016717084
0002e0 bc ec 08 be 7c 00 23 3e 5a a5 aa be be d0 02 3f
       -0.13371557 0.15918154 -0.33329278 0.51099765
0002f0 fe 37 11 bd f2 21 95 be 7a 92 c6 3c c6 e1 a0 3e
       -0.03545379 -0.2912746 0.024239767 0.3142225
000300 64 c4 62 3d 5a ba 12 bf b2 02 d7 be e2 a7 7c 3d
       0.055363074 -0.573156 -0.41994244 0.061683543
000310 42 08 d7 3d 4e 89 ac bd 97 3f 23 bf 0a 23 f2 3d
       0.10499622 -0.08424626 -0.63768905 0.118230894
000320 d7 45 c1 3e e1 6f e9 3e 92 35 ad bf 3c 8f 2a 3f
       0.37748596 0.4559317 -1.3531973 0.6662481
000330 09 67 c6 3e 2f c2 15 3e f0 fc b8 3e 01 dc b7 be
       0.38750485 0.14624856 0.36130476 -0.35910037
000340 8a 71 f9 3d f8 de 0a 3e 37 d7 8d be a4 12 7e bf
       0.12179859 0.13561618 -0.27703258 -0.99247193
000350 3b 56 68 bd 67 57 aa be 47 46 6a be 1b f3 ef be
       -0.05672286 -0.33269808 -0.22878371 -0.46865162
000360 47 b3 15 3f 0e eb b1 3e bb 13 c6 3d 79 dc 1c 3e
       0.5847668 0.34749645 0.09671732 0.15318479
000370 0b 8e eb 3e 2d 99 b1 3e 82 b9 da be c7 90 9d 3e
       0.46006808 0.34687176 -0.42719656 0.3077452
000380 6f 8a 65 be 55 7c 18 3f 30 d3 0c 3c 8a 57 77 bd
       -0.2241609 0.59564716 0.008595273 -0.060386218
000390 37 5a 99 3e 59 76 e4 bd b3 ba 1d 3e bc f4 25 bf
       0.2995164 -0.111553855 0.15403251 -0.6482656
0003a0 7b 2b b1 bd 54 b6 6e 3e b6 b6 01 be 3b e9 25 be
       -0.08650871 0.2331174 -0.12667355 -0.16202252
0003b0 ff 2d 29 be 60 a5 c5 be 04 da 77 3d 23 c7 a0 3d
       -0.16521452 -0.38602734 0.06051065 0.07850482
0003c0 ad 07 91 3e 5e 73 8e 3e 95 9b 6e 3e df fc 8c bd
       0.2832617 0.27822393 0.23301537 -0.06884169
0003d0 9f 08 f3 3d c3 11 27 3f da 34 eb be 53 e8 d1 3e
       0.11866879 0.6526148 -0.4593876 0.40997562
0003e0 8d b3 71 bd c6 a7 30 bf dc 0b bd be b5 50 b8 3e
       -0.059009124 -0.69006 -0.3692311 0.35999075
0003f0 3a fb 01 3d d7 aa e5 3b 1d cd 66 3f fd 1d af be
       0.03173373 0.007008891 0.9015673 -0.34202567

network_body._body_endoder.seq_layers.0.bias f4 [128]
000000 e6 a6 97 bb d9 d2 1a bc 95 25 a7 3a c5 0a 2e 3d
       -0.00462805 -0.009449684 0.0012752289 0.04249074
000010 fe d6 69 39 be 82 6c bb 4a 5d af 3b 95 3f b1 bc
       0.00022300702 -0.003608867 0.005351697 -0.021636764
000020 63 85 53 3c 29 0e b7 3b 3b d9 a8 3b c8 10 1b 39
       0.01291022 0.005586405 0.005152849 0.00014788203
000030 c0 92 4d 3d 85 cb 0b 3c b1 a3 04 bc 10 51 22 3d
       0.05018878 0.00853241 -0.008095668 0.03962809
000040 3a f0 0e bb 9d 11 f0 3b a5 52 7f ba 78 f0 65 bb
       -0.0021810667 0.0073263184 -0.0009739793 -0.0035085957
000050 ec 1c b6 3b 1c 62 48 3b 8a fb 09 3d 16 2b b2 3b
       0.005557647 0.0030576056 0.033687152 0.005437265
000060 43 5e 37 3c 7e 34 b6 b9 0c fa 5f 3b 7e e4 48 3c
       0.011191907 -0.00034752855 0.003417614 0.012261508
000070 56 7a f7 3a 3b 2b c5 bb 34 fa 99 b9 22 ce 99 ba
       0.0018881063 -0.0060171164 -0.0002936885 -0.0011734406
000080 5f d1 02 3d 12 08 04 3c 7c b2 02 bc 5f da bc ba
       0.031937953 0.008058565 -0.007977124 -0.0014408341
000090 69 8a f3 b9 bd e8 95 bb 93 ee 13 3c 83 c4 c5 bb
       -0.00046451695 -0.0045748637 0.0090290485 -0.006035389
0000a0 c9 74 a0 bb 83 6f fc ba b7 4e ac 3d ce be 51 bb
       -0.0048967344 -0.0019259307 0.08413451 -0.0032004598
0000b0 9c b9 83 3a 4e 2d ac b9 e2 8c 21 bb 3f c0 74 b9
       0.0010049823 -0.0003284015 -0.0024650623 -0.0002334127
0000c0 5e 18 64 ba 61 6f ac ba 45 fc 64 bb 3d 31 c2 3c
       -0.0008701141 -0.0013155752 -0.0034940403 0.02370512
0000d0 4b 8f a3 3a 35 32 87 3c e6 36 2d bb 71 16 9e 39
       0.0012478618 0.016503433 -0.0026430427 0.0003015283
0000e0 bb 47 1c 3b d3 5e c0 ba 27 ee cd 3c 9a 09 21 3b
       0.0023846466 -0.0014676697 0.025137974 0.0024572373
0000f0 44 90 e9 3a d2 9f c2 3a 37 ae 26 3c 1e 4e 12 3b
       0.0017819484 0.0014848656 0.010173372 0.0022324394
000100 45 48 8c bb 95 f5 9b 3a 48 4b 06 3c a0 d5 31 37
       -0.004281076 0.0011898751 0.008196659 1.0599761e-05
000110 f3 22 ce 3b 19 e7 9c 3b 4a 4a 99 3c 11 e8 ab 3b
       0.0062907874 0.004788291 0.018712182 0.0052461703
000120 31 b2 c6 3c 98 b4 2b 3a a4 b7 86 ba 87 c7 a4 39
       0.02425489 0.0006550043 -0.0010278118 0.00031429177
000130 ef e4 47 ba 3e be fc 3b b3 2f 92 3b 07 50 a1 3b
       -0.00076253613 0.0077131083 0.0044612526 0.00492287
000140 f4 51 14 3b 17 75 1d 3b 82 bb 80 bb 26 d1 8c 39
       0.0022631856 0.002402609 -0.0039286027 0.0002685871
000150 8c b2 8c 3d 79 87 8e bb 6e 3d d1 3a 9c 1f 13 b9
       0.068699926 -0.0043496457 0.0015963742 -0.00014030788
000160 bb ea d3 3b 5f 43 39 bb 80 cc 8f bb c9 9a 70 3b
       0.006467191 -0.0028268916 -0.004388392 0.0036713353
000170 b2 27 05 3b 14 51 a1 3c 6b 61 0a 3c e6 26 b4 ba
       0.002031785 0.019691981 0.008446078 -0.0013744503
000180 41 9c e5 bb 6e e9 a5 bb 50 2d 6d ba 79 68 ab 3a
       -0.0070071523 -0.0050632274 -0.00090475846 0.00130774
000190 ae c1 4e bb 15 f4 fc 3b e7 02 e0 ba ca b4 15 3b
       -0.0031548548 0.0077195265 -0.0017090709 0.0022843354
0001a0 7b ca 98 bb 31 82 93 ba 6f 70 1d bc 11 0f d8 ba
       -0.0046628094 -0.001125401 -0.009609326 -0.0016483982
0001b0 73 94 e6 3b 95 91 d4 39 35 68 15 bd eb a1 e5 3a
       0.0070367395 0.00040544258 -0.036476333 0.0017519569
0001c0 d0 5f 14 3b b4 12 24 bd a2 56 ae 3c 8f da 08 ba
       0.0022640117 -0.0400569 0.021281544 -0.0005220556
0001d0 33 9c 27 3c 91 d2 21 3c 9d 90 53 3c 0a 07 0d bc
       0.010230112 0.009876863 0.012912896 -0.008607635
0001e0 23 b9 e3 bb f1 a6 bb 3a fb f3 24 3c d0 a8 b1 3b
       -0.0069495603 0.001431672 0.010067935 0.0054217353
0001f0 ae 28 73 3c 03 89 78 3c eb 54 04 bb a2 f2 85 ba
       0.014841242 0.015169385 -0.0020192217 -0.0010219405

network_body._body_endoder.seq_layers.2.weight f4 [128, 128]
000000 5a ee b8 3d 15 91 f3 bd 6b e2 d7 bb 11 f2 52 bd
       0.09029837 -0.118929066 -0.0065882704 -0.051500384
000010 29 84 31 3d 66 be 5c 3e 5e b2 f1 3d 46 56 97 bd
       0.04333893 0.21557006 0.11801599 -0.07389502
000020 54 4a 2d 3e f3 5b 40 3d 05 8a 57 3d f9 aa 0d 3c
       0.16922885 0.04696269 0.05262186 0.00864672
000030 e1 b4 ff bd 21 8a a9 bd c4 3a 64 bd a4 52 82 3c
       -0.12485672 -0.08278299 -0.055720106 0.015908547
000040 47 7d 31 be 78 ea c3 3c 9a 11 3e 3b 53 dd 77 bd
       -0.17332946 0.023915514 0.002900219 -0.060513806
000050 42 99 1e 3e 2f e0 09 3d a8 bb 6f be 1c 0b 37 3e
       0.1548815 0.033661064 -0.23411429 0.17875332
000060 18 78 c6 bd 09 3d 9a ba 19 fe 28 bd e8 f6 08 3e
       -0.09690875 -0.0011767457 -0.04125795 0.13375437
000070 ea e8 62 3c ff 46 2c 3d 3a 01 6f be 16 59 f2 3c
       0.013849476 0.042059895 -0.23340312 0.029583495
000080 c6 6a 39 3e 48 68 dd bd 7d cd b6 bd 03 4b af bd
       0.18107137 -0.10810906 -0.089259125 -0.08559229
000090 09 fc a0 3d 2d 55 b3 bd 13 0d ad bc 72 34 8d bc
       0.07860572 -0.0875648 -0.021124398 -0.017236922
0000a0 12 21 2d 3d 70 48 81 3d c7 17 b2 bc 3b 34 03 3c
       0.042267866 0.063126445 -0.021739854 0.008008058
0000b0 76 b5 82 3a f3 4c e6 3b 32 20 e1 bc 05 27 13 3e
       0.0009972292 0.007028216 -0.027481172 0.14370354
0000c0 7f 82 91 bc ec 43 e8 3a 73 2b 05 3d 21 3d 27 be
       -0.01776242 0.0017720438 0.03251214 -0.16331913
0000d0 f7 a0 1b 3e 58 92 c2 bc 07 f1 3c 3b 12 5f d5 3c
       0.15198122 -0.023751423 0.0028830187 0.02604631
0000e0 af 8c 8a 3d 51 9d 12 3c 61 45 20 3d 7b 91 f2 bd
       0.067651145 0.00894864 0.039128665 -0.118441544
0000f0 37 b4 49 3d 68 de 95 3d 90 6d 0f be 9d 10 b1 3d
       0.049244132 0.07317811 -0.14006639 0.08645747
000100 18 e9 4d be d8 56 6e bb e0 47 2f 3d 68 08 98 bd
       -0.2010845 -0.003636768 0.042793155 -0.07423478
000110 ef c5 fd 3d ec 47 8c bb 58 b6 ad 3c 12 c9 ea bd
       0.123912685 -0.0042810347 0.021205112 -0.11464132
000120 05 e6 be bd ff 1c 96 3b 5f 21 21 3e 90 a6 cb 3c
       -0.093212165 0.0045810933 0.15735386 0.024859697
000130 ef 18 de 3d 98 16 27 bd 85 30 0b 3e 96 fb 13 be
       0.108445995 -0.04079303 0.13592727 -0.14451441
000140 38 ad d1 3d e7 d8 ab bd 2d 75 3b bd 1a 5a f8 bd
       0.10238117 -0.0839098 -0.045766044 -0.121265605
000150 3c d1 e4 bd 80 f7 05 3d f9 33 42 3c be 92 0f 3d
       -0.11172721 0.032706738 0.011853212 0.035052054
000160 c8 4e 8e bd e4 34 06 3e c9 05 3f 3e 9c e1 77 bd
       -0.0694862 0.13106114 0.1865455 -0.060517892
000170 45 53 04 bb 9b 46 06 be fe cb 58 bb 3a 5d 08 3e
       -0.0020191234 -0.13112871 -0.0033080573 0.13316813
000180 da 01 03 3d 9a 24 b8 3c df 04 c4 3c fd ac fd 3d
       0.031984188 0.02247839 0.023928104 0.123865105
000190 b3 01 6a bd 71 e7 02 bd 65 1e f6 bd d1 45 b6 3d
       -0.057130527 -0.031959 -0.12017516 0.08900035
0001a0 ff 96 ea 3c 67 b5 a9 3c b6 44 30 bd 1a ab ae 3c
       0.028636454 0.020716382 -0.043034278 0.021321822
0001b0 a2 56 7a b9 72 53 d0 3b 66 d7 32 3d 29 76 5d bc
       -0.00023874131 0.0063576037 0.04366245 -0.013516941
0001c0 43 48 2d 3d f7 f0 a6 3d b6 cf 29 bb 42 ca 12 bd
       0.042305242 0.08151429 -0.002591116 -0.03583742
0001d0 f6 3f cf bc ad 0e 09 3d 03 84 71 bd 71 44 ef bd
       -0.025299054 0.03346126 -0.058963787 -0.11682976
0001e0 38 81 c6 3d c8 90 79 bd 18 ca fe bd 70 a3 98 3b
       0.09692615 -0.06092909 -0.1244089 0.004658155
0001f0 0d a6 bc bd 92 ef 41 3c cf 84 1f 3e b1 c8 15 3d
       -0.09211359 0.011836903 0.15578006 0.036568347
000200 01 85 e4 3d 7f 18 4d 3d 80 8b e8 3d 06 79 06 3e
       0.11158181 0.05007219 0.113547325 0.13132104
000210 e8 b9 0d 3d 14 d3 bf bc f9 24 e2 bd f9 9e d1 3d
       0.034601122 -0.02341608 -0.11042208 0.102354
000220 54 c5 ce 3d 43 bd 84 bd ee f6 51 be b5 3a 7b 3d
       0.10096231 -0.06481411 -0.20504352 0.061335284
000230 eb ed 98 bd 29 79 fc 3c 11 20 7d bd 21 8c d6 3c
       -0.07467254 0.030819492 -0.06179816 0.026189866
000240 07 f8 28 be 82 59 0e 3e ea d9 41 bd 5e e6 f3 3d
       -0.16500865 0.13901332 -0.04732696 0.119091734
000250 d8 17 3a be 0f 0a 72 3d 4c 09 f7 3c 18 96 b2 bd
       -0.18173158 0.059091624 0.0301558 -0.08720034
000260 b8 1c 26 3e b9 d2 4a bd 49 bd 1f ba 3e 7c 0d bc
       0.16221893 -0.049517367 -0.00060935743 -0.008635579
000270 f7 41 2b 3e 15 72 c8 3d 57 96 20 be 13 13 d5 3d
       0.16724382 0.097873844 -0.1568235 0.10404029
000280 aa 7c 24 bd f5 3f 2e 3d 71 d0 28 be b4 ed b8 3c
       -0.04015795 0.042541463 -0.16485764 0.022574283
000290 25 97 ae 3d 56 36 74 3b 41 c2 80 bd 6e 5d 2d bd
       0.08524922 0.0037263832 -0.06287051 -0.04232543
0002a0 e4 fe 9c bd 86 24 2a bd 9d 3b f1 3c 30 5d 25 bd
       -0.07665804 -0.041538738 0.029447371 -0.040372074
0002b0 1f 56 47 3d 94 f1 9a 3c 9c 81 3a 3d 79 4f a0 3d
       0.048666116 0.018914022 0.04553376 0.07827658
0002c0 84 7b 94 38 28 3d 31 bd 41 ec 0f 3d 2c 4d 25 bd
       7.0801965e-05 -0.043271214 0.03513742 -0.0403568
0002d0 94 1d 17 3d fd 66 65 3d 55 64 06 bc 61 b6 17 bd
       0.036893442 0.05600642 -0.008202632 -0.037039164
0002e0 1c e6 3a 3d 0a 05 26 bc 41 cc b4 3c bc 73 f8 bc
       0.045629606 -0.010133037 0.022070052 -0.030328624
0002f0 55 95 8f bd 71 c9 83 3c 2a 11 26 be 22 f8 9e bd
       -0.07010905 0.016087266 -0.16217485 -0.07762171
000300 5c 5e d3 bc 88 02 0a be 19 12 30 bd 70 b2 d6 bd
       -0.02580183 -0.13477528 -0.04298601 -0.10483253
000310 3b 26 eb 3c 0a 5b a2 3d cf f7 06 3d 93 49 9a 3d
       0.028704753 0.079275206 0.032951172 0.075335644
000320 b5 55 fb 3d 59 46 6e bd 25 a2 eb bc cd ff ba 3d
       0.12272207 -0.058172558 -0.02876384 0.091308214
000330 52 f4 c1 3d 58 58 ca 3d 80 33 80 3d dc 36 15 3d
       0.094704285 0.098801315 0.06259823 0.03642927
000340 4d a1 b7 bb 91 5c e7 bc 6a 8a ab bd f1 0b ae 3d
       -0.0056039453 -0.028242381 -0.0837601 0.084983714
000350 e6 36 52 be e3 0b 13 3e e8 eb 04 be 12 1a 84 3c
       -0.20528755 0.14360003 -0.12980616 0.016125713
000360 6d c8 af 3c 09 40 80 bc 96 9c 34 bd 28 34 bc 3d
       0.021457875 -0.015655534 -0.044094644 0.091896355
000370 76 98 12 be 54 c1 8d 3d 0a 45 63 3b 19 e6 d2 bd
       -0.14315972 0.0692164 0.0034678602 -0.10297794
000380 3e 68 e9 3d 8f 0e 0b 3d 90 a3 f1 bd 92 7c 16 bc
       0.11396836 0.03394943 -0.11798775 -0.009184973
000390 2d 78 10 3d 77 73 2a be 95 15 b7 bc 46 a8 d4 bd
       0.03527086 -0.16645609 -0.022349158 -0.10383658
0003a0 3d 27 18 bd 36 29 84 bc 44 d2 9b bd 0e e9 1c bd
       -0.037146796 -0.016132932 -0.07608464 -0.038308196
0003b0 0f 6d 7a bc d2 2e 84 bd 89 5c 32 3e b2 85 99 3d
       -0.015284791 -0.06454243 0.17418112 0.074962035
0003c0 45 7a cb 3d a6 18 40 bd 11 c4 d0 3d d2 c2 78 3d
       0.099354304 -0.046898507 0.10193647 0.06073267
0003d0 3f ad 32 bd 7e 42 24 bd ff 29 2e be c2 06 00 be
       -0.04362225 -0.040102474 -0.17008208 -0.12502578
0003e0 c3 fb 03 3e a7 e4 48 3d 38 43 19 bd 26 10 fb bb
       0.12889008 0.049046185 -0.03741762 -0.007661837
0003f0 dd 7d 8a 3c 9c 81 13 bc f2 69 10 bd 4d a2 1a 3e
       0.01690572 -0.009003069 -0.035257287 0.15100975

network_body._body_endoder.seq_layers.2.bias f4 [128]
000000 07 11 83 bb 1d 27 f0 ba f7 30 f8 ba b6 6d b6 ba
       -0.0039998326 -0.0018322204 -0.0018935491 -0.0013918194
000010 55 12 93 3a 86 d9 1f bb 02 4c c2 b9 cc a9 31 3b
       0.0011220673 -0.0024391129 -0.00037059194 0.0027109263
000020 74 cb 4f b8 c1 5e ae ba 32 54 3b b9 c6 d0 fa 3b
       -4.9542126e-05 -0.0013303385 -0.00017865075 0.0076542823
000030 82 2b a0 3b 7a 5e c4 39 ea 7e 63 3b b5 3e 4d 36
       0.004887999 0.00037454424 0.0034713098 3.058388e-06
000040 d5 8a ba bb 78 ff 60 b8 d5 3a 09 3c 9e 8d 3c b9
       -0.0056928196 -5.3643686e-05 0.008375843 -0.00017981834
000050 33 d6 01 3c 9d 29 8c 39 60 9a 35 bb 2c 02 c5 ba
       0.007924604 0.00026733885 -0.0027710423 -0.0015030554
000060 38 af d3 ba 84 29 d2 bb 2a 6f f9 ba 6a 4a 5c 3b
       -0.0016150242 -0.0064136405 -0.0019030322 0.003361369
000070 b0 05 7e bb 6c b7 92 bb 63 d8 35 38 bd 73 57 3b
       -0.0038760714 -0.004477432 4.335529e-05 0.0032875382
000080 d5 31 ce bb 96 67 09 3c 75 04 79 bb 71 e9 ba ba
       -0.0062925615 0.008386513 -0.0037997041 -0.0014260245
000090 f9 a1 a2 bb 7a 27 6c 3c 3d 3f cc 3a ee f3 df 39
       -0.0049631563 0.014413709 0.0015582811 0.00042715616
0000a0 36 68 87 bb ab a9 02 bb fb 84 32 38 c6 06 a7 bb
       -0.004132296 -0.0019937556 4.2562355e-05 -0.005097243
0000b0 94 79 fe 3a e7 05 84 ba bd f6 59 3a ab 45 2e 3c
       0.0019414895 -0.001007256 0.000831466 0.010636727
0000c0 2e 72 4c 3a ce 25 ca b9 ff 23 91 3b e9 89 01 3c
       0.00077989965 -0.0003855661 0.00442934 0.0079064155
0000d0 c8 a5 df ba d2 5a 56 3a c3 bd be 3b 67 81 7d bb
       -0.0017062956 0.00081769854 0.005820961 -0.0038681866
0000e0 7e e8 19 bb 3c 49 e4 39 02 a8 80 3b e3 9a 0d bb
       -0.0023484523 0.00043542113 0.003926278 -0.0021607212
0000f0 e2 dd e9 3a 51 28 dd 3a 42 74 00 bb 87 3f 90 3a
       0.0017842615 0.0016872977 -0.0019600545 0.0011005261
000100 28 95 94 3b 1a 7c 03 bb 2b f2 aa 3b 2e c7 1c 3c
       0.0045343824 -0.0020062984 0.005216857 0.0095689725
000110 a3 7b fc b9 46 a0 97 bb 5a 7e 63 3b 71 16 28 3b
       -0.00048157302 -0.0046272604 0.0034712763 0.0025648142
000120 c3 7c b9 3b 62 30 b7 ba 08 17 c3 ba df a7 65 3b
       0.0056606247 -0.0013976211 -0.0014884183 0.0035042686
000130 bb 4f 99 ba e4 8c 92 b9 4e b2 97 b9 12 d7 a7 3a
       -0.0011696735 -0.00027952262 -0.00028933812 0.0012805185
000140 c7 0d 96 bb 34 56 22 3c bc eb ab 3a 20 46 06 bb
       -0.004579279 0.009908248 0.0013116519 -0.0020488575
000150 fc c3 2f ba 2d 02 7e 3b 19 34 38 3b ae ce c5 ba
       -0.0006704924 0.003875862 0.0028107224 -0.0015091503
000160 e2 3a 7d ba 69 58 15 3c be db 56 b9 b9 c8 db bb
       -0.00096599583 0.009115317 -0.0002049049 -0.0067072776
000170 d4 71 68 b9 e7 b0 55 b9 ab 5e 34 3b 09 b3 61 3b
       -0.00022167648 -0.00020379164 0.0027522247 0.0034438989
000180 f2 83 c5 39 bb 8a a4 3b fc 01 2e bb c6 d0 d9 ba
       0.00037673075 0.005021421 -0.0026551476 -0.0016618005
000190 c8 49 6d ba ca 66 f8 ba e7 52 58 3c ca 63 1d bb
       -0.0009051827 -0.0018951532 0.013203359 -0.0024015778
0001a0 fb 27 8b 3b 2e 58 70 3b b4 cd 49 ba 2b dd 19 3c
       0.0042467094 0.0036673653 -0.00076981937 0.009391109
0001b0 70 c8 75 3b b4 1c ca 3b 85 07 40 ba ce 73 62 bb
       0.0037503503 0.0061679725 -0.0007325339 -0.0034553888
0001c0 6d d0 66 3b 4c 79 30 bb 4f 2c b0 39 fb cc 10 bb
       0.0035219446 -0.0026927767 0.00033602348 -0.0022094834
0001d0 82 5a 01 bb 5f 2a 9f ba 96 4f 3b bb 66 a8 6f 3b
       -0.0019737785 -0.0012143365 -0.0028581372 0.003656888
0001e0 ef f0 21 ba 72 94 62 3c d3 b0 1e 3a 1c 5c 3f bb
       -0.00061775645 0.013829337 0.00060535705 -0.0029199189
0001f0 4b 79 a6 3a 38 42 8f 3b 9f 82 b1 3b 00 54 b4 ba
       0.0012700943 0.0043719076 0.0054171826 -0.0013757944

action_model._continuous_distribution.log_sigma f4 [1, 2]
000000 08 e9 ef bc c0 7a 30 bd
       -0.029285923 -0.043085814

action_model._continuous_distribution.mu.weight f4 [2, 128]
000000 cf 3b 84 3a 2e 15 27 bb 57 15 f5 b9 ba 8f ff bc
       0.0010088625 -0.0025494802 -0.0004674594 -0.031196464
000010 d5 7e 8c bc 96 d7 b0 3c 80 5f 86 3c 45 39 22 bc
       -0.017150322 0.021587174 0.01640296 -0.009901349
000020 31 b0 5f bc 71 55 de bc 82 57 66 3a b7 25 76 3c
       -0.013652847 -0.027140351 0.00087868434 0.01502364
000030 e5 42 67 bd 26 53 87 3c a5 c6 3e 38 60 3f 60 3c
       -0.05646028 0.01651914 4.5484532e-05 0.013686985
000040 a9 72 c1 3c f7 bb 8a 3c 5e e6 fa 3c 77 a7 6d 3c
       0.023614245 0.016935332 0.030627426 0.014505259
000050 46 67 eb 3c 3e a5 7a 3c 6b 08 e7 bc c2 db 42 bc
       0.028735768 0.015298186 -0.028202256 -0.011893215
000060 62 a8 9a bc 3a 19 33 3c a6 73 86 bc ff 5c 3b 3c
       -0.01887912 0.010931307 -0.016412567 0.011435746
000070 4b e7 c4 3c 8c 85 4d bb 29 67 f5 bb 98 79 13 bc
       0.02403607 -0.0031360118 -0.0074891043 -0.009001158
000080 ed 92 07 3c 3d 96 53 3c fa 0b e0 3c 8f 0d c5 3c
       0.008274776 0.012914238 0.02734946 0.024054317
000090 76 b3 b1 3c 13 19 04 3d 1b 8a b5 3b 11 72 e1 3c
       0.021692019 0.032250475 0.005540145 0.027520211
0000a0 fe 19 85 3a 9e 94 ea bc f7 6b 1b bc 43 6e 24 3c
       0.0010154841 -0.02863532 -0.00948619 0.010036054
0000b0 32 42 eb 3c 97 20 86 bb be b2 f8 bc 79 84 02 3d
       0.028718088 -0.0040932405 -0.030358668 0.031864617
0000c0 d8 f2 d0 bb 9f d9 f1 bb fe 5d cc 3c 06 9f d9 3c
       -0.0063766055 -0.007380679 0.024947163 0.026565086
0000d0 7b aa 17 bc dd 8f 1c 3d 8a 93 46 bc 8b ac 07 3d
       -0.009256954 0.038223136 -0.012120137 0.033123534
0000e0 0c 46 28 3a 91 68 d9 3c f0 e5 11 bd 51 81 1e bc
       0.0006419129 0.026539119 -0.035619676 -0.009674386
0000f0 4b 62 d9 3c 49 f2 c2 3b 8e 93 71 bc f0 e4 a1 bc
       0.026536128 0.005949293 -0.014744652 -0.019762486
000100 38 63 d2 bc 31 c8 3f bc 91 22 47 3c 3f a0 33 3a
       -0.025682077 -0.011705444 0.012154237 0.00068521866
000110 c4 9c 67 bb 58 c9 d9 3b 62 92 9a 3c 93 01 91 3c
       -0.0035341242 0.0066463165 0.018868629 0.017700946
000120 6d 07 26 bd b5 de bc bc 71 5c a9 3c 60 6f 06 3c
       -0.040534426 -0.023055414 0.020673962 0.008205265
000130 c5 17 45 bc 86 7d dd 3c 35 30 eb bb f3 ee b2 bc
       -0.012029593 0.027037393 -0.0071773776 -0.021842455
000140 d0 9d 18 bb 11 52 84 ba f1 46 fb 3b fc 98 12 bc
       -0.0023287423 -0.0010095258 0.007668369 -0.008947607
000150 3c d6 64 3a 18 d9 ab bc 0e d9 28 3a 6e 0b 2d bb
       0.0008729433 -0.020977542 0.0006441035 -0.0026404518
000160 13 47 06 3d c2 8a 1d 3d 81 28 df 3b 91 ca 43 3b
       0.032782625 0.038462408 0.0068102484 0.0029875378
000170 05 ad 09 3c 1f 4a f4 bc e8 ec e8 3b 80 96 cc bc
       0.0084030675 -0.0298205 0.0071083196 -0.024974108
000180 46 49 07 3c 9b 56 b7 3b c1 c0 87 bc 64 ea 47 bc
       0.008257216 0.005595041 -0.016571404 -0.012201879
000190 62 0b 1b 3c 2e f1 55 bc 52 7f 95 3c 6d ad a7 bc
       0.009463163 -0.01305799 0.018249188 -0.020468438
0001a0 46 80 3a 3d 0a 8e 10 bc 9b 8a 36 3c 7c 2a 0d 3d
       0.045532487 -0.008822927 0.011141445 0.034464344
0001b0 ba 02 08 bb 05 b1 b7 3c 86 16 34 bb 1f fe 71 3c
       -0.0020753578 0.022423277 -0.0027479245 0.01477006
0001c0 13 24 1d 3d aa 6a b9 bc 47 12 f1 3c 65 16 8e 3c
       0.03836448 -0.02263387 0.02942766 0.017344663
0001d0 d6 03 4e bc 44 7c 69 bc 5b e1 f7 bb 09 92 34 3c
       -0.012574157 -0.014250819 -0.0075647063 0.011021146
0001e0 fb 34 25 3c d9 79 40 3d 1c 7f c5 3c f8 0e a6 bc
       0.010083432 0.046991203 0.024108462 -0.02027081
0001f0 48 93 21 3c e5 b6 0b bb da 9a a4 3c b5 79 d4 bc
       0.009861775 -0.002131873 0.02009337 -0.02593694
000200 24 08 80 b8 dd 2e 9b 3c c8 04 00 3c 65 b6 72 bb
       -6.105032e-05 0.018943245 0.00781364 -0.0037034985
000210 b4 e3 21 3d b4 a3 2a bd 06 21 27 3c d1 7f ff 3c
       0.039523795 -0.041660026 0.0102007445 0.031188877
000220 50 35 4b bc 51 2e df 3b 38 01 47 bd 8d 5b 0b bd
       -0.012402847 0.0068109413 -0.048585147 -0.034022857
000230 5c dd 30 3d 12 10 5e bc 83 23 b7 3c c9 4e 2c 3c
       0.043179855 -0.013553636 0.0223558 0.010516831
000240 27 41 6b bb 34 61 85 ba 7f 16 ac 3c 40 8c 4e bc
       -0.0035896988 -0.0010176064 0.02100682 -0.01260668
000250 11 15 95 3c 3f 79 aa bb b4 02 ce 3b 6c 6a 3f 3c
       0.018198522 -0.005202442 0.0062869433 0.011683088
000260 85 5c b9 3a 7b 3b c8 3a b8 04 72 3c 17 4d 8d 3c
       0.0014141953 0.0015276516 0.014771633 0.017248673
000270 d7 af 64 3c b5 9f 75 3b a2 16 e4 bc 01 0e 87 bb
       0.013957939 0.0037479226 -0.027842823 -0.0041215424
000280 00 2c 77 39 ba 8c 76 3d 3c 42 27 3c 9c 99 66 3d
       0.00023572147 0.0601928 0.010208663 0.056298837
000290 d4 7b da bc 92 e2 b1 3c a8 7d f2 bc a4 d0 79 bc
       -0.026670374 0.021714482 -0.029600933 -0.015247498
0002a0 d4 9b 23 3b 2b 11 07 bc da b1 2d 3c 9d 78 55 bb
       0.0024964707 -0.008243839 0.010601485 -0.0032573112
0002b0 c0 05 3a bc 29 77 24 bc 20 a1 90 bc d4 f9 3f 3d
       -0.01135391 -0.010038176 -0.017654955 0.046869114
0002c0 aa da f5 bc c4 32 d4 bc 90 74 56 3c c6 c0 25 3c
       -0.030011494 -0.025903113 0.013089314 0.010116762
0002d0 9a 89 ca bb 1d e8 08 3b 4b 11 9c 3c b4 e0 82 bb
       -0.006180954 0.0020890303 0.019051215 -0.003994072
0002e0 e2 97 86 bb d2 f0 7a 3c b3 c6 4b 3c bd 07 45 3c
       -0.0041074613 0.015316205 0.01243751 0.012025771
0002f0 d5 05 9b bc a7 05 84 3c f5 63 47 3c e7 e6 08 bc
       -0.01892368 0.016115976 0.012169828 -0.008355833
000300 8c f1 7c bc 0e a8 62 3c 25 37 92 3c d6 f7 18 bd
       -0.015438449 0.013834013 0.01784856 -0.03734573
000310 f1 1f 55 3d dd 7d 80 bb 5d 42 b8 3b 6a 32 db 3c
       0.052032415 -0.003921254 0.0056231455 0.026757438
000320 af 9f 50 bd ac 18 71 bb 75 0f d5 38 f8 6c 59 3d
       -0.050933536 -0.0036788387 0.000101595106 0.053082436
000330 26 ae ee 3c a5 ee 0d bc 5a 3c 3d 3c a9 f5 f1 bb
       0.029135775 -0.008662854 0.011550033 -0.0073840213
000340 05 9a d0 bb 5f 1a bc bc cb 69 3c bd c0 8a b6 3a
       -0.006366017 -0.022961793 -0.04599933 0.0013926849
000350 f8 a4 44 bc e5 0d d4 bc aa d7 9e 3c 8c b2 30 3c
       -0.012002222 -0.025885532 0.019389946 0.010784756
000360 5c 07 c1 3b c0 2c 90 bc f8 7e 6e bc c8 7e 0b b9
       0.00589077 -0.017599463 -0.014556639 -0.00013303303
000370 fc d4 be 3b f2 df 06 bd a5 fd 39 bc 0e a3 68 3c
       0.0058237296 -0.032928415 -0.0113519775 0.0141990315
000380 d6 1e 99 bc b1 56 1b 3d 16 b2 61 bb b0 89 53 bb
       -0.018691462 0.037924472 -0.0034438423 -0.0032278113
000390 12 11 43 3b 3e 9a ab 3b b1 5e f1 bc 29 55 e3 3a
       0.0029764813 0.005236893 -0.029464098 0.0017344105
0003a0 ea 54 be 3c ab bc cd 3c 7c 77 d5 3c 6b b5 93 3c
       0.02323385 0.025114378 0.026057951 0.018030843
0003b0 f8 13 e7 3c 17 e9 0a 3c 11 8d 65 bc a6 3b 05 bb
       0.028207764 0.0084784245 -0.014010684 -0.0020329743
0003c0 a8 7e 20 3d a6 b2 0b 3c e9 10 fe bb a2 5c 4d 3c
       0.03918329 0.00852648 -0.0077534807 0.012534292
0003d0 fb a4 70 bb ec af 66 bb f1 e4 b9 3b be ab e1 bc
       -0.003671943 -0.0035200072 0.005673044 -0.027547713
0003e0 0b 4b 46 3c d4 65 e0 bc 3a e0 cd 3b 42 ef dc 3c
       0.012102853 -0.027392305 0.0062828334 0.026969556
0003f0 a8 19 81 3c a6 19 d4 3c ba 0d 26 3d 5d c2 6b 3c
       0.015759304 0.025891136 0.040540434 0.014389602

action_model._continuous_distribution.mu.bias f4 [2]
000000 7b 3a 54 3a ea bd 70 b9
       0.00080958725 -0.00022958932

exp_avg f4 [128, 6]
000000 c5 fe 8e b6 c7 85 ee 36 1e 10 0d b7 77 5e 9f 36
       -4.261589e-06 7.1085265e-06 -8.4080075e-06 4.7495664e-06
000010 c7 85 ee 36 db f0 d3 b6 5a c0 49 b6 64 4f 97 37
       7.1085265e-06 -6.3163293e-06 -3.0063297e-06 1.8037572e-05
000020 60 be 58 b7 0d 32 4a 37 64 4f 97 37 8b 72 86 b7
       -1.2918928e-05 1.2051792e-05 1.8037572e-05 -1.6027383e-05
000030 b3 5f 08 b8 82 af 9b 39 37 74 93 b9 e3 0a 50 39
       -3.2514054e-05 0.00029694667 -0.00028124612 0.00019840481
000040 82 af 9b 39 d6 55 8a b9 b3 ea 9b b9 32 aa 79 ba
       0.00029694667 -0.00026385364 -0.00029738768 -0.0009523957
000050 82 11 1e 3a 36 d0 26 ba 32 aa 79 ba 4d d7 5d 3a
       0.00060298305 -0.00063634233 -0.0009523957 0.0008462563
000060 d9 a9 8f 38 49 db 48 b4 ea b9 af b8 ca 47 06 b4
       6.850408e-05 -1.8706227e-07 -8.3792795e-05 -1.2505839e-07
000070 49 db 48 b4 c9 ac 32 34 49 eb 3a b6 2f d3 8a 37
       -1.8706227e-07 1.66404e-07 -2.7853114e-06 1.6549222e-05
000080 37 98 b5 b7 f1 82 39 37 2f d3 8a 37 1e b5 76 b7
       -2.1647762e-05 1.10573465e-05 1.6549222e-05 -1.4704912e-05
000090 f8 f1 01 36 3c 4d d5 b7 3e 61 b0 37 71 84 8e b7
       1.9363342e-06 -2.5427544e-05 2.1026117e-05 -1.6989392e-05
0000a0 3c 4d d5 b7 c0 87 bd 37 c7 d6 52 b8 db a1 9b 37
       -2.5427544e-05 2.259377e-05 -5.026793e-05 1.855281e-05
0000b0 5e 56 cd b7 84 f8 4f 37 db a1 9b 37 a0 49 8a b7
       -2.4478122e-05 1.23960235e-05 1.855281e-05 -1.6485166e-05
0000c0 15 37 58 b2 ee 7a 06 33 bc ad 71 b2 a8 b4 b3 32
       -1.2585379e-08 3.131111e-08 -1.4067549e-08 2.0920496e-08
0000d0 ee 7a 06 33 73 fc ee b2 3e 85 aa 37 d4 fe 9c b7
       3.131111e-08 -2.7821647e-08 2.0327625e-05 -1.8715313e-05
0000e0 d2 5f 7a 37 ec ca 51 b7 d4 fe 9c b7 c3 7f 8b 37
       1.4923471e-05 -1.2504617e-05 -1.8715313e-05 1.6629585e-05
0000f0 de da 22 b9 80 05 b4 b8 59 2c 9e 38 1d 90 70 b8
       -0.00015531058 -8.584093e-05 7.5422875e-05 -5.7354675e-05
000100 80 05 b4 b8 8c f5 9f 38 08 29 54 36 2c 29 85 36
       -8.584093e-05 7.6274475e-05 3.1614345e-06 3.968502e-06
000110 f9 6a ce b6 62 f1 31 36 2c 29 85 36 2b a4 6c b6
       -6.1517317e-06 2.6515559e-06 3.968502e-06 -3.5262299e-06
000120 c4 2c 54 b9 af dd fe b8 45 38 fc 36 c2 49 aa b8
       -0.00020234572 -0.000121529556 7.516736e-06 -8.11997e-05
000130 af dd fe b8 7e 76 e2 38 e8 15 fb b8 0d a6 86 b9
       -0.000121529556 0.00010798591 -0.00011972693 -0.0002568219
000140 60 a8 a5 39 43 ee 33 b9 0d a6 86 b9 11 49 6f 39
       0.00031596702 -0.0001715953 -0.0002568219 0.00022820036
000150 60 81 05 37 16 67 86 36 e9 78 aa b6 3c 9a 33 36
       7.95754e-06 4.005512e-06 -5.0804706e-06 2.6762855e-06
000160 16 67 86 36 3a d9 6e b6 78 e7 67 b7 f2 32 43 38
       4.005512e-06 -3.5591206e-06 -1.3822566e-05 4.653907e-05
000170 5e a2 d5 37 03 6c 02 38 f2 32 43 38 f5 71 2d b8
       2.5467187e-05 3.109501e-05 4.653907e-05 -4.1352545e-05
000180 62 0a 09 ba 0f 81 27 3a da 68 e4 b9 e6 d5 df 39
       -0.00052276824 0.00063897757 -0.0004356567 0.0004269324
000190 0f 81 27 3a 2d d6 14 ba c1 73 d6 b8 35 87 c6 b9
       0.00063897757 -0.00056776666 -0.00010225876 -0.0003786624
0001a0 91 b4 bb 39 81 a5 84 b9 35 87 c6 b9 41 67 b0 39
       0.00035801952 -0.00025300312 -0.0003786624 0.00033646266
0001b0 e4 fc 3b 38 63 d4 9f 39 5b 03 a8 b9 8c 94 55 39
       4.4819797e-05 0.00030485084 -0.00032045957 0.00020368601
0001c0 63 d4 9f 39 7f 04 8e b9 13 ed a3 31 93 0f b9 b2
       0.00030485084 -0.000270877 4.7708766e-09 -2.1543917e-08
0001d0 72 da 8c 32 e5 4b 77 b2 93 0f b9 b2 d0 6f a4 32
       1.6397482e-08 -1.4394549e-08 -2.1543917e-08 1.914296e-08
0001e0 e5 bc 80 39 01 3e c7 b9 a2 df 7d 39 9d 1f 85 b9
       0.000245548 -0.00038002434 0.0002421127 -0.0002539129
0001f0 01 3e c7 b9 a2 09 b1 39 e9 cf 8e 37 cc a4 8e b5
       -0.00038002434 0.00033767248 1.7024535e-05 -1.0627787e-06
000200 4e df 2c b6 43 9d 3e b5 cc a4 8e b5 54 7e 7d 35
       -2.5759978e-06 -7.100936e-07 -1.0627787e-06 9.4433676e-07
000210 45 b1 9c b7 50 1e 36 b9 aa 87 de 38 54 5d f3 b8
       -1.8679197e-05 -0.00017368165 0.00010611054 -0.00011604527
000220 50 1e 36 b9 82 d2 21 39 68 ed 1b 39 d2 bc 05 ba
       -0.00017368165 0.00015432577 0.00014870393 -0.0005101684
000230 89 d2 0e 3a 9f b6 b2 b9 d2 bc 05 ba 99 aa ed 39
       0.00054482423 -0.0003408687 -0.0005101684 0.00045331268
000240 1c 26 1c b7 63 0f c4 36 02 5e f8 b6 53 ff 82 36
       -9.307198e-06 5.8430464e-06 -7.40192e-06 3.9040256e-06
000250 63 0f c4 36 cd 35 ae b6 75 90 75 39 34 c7 d9 b9
       5.8430464e-06 -5.1918673e-06 0.00023418835 -0.00041537883
000260 ae 54 e2 39 1e 82 91 b9 34 c7 d9 b9 fc 81 c1 39
       0.0004316917 -0.000277535 -0.00041537883 0.00036908675
000270 33 4e 2f b9 cc e9 3b b9 4d f9 9e 39 ac 1b fb b8
       -0.00016718432 -0.00017920806 0.00030321852 -0.00011973767
000280 cc e9 3b b9 9d f8 26 39 38 30 02 b7 99 94 30 37
       -0.00017920806 0.0001592361 -7.759831e-06 1.0525016e-05
000290 89 3b 8f b8 9b f7 eb 36 99 94 30 37 5a e7 1c b7
       -6.829861e-05 7.032371e-06 1.0525016e-05 -9.35219e-06
0002a0 c9 85 85 39 ce ab a4 b9 16 88 3a 39 b9 0c 5c b9
       0.00025467415 -0.00031408522 0.00017789038 -0.00020985575
0002b0 ce ab a4 b9 bf 51 92 39 4e ee 96 b9 bc 7a 29 3a
       -0.00031408522 0.00027908196 -0.0002878778 0.0006465127
0002c0 26 e0 02 ba a2 79 e2 39 bc 7a 29 3a 88 97 16 ba
       -0.0004992507 0.00043196703 0.0006465127 -0.0005744626
0002d0 e1 4f a3 b8 bf d1 8b b9 da 07 c9 39 15 d7 3a b9
       -7.787324e-05 -0.0002666842 0.00038343557 -0.00017818467
0002e0 bf d1 8b b9 72 79 78 39 2d cc 89 37 01 0b e9 38
       -0.0002666842 0.00023696365 1.642675e-05 0.000111123554
0002f0 ad 42 fb b8 26 b5 9b 38 01 0b e9 38 5a 12 cf b8
       -0.00011981032 7.4247175e-05 0.000111123554 -9.8739474e-05
000300 07 74 75 37 10 4e fb b8 41 49 bb 38 c2 e8 a7 b8
       1.4630153e-05 -0.00011983153 8.9304995e-05 -8.006535e-05
000310 10 4e fb b8 5f 4c df 38 38 68 cb b2 8a bb 53 33
       -0.00011983153 0.00010647694 -2.3679704e-08 4.929783e-08
000320 5e fb 4c b2 0e 78 0d 33 8a bb 53 33 d7 22 3c b3
       -1.1931517e-08 3.293831e-08 4.929783e-08 -4.3803848e-08
000330 cb 11 c4 b6 dd 66 7f 38 99 62 33 b8 82 a5 2a 38
       -5.8433266e-06 6.0892537e-05 -4.2768752e-05 4.06853e-05
000340 dd 66 7f 38 47 f0 62 b8 3f 4e 50 34 98 67 6e 35
       6.0892537e-05 -5.4106375e-05 1.9399975e-07 8.881266e-07
000350 cf d2 84 b5 4b 4a 1f 35 98 67 6e 35 f1 d5 53 b5
       -9.89612e-07 5.9340226e-07 8.881266e-07 -7.891495e-07
000360 3e d7 f9 b9 01 7b 71 3a 09 64 35 ba 4e 58 21 3a
       -0.0004765335 0.00092117494 -0.00069195085 0.0006154821
000370 01 7b 71 3a 9e 91 56 ba af 42 4d b9 a3 91 74 39
       0.00092117494 -0.0008185151 -0.00019575165 0.00023323907
000380 c6 ab c9 b8 95 68 23 39 a3 91 74 39 1a 50 59 b9
       -9.616422e-05 0.00015583851 0.00023323907 -0.00020724573
000390 44 7a 84 b5 4d 26 86 33 2e 87 8d b5 b5 43 33 33
       -9.87035e-07 6.246828e-08 -1.0544661e-06 4.1738264e-08
0003a0 4d 26 86 33 5a 65 6e b3 28 d8 26 b7 2e 92 90 b7
       6.246828e-08 -5.5505872e-08 -9.944699e-06 -1.7234208e-05
0003b0 df d5 81 37 9c 30 41 b7 2e 92 90 b7 96 75 80 37
       1.547759e-05 -1.1515014e-05 -1.7234208e-05 1.5313544e-05
0003c0 a3 cb 4f b7 59 84 e3 37 fd cf de b7 ee 03 98 37
       -1.2385574e-05 2.7122138e-05 -2.6561314e-05 1.8121642e-05
0003d0 59 84 e3 37 54 29 ca b7 f4 ba 0e b6 ed 83 70 37
       2.7122138e-05 -2.4099521e-05 -2.126847e-06 1.4335831e-05
0003e0 47 15 29 b7 38 b3 20 37 ed 83 70 37 0a b6 55 b7
       -1.0078139e-05 9.578471e-06 1.4335831e-05 -1.2738174e-05
0003f0 1a 11 05 ba b8 d9 a9 b9 b5 19 d9 37 b0 f8 62 b9
       -0.00050760957 -0.00032396405 2.5880387e-05 -0.00021645683

exp_avg_sq f4 [128, 6]
000000 14 67 d6 30 c2 f9 8a 32 1f 29 f8 31 eb 2a f8 31
       1.5599846e-09 1.6178891e-08 7.222425e-09 7.222629e-09
000010 c2 f9 8a 32 64 73 5b 32 14 d6 b6 30 29 b4 56 32
       1.6178891e-08 1.27737145e-08 1.3303088e-09 1.2497403e-08
000020 f3 64 07 32 8e b2 bf 31 29 b4 56 32 e5 83 29 32
       7.880987e-09 5.579131e-09 1.2497403e-08 9.867084e-09
000030 a7 8a 1d 34 cd f9 87 36 21 e4 ca 35 a9 cf f2 35
       1.4672206e-07 4.052394e-06 1.5116567e-06 1.8090842e-06
000040 cd f9 87 36 d4 b6 56 36 b8 d6 14 33 4e c3 aa 35
       4.052394e-06 3.1994905e-06 3.465422e-08 1.2722828e-06
000050 03 d5 ff 34 10 77 18 35 4e c3 aa 35 8e d2 86 35
       4.7652438e-07 5.679767e-07 1.2722828e-06 1.0045057e-06
000060 84 e9 2e 35 a7 31 fc 36 bf 59 83 36 ac 2b 61 36
       6.515986e-07 7.5159655e-06 3.914552e-06 3.3553033e-06
000070 a7 31 fc 36 67 1d c7 36 3a ca 0e 32 51 b9 d0 33
       7.5159655e-06 5.934085e-06 8.311469e-09 9.7194636e-08
000080 e8 e3 49 33 c3 5b 3a 33 51 b9 d0 33 3d cb a4 33
       4.700624e-08 4.3389957e-08 9.7194636e-08 7.673814e-08
000090 35 96 d3 2f ff de 38 32 8e 68 a5 31 bd 0f a5 31
       3.8487405e-10 1.0760913e-08 4.8140185e-09 4.8039213e-09
0000a0 ff de 38 32 1c f6 11 32 5c f3 70 31 47 72 22 34
       1.0760913e-08 8.49607e-09 3.506293e-09 1.5129e-07
0000b0 9f 71 6b 33 27 0a 91 33 47 72 22 34 9c 41 00 34
       5.481854e-08 6.7539354e-08 1.5129e-07 1.1944798e-07
0000c0 2a 13 e2 25 9d c5 88 27 5c 10 34 26 96 3b f4 26
       3.9217737e-16 3.7961836e-15 6.2472216e-16 1.6947052e-15
0000d0 9d c5 88 27 a3 f8 57 27 7b 8a 8c 31 e3 e6 52 33
       3.7961836e-15 2.997203e-15 4.0902797e-09 4.9104425e-08
0000e0 58 a1 d9 32 84 4d bc 32 e3 e6 52 33 70 83 26 33
       2.5335495e-08 2.192133e-08 4.9104425e-08 3.876943e-08
0000f0 43 17 58 33 4f 90 6e 35 cf 8c bd 34 2d 00 d5 34
       5.0312575e-08 8.8871906e-07 3.5306445e-07 3.967447e-07
000100 4f 90 6e 35 74 5a 3c 35 25 45 90 30 59 c9 4b 32
       8.8871906e-07 7.0167084e-07 1.0497031e-09 1.1861936e-08
000110 19 71 ce 31 40 f3 b5 31 59 c9 4b 32 47 e5 20 32
       6.008247e-09 5.2954476e-09 1.1861936e-08 9.365357e-09
000120 1f e2 5b 34 13 ef af 36 7b f6 ae 35 fd 14 1d 36
       2.0478227e-07 5.2432383e-06 1.3035745e-06 2.340704e-06
000130 13 ef af 36 b4 e7 8a 36 06 a9 f8 33 01 38 92 36
       5.2432383e-06 4.1396943e-06 1.1579145e-07 4.357659e-06
000140 71 f9 e5 35 0d 8d 02 36 01 38 92 36 72 e3 66 36
       1.7134427e-06 1.9453612e-06 4.357659e-06 3.4405061e-06
000150 5f 9d 91 30 a1 68 3d 32 ca 55 e8 31 ff 1c a9 31
       1.0594866e-09 1.1025038e-08 6.7618418e-09 4.921844e-09
000160 a1 68 3d 32 48 8b 15 32 52 97 b1 32 11 42 1e 34
       1.1025038e-08 8.70461e-09 2.0674324e-08 1.4738931e-07
000170 0f 14 2a 33 dd 4c 8d 33 11 42 1e 34 30 e6 f9 33
       3.9599453e-08 6.5798055e-08 1.4738931e-07 1.1636837e-07
000180 12 6b eb 35 64 0f c2 37 ed 01 26 37 17 44 2d 37
       1.7540026e-06 2.3133769e-05 9.894819e-06 1.0327457e-05
000190 64 0f c2 37 5a 37 99 37 d8 ca f4 33 e2 a3 59 36
       2.3133769e-05 1.8264796e-05 1.13990325e-07 3.2430912e-06
0001a0 39 0b d1 35 c3 51 c2 35 e2 a3 59 36 5e d5 2b 36
       1.557498e-06 1.4477922e-06 3.2430912e-06 2.5605182e-06
0001b0 f6 39 2f 35 1c 51 43 37 f3 b1 a5 36 60 63 ae 36
       6.5276924e-07 1.16417905e-05 4.938099e-06 5.197173e-06
0001c0 1c 51 43 37 69 35 1a 37 4c 65 ba 27 cc b6 4b 29
       1.16417905e-05 9.191551e-06 5.1735197e-15 4.5233606e-14
0001d0 2d a8 c0 28 ab e2 b5 28 cc b6 4b 29 9c d6 20 29
       2.1389217e-14 2.0193338e-14 4.5233606e-14 3.571328e-14
0001e0 ab 0b d4 33 f6 98 11 36 de 95 73 35 0c ff 81 35
       9.874142e-08 2.1695719e-06 9.074264e-07 9.685477e-07
0001f0 f6 98 11 36 42 e8 e5 35 f3 1e cc 31 bf 9b 60 33
       2.1695719e-06 1.7129425e-06 5.9407e-09 5.2295714e-08
000200 5f 00 1d 33 7b 8a c8 32 bf 9b 60 33 c4 55 31 33
       3.655475e-08 2.3346038e-08 5.2295714e-08 4.1289027e-08
000210 27 01 bd 2f 3f cd 25 32 87 f5 88 31 1c 09 94 31
       3.4379719e-10 9.650932e-09 3.986034e-09 4.3084025e-09
000220 3f cd 25 32 d5 e7 02 32 c0 7d ff 34 d6 19 63 37
       9.650932e-09 7.619708e-09 4.7588946e-07 1.353627e-05
000230 75 e1 b4 36 2c c4 ca 36 d6 19 63 37 92 4d 33 37
       5.3906647e-06 6.0429065e-06 1.353627e-05 1.0687292e-05
000240 18 4a 5b 2f 6f 5c fc 31 33 36 32 31 d4 51 61 31
       1.9944257e-10 7.3446738e-09 2.5933218e-09 3.2788323e-09
000250 6f 5c fc 31 29 3f c7 31 76 5e 8e 35 86 6d a9 37
       7.3446738e-09 5.7988427e-09 1.0607316e-06 2.019737e-05
000260 5f 63 10 37 ee 45 17 37 86 6d a9 37 b2 c4 85 37
       8.6062055e-06 9.016583e-06 2.019737e-05 1.5946429e-05
000270 c3 21 a1 34 ea d6 e5 36 62 bc 50 36 13 36 4d 36
       3.0013152e-07 6.849751e-06 3.1104069e-06 3.0578856e-06
000280 ea d6 e5 36 0f 77 b5 36 7e 57 2a 34 7c 90 40 36
       6.849751e-06 5.4080806e-06 1.5864313e-07 2.869433e-06
000290 d6 b6 81 35 38 ee ab 35 7c 90 40 36 11 09 18 36
       9.664461e-07 1.2809824e-06 2.869433e-06 2.2655042e-06
0002a0 aa 26 e3 34 b7 12 a9 36 1a 41 06 36 d2 f4 16 36
       4.2310177e-07 5.038771e-06 2.000545e-06 2.2494246e-06
0002b0 b7 12 a9 36 09 7d 85 36 66 2e 44 35 43 af 35 37
       5.038771e-06 3.978265e-06 7.308321e-07 1.0829247e-05
0002c0 2c 54 9a 36 6c 37 a2 36 43 af 35 37 10 72 0f 37
       4.5993565e-06 4.834428e-06 1.0829247e-05 8.550021e-06
0002d0 12 b9 bb 34 63 52 2d 37 2e 78 84 36 f0 bf 9a 36
       3.496612e-07 1.0330786e-05 3.9478973e-06 4.611902e-06
0002e0 63 52 2d 37 ca d7 08 37 a2 9b a5 34 4f 51 57 36
       1.0330786e-05 8.156474e-06 3.0846883e-07 3.2084824e-06
0002f0 47 54 dc 35 e2 3e c0 35 4f 51 57 36 f7 ff 29 36
       1.6415805e-06 1.4323416e-06 3.2084824e-06 2.5331954e-06
000300 ec 9c 79 30 42 ae 0b 33 24 b6 7f 32 50 6d 79 32
       9.080867e-10 3.2521946e-08 1.48843675e-08 1.4518562e-08
000310 42 ae 0b 33 7d 90 dc 32 24 4f 76 27 3b 38 a5 28
       3.2521946e-08 2.5677076e-08 3.418226e-15 1.8343066e-14
000320 c5 ac 95 27 08 84 13 28 3b 38 a5 28 29 72 82 28
       4.1543125e-15 8.188769e-15 1.8343066e-14 1.4482408e-14
000330 32 c7 1c 30 39 96 af 32 76 a5 fa 31 a5 c5 1c 32
       5.7035543e-10 2.0440995e-08 7.2947683e-09 9.125334e-09
000340 39 96 af 32 95 a1 8a 32 86 9e 49 2e 2c 56 ed 2f
       2.0440995e-08 1.6138793e-08 4.5842906e-11 4.3171278e-10
000350 e2 47 7c 2f c1 e7 53 2f 2c 56 ed 2f 7b 62 bb 2f
       2.2944804e-10 1.9272674e-10 4.3171278e-10 3.4085076e-10
000360 de f8 f5 35 35 85 ee 37 8c 02 4f 37 45 f6 54 37
       1.8326352e-06 2.843384e-05 1.23387545e-05 1.2693524e-05
000370 35 85 ee 37 af 51 bc 37 8f 4c f9 34 29 09 94 36
       2.843384e-05 2.2449383e-05 4.6435568e-07 4.41181e-06
000380 14 86 0d 36 55 2c 04 36 29 09 94 36 e4 c1 69 36
       2.108868e-06 1.9695337e-06 4.41181e-06 3.4832565e-06
000390 1b fb fc 2c 22 8e a1 2f e1 b6 ed 2e 72 3e 10 2f
       7.190149e-12 2.938672e-10 1.0809998e-10 1.3118909e-10
0003a0 22 8e a1 2f 07 1b 7f 2f a4 ae ec 2f 1c b2 29 32
       2.938672e-10 2.3201717e-10 4.305224e-10 9.877592e-09
0003b0 67 cf 79 31 33 83 97 31 1c b2 29 32 e1 fa 05 32
       3.6352164e-09 4.409594e-09 9.877592e-09 7.798662e-09
0003c0 da be 2b 31 bb 2a 32 33 e5 34 97 32 67 13 9f 32
       2.4992262e-09 4.1482718e-08 1.7602767e-08 1.851886e-08
0003d0 bb 2a 32 33 10 ab 0c 33 9d 63 31 31 98 6b b3 32
       4.1482718e-08 3.275187e-08 2.5813514e-09 2.088727e-08
0003e0 e9 29 4a 32 d9 31 20 32 98 6b b3 32 61 a8 8d 32
       1.1767477e-08 9.32456e-09 2.088727e-08 1.649113e-08
0003f0 d9 bb 75 34 49 ce 40 37 b3 11 5b 36 61 25 ac 36
       2.2885742e-07 1.1492121e-05 3.2643845e-06 5.130351e-06

exp_avg f4 [128]
000000 9c 41 84 35 0f cc 27 36 40 a6 2c 38 2f 6f 0a b9
       9.853861e-07 2.5003717e-06 4.1162828e-05 -0.00013202125
000010 95 ee de b2 91 f3 19 36 10 8b 6c b6 0d 97 2c 36
       -2.5952696e-08 2.294055e-06 -3.5247685e-06 2.571792e-06
000020 20 22 95 31 0d 1a 2e b6 18 a3 47 b7 a4 ab 13 35
       4.3403503e-09 -2.5943184e-06 -1.18992975e-05 5.501154e-07
000030 7f 51 8d b7 f1 51 15 b8 30 0c 15 35 dc 77 d8 36
       -1.684646e-05 -3.5600682e-05 5.552456e-07 6.451255e-06
000040 73 c1 b9 38 f8 28 5c b8 af 3e 31 38 ad 39 4d b1
       8.85752e-05 -5.2490243e-05 4.2258467e-05 -2.986421e-09
000050 aa f3 5c b8 a9 2f 1e b4 58 f6 c9 b7 5a 4f 94 b8
       -5.2679017e-05 -1.4732235e-07 -2.407578e-05 -7.07197e-05
000060 55 6c 59 35 f0 81 71 b8 80 63 d0 b7 82 d1 c3 35
       8.0996443e-07 -5.757989e-05 -2.4841866e-05 1.4589607e-06
000070 1d 9d 36 b8 3b f2 bb 38 d6 0d 1b b8 c5 37 81 37
       -4.3538505e-05 8.961974e-05 -3.6967765e-05 1.5403968e-05
000080 ff 57 8b b7 a0 cd ea 31 88 9d 0d 37 db 30 04 34
       -1.6611068e-05 6.833673e-09 8.440933e-06 1.2311232e-07
000090 71 e5 05 39 d7 9b 07 38 49 c5 14 32 d7 52 20 b6
       0.00012769342 3.2331645e-05 8.659591e-09 -2.3890077e-06
0000a0 b4 4e 7c 36 71 5c 05 36 93 5b 3c b8 70 b6 ff 36
       3.7596737e-06 1.9872352e-06 -4.4907978e-05 7.6208307e-06
0000b0 6d 87 b6 37 0f d2 80 38 90 20 99 b8 c9 51 d3 b7
       2.1759153e-05 6.142642e-05 -7.301674e-05 -2.5191244e-05
0000c0 88 17 99 b7 b7 e9 63 36 99 78 90 33 18 9b fc b4
       -1.8249979e-05 3.3961676e-06 6.727459e-08 -4.7051503e-07
0000d0 e0 a3 47 38 db 6f de 35 0a 4d f1 37 da 04 0b b8
       4.7597918e-05 1.6572843e-06 2.8765313e-05 -3.31447e-05
0000e0 d7 9e a7 b7 ff 45 92 37 2b 2b 91 b7 19 97 6f 37
       -1.9981917e-05 1.743715e-05 -1.7305449e-05 1.428069e-05
0000f0 41 84 cb b8 de f6 d2 37 53 03 04 37 0a b6 c4 b7
       -9.7044285e-05 2.5148907e-05 7.868587e-06 -2.344979e-05
000100 6c af 81 38 37 26 35 b7 54 f0 6f b8 6a fa b7 b7
       6.183874e-05 -1.0797338e-05 -5.7205863e-05 -2.1931908e-05
000110 88 ff 8f b8 f0 f2 f0 b6 fa 6d 32 b9 87 81 d5 b8
       -6.866368e-05 -7.180839e-06 -0.00017016372 -0.00010180758
000120 96 1f 2c 38 77 6b 81 38 e1 1c 93 36 df aa 3c 38
       4.1037412e-05 6.171216e-05 4.3843033e-06 4.498183e-05
000130 dc 04 4c 37 30 53 2d b8 81 21 a5 b2 5f 2d ca b8
       1.2160479e-05 -4.132389e-05 -1.9223764e-08 -9.6405616e-05
000140 fc 81 3c 36 2e 3c ba 37 8c 00 0f b8 a9 c0 f3 b7
       2.8089844e-06 2.2200951e-05 -3.4094366e-05 -2.9057572e-05
000150 43 45 dc b6 bc a9 a7 36 8e ad 39 b8 29 7f 33 38
       -6.564574e-06 4.9967475e-06 -4.4269073e-05 4.2795353e-05
000160 3c 95 2f b1 27 97 5d b7 3b 7b 80 37 f4 f3 13 b8
       -2.5550682e-09 -1.3207819e-05 1.5316173e-05 -3.527473e-05
000170 fd be f8 b5 bf 18 b8 b8 60 02 17 b6 61 f0 54 b7
       -1.8533025e-06 -8.778413e-05 -2.2502136e-06 -1.2692152e-05
000180 de 4f 7e 35 56 6a 39 b8 17 75 41 38 2f 60 30 b3
       9.4738596e-07 -4.420647e-05 4.6123834e-05 -4.106567e-08
000190 9b 29 ea b7 a4 97 02 b8 08 9a 07 38 e2 c5 85 b7
       -2.7914348e-05 -3.113564e-05 3.232996e-05 -1.5946982e-05
0001a0 67 3b 45 38 52 3e 96 37 e2 85 c5 b7 97 0e 19 38
       4.7023783e-05 1.7910414e-05 -2.3546574e-05 3.649163e-05
0001b0 1e bc 67 b5 c2 ca b5 b8 ea de 80 36 ad 08 4f 38
       -8.632795e-07 -8.668519e-05 3.840648e-06 4.9360726e-05
0001c0 00 30 ad b8 e3 d4 5a 38 e0 bd 80 b9 65 22 ea b7
       -8.2582235e-05 5.2173516e-05 -0.0002455553 -2.791099e-05
0001d0 25 4c f3 b4 88 9a 4a 35 05 1a 6e 35 18 21 98 37
       -4.531768e-07 7.5475737e-07 8.869977e-07 1.8135222e-05
0001e0 17 31 db b7 f2 e0 28 b6 69 00 91 b4 37 3a 7f b8
       -2.6129694e-05 -2.5164886e-06 -2.7008653e-07 -6.0850954e-05
0001f0 03 33 a6 38 23 10 08 b8 ec cc 98 b7 3a ad cb b6
       7.9249985e-05 -3.2439955e-05 -1.8215236e-05 -6.0700377e-06
