results/Test1/MoveToGoal.onnx (onnx, 72294 bytes, 6 tensors)

action_model._discrete_distribution.branches.0.bias f4 [5]
00000000: 0000 0000 0000 0000 0000 0000 0000 0000
00000010: 0000 0000
0.0 0.0 0.0 0.0 0.0

action_model._discrete_distribution.branches.0.weight f4 [5, 128]
00000000: 03dc 32bc cb92 0bbc c3f2 45bb 6c33 b7b9
00000010: d5a3 0fbc 976b 173c f331 adbb 8c5d bc3b
00000020: 12c4 65bb 98e1 2f3c 1b26 553c cb71 3b3b
00000030: 8cd3 b83b 4267 12bb 1dc9 20bc 60b5 4e3b
00000040: 1f1c a23b f044 e43b 412b 19bc 3599 dcbb
00000050: 8bfd c7bb d584 713b 4d20 923b 6bed c93a
00000060: c85a 6fbb 2d1a a03a 7eb0 2abc aa5f 153c
00000070: 8561 063c fbcc b1bc 0d81 0a3c 1bfe 763b
00000080: e5c5 d7bb 7bfe 7abc c3da 75bc 5b17 f2bb
00000090: 4ff5 b2ba 6508 223c 90d1 92bb 218a 15bb
000000a0: 162e 2dbb a924 95bc f182 ad3b 11ca 433b
000000b0: d047 e2ba 63c2 b6bb 8b60 44bc 90b8 783a
000000c0: c5ce 38bb 10bf 963a 1b6f 9dbb 3866 663a
000000d0: 89e2 b63b 4963 2635 7a0a 553c 3eae 283c
000000e0: a384 1d3c daa8 843b 7f26 f03b 56cd 8f3b
000000f0: 6d1e d1bb e85a 873b 180f a23a 18cd d23b
00000100: a8e2 4dbc 90e0 4b3c 3a24 d63b 8fc0 82bb
00000110: 1b6e 5b3a 915f 0e3c dbf9 7d3b 8114 a4bb
00000120: 2775 19bc 7334 5ebc 3360 6538 9357 d6bb
00000130: a087 31bc 38bf e7bb 4d72 80bb cf28 f2bb
00000140: 4715 583c f35f 3fbc 80f6 7b3c 3d4c ee3b
00000150: e7e6 0c3b 92e2 cdbc 7d7d 903c 874d 493b
00000160: b3aa 843c cded e83b 2fdb dcbb b8cb 08bb
00000170: 85b8 6abb 8f91 283c 4de5 9d3b a283 a13a
00000180: a7e7 64bb 567a 333c 6c2e 203c 8ab1 3d3c
00000190: a75e 9cba 5034 6dbc 6b42 48bc 0d25 55bc
000001a0: c77b 9f3b dd95 7bbb a56a 58bb 0a1d 3c3c
000001b0: 119a 0b3c 926f f7bb 347c 873a 55e5 ee3a
000001c0: eaea 1b3b 31a8 013a bddb 943b 37a5 d6b8
000001d0: 6dcf c63b 838b e0ba a4b2 ab3a abeb 8a39
000001e0: 2abe 883c 2015 9e3b e730 bc3b 3723 86bc
000001f0: f88d 2eb8 872c ec3b dea3 23bc bf50 eb3a
00000200: 5d95 1b3b 8d73 b33c dbf5 813c 802d fb3b
00000210: dd7d bbb9 40ca 7e3c 80f0 063c c0dc b438
00000220: 6f12 333c 3c22 3cbc 6859 fd3a a562 90bb
00000230: c305 a3b9 165f 0c3c 05d5 633b 7576 7f3a
00000240: 2d77 683b f5d7 1fbc 038c 64bc b2e4 d139
00000250: 90b8 2a3b 7eea 233c 676b 833b 40ba b13b
00000260: 2f73 debb 303d 4a3c 5b69 c4b9 7a90 e23b
00000270: ef53 32bc b546 cabb b3f9 4f3b d7ca 19b8
00000280: 6fed a73b 2d7d d7bb 372c 393c b2ac 28bc
00000290: f07f db3b 31a5 a73b 6554 78bc cd87 9ebb
000002a0: 191f 803c 4cf8 9dbb 2791 8c3b e50a c63b
000002b0: c2a0 beba a8d2 003c c701 00bc 9887 d63b
000002c0: f72e 36bb c625 113a 93d0 5fbc e3b8 183c
000002d0: d81d e23b 64e6 073b 7315 1d3c 6727 ecbb
000002e0: 1c67 ca3b e5ff 693b 6560 4dbc 5325 1a3c
000002f0: 5904 13bb 4b19 93ba 8d82 cdbb 0ac8 503b
00000300: 9fa0 95bc 3659 49bc 73a0 a0bb b214 093c
00000310: b319 6e3c 2016 18bb d950 3c3c 8c68 15bc
00000320: 8d03 d2bb 7329 a03a a7e6 50bb c1aa 19bc
00000330: c895 6dbb ae4e 063c 2fdd 7cba c727 2d3b
00000340: 51ae 88bc 2138 94bc 2843 d93a c228 02bc
00000350: d594 0b3c 0f60 51ba b47d 17bc c28c 203c
00000360: 2d3f 2a3c 773c b83b 562c 2b3c fdbc 383c
00000370: 9966 2f37 18fb f2bb 94dd bcbb 3db5 53bc
00000380: 5b61 e8bb 7c0c 213b 4bbb 1ebb 515c c039
00000390: 3f74 713b 1214 48bc e032 e7bb bf75 853c
000003a0: 089f ce39 b942 ac3b abee 9cbb 7fce b43b
000003b0: bf15 e5ba 43e1 fc3b eacf fb3a a387 0cbc
000003c0: 53d5 283c 3d9a 09bc 874b 1bbb 9d3f 2f3b
000003d0: 4fd3 063c 5c6f c63b a301 15bc 172e 23bc
000003e0: b01c f53b efd8 dfbc f515 99bb ef0a c8bb
000003f0: 7861 74bb 8c66 a2bb 38f7 993a 47da b73a
-0.010916713 -0.008518885 -0.0030204512 -0.00034942792 -0.008767088 0.00924196 -0.0052854954 0.0057484563
-0.0035059494 0.010734938 0.013009573 0.0028601761 0.0056404527 -0.0022339378 -0.009813574 0.0031541213
0.0049472 0.006966226 -0.009348691 -0.006732131 -0.0061032227 0.0036852856 0.004459417 0.0015405839
-0.0036522616 0.0012214832 -0.010418056 0.009117046 0.008201961 -0.021704188 0.00845362 0.003768808
-0.00658487 -0.015319462 -0.01500577 -0.007388038 -0.001365343 0.009889697 -0.004480548 -0.0022817927
-0.0026425174 -0.018205957 0.0052951504 0.002987508 -0.0017263833 -0.005577372 -0.011985908 0.0009487951
-0.0028199416 0.0011501033 -0.0048045046 0.00087890355 0.0055812043 6.19843e-07 0.013002986 0.010295449
0.009614143 0.004048449 0.007328808 0.0043884916 -0.006381801 0.00413071 0.0012364117 0.0064331405
-0.012566246 0.012443677 0.0065350803 -0.00399024 0.0008370594 0.008689777 0.0038753662 -0.005007327
-0.00936631 -0.01356231 5.4687447e-05 -0.0065412014 -0.010835558 -0.0070723556 -0.0039198757 -0.0073901187
0.013188667 -0.011680591 0.015378594 0.007272272 0.0021499933 -0.025132451 0.017637962 0.0030716376
0.016194677 0.007108426 -0.006739996 -0.002087338 -0.0035815549 0.01028861 0.0048185945 0.0012322555
-0.0034928115 0.01095446 0.009776693 0.011577973 -0.0011930064 -0.014477804 -0.0122228665 -0.013009322
0.0048670503 -0.0038388886 -0.003302255 0.011481533 0.008520619 -0.007551142 0.0010336698 0.0018226305
0.0023791143 0.0004946022 0.0045427964 -0.00010235089 0.0060672075 -0.0017131421 0.0013099504 0.00026496997
0.01669224 0.0048242956 0.0057431343 -0.016374214 -4.161705e-05 0.0072074565 -0.009987799 0.0017953141
0.002374015 0.021905685 0.015864303 0.007665336 -0.00035761195 0.01555115 0.008236051 8.624187e-05
0.010929688 -0.0114827715 0.0019329013 -0.0044062906 -0.00031094076 0.008567592 0.003476442 0.00097451295
0.0035471425 -0.009756078 -0.013949397 0.00040033978 0.002604995 0.010004638 0.004010606 0.005423814
-0.0067886333 0.01234369 -0.0003746253 0.0069141956 -0.010884269 -0.0061729797 0.0031734526 -3.6666952e-05
0.00512474 -0.0065762014 0.011302046 -0.01029508 0.006698601 0.005116128 -0.01515684 -0.004837966
0.015639829 -0.004820859 0.0042897644 0.006043779 -0.0014543759 0.007862724 -0.007812924 0.0065469258
-0.002779899 0.000553694 -0.013660568 0.009321424 0.0069005303 0.0020736689 0.009587633 -0.0072068456
0.0061768424 0.0035705504 -0.012535189 0.009408313 -0.0022433011 -0.0011222748 -0.0062716664 0.0031857514
-0.018265067 -0.012289336 -0.0049019395 0.008366751 0.014532494 -0.0023206547 0.011493885 -0.009119164
-0.0064091147 0.0012219384 -0.003187576 -0.00937909 -0.0036252607 0.00819747 -0.0009645996 0.0026421414
-0.016684683 -0.01809317 0.00165758 -0.007944288 0.008519371 -0.0007987031 -0.009246279 0.009799184
0.010391039 0.0056224423 0.010447582 0.011275527 1.0454701e-05 -0.0074151866 -0.005763719 -0.012921629
-0.007091684 0.0024574092 -0.0024220522 0.00036689875 0.003684297 -0.012211816 -0.0070556253 0.016291497
0.0003940987 0.0052569774 -0.0047891936 0.0055177803 -0.0017477794 0.007717283 0.0019211743 -0.00857726
0.010304767 -0.00839859 -0.002369614 0.0026740797 0.008229091 0.0060557555 -0.0090946285 -0.009959719
0.0074802265 -0.027325122 -0.004671807 -0.006104819 -0.0037289541 -0.004956072 0.001174665 0.0014026844

network_body._body_endoder.seq_layers.0.bias f4 [128]
00000000: 0000 0000 0000 0000 0000 0000 0000 0000
00000010: 0000 0000 0000 0000 0000 0000 0000 0000
00000020: 0000 0000 0000 0000 0000 0000 0000 0000
00000030: 0000 0000 0000 0000 0000 0000 0000 0000
00000040: 0000 0000 0000 0000 0000 0000 0000 0000
00000050: 0000 0000 0000 0000 0000 0000 0000 0000
00000060: 0000 0000 0000 0000 0000 0000 0000 0000
00000070: 0000 0000 0000 0000 0000 0000 0000 0000
00000080: 0000 0000 0000 0000 0000 0000 0000 0000
00000090: 0000 0000 0000 0000 0000 0000 0000 0000
000000a0: 0000 0000 0000 0000 0000 0000 0000 0000
000000b0: 0000 0000 0000 0000 0000 0000 0000 0000
000000c0: 0000 0000 0000 0000 0000 0000 0000 0000
000000d0: 0000 0000 0000 0000 0000 0000 0000 0000
000000e0: 0000 0000 0000 0000 0000 0000 0000 0000
000000f0: 0000 0000 0000 0000 0000 0000 0000 0000
00000100: 0000 0000 0000 0000 0000 0000 0000 0000
00000110: 0000 0000 0000 0000 0000 0000 0000 0000
00000120: 0000 0000 0000 0000 0000 0000 0000 0000
00000130: 0000 0000 0000 0000 0000 0000 0000 0000
00000140: 0000 0000 0000 0000 0000 0000 0000 0000
00000150: 0000 0000 0000 0000 0000 0000 0000 0000
00000160: 0000 0000 0000 0000 0000 0000 0000 0000
00000170: 0000 0000 0000 0000 0000 0000 0000 0000
00000180: 0000 0000 0000 0000 0000 0000 0000 0000
00000190: 0000 0000 0000 0000 0000 0000 0000 0000
000001a0: 0000 0000 0000 0000 0000 0000 0000 0000
000001b0: 0000 0000 0000 0000 0000 0000 0000 0000
000001c0: 0000 0000 0000 0000 0000 0000 0000 0000
000001d0: 0000 0000 0000 0000 0000 0000 0000 0000
000001e0: 0000 0000 0000 0000 0000 0000 0000 0000
000001f0: 0000 0000 0000 0000 0000 0000 0000 0000
0.0 0.0 0.0 0.0 0.0 0.0 0.0 0.0
0.0 0.0 0.0 0.0 0.0 0.0 0.0 0.0
0.0 0.0 0.0 0.0 0.0 0.0 0.0 0.0
0.0 0.0 0.0 0.0 0.0 0.0 0.0 0.0
0.0 0.0 0.0 0.0 0.0 0.0 0.0 0.0
0.0 0.0 0.0 0.0 0.0 0.0 0.0 0.0
0.0 0.0 0.0 0.0 0.0 0.0 0.0 0.0
0.0 0.0 0.0 0.0 0.0 0.0 0.0 0.0
0.0 0.0 0.0 0.0 0.0 0.0 0.0 0.0
0.0 0.0 0.0 0.0 0.0 0.0 0.0 0.0
0.0 0.0 0.0 0.0 0.0 0.0 0.0 0.0
0.0 0.0 0.0 0.0 0.0 0.0 0.0 0.0
0.0 0.0 0.0 0.0 0.0 0.0 0.0 0.0
0.0 0.0 0.0 0.0 0.0 0.0 0.0 0.0
0.0 0.0 0.0 0.0 0.0 0.0 0.0 0.0
0.0 0.0 0.0 0.0 0.0 0.0 0.0 0.0

network_body._body_endoder.seq_layers.0.weight f4 [128, 2]
00000000: a767 813e 581b cb3f c249 83bf 3f56 bc3e
00000010: a78c fd3e 3426 95bd 0c9b e4be bb45 a3bf
00000020: 7117 1c3e 8049 94bf 1430 753f 0eee 133f
00000030: 25d2 933e 8f6f 99be a2a8 f73d ef17 c2be
00000040: 11b5 7dbf 1a2d 943e 4624 cbbf fa0f f3bd
00000050: 6b13 b23e 948d fbbe 8d4c e83e 5cbd e8bd
00000060: 0e48 e9be 23dc 833f cdc8 84be 686a 53bc
00000070: 6fe7 e53d 36f3 dabe ff5b 2b3d 683f 61bf
00000080: ca63 8ebf 71e5 b83e b274 a1be 42fb 90bf
00000090: 8027 7d3e 7631 ea3c c2d4 e73e 4da0 533f
000000a0: 8532 cebd 9cc5 a2bf 5d47 833f 043e c83f
000000b0: ca3d 883f 925a 0abf d75b a7bd 2a65 c33e
000000c0: 377d a33e a8e8 9a3f 8a95 273f dc94 30bf
000000d0: 3ad4 bdbe 8183 903f 04bb 933e bd99 57bf
000000e0: ee3b 93be a3d3 31bf 5d10 893f 7be4 fb3d
000000f0: 8bdc 1b3f 3ae3 d83e a993 7e3f b688 193f
00000100: 30ef 923f 133c 5a3f 7d33 27bf 6817 51bb
00000110: 9f4b 48be 34db a9be 6c1f 5e3d eb86 853f
00000120: d752 093f 953e 80be 27ed 2dbf 4274 6cbe
00000130: f485 90bd dc59 31be bd04 c9bf a38b 20bd
00000140: a249 adbe efe3 503f 8f33 f23f 81a3 8c3f
00000150: 971d 2b3e 4685 aabf b0ca b4be bf16 11bf
00000160: cd4d 12bd 9097 373d 287b 73bf b3c8 55bd
00000170: b3b4 233f 48b3 e5be 80f3 56bf 61e7 60be
00000180: 6377 aabf 92a3 a13e 3cc9 11bf 5177 8c3e
00000190: 9c3f 443e a187 6a3f 5b50 37bf 39f0 bcbe
000001a0: ba89 fa3f 3827 913f 941c 5d3d a0c1 89bf
000001b0: 66d5 74bd 2852 ce3e 72ed 21bf e3a6 213f
000001c0: 40f6 4b3f b60f 11bf b37a 4bbf 37be 6f3f
000001d0: 5e82 263d 7bc5 abbf 28d7 94bd ce81 ab3e
000001e0: 2090 1c3d 0d6c a23e c3ac fcbe 0050 d33d
000001f0: 6cef 2d3f 6364 4cbe faaa 00bf eeef 253f
00000200: e199 4abf a405 4a3e f220 0c3e 4cc2 693f
00000210: 6dc1 763e 9416 023c 4e6c d23e 5000 1e3f
00000220: 8e65 54bf 05fe 4e3f 9b7c 83be 8016 3cbf
00000230: 336d 033d 1e4e 20bf 7b2d ca3d d764 8ebe
00000240: 1c88 6a3f fb18 1abf 0c4e cfbf 5fb1 f93e
00000250: 4756 ccbe aa88 923f d633 1abf b766 56be
00000260: 2eb5 b9bf 4dd6 2fbf 97d6 08bf eafa a8bf
00000270: 8f9d 7d3f 8afe f03d 551a 553e 4be6 3ebe
00000280: a353 ff3e 4992 d73f 4c2a 783c 1cee babe
00000290: d892 1dbf 846a 503e bc7f 2abd 2fd7 fcbe
000002a0: 8c8e 90bf de17 063f 54a4 de3f 5c8c 61be
000002b0: 5b7b a4be 08c2 83bf de3c bf3e f25b 0540
000002c0: 028e 7cbf 124e 6abe e5ac 233f b77d 24bd
000002d0: cff6 b5bd 766c 663f c4fb 533f 9ef5 6b3d
000002e0: 534d 8ebf cba6 02bf 90d8 353f 335a ff3d
000002f0: 58df 3c3f 6546 853f fc64 03bf 2657 8bbf
00000300: bf84 fbbd d278 dd3e 244b d8be 8f36 b73c
00000310: 3780 8e3f 2a44 bd3e 1d08 07bf 116d 543e
00000320: d8bc a4be 25ec 613e 17c5 093f 5384 973f
00000330: 3520 e43d 22af fe3e 8897 22bf 89eb 2d3e
00000340: ccbc b53f ae1e e9bd 8b1a 5c3e ebbb c43e
00000350: 6420 1a3f b3bf a3bc 1a6a 43be 8aea 113f
00000360: 8277 42be 0190 29bf 0010 63bf e683 76bf
00000370: dbb7 1bbe 93a8 c9be 8ed1 893e 56b7 e63e
00000380: e191 c3be c02a 6ebf dd4b 00bf b726 783d
00000390: 4f04 76bf adb1 f4be cd93 99bf 02a4 febe
000003a0: ea34 a5bd 767d 083f 1112 b43f c2d6 653e
000003b0: c2d0 be3e 16c9 40bf 62da 133f 325a bb3e
000003c0: 5871 cfbe 7748 7b3f 398c 86bf 40af 43be
000003d0: 94f6 b13f 46da 04bf 81f8 e73e 83c2 073f
000003e0: b19b 01bf 21d6 273e f651 e63e 00bf 583d
000003f0: fc9e c03e aaa9 6e3f 50a8 623f a375 11bf
0.25274393 1.586772 -1.0256884 0.3678455 0.49521372 -0.07282677 -0.4464954 -1.2755655
0.15243317 -1.158493 0.95776486 0.5778512 0.28871265 -0.29967925 0.12092711 -0.37908885
-0.9910441 0.2894066 -1.5870445 -0.11868282 0.3478044 -0.49131453 0.45370904 -0.113642424
-0.45562786 1.0301555 -0.2593445 -0.012903787 0.11225783 -0.4276368 0.04183578 -0.87987375
-1.1124203 0.3611255 -0.31534344 -1.1326678 0.247221 0.028588038 0.4527951 0.82666475
-0.100682296 -1.2716556 1.0256153 1.5643926 1.0643857 -0.5404445 -0.08171814 0.3816312
0.3193147 1.2102251 0.65462554 -0.6897714 -0.3707598 1.1290132 0.2885362 -0.8421896
-0.2875666 -0.69463557 1.0708119 0.122994386 0.60883397 0.4236086 0.9944406 0.5997423
1.1479244 0.85247916 -0.6531294 -0.003190482 -0.19560097 -0.3317505 0.054229185 1.0431799
0.5364203 -0.25047746 -0.6793999 -0.23091224 -0.070567995 -0.17319435 -1.5704571 -0.039195668
-0.3384524 0.815978 1.8921984 1.0987397 0.16710506 -1.3321922 -0.35310888 -0.5667533
-0.035718728 0.044822276 -0.95109797 -0.052193355 0.639476 -0.44863343 -0.839653 -0.21963264
-1.3317684 0.31570107 -0.56947684 0.2743478 0.1916489 0.91613203 -0.7160699 -0.36902025
1.9573281 1.1340094 0.053982332 -1.0762215 -0.059773825 0.40297055 -0.6325294 0.63145274
0.7967262 -0.566646 -0.794841 0.9364962 0.04065167 -1.3419641 -0.072676 0.3349747
0.038223386 0.3172306 -0.49350557 0.10317993 0.67943454 -0.1996017 -0.5026089 0.6481923
-0.7914105 0.19728714 0.13684443 0.913121 0.24097224 0.007939953 0.41098255 0.61719227
-0.8296746 0.80856353 -0.25681004 -0.7347183 0.032086562 -0.626192 0.09871956 -0.2781131
0.91613936 -0.6019437 -1.6195693 0.48768136 -0.39909574 1.1447957 -0.60235345 -0.2093762
-1.4508417 -0.6868637 -0.5345244 -1.3201573 0.9906854 0.117672995 0.20810826 -0.18642537
0.49868497 1.6841518 0.015146803 -0.36509788 -0.6155219 0.20353132 -0.041625723 -0.49382922
-1.1293502 0.5238017 1.7393899 -0.22026199 -0.32125363 -1.0293589 0.37351125 2.083737
-0.98654187 -0.22881344 0.6393569 -0.040158954 -0.08884966 0.9000925 0.8280604 0.057607286
-1.1117347 -0.51035756 0.71033573 0.12468376 0.73778296 1.0412108 -0.51325965 -1.088597
-0.12281179 0.4325624 -0.42244828 0.022364883 1.1132878 0.36966068 -0.52746755 0.2074473
-0.32175326 0.22062738 0.5381636 1.1837257 0.111389555 0.4974299 -0.6351247 0.16984381
1.4198241 -0.11382805 0.214945 0.3842462 0.60205674 -0.01998887 -0.19083443 0.56998503
-0.18990901 -0.6623536 -0.8869629 -0.9629501 -0.15206854 -0.39386424 0.2691769 0.4506175
-0.38197234 -0.9303398 -0.5011576 0.060583796 -0.96100324 -0.47791806 -1.199823 -0.49734503
-0.08066733 0.5331644 1.4068013 0.22445205 0.37268645 -0.7530683 0.577551 0.3659225
-0.40516162 0.9815745 -1.0511543 -0.19109821 1.3903375 -0.5189556 0.4530678 0.53031176
-0.5062819 0.16390277 0.44984406 0.052916527 0.37621295 0.93227637 0.88538074 -0.56820124

network_body._body_endoder.seq_layers.2.bias f4 [128]
00000000: 0000 0000 0000 0000 0000 0000 0000 0000
00000010: 0000 0000 0000 0000 0000 0000 0000 0000
00000020: 0000 0000 0000 0000 0000 0000 0000 0000
00000030: 0000 0000 0000 0000 0000 0000 0000 0000
00000040: 0000 0000 0000 0000 0000 0000 0000 0000
00000050: 0000 0000 0000 0000 0000 0000 0000 0000
00000060: 0000 0000 0000 0000 0000 0000 0000 0000
00000070: 0000 0000 0000 0000 0000 0000 0000 0000
00000080: 0000 0000 0000 0000 0000 0000 0000 0000
00000090: 0000 0000 0000 0000 0000 0000 0000 0000
000000a0: 0000 0000 0000 0000 0000 0000 0000 0000
000000b0: 0000 0000 0000 0000 0000 0000 0000 0000
000000c0: 0000 0000 0000 0000 0000 0000 0000 0000
000000d0: 0000 0000 0000 0000 0000 0000 0000 0000
000000e0: 0000 0000 0000 0000 0000 0000 0000 0000
000000f0: 0000 0000 0000 0000 0000 0000 0000 0000
00000100: 0000 0000 0000 0000 0000 0000 0000 0000
00000110: 0000 0000 0000 0000 0000 0000 0000 0000
00000120: 0000 0000 0000 0000 0000 0000 0000 0000
00000130: 0000 0000 0000 0000 0000 0000 0000 0000
00000140: 0000 0000 0000 0000 0000 0000 0000 0000
00000150: 0000 0000 0000 0000 0000 0000 0000 0000
00000160: 0000 0000 0000 0000 0000 0000 0000 0000
00000170: 0000 0000 0000 0000 0000 0000 0000 0000
00000180: 0000 0000 0000 0000 0000 0000 0000 0000
00000190: 0000 0000 0000 0000 0000 0000 0000 0000
000001a0: 0000 0000 0000 0000 0000 0000 0000 0000
000001b0: 0000 0000 0000 0000 0000 0000 0000 0000
000001c0: 0000 0000 0000 0000 0000 0000 0000 0000
000001d0: 0000 0000 0000 0000 0000 0000 0000 0000
000001e0: 0000 0000 0000 0000 0000 0000 0000 0000
000001f0: 0000 0000 0000 0000 0000 0000 0000 0000
0.0 0.0 0.0 0.0 0.0 0.0 0.0 0.0
0.0 0.0 0.0 0.0 0.0 0.0 0.0 0.0
0.0 0.0 0.0 0.0 0.0 0.0 0.0 0.0
0.0 0.0 0.0 0.0 0.0 0.0 0.0 0.0
0.0 0.0 0.0 0.0 0.0 0.0 0.0 0.0
0.0 0.0 0.0 0.0 0.0 0.0 0.0 0.0
0.0 0.0 0.0 0.0 0.0 0.0 0.0 0.0
0.0 0.0 0.0 0.0 0.0 0.0 0.0 0.0
0.0 0.0 0.0 0.0 0.0 0.0 0.0 0.0
0.0 0.0 0.0 0.0 0.0 0.0 0.0 0.0
0.0 0.0 0.0 0.0 0.0 0.0 0.0 0.0
0.0 0.0 0.0 0.0 0.0 0.0 0.0 0.0
0.0 0.0 0.0 0.0 0.0 0.0 0.0 0.0
0.0 0.0 0.0 0.0 0.0 0.0 0.0 0.0
0.0 0.0 0.0 0.0 0.0 0.0 0.0 0.0
0.0 0.0 0.0 0.0 0.0 0.0 0.0 0.0

network_body._body_endoder.seq_layers.2.weight f4 [128, 128]
00000000: 1c7b 7ebd d448 d43d 7fa9 143e f815 19bd
00000010: 3f2b 7ebd e776 c93c 5fa2 e13d 027d d9bd
00000020: 36ee ea3d ebf2 a53d a88b ffbd 3a57 9ebc
00000030: 7712 fabd cc7a 97bd 869f ef3b 6c7a 04be
00000040: 4f7c 3b3e 2b82 cd3d 55bf 23bd c180 89bd
00000050: 0869 7d3d b4c1 ee39 ff16 7fbd 2c7b 16be
00000060: 9cc9 f63c a3dc fabb 877e b03d 7c23 56bd
00000070: 57fe 78bd 003e 07bc 2005 f53d 032a 613c
00000080: a7f1 173d 86e9 bcbb 374e a93d e561 1bbd
00000090: 7b8e 8d3d 02ac 693d 0486 3cbd 7673 90bd
000000a0: d7f1 19bd 0a11 913d 8151 8d3c 5fc3 33bd
000000b0: 694f 103e c629 b03c 1211 c8bd 3270 663e
000000c0: 012d 8b3c 66e1 a83a f290 f7bd 7fe0 263d
000000d0: 5629 e73d 2549 fd3b 0e53 083d 8c1e 153d
000000e0: c558 a23d b9a6 b13d 5bbd 39be f6db 49bd
000000f0: 4231 c6bc d8df 94bd 2d48 d6bc 9eb8 4a3c
00000100: 7d6d 8b3c bfa1 a63b c188 5b3d 6f63 e53d
00000110: cd4c 643d 1e5b 9dbd f020 94bb 19a4 42be
00000120: 637d f6bc 106b 813d ba89 8b3c 9bda 573d
00000130: d97f ebbc efde 06be 92d4 153e f693 ea3b
00000140: 58e4 1cbe 7cb3 73bd c96b abbd b363 093e
00000150: 9008 253e f188 3c3e 35cf 2a3d f3a2 473a
00000160: 2285 343d 8e23 f5bc f0d1 6e3d 4ffd 70bd
00000170: e00a 473d 781b fdbd 5690 b53d cb17 5b3d
00000180: 96b2 68bd be10 86bd 6bcd aa3d 7639 27bd
00000190: 0b0f 0a3d 111b 6f3b cdd7 0e3e 4e0b 1c3e
000001a0: 41c8 18be 6115 4cbe 543a ffbd d5c6 a53d
000001b0: c2b1 7bbe 151d 9cbc ca4a a33c 26fd dc3c
000001c0: 2444 29bd 4716 5abe 221b b5bc e27b d2bd
000001d0: ec66 2b3c d9b0 87bd 22e4 08be 89cc 8ebd
000001e0: 5494 f5bc 990c d13d 63bf a0bd a8a5 45bd
000001f0: cc88 a6bc e442 23bd 7814 bcbd 7035 733d
00000200: 8c3a e8bd be06 a6bc 8d12 5c3d 5778 233e
00000210: c935 78bc 326f d33c 6c2d e5bd a6df 16be
00000220: 5c2b 11bd 64ae 7abb e3be 97bd 0acb 88bd
00000230: d030 08be cbad 583d 0607 843d f073 1d3b
00000240: 2f97 343e 0ade 39be d88a 2dbe 6be0 9ebd
00000250: a712 3a3e 4b8d b8bd b775 c73d f47c caba
00000260: 0074 733d 8dd9 a2ba a959 bb3d 854d 79bd
00000270: 7d49 afbd 596c b23c ab1e d3bd ddfe 353c
00000280: 0299 d6bc 3e51 223c d279 8bbd 56c1 27bd
00000290: 7b5f f0bc daa2 18bd 3250 b03d 519d 153e
000002a0: 761d 393c d0ab 21bc e80e 1dbe 745f afbd
000002b0: 7bc9 c7bc b0ac 0cbd 611a cb3c 66cf 633d
000002c0: 8b17 703d b5a1 b7bd 4e57 813d a660 5e3d
000002d0: 99a0 61bd b582 43bc ac12 1c3d 4bb2 873c
000002e0: 9be4 923d 85d8 00bb bbbf ae3d 6eb4 34bc
000002f0: eee0 dc3d 3037 243e 12d6 5e3e 24d9 253d
00000300: ca71 4a3d 1d9c 123e 9f3e 853d ba42 0dbc
00000310: 9375 413e 949f 173b ab3f 69bd 7909 2dbe
00000320: 2e6b b3bc 6fe2 8a3c 6bc0 f5bc 9056 c73d
00000330: 5b9b e13b 126d f3bd fe1a b53d f219 4abd
00000340: a400 cd3c 73af 923c a788 8cbc 8691 203d
00000350: b68f d53c 9848 b6bb 8400 44bc e125 2abc
00000360: 78f0 923d 64a6 02bd 5f20 6cbe 6928 01bd
00000370: d74d 2ebc c2ff 4c3d 5c35 e83b 3c95 ae3d
00000380: 27c8 66be e28e 8b3c d149 fabd f975 573b
00000390: 92d9 fcbd 3ff5 33bd d778 153e d63b ba3d
000003a0: ad5a b9bd 8564 74bd d830 2c3e 57e6 51bd
000003b0: 7685 c5bd 5212 0dbe 1295 82bc 87e8 993d
000003c0: 6314 9ebe 43f6 36be 59c3 ab3d 8932 1b3e
000003d0: f69a 043e cf67 6b3c 22fa ec3c 2814 42bd
000003e0: 3a44 69bd 3375 f9bd 932b c83d d852 aebd
000003f0: 1710 2a3d 208a f6bd f116 613c acdb d83c
-0.062129125 0.10365453 0.14517783 -0.037374467 -0.06205296 0.02459283 0.11017298 -0.106195465
0.114712164 0.081029736 -0.12477809 -0.019328702 -0.12210553 -0.073964685 0.007312718 -0.12937325
0.18309139 0.10034593 -0.03997739 -0.06714011 0.061867744 0.00045539218 -0.06227779 -0.14695424
0.030125432 -0.0076556965 0.08617883 -0.052279934 -0.060789432 -0.008254528 0.11963868 0.0137429265
0.037095692 -0.005765143 0.082668714 -0.037935156 0.069119416 0.057048805 -0.046026245 -0.070532724
-0.037584152 0.07083328 0.017250778 -0.043887492 0.14092793 0.021504294 -0.09768881 0.22503737
0.016989233 0.0012884557 -0.12088193 0.04074144 0.11287181 0.007729667 0.033282332 0.036406085
0.07927088 0.08674378 -0.1813864 -0.049282037 -0.02419341 -0.07269257 -0.026157463 0.012373118
0.017019982 0.0050851996 0.053597216 0.11200606 0.055737305 -0.07683395 -0.004520528 -0.19007911
-0.030089086 0.06319249 0.017033447 0.052698713 -0.028747486 -0.1317098 0.1463187 0.0071587516
-0.15321481 -0.05949734 -0.08370168 0.13416938 0.16116548 0.18411614 0.041701514 0.0007615529
0.044072278 -0.02992418 0.05830568 -0.058835324 0.048594356 -0.12358755 0.088654205 0.053489488
-0.056810938 -0.06546162 0.083399616 -0.040826283 0.033705752 0.0036484639 0.13949509 0.15238687
-0.14920141 -0.1993003 -0.12462297 0.08094565 -0.24579528 -0.019056836 0.019933123 0.02697618
-0.04132475 -0.2129756 -0.022107664 -0.10277535 0.01046155 -0.06625528 -0.13368276 -0.06972606
-0.029977955 0.10207481 -0.07849004 -0.048253685 -0.020328902 -0.039858714 -0.091835916 0.059377134
-0.11339292 -0.020266887 0.05372863 0.15963875 -0.015149542 0.025809858 -0.11190304 -0.14733753
-0.03544174 -0.0038250918 -0.074094556 -0.06679352 -0.1329987 0.052900117 0.06446652 0.0024025403
0.17635797 -0.18151107 -0.16947496 -0.07757648 0.18171178 -0.090113245 0.09739249 -0.0015448616
0.059436798 -0.0012424454 0.09147961 -0.060864944 -0.08558939 0.02178018 -0.10308584 0.011108127
-0.026196007 0.009907065 -0.06810345 -0.040955864 -0.029342404 -0.037264682 0.08609046 0.14610793
0.011298528 -0.009867623 -0.15337718 -0.08563128 -0.024388066 -0.034344375 0.024792852 0.055617712
0.058616202 -0.0896639 0.0631548 0.05429139 -0.0550848 -0.011933018 0.038103744 0.016564509
0.07172509 -0.0019660306 0.085326634 -0.011029346 0.107850894 0.16036677 0.21761349 0.040490285
0.049424924 0.14317365 0.06506085 -0.008621866 0.18892507 0.0023135887 -0.056945484 -0.16898145
-0.021901693 0.016953675 -0.029998979 0.09733307 0.006884975 -0.11886038 0.08843039 -0.04934115
0.02502472 0.017905926 -0.017155005 0.039201282 0.026069503 -0.005562853 -0.011963014 -0.010385008
0.07174772 -0.031896964 -0.23059224 -0.03153268 -0.010638676 0.050048597 0.007086439 0.08524558
-0.2253729 0.017035905 -0.122211106 0.0032876714 -0.12346186 -0.043935057 0.14596878 0.09093444
-0.09050498 -0.059666175 0.16815507 -0.05124506 -0.09644596 -0.1377652 -0.015940223 0.07515054
-0.3087493 -0.17867379 0.08386869 0.15155996 0.12949738 0.014368012 0.028927866 -0.047382504
-0.05694983 -0.12180557 0.09773936 -0.08511895 0.04151925 -0.12038064 0.01373838 0.026471935
