results/Test3/MoveToGoal.onnx (onnx, 72639 bytes, 7 tensors)

action_model._continuous_distribution.log_sigma f4 [1, 2]
000000 00 00 00 00 00 00 00 00
       0.0 0.0

action_model._continuous_distribution.mu.bias f4 [2]
000000 00 00 00 00 00 00 00 00
       0.0 0.0

action_model._continuous_distribution.mu.weight f4 [2, 128]
000000 d7 7f 0d 3c ef 43 d6 3b 43 97 f3 3a 18 48 f1 bc
       0.008636436 0.00653886 0.0018584508 -0.029453322
000010 ba 4a 09 bc 9e 46 83 3a 87 ef 70 3c 76 57 b6 3c
       -0.008379633 0.0010015552 0.014705545 0.022258501
000020 4b c3 7d 3c c5 d0 ff bb 3a cd 85 3b b7 9a 04 3d
       0.015488456 -0.0078068697 0.004083303 0.03237411
000030 a5 a5 e5 bc 3a b0 c5 3c 12 cd 9f ba 5f a5 92 3c
       -0.028033087 0.024131883 -0.0012191853 0.01790112
000040 a9 b3 1e bc 38 f6 d6 b9 c0 e8 54 3c 0a 99 a4 3c
       -0.009686389 -0.00041000708 0.012994945 0.020092506
000050 a3 2e 15 bc 20 00 13 bc 6a da 77 bc c6 05 9e bb
       -0.009105357 -0.008972198 -0.015127758 -0.0048224656
000060 dd 94 d3 bc 4d b7 d3 bb ce ec 27 bd a0 a3 f4 3c
       -0.02582782 -0.00646106 -0.04099732 0.029863179
000070 17 ed 73 3c 55 7c ae ba 78 c8 89 3c 97 ab 0f 3d
       0.01488807 -0.00133122 0.016819224 0.03507575
000080 f3 35 b2 3b 65 1e 58 bb 87 ee d5 bb 83 08 50 3b
       0.00543856 -0.00329771 -0.006528679 0.0031743355
000090 2b b9 0a bd 2a 35 1e bc 6f 20 b5 3b bc bb 86 bc
       -0.033867996 -0.00965623 0.005527548 -0.01644694
0000a0 48 36 80 bb 7f da 60 3c 7a cc 47 3b 0a 59 e4 3b
       -0.003912721 0.0137239685 0.0030486868 0.006968622
0000b0 3b 69 f7 3c 8b 1b 17 bc 95 48 6c 3c e5 0e 6b bc
       0.030201545 -0.009222875 0.014421602 -0.014346813
0000c0 42 4d 6a 39 01 85 a7 bc d9 11 06 bc c1 ce 2c bd
       0.0002234476 -0.020449163 -0.008182966 -0.042189363
0000d0 9d 1d 17 bd 07 d1 82 bc b4 86 b9 3c a3 db 8c bc
       -0.036893476 -0.015968813 0.02264724 -0.017194575
0000e0 f4 c6 01 3d 62 28 43 bc 13 06 ba 3c 0a 96 b7 3c
       0.031683877 -0.0119114835 0.022707975 0.022410411
0000f0 7a 0f c2 bc 8a f2 9e 3c 27 fe f8 bc cc 1c 26 bb
       -0.02368902 0.019402761 -0.030394627 -0.0025346754
000100 f7 79 90 ba 96 47 9d 3c 7f c1 00 bd b7 63 16 bb
       -0.0011022676 0.019199174 -0.031434532 -0.0022947618
000110 6c 37 12 3b ad f7 8c 3c 03 ad da 3b df 03 f5 3b
       0.0022310866 0.017207945 0.0066734566 0.007477268
000120 0f 57 d5 3c ba 18 76 bb 5a 56 32 3d 37 b7 13 3c
       0.02604249 -0.003755136 0.043539383 0.00901585
000130 7b 0a 94 3c 93 09 20 bc 2d e5 6b bb 96 dc 02 bc
       0.018071404 -0.009767908 -0.0035994754 -0.007987162
000140 57 d5 22 3c a0 86 93 3c df c3 cc bc fa ff 31 3b
       0.0099385595 0.01800853 -0.024995742 0.002716063
000150 1b 13 d4 bb 56 32 93 bc 7f ed c7 bc 7f cc b7 bb
       -0.006472004 -0.017968338 -0.02440524 -0.0056090946
000160 df 55 06 3d 9e 8d 91 bc 8d 8c 4b 3c 9d 3b ab 3c
       0.032796737 -0.017767724 0.012423647 0.02090245
000170 bb 0f 49 3b 5d 18 cf bc 28 1b 17 bc 25 12 37 bc
       0.0030679542 -0.025280172 -0.009222783 -0.01117376
000180 57 5a 11 bc 07 07 ca 3b 8d 52 11 3d 73 4f 27 3c
       -0.008871636 0.0061653885 0.035479117 0.010211813
000190 00 39 3d bb bf a3 52 3b 75 93 08 bd 0f 8e b1 bc
       -0.0028873086 0.0032141057 -0.03334375 -0.021674184
0001a0 bc c6 23 3c 3a fb d9 3c 45 18 77 ba 95 4f 3e bc
       0.009996112 0.026609052 -0.00094259187 -0.0116156535
0001b0 20 ec 46 bc da 13 82 3c 87 31 82 bc 14 67 20 bc
       -0.0121412575 0.015878607 -0.015892757 -0.009790201
0001c0 f1 ef 94 bc c5 2a 04 3a 3d 4e aa 39 d5 9a 3f bc
       -0.01818082 0.00050417735 0.0003248322 -0.01169463
0001d0 9e 82 a1 3c 4a 2e 2f 3d 79 b9 12 bd 47 c8 a0 3b
       0.019715603 0.042768754 -0.03582141 0.0049066874
0001e0 db 91 52 bc 54 7f 9f bb 8d 4d 09 3d 57 10 59 3b
       -0.0128521575 -0.0048674736 0.033521224 0.0033121312
0001f0 a8 5d cb bc 6a 98 a5 bc 7b b6 ec 3b b9 87 2e bc
       -0.024824932 -0.020214278 0.007223902 -0.010652476
000200 d3 d7 60 bb eb 4e fd bb 80 18 ee 3c 73 63 dd bb
       -0.0034308329 -0.007730355 0.029064417 -0.00675624
000210 b0 10 ef ba c3 e9 8e 3c 27 cd dc 3a df a1 c2 bc
       -0.0018239226 0.01744545 0.0016845808 -0.023758827
000220 e2 a3 0d 3c bb 85 ad 3c a1 a2 cb 3c 7f 10 ea b9
       0.00864503 0.021181932 0.024857821 -0.0004464425
000230 83 a2 79 bb 17 85 e2 3b 5d 53 e8 b8 94 68 07 3d
       -0.003809125 0.006912838 -0.0001107815 0.033058718
000240 5b 50 65 3c e0 7f 49 3d 1b 22 61 bc 42 25 28 bc
       0.013996209 0.049194217 -0.0137410415 -0.010262789
000250 97 50 53 bc 40 51 cc bb 21 96 03 3c 77 0e 97 bc
       -0.012897632 -0.0062352717 0.008031399 -0.018439515
000260 4d d1 e7 3c c8 68 9d ba 7b 3c f9 bc 1f 2a be 3b
       0.028298045 -0.0012009377 -0.030424347 0.005803361
000270 70 a0 0f bc cc 17 16 bd e0 8a 54 bc c0 7f a0 3a
       -0.008766279 -0.03664379 -0.0129725635 0.0012245104
000280 47 22 e2 bc a8 00 fe 3c 8b 0d c8 3c 40 1a 98 3a
       -0.027604235 0.031006172 0.02442052 0.0011604503
000290 3f 2b 15 bd a3 38 c6 3a 37 9c 0f bc 57 c8 8b bc
       -0.036418196 0.001512308 -0.008765272 -0.017063303
0002a0 e0 9a 8d 3b e0 59 dc ba 03 9d 38 bc 9e 0b b1 3c
       0.004321441 -0.0016811453 -0.011267903 0.021611985
0002b0 9b 53 4f 3d c8 1a 3a bc a9 56 c4 bc e7 7d e0 3c
       0.05061684 -0.011358924 -0.023967104 0.027403785
0002c0 67 de 23 bd 58 d3 4e 3c 4d 20 8b 3b 0c 59 3a 3c
       -0.04000702 0.01262363 0.004245794 0.0113737695
0002d0 47 cd 27 3a 58 af b4 3c 4b b2 d1 bc e5 7c be 3a
       0.0006401133 0.022056267 -0.025597712 0.0014533071
0002e0 cc cb aa 3c f3 9c 4c bc f3 fa 15 3c 3e c0 13 3c
       0.020849131 -0.0124885915 0.009154069 0.009018002
0002f0 35 83 18 bc 1f 08 44 3b e9 f9 bd b9 50 59 dd bc
       -0.009308626 0.0029912067 -0.00036235087 -0.027020127
000300 7d ee a7 bc b6 84 cb bc f5 90 d8 3c a7 96 f9 bc
       -0.020499462 -0.024843555 0.026436308 -0.030467344
000310 78 f4 24 bd ed 95 14 3a fd 98 ed bb ec b6 98 bc
       -0.040272206 0.00056680926 -0.0072509036 -0.018641911
000320 2b c1 cf ba 77 74 11 bb 14 51 2e bc 0b 79 45 3d
       -0.0015850415 -0.0022194663 -0.010639448 0.04821114
000330 0f 3a a3 3b 68 28 f3 bb 7b b6 9f 3c f2 7f ff bb
       0.0049812864 -0.0074205883 0.019496193 -0.0077972347
000340 b0 16 eb 3b 0e 9c 3b bc 85 12 17 3c ed 47 87 bc
       0.0071743354 -0.011450781 0.009220724 -0.01651379
000350 a2 60 88 3c 1f c1 09 bd 7b b3 53 ba b0 43 75 3b
       0.01664764 -0.03363144 -0.0008075756 0.0037424378
000360 b3 f1 01 3c b1 7c 2f 3c d6 33 82 bc c0 af 61 bc
       0.007931161 0.010710881 -0.015893858 -0.013774812
000370 8b e0 fa 3b 8e 51 44 bc 23 a3 35 3c 8f 06 7a 3c
       0.007656162 -0.011982335 0.011086258 0.015260353
000380 fd 0b e4 3c 3a e3 b5 bc bf 05 4b 3c a3 b0 89 3c
       0.027837748 -0.022203077 0.012391507 0.01680786
000390 e6 e6 21 bd 70 0f 90 bb 77 c1 b7 3c 8b f9 aa bc
       -0.039526843 -0.0043963715 0.022431118 -0.020870944
0003a0 12 13 fd 3c 61 ae 3a bb b2 c3 bb 3b ac 28 25 bd
       0.030892882 -0.0028485286 0.005730116 -0.04032199
0003b0 bf 2e 81 bc bf 20 11 3c f4 72 af 39 14 4f cc bc
       -0.01576936 0.008857905 0.00033464248 -0.024940051
0003c0 00 f5 9e bb 13 03 10 3c 40 d6 92 3c 38 5e 19 3a
       -0.0048509836 0.008789795 0.017924428 0.00058505265
0003d0 4a 47 31 3c e5 72 d8 3c 9d d2 4f 3c 55 10 09 bc
       0.010820219 0.026421973 0.012684491 -0.00836571
0003e0 fd 94 2e 3c 75 d6 6a 3c e6 b8 c1 3c 9e 30 17 bc
       0.010655639 0.014333357 0.023647737 -0.0092279
0003f0 6d 29 ff 3c bd c0 23 bb d7 db 7a bc 58 75 da 3c
       0.031147683 -0.0024986707 -0.015311203 0.026667282

network_body._body_endoder.seq_layers.0.bias f4 [128]
000000 00 00 00 00 00 00 00 00 00 00 00 00 00 00 00 00
       0.0 0.0 0.0 0.0
000010 00 00 00 00 00 00 00 00 00 00 00 00 00 00 00 00
       0.0 0.0 0.0 0.0
000020 00 00 00 00 00 00 00 00 00 00 00 00 00 00 00 00
       0.0 0.0 0.0 0.0
000030 00 00 00 00 00 00 00 00 00 00 00 00 00 00 00 00
       0.0 0.0 0.0 0.0
000040 00 00 00 00 00 00 00 00 00 00 00 00 00 00 00 00
       0.0 0.0 0.0 0.0
000050 00 00 00 00 00 00 00 00 00 00 00 00 00 00 00 00
       0.0 0.0 0.0 0.0
000060 00 00 00 00 00 00 00 00 00 00 00 00 00 00 00 00
       0.0 0.0 0.0 0.0
000070 00 00 00 00 00 00 00 00 00 00 00 00 00 00 00 00
       0.0 0.0 0.0 0.0
000080 00 00 00 00 00 00 00 00 00 00 00 00 00 00 00 00
       0.0 0.0 0.0 0.0
000090 00 00 00 00 00 00 00 00 00 00 00 00 00 00 00 00
       0.0 0.0 0.0 0.0
0000a0 00 00 00 00 00 00 00 00 00 00 00 00 00 00 00 00
       0.0 0.0 0.0 0.0
0000b0 00 00 00 00 00 00 00 00 00 00 00 00 00 00 00 00
       0.0 0.0 0.0 0.0
0000c0 00 00 00 00 00 00 00 00 00 00 00 00 00 00 00 00
       0.0 0.0 0.0 0.0
0000d0 00 00 00 00 00 00 00 00 00 00 00 00 00 00 00 00
       0.0 0.0 0.0 0.0
0000e0 00 00 00 00 00 00 00 00 00 00 00 00 00 00 00 00
       0.0 0.0 0.0 0.0
0000f0 00 00 00 00 00 00 00 00 00 00 00 00 00 00 00 00
       0.0 0.0 0.0 0.0
000100 00 00 00 00 00 00 00 00 00 00 00 00 00 00 00 00
       0.0 0.0 0.0 0.0
000110 00 00 00 00 00 00 00 00 00 00 00 00 00 00 00 00
       0.0 0.0 0.0 0.0
000120 00 00 00 00 00 00 00 00 00 00 00 00 00 00 00 00
       0.0 0.0 0.0 0.0
000130 00 00 00 00 00 00 00 00 00 00 00 00 00 00 00 00
       0.0 0.0 0.0 0.0
000140 00 00 00 00 00 00 00 00 00 00 00 00 00 00 00 00
       0.0 0.0 0.0 0.0
000150 00 00 00 00 00 00 00 00 00 00 00 00 00 00 00 00
       0.0 0.0 0.0 0.0
000160 00 00 00 00 00 00 00 00 00 00 00 00 00 00 00 00
       0.0 0.0 0.0 0.0
000170 00 00 00 00 00 00 00 00 00 00 00 00 00 00 00 00
       0.0 0.0 0.0 0.0
000180 00 00 00 00 00 00 00 00 00 00 00 00 00 00 00 00
       0.0 0.0 0.0 0.0
000190 00 00 00 00 00 00 00 00 00 00 00 00 00 00 00 00
       0.0 0.0 0.0 0.0
0001a0 00 00 00 00 00 00 00 00 00 00 00 00 00 00 00 00
       0.0 0.0 0.0 0.0
0001b0 00 00 00 00 00 00 00 00 00 00 00 00 00 00 00 00
       0.0 0.0 0.0 0.0
0001c0 00 00 00 00 00 00 00 00 00 00 00 00 00 00 00 00
       0.0 0.0 0.0 0.0
0001d0 00 00 00 00 00 00 00 00 00 00 00 00 00 00 00 00
       0.0 0.0 0.0 0.0
0001e0 00 00 00 00 00 00 00 00 00 00 00 00 00 00 00 00
       0.0 0.0 0.0 0.0
0001f0 00 00 00 00 00 00 00 00 00 00 00 00 00 00 00 00
       0.0 0.0 0.0 0.0

network_body._body_endoder.seq_layers.0.weight f4 [128, 6]
000000 9e 48 c4 be fc 7e 59 3e 48 bc 17 3f f2 22 31 3f
       -0.38336653 0.21239847 0.5927167 0.6919395
000010 a9 86 0f 3f 0b 9f 65 3e 36 52 09 3f 71 ab 8b be
       0.5606485 0.22423951 0.5364107 -0.27279237
000020 57 90 f4 be b5 18 13 3f b6 0c 52 be 29 fa 6d be
       -0.47766373 0.57459575 -0.20512661 -0.2323996
000030 35 1b a9 3e e1 59 ad 3d 32 ad e5 3e ee be 28 bf
       0.3302857 0.08464409 0.448587 -0.65916336
000040 f1 46 03 bf 64 75 96 be c8 49 b4 3e b4 66 18 be
       -0.51280123 -0.29386437 0.3521254 -0.14882928
000050 59 69 7f 3c 54 da 14 bf aa 5f 00 3f 4a 2d 64 3c
       0.015589082 -0.5814564 0.5014597 0.013926813
000060 e7 70 95 3e 46 b9 14 bf 37 25 37 be 65 1f fc 3d
       0.291877 -0.58095205 -0.1788529 0.123106755
000070 c4 1e 03 3e 45 a7 82 be 5c d0 1f bf db 27 58 bd
       0.12804705 -0.25518242 -0.62427306 -0.052772384
000080 83 de 22 be b0 28 8d be f2 05 1f 3e 01 fc ad 3e
       -0.15905194 -0.27570105 0.15529612 0.33981326
000090 ff 36 63 be cc c2 16 be 47 75 05 3f 25 b7 20 be
       -0.22188948 -0.14722747 0.52132076 -0.15694864
0000a0 04 a9 e8 be 7e 23 42 3e ab 01 94 3e e2 45 0a 3e
       -0.4544145 0.18958852 0.28907523 0.1350322
0000b0 7c 4b 01 bf ab fc 82 be 3f 73 d7 3e c0 26 a8 3e
       -0.50505805 -0.25583395 0.42080113 0.32842064
0000c0 2a cb 1a bf 9f f6 eb bd b9 ad 52 bf 2b b2 10 3e
       -0.60466254 -0.115216486 -0.8229633 0.14130466
0000d0 fe 9c bb bc 53 f0 3b be 96 04 03 3e f6 bd 0b bf
       -0.022902008 -0.18353395 0.12794718 -0.5458673
0000e0 a9 65 9d 3e dd 70 5f 3e 66 22 b6 3e d2 2d d2 3e
       0.30741623 0.21820398 0.3557312 0.41050583
0000f0 cd e0 b9 be 23 4f a5 be 54 c5 48 bb af 01 28 be
       -0.36304322 -0.3228694 -0.0030635195 -0.16406892
000100 e9 23 08 3e dd c6 f1 3e 84 89 3a 3e 08 88 e3 be
       0.13294949 0.47222033 0.1821652 -0.4443972
000110 3d b8 5a 3f e9 d4 0c 3d cd fd 18 3f d4 39 f7 3e
       0.85437375 0.034382734 0.5976227 0.48286307
000120 e3 09 59 bf 7e 7c 08 bc 1e ba 79 3e f5 50 a2 3e
       -0.8478071 -0.0083304625 0.24387404 0.3170239
000130 b3 91 35 bc bc 51 e1 be a2 d7 89 bd f9 83 1f bf
       -0.011082101 -0.4400767 -0.06730582 -0.6231075
000140 c0 ee cd 3d 4e af 80 3e ae c6 f3 3e c5 6c 17 bf
       0.100553036 0.25133747 0.47612518 -0.59150344
000150 21 4d 3d bf 28 21 62 bc bb 08 86 bd 4d 4f e2 bd
       -0.73945814 -0.01380185 -0.06544634 -0.11050282
000160 dc c1 65 bf db 0d 51 be f2 0a 07 be 75 bf 26 bf
       -0.8974893 -0.20415442 -0.13187769 -0.6513589
000170 0e ce 73 be 18 09 55 3d c6 24 af be c3 68 38 bb
       -0.23809072 0.052010626 -0.34207743 -0.0028138615
000180 63 ea 27 3e d7 fe 01 bf f7 f4 9f be 67 a3 37 be
       0.16398005 -0.5077948 -0.3124158 -0.17933427
000190 ab 1f 13 3e 4c ad c4 be 41 5e 34 bb e8 dc 4e bf
       0.14367549 -0.38413465 -0.0027522 -0.80805826
0001a0 7e 08 b4 3d fa 2f b3 be 0d ad 25 bf 3c e7 0e bf
       0.08790682 -0.3499754 -0.6471718 -0.55821586
0001b0 0f 8e 47 3e c0 24 1e bf c2 34 db be 73 b3 e9 3d
       0.19487785 -0.61774826 -0.4281369 0.1141118
0001c0 61 97 9c be 1c fe ff 3d 09 dd 46 bf 87 23 00 bf
       -0.30584243 0.124996394 -0.7768102 -0.5005421
0001d0 a3 c0 93 3e f6 30 46 bf 4c 8d d4 bc 4f 8f 10 3e
       0.28857908 -0.7741846 -0.025946282 0.14117168
0001e0 86 97 c5 be d5 15 f5 bd ab 62 f7 be 2d 4e 5f 3f
       -0.38592166 -0.11967055 -0.48317465 0.8722866
0001f0 ca d6 1a bd 89 ce b8 bd 7a a4 5e 3e 10 61 ff bc
       -0.037802495 -0.090237685 0.2174243 -0.031174213
000200 4d 7d e4 3e ad 64 32 bf 99 b4 ee 3e bf bf 6c 3e
       0.44626847 -0.6968487 0.4662216 0.2312002
000210 8c 82 a7 3e ee 9e 70 bd 75 3e 61 bd c0 3b e2 3e
       0.32716787 -0.058745317 -0.054991204 0.4418621
000220 03 8b c6 be d6 ee 40 3f 4b 42 c6 3e 92 42 f4 3c
       -0.38777933 0.75364435 0.38722453 0.0298169
000230 26 22 5a 3f 6d e3 83 be 17 92 db 3e cd e7 0a bf
       0.85208356 -0.2575945 0.42884895 -0.5425995
000240 41 42 ae 3d 74 f9 06 bf d7 60 9e be b5 29 25 3e
       0.08508731 -0.52724385 -0.30933258 0.16129191
000250 99 a5 b7 3d 04 33 b4 bc cb c5 ff bd e6 0a 48 bd
       0.08967132 -0.021996982 -0.12488898 -0.04883852
000260 46 67 39 3f 88 dd 03 3f fb 80 56 bf 41 96 e2 bd
       0.7242321 0.51509905 -0.8379056 -0.11063815
000270 97 5f 86 be 35 12 5a bd 15 e9 89 be ef 59 ba 3c
       -0.26244804 -0.05324002 -0.2693564 0.022747962
000280 55 6d b2 3d 75 44 62 be 12 45 a2 3e 68 17 1d bf
       0.0871226 -0.22096427 0.3169332 -0.6136384
000290 27 af 6a 3d e8 b9 f8 bc b4 08 63 3e 5d bf 40 bf
       0.057295945 -0.030362085 0.22171289 -0.75292
0002a0 c7 fc 68 bf 9d e2 8e 3e 30 04 a4 be 76 5c 3c bf
       -0.9101071 0.27907267 -0.32034445 -0.73578584
0002b0 48 f1 37 3c 78 28 0b 3f ac 6b 66 3f 60 1e d5 3e
       0.0112269595 0.54358625 0.90008044 0.41624737
0002c0 93 04 fa 3d 55 6d 22 bf 14 0d 18 bf f5 4e ab 3e
       0.12207904 -0.6344808 -0.59394956 0.33458677
0002d0 6e 6c a8 3e 1d e7 9b bc fe b4 06 3f d5 e2 a0 be
       0.32895225 -0.019031102 0.5261992 -0.3142306
0002e0 62 ad 92 be b0 9f de 3e 80 1c 4b 3e 87 df d7 bd
       -0.28647906 0.43481207 0.1983509 -0.10540681
0002f0 a2 f0 ad 3c bd 8a 51 3f eb 77 aa 3e b8 33 23 bf
       0.021232907 0.8185232 0.33294615 -0.6375079
000300 5a d9 d1 3e 4c 14 d9 be 9a 5f c8 3c a2 1a 0c bf
       0.4098614 -0.42398298 0.024459649 -0.5472814
000310 15 fb 45 be 7f cf 28 3f 39 23 0c 3f c8 3e 54 3f
       -0.19334061 0.65941614 0.54741246 0.82908297
000320 d8 72 a3 bd e0 8a 2b bf 27 d6 ab 3e 04 c7 d2 3b
       -0.07980889 -0.6700878 0.33561823 0.006432416
000330 ec e3 ba 3e 8a b4 5e 3e 3d b5 2f 3c 55 d0 29 be
       0.36502016 0.21748558 0.010724363 -0.16583379
000340 bb d2 42 3e dd 4a 99 3e d5 1d aa be c6 20 fb be
       0.190257 0.2993993 -0.33225885 -0.49048442
000350 07 37 00 3f 00 24 01 bf 89 41 08 3e be 3c b9 3c
       0.50083965 -0.50445557 0.1330625 0.022611972
000360 6b ef 4b bf 86 a5 ca 3d 1f 98 4a 3d da 06 e4 3e
       -0.796622 0.09894852 0.04946148 0.44536477
000370 26 e6 d5 be 56 78 60 be 8c ca 64 be 58 78 b8 be
       -0.41777152 -0.21920905 -0.2234289 -0.36029315
000380 65 7c ef be 78 d3 3b be 3a 74 49 3e 15 e3 12 bd
       -0.46774593 -0.18342388 0.19673243 -0.035861094
000390 dd e6 8c 3d 65 e4 bd bb 2d 30 30 be 39 6b 1e 3e
       0.06879971 -0.005795049 -0.17205878 0.1547059
0003a0 ef 64 7b be 4c 83 70 3d 7c 94 0d 3e f6 9c a1 bd
       -0.24550222 0.058718964 0.13826174 -0.07891266
0003b0 66 e7 fe bc 71 e9 96 bf 90 a4 cb be 1a dd f5 3d
       -0.031116199 -1.1789991 -0.3977399 0.120050624
0003c0 a0 6a d3 be 5d 8c 36 be 14 b7 21 3f a0 04 49 3d
       -0.41292286 -0.17826982 0.6316998 0.049076676
0003d0 3c 36 d1 3c 5f f3 00 bf 69 82 11 3e 24 70 36 bf
       0.025538556 -0.50371355 0.14209904 -0.71264863
0003e0 1f 26 51 be 29 87 02 3e c4 2b 80 3d df 41 8d 3e
       -0.20424698 0.12746872 0.06258348 0.27589318
0003f0 b9 c2 ac bc 73 9f cd 3e b0 87 c2 bd da dd dd be
       -0.021088945 0.40160713 -0.094985366 -0.43333322

network_body._body_endoder.seq_layers.2.bias f4 [128]
000000 00 00 00 00 00 00 00 00 00 00 00 00 00 00 00 00
       0.0 0.0 0.0 0.0
000010 00 00 00 00 00 00 00 00 00 00 00 00 00 00 00 00
       0.0 0.0 0.0 0.0
000020 00 00 00 00 00 00 00 00 00 00 00 00 00 00 00 00
       0.0 0.0 0.0 0.0
000030 00 00 00 00 00 00 00 00 00 00 00 00 00 00 00 00
       0.0 0.0 0.0 0.0
000040 00 00 00 00 00 00 00 00 00 00 00 00 00 00 00 00
       0.0 0.0 0.0 0.0
000050 00 00 00 00 00 00 00 00 00 00 00 00 00 00 00 00
       0.0 0.0 0.0 0.0
000060 00 00 00 00 00 00 00 00 00 00 00 00 00 00 00 00
       0.0 0.0 0.0 0.0
000070 00 00 00 00 00 00 00 00 00 00 00 00 00 00 00 00
       0.0 0.0 0.0 0.0
000080 00 00 00 00 00 00 00 00 00 00 00 00 00 00 00 00
       0.0 0.0 0.0 0.0
000090 00 00 00 00 00 00 00 00 00 00 00 00 00 00 00 00
       0.0 0.0 0.0 0.0
0000a0 00 00 00 00 00 00 00 00 00 00 00 00 00 00 00 00
       0.0 0.0 0.0 0.0
0000b0 00 00 00 00 00 00 00 00 00 00 00 00 00 00 00 00
       0.0 0.0 0.0 0.0
0000c0 00 00 00 00 00 00 00 00 00 00 00 00 00 00 00 00
       0.0 0.0 0.0 0.0
0000d0 00 00 00 00 00 00 00 00 00 00 00 00 00 00 00 00
       0.0 0.0 0.0 0.0
0000e0 00 00 00 00 00 00 00 00 00 00 00 00 00 00 00 00
       0.0 0.0 0.0 0.0
0000f0 00 00 00 00 00 00 00 00 00 00 00 00 00 00 00 00
       0.0 0.0 0.0 0.0
000100 00 00 00 00 00 00 00 00 00 00 00 00 00 00 00 00
       0.0 0.0 0.0 0.0
000110 00 00 00 00 00 00 00 00 00 00 00 00 00 00 00 00
       0.0 0.0 0.0 0.0
000120 00 00 00 00 00 00 00 00 00 00 00 00 00 00 00 00
       0.0 0.0 0.0 0.0
000130 00 00 00 00 00 00 00 00 00 00 00 00 00 00 00 00
       0.0 0.0 0.0 0.0
000140 00 00 00 00 00 00 00 00 00 00 00 00 00 00 00 00
       0.0 0.0 0.0 0.0
000150 00 00 00 00 00 00 00 00 00 00 00 00 00 00 00 00
       0.0 0.0 0.0 0.0
000160 00 00 00 00 00 00 00 00 00 00 00 00 00 00 00 00
       0.0 0.0 0.0 0.0
000170 00 00 00 00 00 00 00 00 00 00 00 00 00 00 00 00
       0.0 0.0 0.0 0.0
000180 00 00 00 00 00 00 00 00 00 00 00 00 00 00 00 00
       0.0 0.0 0.0 0.0
000190 00 00 00 00 00 00 00 00 00 00 00 00 00 00 00 00
       0.0 0.0 0.0 0.0
0001a0 00 00 00 00 00 00 00 00 00 00 00 00 00 00 00 00
       0.0 0.0 0.0 0.0
0001b0 00 00 00 00 00 00 00 00 00 00 00 00 00 00 00 00
       0.0 0.0 0.0 0.0
0001c0 00 00 00 00 00 00 00 00 00 00 00 00 00 00 00 00
       0.0 0.0 0.0 0.0
0001d0 00 00 00 00 00 00 00 00 00 00 00 00 00 00 00 00
       0.0 0.0 0.0 0.0
0001e0 00 00 00 00 00 00 00 00 00 00 00 00 00 00 00 00
       0.0 0.0 0.0 0.0
0001f0 00 00 00 00 00 00 00 00 00 00 00 00 00 00 00 00
       0.0 0.0 0.0 0.0

network_body._body_endoder.seq_layers.2.weight f4 [128, 128]
000000 5a de e3 3d d6 6d 79 bc e6 d9 a6 bc 9c 87 0d bd
       0.111263946 -0.015223941 -0.020367574 -0.034553155
000010 5a 08 e2 bd 8e 06 50 bc bb 91 cd 3d da ee 42 bc
       -0.11036749 -0.012696875 0.100375615 -0.011897767
000020 1e 01 be 3c 45 a6 63 bc 42 b8 56 bd 20 b3 c8 3d
       0.023193892 -0.013894622 -0.052421816 0.097997904
000030 dc ef 27 bd 43 86 db bd fe dc c4 3d 9d f8 1a bd
       -0.041000232 -0.10718968 0.096124634 -0.037834752
000040 5b 49 97 bd 37 c6 c8 3c 73 99 2a 3d e4 19 42 3d
       -0.07387038 0.024508579 0.041650247 0.047387972
000050 1b 74 ad bd 3c e2 4b bd 4d 14 0d 3e 89 00 1c be
       -0.08469411 -0.0497763 0.13777275 -0.15234579
000060 b0 ee 34 3e 7a b4 cc bd de cb 30 3e e0 10 f5 bb
       0.17669177 -0.09995361 0.17265269 -0.0074788183
000070 0b 62 97 bd a4 e7 01 bd 17 3e 88 bc a5 a4 3a bc
       -0.07391747 -0.03171505 -0.01663117 -0.011391793
000080 19 03 02 bc 4f bd 3b 3d 63 3f cf bd 1a f4 7c 3d
       -0.007935309 0.045834836 -0.10119512 0.06175623
000090 c0 e3 a8 bd f8 d5 3e 3e c5 0e 9f bd 95 9c 12 3d
       -0.08246565 0.1863631 -0.07766489 0.03579386
0000a0 a1 0a aa 3c 94 0e 4a 3d 50 6e cc bc 18 2d 82 3d
       0.020757021 0.04933031 -0.024954945 0.06356257
0000b0 a2 c3 4e be a6 4f c7 bc 5c ff 8c bc 09 cd 04 3d
       -0.20191815 -0.024329972 -0.017211609 0.0324221
0000c0 59 5b 04 3d a1 96 db 3d ed d3 7b 3d 66 11 69 bd
       0.03231368 0.107220896 0.061481405 -0.056901358
0000d0 95 90 dc 3c 25 35 0d be b1 e2 16 3e 7c 00 01 3e
       0.02692441 -0.13789804 0.14734913 0.12597841
0000e0 46 72 a4 3c fd ad 01 3c 82 58 a9 3d 1f d8 f2 bd
       0.020074021 0.007915017 0.08268835 -0.11857628
0000f0 fc 88 b1 3d a3 fc 4c 3e 28 4c 2c 3e e2 54 6f 3c
       0.08668706 0.20018248 0.16825926 0.01460764
000100 55 db 12 3c 9e 98 48 3e 20 07 17 bd ef a9 39 3a
       0.008963426 0.19589469 -0.03687203 0.0007082512
000110 47 31 fa bc 99 ba 8e bd 00 68 e6 3d 9f 26 ea 3d
       -0.030541075 -0.069691844 0.11250305 0.11433148
000120 16 ed 9b bd c4 fd 32 bd d2 12 c5 bd ed 4b 31 bd
       -0.0761358 -0.04369904 -0.0962273 -0.0432853
000130 81 ac fa bc fd 63 a3 3d 45 09 04 be b2 7d 63 bc
       -0.030599834 0.079780556 -0.12894161 -0.013884949
000140 c0 33 2e 3c 54 24 a7 3d 3f 49 70 bd ab db 13 bd
       0.010632455 0.08161226 -0.058663603 -0.036098164
000150 88 a0 84 3d 9d b6 fe bd 17 95 80 bd 7a 78 d1 bd
       0.064759314 -0.124371745 -0.06278437 -0.10228057
000160 b9 ff 05 3e 1c 36 b8 bd 95 f7 4d 3d fe f0 e1 3d
       0.13085832 -0.089946955 0.05028494 0.11032294
000170 e4 85 6a 3c 8b 87 03 bc 03 1d 6c bb 80 38 f0 3d
       0.014314149 -0.008027921 -0.0036028035 0.117295265
000180 de ec 3d bd d8 8d e5 bc 26 93 06 bc 97 b3 30 bd
       -0.046368472 -0.028021738 -0.008213794 -0.04314002
000190 cc 78 b4 bd 3e cf b3 bd f3 d3 e1 bc fb 56 31 3c
       -0.08812103 -0.08779763 -0.027566886 0.01082396
0001a0 f1 fd 07 3e f1 f6 69 bd 33 c3 dc bd 85 c1 88 3d
       0.13280465 -0.057120267 -0.10779419 0.06677536
0001b0 d8 59 45 bc 45 0a a8 bd a6 b4 49 3d 57 09 3e 3b
       -0.012045346 -0.08205084 0.049244545 0.0028997266
0001c0 c9 c2 11 be 0a ed cb 3c 28 75 bf 3c 95 f2 9a bc
       -0.14234461 0.024893302 0.023371294 -0.0189145
0001d0 98 95 b9 3d 21 6b c6 3c ca df 0f 3e 96 6f f7 bc
       0.09061736 0.024221005 0.14050213 -0.030204576
0001e0 0e f3 1e 3c 0b d4 21 be 61 9c 16 3d fa 01 26 be
       0.009701503 -0.15803544 0.03677023 -0.16211691
0001f0 6d 01 b6 3c d7 c3 0b 3d ad 49 ab 3d 20 44 a8 bd
       0.022217477 0.034122314 0.08363662 -0.08216119
000200 e6 f7 24 bd 11 ca 5f bd dc 69 d3 bd e4 24 1f be
       -0.040275477 -0.054636065 -0.103229254 -0.15541416
000210 f2 c3 f0 3d e3 83 50 3d 4a 4f 56 bd 34 6a d8 3b
       0.117561236 0.050907027 -0.05232171 0.0066044573
000220 88 1b b5 3d 9e 2a fb bd e7 84 26 3e 43 92 e7 bd
       0.08843142 -0.12263988 0.16261636 -0.11307194
000230 70 f7 4b be ca 93 da 3c 61 f3 32 bd 57 b5 5d 3e
       -0.19918609 0.0266818 -0.043689135 0.21651207
000240 71 7f b9 3c 80 cf 01 3e 19 f9 46 bd 07 24 ea 3d
       0.022643777 0.12676811 -0.0485774 0.11432653
000250 ca ce f6 3c 21 ac 1c bd 27 57 c0 3c d7 52 3e bd
       0.030127902 -0.038250092 0.023479057 -0.04646572
000260 7d 13 21 3c f6 c4 da 3d 07 21 fa bc cf 9a 2d be
       0.0098313065 0.106820986 -0.030533327 -0.16953586
000270 5b da 15 3e 9d 1b 40 bd 75 ca 52 3d a6 53 80 bd
       0.14634077 -0.046901334 0.05146261 -0.06265955
000280 c9 2b cb 3b d4 6f 06 3c c2 f6 c4 3d 8e 54 45 be
       0.006200288 0.008205373 0.09617378 -0.19270536
000290 f2 4a 94 bd 53 3e 9f 3d f3 1a 03 3d 10 a9 a1 3d
       -0.07240857 0.07775559 0.032008123 0.07893574
0002a0 c0 2d 02 3c e4 dd 3a 3b ce 5b 25 3a 43 6d 59 bd
       0.007945478 0.0028513605 0.00063079305 -0.053082716
0002b0 a4 3c e2 bd b8 31 a6 3d e0 99 22 3d 09 70 7b 3c
       -0.110467225 0.08114952 0.039697528 0.0153465355
0002c0 86 fa 9e 3c b3 c8 68 3d 6f 40 85 bd 99 8b b0 3d
       0.019406568 0.056832027 -0.0650643 0.08620376
0002d0 86 f9 3d 3c 77 aa d7 3d 3a 81 79 3b 49 b8 0d 3d
       0.011595136 0.105305605 0.003807141 0.034599576
0002e0 52 1a dc ba 65 6d 3c bd fa b8 3e 3d d3 7c a1 bc
       -0.0016792512 -0.046002764 0.046563126 -0.019712841
0002f0 6b 59 22 bd 15 40 73 3d 71 59 7c 3d 3a d4 00 bd
       -0.039636057 0.059387285 0.061608735 -0.031452395
000300 df 28 3c bc b9 a8 4a be 11 cb b1 3d 42 69 9f bd
       -0.011484354 -0.19790925 0.0868131 -0.07783748
000310 a2 14 6e 3c 99 07 e5 3d 47 c7 aa 3c 89 38 e2 bd
       0.014531286 0.1118309 0.020846976 -0.110459395
000320 c2 df 20 be ad 62 17 bd b0 7f 15 be e9 79 03 be
       -0.15710357 -0.03695934 -0.1459949 -0.12839474
000330 1b b2 2c be 6d 60 15 3e 2e 84 49 3c 70 d6 bf 3c
       -0.16864817 0.14587565 0.0122995805 0.023417681
000340 12 1d a8 bb 82 9d 85 bd a6 4e 37 bd 2a 7a 60 3c
       -0.0051304186 -0.06524183 -0.04475274 0.013701001
000350 3e 27 24 be 88 83 c3 bd 16 26 01 3d b3 4b 2a 3d
       -0.16030595 -0.09546572 0.031530462 0.0415761
000360 b2 f8 5b bd eb ac 7a 3d 56 96 17 bd 48 10 86 3d
       -0.05370397 0.061200064 -0.037008606 0.06546074
000370 44 51 d9 3d 11 62 b2 3c 1f 5e a3 3d 39 e8 b7 3d
       0.10611203 0.021775277 0.079769365 0.0897984
000380 d1 36 db bd 2b 99 3f 3b 7f 42 62 3d 00 c5 19 3d
       -0.10703815 0.0029235582 0.055239197 0.03754139
000390 06 0a c0 bd 1a 55 0a 3e 09 14 97 bc 4e 01 a2 bd
       -0.09376912 0.13509026 -0.01844217 -0.07910405
0003a0 ee e1 58 3b ee 58 1b 3e 5a ba 33 be 3c 2a ca bd
       0.003309365 0.15170643 -0.17551556 -0.09871337
0003b0 09 ba 12 bd b5 9d ad 3d 8f 07 7a 3d b9 a5 c7 bc
       -0.03582195 0.08477346 0.061042365 -0.024371015
0003c0 1a 6e 41 bd 5a e3 ad bd 09 17 15 be cd d6 5d 3d
       -0.04722414 -0.084906295 -0.14559568 0.054159928
0003d0 0e 77 cc 3d 00 74 ea bd ad 01 f6 3d ec 0f 50 bd
       0.099836454 -0.114479065 0.120120384 -0.050796434
0003e0 be b0 17 3d 6f 92 b3 3c 28 9b f9 3d bc 35 39 3c
       0.03703379 0.02192041 0.12187797 0.011304315
0003f0 0b 6f 14 be 4f 86 7a 3d 15 83 20 be d0 db 2d 3e
       -0.14495485 0.061163243 -0.15675004 0.16978383
