results/MoveToGoal2/MoveToGoal/MoveToGoal-35090.onnx (onnx, 72639 bytes, 7 tensors)

action_model._continuous_distribution.log_sigma f4 [1, 2]
-0.0091438815 -0.0074260575
00000000: 38d0 15bc 4956 f3bb

action_model._continuous_distribution.mu.bias f4 [2]
-0.00050250784 -0.00019237123
00000000: bbba 03ba 42b7 49b9

action_model._continuous_distribution.mu.weight f4 [2, 128]
0.01564259 0.003837278 0.018905913 -0.04845977 0.02330309 -0.013946248 0.0013521488 -0.0020187688
-0.023583885 0.0011342565 -0.003005943 -0.037234373 0.023119096 -0.056300648 -0.014338415 -0.013615909
0.004774144 0.00016294698 -0.0029214306 -0.009183519 -0.009027063 0.040478628 0.008389119 -0.002066427
-0.025551397 -0.0022455624 -0.030102545 -0.01291752 -0.00682732 -0.006898855 0.022990065 0.0018145214
-0.02069953 0.004350694 0.009229045 0.00675417 0.022688199 -0.014243379 0.025180867 0.010162358
-0.019348068 0.013315992 0.0024065932 -0.014208812 -0.034241423 -0.031176785 0.008303609 0.017431324
0.009245506 0.002026876 -0.0029564875 -0.007039003 -0.009523842 0.008478228 -0.0039592586 -0.05599068
0.0010733503 0.00048857933 0.034234535 -0.013563634 -0.018725567 0.01000617 0.005239857 -0.009138442
-0.002060048 -0.012080113 -0.0058015618 0.003484436 0.0065295384 0.029337635 0.00036670265 0.0038748372
0.01924017 0.0017230393 -0.0150772985 0.0076197726 -0.004072434 -0.015321382 0.009608088 0.032381102
0.02201242 -0.0042409603 0.009035781 -0.012364416 -0.033750582 -0.015905099 0.017386371 -0.01264654
-0.01696462 0.00017424773 0.004731094 0.024939936 0.021900933 0.0012191368 0.0019732271 -0.012371219
-0.008578931 -0.012993528 0.024519175 0.041553054 0.028853266 -0.01682233 -0.002438876 -0.014186617
0.027171059 0.013245315 -0.03647342 -0.00040512325 -0.0026989589 0.028122343 -0.0077112913 -0.0027395664
0.010835165 0.03153831 -0.029675918 0.0013089664 -0.005102867 -0.007631332 -0.015639173 -0.026751008
0.006674945 0.02466272 0.015584823 0.006383125 0.0005078994 0.027109293 0.003016281 -0.0066787703
-0.0037514865 -0.0074815773 0.012978086 4.032831e-05 -0.017906122 -0.014697592 0.017179256 -0.019221388
0.011886234 -0.007225836 0.0007939198 -0.026267774 -0.0016137756 0.006845823 0.040581923 -0.000583009
0.001376367 0.0013683637 -0.01975306 0.01250791 0.015191415 0.013258085 0.008147938 -0.010432957
0.0031101867 0.009028853 -0.027619211 0.0039020192 -0.021386852 0.022030292 -0.013954136 0.006185772
0.03153274 -0.024261957 0.029785438 0.004177146 0.0126244305 -0.021814808 -0.0015650103 -0.014536466
-0.03459916 -0.013022344 0.0010478114 0.0030510195 0.003375448 0.044825193 0.007893507 -0.01074196
-0.015451988 -0.003297549 -0.034012564 -0.030109521 -0.0031716828 0.032527246 0.00091879274 0.003633094
-0.013938106 0.0063046473 0.011456772 0.0052408054 -0.0166997 0.035807114 0.012256867 -0.01418842
0.014219332 -0.011087904 0.0025790462 -0.0017993834 -0.0076994454 -0.005826444 0.01307129 -0.033469584
0.0147797 0.016400717 0.004855187 8.1020975e-05 -0.019912085 -0.026722334 0.005412616 -0.014676237
0.00016500925 0.010422896 0.002402843 -0.004896744 0.0006767028 -0.02660292 -0.009105047 -0.001128217
-0.019595483 -0.014326781 0.0006628979 -0.042407446 0.010339714 0.0003626648 0.002801995 -0.009560868
0.014543437 0.010128539 0.01936989 -0.0064771166 0.0054437467 0.004868903 -0.019829337 0.004170996
-0.01149814 0.010109466 -0.032113995 0.002521063 -0.02257532 0.019022418 -0.014816006 -0.019146178
-0.009693923 0.021974275 -0.0148210665 0.0031258909 0.0053526466 -0.03513591 0.0015883232 0.0012001065
-0.051063385 -0.011564422 -0.010101852 0.017464614 -0.021295832 0.0032883473 -0.008774034 -0.043078844
00000000: e424 803c d87a 7b3b 93e0 9a3c c07d 46bd
00000010: 1fe6 be3c ce7e 64bc 963a b13a 524d 04bb
00000020: fe32 c1bc 55ab 943a 5bff 44bb 1283 18bd
00000030: 4264 bd3c 829b 66bd aceb 6abc 4315 5fbc
00000040: 6c70 9c3b bfdc 2a39 7975 3fbb 7876 16bc
00000050: 3fe6 13bc ebcc 253d 8472 093c e46c 07bb
00000060: 2a51 d1bc 492a 13bb 9d99 f6bc 01a4 53bc
00000070: b6b7 dfbb ca0f e2bb a955 bc3c 3cd5 ed3a
00000080: 1092 a9bc 4490 8e3b 6c35 173c 1652 dd3b
00000090: 9adc b93c 105d 69bc 1b48 ce3c 0580 263c
000000a0: d77f 9ebc 522b 5a3c efb7 1d3b 14cc 68bc
000000b0: bc40 0cbd 7566 ffbc dc0b 083c 23cc 8e3c
000000c0: 767a 173c 56d5 043b a1c1 41bb 70a7 e6bb
000000d0: e309 1cbc 44e8 0a3c abbc 81bb 7c56 65bd
000000e0: a9af 8c3a 0114 003a 8339 0c3d 013a 5ebc
000000f0: 5c66 99bc ebf0 233c 1bb3 ab3b 67b9 15bc
00000100: df01 07bb abeb 45bc 071b bebb 235b 643b
00000110: bdf5 d53b 7b55 f03c ff41 c039 fbf0 7d3b
00000120: 909d 9d3c 9bd7 e13a c606 77bc 49af f93b
00000130: 0d72 85bb 8906 7bbc 3e6b 1d3c 0ca2 043d
00000140: 6453 b43c c1f7 8abb d00a 143c 1f94 4abc
00000150: 0d3e 0abd 694b 82bc dd6d 8e3c 6f33 4fbc
00000160: 63f9 8abc 45b6 3639 4b07 9b3b d64e cc3c
00000170: 9669 b33c 71cb 9f3a 4251 013b a7b0 4abc
00000180: a58e 0cbc cee2 54bc 70dc c83c 8933 2a3d
00000190: af5d ec3c fcce 89bc 8dd5 1fbb fc6e 68bc
000001a0: d795 de3c e102 593c 2765 15bd b966 d4b9
000001b0: 04e1 30bb d460 e63c 00af fcbb 4c8a 33bb
000001c0: fa85 313c 512e 013d e91a f3bc a091 ab3a
000001d0: f335 a7bb 4110 fabb b91d 80bc ee24 dbbc
000001e0: 7fb9 da3b 7909 ca3c 7c57 7f3c 8929 d13b
000001f0: 8d24 053a 4f14 de3c ccac 453b 96d9 dabb
00000200: 80db 75bb 0528 f5bb 0aa2 543c 3126 2938
00000210: dcaf 92bc 2bce 70bc 83bb 8c3c 2c76 9dbc
00000220: 7bbe 423c b5c6 ecbb 0e1f 503a 842f d7bc
00000230: 5385 d3ba ed52 e03b 3b39 263d 12d5 18ba
00000240: 3767 b43a ab5a b33a 2bd1 a1bc faed 4c3c
00000250: 6ae5 783c 7038 593c ee7e 053c feee 2abc
00000260: 46d4 4b3b c1ed 133c af41 e2bc 05b9 7f3b
00000270: 7b33 afbc df78 b43c e39f 64bc 04b2 ca3b
00000280: 7928 013d 03c1 c6bc 9700 f43c 71e0 883b
00000290: b3d6 4e3c f8b4 b2bc 0821 cdba 5c2a 6ebc
000002a0: d9b7 0dbd ab5b 55bc b756 893a 9df3 473b
000002b0: 9f36 5d3b 9f9a 373d c553 013c 0cff 2fbc
000002c0: 562a 7dbc b11b 58bb c250 0bbd 3ea8 f6bc
000002d0: 02dc 4fbb 4a3b 053d 23db 703a 3419 6e3b
000002e0: a75c 64bc 3797 ce3b 2fb5 3b3c 10bb ab3b
000002f0: cfcd 88bc 7baa 123d 07d1 483c 8c76 68bc
00000300: 33f8 683c 0aaa 35bc 3705 293b 4ad9 ebba
00000310: a14b fcbb c1eb bebb f728 563c 6717 09bd
00000320: 8e26 723c cc5a 863c 4318 9f3b cee9 a938
00000330: ab1e a3bc cce8 dabc 505c b13b 9974 70bc
00000340: 5506 2d39 cbc4 2a3c 0479 1d3b de74 a0bb
00000350: c264 313a 5eee d9bc 562d 15bc aee0 93ba
00000360: b586 a0bc e0ba 6abc 53c6 2d3a 6eb3 2dbd
00000370: e767 293c 0c24 be39 ada1 373b 30a5 1cbc
00000380: 9947 6e3c 2cf2 253c 9bad 9e3c fe3d d4bb
00000390: 7561 b23b 528b 9f3b 2271 a2bc daac 883b
000003a0: b262 3cbc 2ca2 253c f789 03bd 6b38 253b
000003b0: e1ef b8bc e7d4 9b3c d5be 72bc 72d8 9cbc
000003c0: 43d3 1ebc 6503 b43c 0fd4 72bc bfdb 4c3b
000003d0: 4165 af3b acea 0fbd 482f d03a e44c 9d3a
000003e0: d727 51bd b478 3dbc 3d82 25bc f311 8f3c
000003f0: 9974 aebc 5081 573b f7c0 0fbc 7173 30bd

network_body._body_endoder.seq_layers.0.bias f4 [128]
-0.0014152528 0.0003462249 0.00023243767 -0.0006566517 0.00039314516 0.00034873653 0.00013592058 -0.0009937052
0.00019612268 -0.00049022964 0.0002688805 -0.00043409344 -0.0015175339 -1.4241265e-06 0.0003721244 7.679247e-05
-0.000566233 0.000111893016 0.0003931196 -0.0010158578 0.00020411382 -0.00043596292 -0.0006037926 0.00043489476
0.0010797849 0.0008350393 -0.000952749 -0.0003640953 0.00020225532 -0.00045848906 0.0019180735 -7.1983675e-05
0.0011339927 -0.0009401671 -0.0028865864 -0.0007279003 -0.0025154196 -0.0012233683 -0.0007654849 -0.0016271195
0.00048276034 -0.0011086199 -0.0012911999 -0.0050075483 -0.000211106 9.8457036e-05 -0.0022549622 0.00010758445
0.0002861909 0.00097178813 -0.00025326348 0.00040967148 -0.00050710863 -0.0005011165 -0.0009875242 -0.0033628098
-0.0015027961 -0.00064347155 0.00033206848 0.000874073 8.753115e-05 -0.0002855035 0.0026230458 -0.00059654465
-0.00019913833 -0.00027383532 -0.00010116588 0.00024218734 -0.00039831598 0.00046649604 0.0005556834 -0.000696453
0.000329179 -0.0003203688 0.0008508398 -0.0016283257 0.0021425234 0.0010008097 -0.0016293185 -0.00084892404
0.00026822634 -0.0013347721 -0.0018110578 -0.00046454053 -0.00024561974 -0.0036764194 0.0002684399 -0.0031939086
-2.407579e-05 -0.00026934696 9.088529e-05 -0.00054268807 0.0006727401 0.00044490135 -0.0006416 -0.0013005028
-0.0015572719 0.0003080982 0.00054834207 -0.0015832935 -0.00049685384 0.0003414177 -0.00019456826 -0.00049483107
0.00011034909 -0.0011947037 0.00069450535 -0.0031155203 -0.0007281071 -0.0004796112 0.0006250469 0.00013559552
0.0006017896 0.00035075887 -0.00025685795 -0.0032759449 -0.000669973 0.00012627608 -0.00028754352 1.057483e-05
-0.0005682176 -0.0010556151 -0.00012896741 0.00013243005 4.3505654e-05 0.0004404906 -0.0005890321 -0.00032958278
00000000: 0180 b9ba 8585 b539 83ba 7339 2623 2cba
00000010: 0d1f ce39 a0d6 b639 e785 0e39 373f 82ba
00000020: 48a6 4d39 c182 00ba 88f8 8c39 0997 e3b9
00000030: fde7 c6ba 9d24 bfb5 b119 c339 a50b a138
00000040: 416f 14ba 1ba8 ea38 9f1b ce39 8826 85ba
00000050: 6307 5639 f491 e4b9 d647 1eba 9602 e439
00000060: 9287 8d3a 8ae6 5a3a e7c1 79ba 0be4 beb9
00000070: 8014 5439 5c61 f0b9 de67 fb3a f1f5 96b8
00000080: 7ba2 943a 8c75 76ba e22c 3dbb 90d0 3eba
00000090: bdd9 24bb 6e59 a0ba d2aa 48ba 1245 d5ba
000000a0: ff1a fd39 1c4f 91ba 7b3d a9ba 5c16 a4bb
000000b0: 565c 5db9 b87a ce38 fdc7 13bb f69e e138
000000c0: e40b 9639 99bf 7e3a 73c8 84b9 2dc9 d639
000000d0: 7cef 04ba 5c5d 03ba d06f 81ba 9662 5cbb
000000e0: 78f9 c4ba a5ae 28ba 7a19 ae39 0c22 653a
000000f0: ee90 b738 a2af 95b9 68e7 2b3b 6f61 1cba
00000100: cacf 50b9 8e91 8fb9 0529 d4b8 abf3 7d39
00000110: 11d5 d0b9 0a94 f439 48ab 113a 2b92 36ba
00000120: a895 ac39 2cf7 a7b9 e40a 5f3a 8b6d d5ba
00000130: 9469 0c3b 9a2d 833a db8e d5ba 548a 5eba
00000140: bba0 8c39 85f3 aeba 0461 edba 938d f3b9
00000150: 86c6 80b9 15f0 70bb 65bd 8c39 e550 51bb
00000160: 5ef6 c9b7 2337 8db9 ab99 be38 2e43 0eba
00000170: d35a 303a a641 e939 0c31 28ba a275 aaba
00000180: 601d ccba 3e88 a139 9dbe 0f3a 8486 cfba
00000190: 4c3f 02ba 4f00 b339 0505 4cb9 8db7 01ba
000001a0: 376b e738 9b97 9cba 770f 363a c22d 4cbb
000001b0: 71de 3eba 5374 fbb9 30da 233a a52e 0e39
000001c0: 6bc1 1d3a 0fe6 b739 e4aa 86b9 3cb1 56bb
000001d0: 20a1 2fba fa68 0439 70c1 96b9 8d6a 3137
000001e0: 70f4 14ba 915c 8aba 6d3b 07b9 ecdc 0a39
000001f0: d779 3638 a6f1 e639 4669 1aba dacb acb9

network_body._body_endoder.seq_layers.0.weight f4 [128, 6]
0.265277 -0.3779825 0.41534927 0.16858494 -0.841919 -0.27397612 0.18141246 0.2602751
-0.52893126 0.27217367 -0.14357792 -0.7562771 0.5347894 0.2939853 -0.46249723 -0.008772912
-0.4258198 -0.15885492 -0.22591525 0.5238274 0.25973856 -0.11504438 0.2624982 0.46769905
-0.1538007 0.6794597 -0.18813798 0.45505005 0.54523283 -0.012393133 -0.1555129 0.5039482
0.46200332 0.06644628 -0.4843515 -0.8059188 -0.16188271 -0.18511389 0.5464397 -0.4576494
0.49581695 -0.8017081 0.12858564 -0.25695217 0.3932501 0.11461604 -0.54477185 0.37772426
-0.0951435 0.7262678 0.42637005 -0.39832285 0.17626813 -0.46552438 -0.35868627 0.73511726
-0.15394597 -0.44340253 0.5823981 0.2693793 0.4814527 0.014454747 -0.26616457 0.17381081
0.38799563 -0.4670234 0.091772884 0.36682063 0.10361437 0.009627479 -0.028263224 -1.2585788
0.055265147 -0.013642723 -0.9763343 -0.6347551 -0.28518802 0.5546352 0.6103914 -0.8656524
-0.40666652 -0.80118585 0.31793785 -0.0053432393 0.4429721 -0.16062896 -0.036141098 0.22040534
-0.6638249 0.08878215 0.4670801 0.24834025 0.039815452 0.3286865 -0.18305436 -0.28033805
-0.24982528 0.6270197 -0.091857985 -0.19304241 0.42065307 -0.2187155 -0.56145936 0.3596215
-0.23751031 0.20759732 -0.4516383 -0.0093493955 -0.45298386 -0.22487505 -0.11633544 0.491168
-0.38339433 -0.1155066 0.087348334 -0.15708719 0.8812236 -0.06211852 -0.47110805 -0.10004642
0.18586624 -0.03225639 0.68302983 0.045497112 -0.13083106 -0.074369006 0.09169909 0.1753487
0.11205027 0.15891586 0.0033853147 -0.06304589 -0.8603459 0.46610066 -0.19214723 0.013938278
-0.25634232 -0.15995952 0.06881661 -0.022963874 -0.24193962 0.42959708 0.3250402 0.07396468
-0.10029451 -0.06427832 -0.08885998 -0.2258577 0.22313848 -0.19562364 -0.2683559 -0.284225
0.18538292 -0.36124185 -0.39706787 0.034395456 0.89076865 -0.5693523 -1.0177511 -0.63117754
0.055067774 -0.21031667 0.087489106 -0.19385691 -0.19157034 -0.5714854 0.63473934 0.8121784
-1.2716047 0.47809407 0.50733143 -0.043661468 0.6424769 0.01610042 -0.15052295 0.0013411117
0.12298061 0.6389577 -0.343523 -0.28816158 0.23902164 -0.16870694 0.3099118 0.37414554
-0.00022098304 0.093047164 0.07349635 -0.3983306 -0.30046758 -0.23742923 -0.48497763 0.289042
0.39876965 -0.5164454 0.36199963 -0.13829783 0.34835577 -0.51002014 -0.19495468 0.5779695
0.3451221 -0.13489595 -0.361562 -0.26271287 0.17452437 0.2085463 0.5431609 0.29766968
0.39499772 0.36875793 -0.4837963 0.18850772 0.4865896 -0.10771298 0.27482015 -0.2222262
-0.7286597 0.0055949865 -0.15352938 -0.06434984 -0.2993739 0.45750362 0.29047656 -0.3026967
0.39231485 -0.42014763 -0.0021832483 0.15814228 -0.6598623 -0.285639 0.08755736 0.23030375
0.06927211 -0.37661484 -0.6192244 -0.39597988 -0.06376809 0.16550492 -0.24497397 -0.093367234
0.21676864 0.7885725 -0.42350855 -0.10518972 0.20919815 0.20650049 -0.70106894 0.14237753
0.058670767 0.38323197 -0.16722022 -0.0860705 -0.0068867523 0.4900507 -0.2417118 0.05448919
00000000: 63d2 873e ec86 c1be a9a8 d43e 88a1 2c3e
00000010: 0188 57bf 9946 8cbe 30c4 393e c742 853e
00000020: 0a68 07bf 595a 8b3e 1706 13be 609b 41bf
00000030: f5e7 083f 3e85 963e 70cc ecbe 43bc 0fbc
00000040: 0e05 dabe ddaa 22be 5456 67be 8d19 063f
00000050: 74fc 843e 639c ebbd 2a66 863e 4076 ef3e
00000060: ee7d 1dbe 12f1 2d3f 3ea7 40be 52fc e83e
00000070: 6194 0b3f 910c 4bbc c63e 1fbe c002 013f
00000080: b38b ec3e fd14 883d ebfc f7be b250 4ebf
00000090: 95c4 25be 7f8e 3dbe 79e3 0b3f 0651 eabe
000000a0: b8db fd3e be3c 4dbf f4ab 033e 3c8f 83be
000000b0: 1458 c93e d0bb ea3d 2b76 0bbf 1365 c13e
000000c0: 98da c2bd b0ec 393f 2d4d da3e f9f0 cbbe
000000d0: a27f 343e 3659 eebe baa5 b7be a530 3c3f
000000e0: 03a4 1dbe a805 e3be 0b18 153f 15ec 893e
000000f0: f880 f63e 9ad3 6c3c b946 88be 76fb 313e
00000100: 5da7 c63e b11d efbe 6cf3 bb3d eacf bb3e
00000110: c533 d43d 93bc 1d3c 4788 e7bc 1c19 a1bf
00000120: b55d 623d ba85 5fbc 0bf1 79bf 4f7f 22bf
00000130: 2a04 92be 93fc 0d3f 9c42 1c3f 659b 5dbf
00000140: 9836 d0be 841a 4dbf c0c8 a23e 5716 afbb
00000150: 3dcd e23e eb7b 24be b008 14bd f0b1 613e
00000160: 6ef0 29bf 6ad3 b53d 1f25 ef3e e84c 7e3e
00000170: 8715 233d 9949 a83e 9a72 3bbe 7888 8fbe
00000180: 33d2 7fbe 5d84 203f 0a20 bcbd e9ac 45be
00000190: d75f d73e f5f6 5fbe cdbb 0fbf 4f20 b83e
000001a0: e735 73be 6494 543e 233d e7be 352e 19bc
000001b0: 80ed e7be a545 66be 4641 eebd 5f7a fb3e
000001c0: 434c c4be b98e ecbd afe3 b23d 77db 20be
000001d0: df97 613f fd6f 7ebd 1335 f1be 23e5 ccbd
000001e0: b853 3e3e 471f 04bd 0bdb 2e3f 2e5b 3a3d
000001f0: 94f8 05be c74e 98bd bccc bb3d 9c8e 333e
00000200: 9d7a e53d d7ba 223e 28dc 5d3b 341e 81bd
00000210: a13f 5cbf bfa4 ee3e 3ec2 44be 605d 643c
00000220: 4d3f 83be 6ecc 23be b9ef 8c3d bc1e bcbc
00000230: 05bf 77be 26f4 db3e ab6b a63e cb7a 973d
00000240: 3567 cdbd 5aa4 83bd 39fc b5bd 3e47 67be
00000250: 6a7e 643e 9051 48be f265 89be f085 91be
00000260: 05d5 3d3e b1f4 b8be 7b4c cbbe 40e2 0c3d
00000270: 6a09 643f 13c1 11bf ab45 82bf da94 21bf
00000280: bf8e 613d 415d 57be 7d2d b33d 6d82 46be
00000290: 042b 44be de4c 12bf 477e 223f ecea 4f3f
000002a0: f1c3 a2bf bfc8 f43e 79e0 013f 5ed6 32bd
000002b0: 5e79 243f 07e5 833c b022 1abe 3ec8 af3a
000002c0: 42dd fb3d bb92 233f 3fe2 afbe ea89 93be
000002d0: 17c2 743e 83c1 2cbe c2ac 9e3e 0190 bf3e
000002e0: afb7 67b9 838f be3d 4185 963d fdf1 cbbe
000002f0: e3d6 99be a620 73be fd4e f8be 50fd 933e
00000300: 892b cc3e c435 04bf 0458 b93e f29d 0dbe
00000310: b05b b23e ae90 02bf 33a2 47be cff5 133f
00000320: d8b3 b03e 2a22 0abe a81e b9be 4d82 86be
00000330: 84b6 323e 298d 553e 980c 0b3f 2968 983e
00000340: 243d ca3e d7cd bc3e 26b4 f7be 2b08 413e
00000350: 4622 f93e 9f98 dcbd 3ab5 8c3e 448f 63be
00000360: 7189 3abf 2656 b73b ce36 1dbe d9c9 83bd
00000370: 8947 99be ea3d ea3e 58b9 943e 10fb 9abe
00000380: 7edd c83e 971d d7be d414 0fbb 0df0 213e
00000390: bcec 28bf 463f 92be 4651 b33d bfd4 6b3e
000003a0: 89de 8d3d a9d3 c0be 7e85 1ebf e0bd cabe
000003b0: d898 82bd 1f7a 293e 75da 7abe 5237 bfbd
000003c0: 99f8 5d3e e3df 493f 1dd6 d8be b56d d7bd
000003d0: 0a38 563e dd74 533e 4179 33bf 6acb 113e
000003e0: c250 703d fb36 c43e c73b 2bbe bb45 b0bd
000003f0: 44aa e1bb ede7 fa3e 4c83 77be 0f30 5f3d

network_body._body_endoder.seq_layers.2.bias f4 [128]
0.00078628067 -0.001793778 0.00018000019 -0.0011058172 4.493898e-05 -0.00062386156 -0.00092238 -0.00060590607
-0.0007172716 -0.0006607039 -0.0008647029 0.0004909551 -0.00075042277 0.00045245112 -0.00023322242 -0.0004170091
0.00050561916 -0.0021328023 0.00049170427 -0.0011031971 -0.0010178849 0.00015727454 0.0006426412 -0.00016651006
-0.00045200172 -0.00085206196 -0.00023216373 -0.0018060443 0.000586812 -0.0010750871 -0.0006342455 -0.0011458433
0.0002913018 -0.0011125498 -0.0005730927 -0.0008650031 -0.0007303808 -0.0020670572 -0.0014615085 -0.0005306019
0.0006521979 0.00067092676 -0.0011828719 -0.0009891108 -0.0009838719 0.00029753576 0.00075119274 -0.0007788518
-0.00064141187 -0.0013185424 0.0002617197 0.0012530056 0.0002741734 -0.0012930685 -0.0010028704 -0.00043772766
-0.00074780534 -0.0014424116 0.00025185116 0.00030104656 0.0004540115 -0.0011658777 -0.001243898 -0.0008364552
-0.00034889783 -5.973524e-05 -0.001036031 -0.00047781694 -0.00066703017 0.000284318 -0.0008213972 -9.825712e-05
-0.0006664539 -0.0013744337 0.00081834925 6.356359e-05 9.514596e-05 -0.0005094385 -0.0007808619 0.0001346751
0.00055949314 -0.0003836053 -3.1244574e-05 0.0003187553 0.00044795446 0.0006214032 -0.0004818987 0.00046083162
0.0004696788 -0.0002484804 0.002435034 -0.0003823034 0.00037553642 -0.0016429428 -0.0014905963 0.00029379685
0.00013498234 -0.0012736665 -0.00060659216 -0.00055331073 0.00045912663 -0.0010478203 -0.0011581848 0.0004945248
-0.000292735 -0.0007623289 0.0005517553 -0.001729926 7.042728e-05 -0.0011448297 -0.0018936411 0.0006222502
-0.0005941579 -7.3775445e-05 -0.002106632 -0.0019438299 -0.00054930383 0.0002328857 -0.0024630942 0.00012984649
-3.2386783e-05 -0.0008798753 -0.00056097464 -0.00016675593 -0.0010169209 0.00061968813 -0.0006275563 0.00018963977
00000000: 671e 4e3a 341d ebba 6fbe 3c39 11f1 90ba
00000010: dd7c 3c38 a48a 23ba e0cb 71ba abd5 1eba
00000020: 4807 3cba 1733 2dba 3bad 62ba 70b3 003a
00000030: 05b8 44ba f636 ed39 2b8d 74b9 04a2 dab9
00000040: 878b 043a 7cc6 0bbb b7e5 003a 2799 90ba
00000050: 8d6a 85ba 10ea 2439 ec76 283a 3499 2eb9
00000060: a5fa ecb9 e95c 5fba fa70 73b9 cab8 ecba
00000070: 49d4 193a f0e9 8cba 7f43 26ba 1f30 96ba
00000080: deb9 9839 fad2 91ba 9a3b 16ba 60c1 62ba
00000090: 0777 3fba 7777 07bb 1690 bfba 1718 0bba
000000a0: 43f8 2a3a 22e1 2f3a 980a 9bba 0da5 81ba
000000b0: 43f5 80ba 93fe 9b39 b1eb 443a dc2b 4cba
000000c0: 6c24 28ba f1d2 acba 6c37 8939 e43b a43a
000000d0: eebe 8f39 2e7c a9ba bf72 83ba d07e e5b9
000000e0: 5e08 44ba 4d0f bdba e40a 8439 c9d5 9d39
000000f0: 6408 ee39 5dd0 98ba 4a0a a3ba 8f45 5bba
00000100: 46ec b6b9 3a8c 7ab8 6fcb 87ba 8183 fab9
00000110: a3db 2eba 8410 9539 0853 57ba 640f ceb8
00000120: f7b4 2eba 5826 b4ba 7d86 563a 714d 8538
00000130: 1989 c738 d78b 05ba c1b2 4cba 9237 0d39
00000140: f3aa 123a a21e c9b9 9b0c 03b8 9d1e a739
00000150: 6edb ea39 aae5 223a 59a7 fcb9 c69b f139
00000160: 393f f639 7a46 82b9 1795 1f3b e56f c8b9
00000170: a5e3 c439 0358 d7ba 1d60 c3ba bf08 9a39
00000180: 0c8a 0d39 28f1 a6ba b603 1fba 0e0c 11ba
00000190: efb6 f039 0457 89ba 3cce 97ba ffa2 013a
000001a0: 3a7a 99b9 07d7 47ba aca3 103a afbe e2ba
000001b0: 5cb2 9338 1c0e 96ba 0d34 f8ba 811e 233a
000001c0: 43c1 1bba e4b7 9ab8 6c0f 0abb 1cc8 feba
000001d0: 28ff 0fba c732 7439 dd6b 21bb 6727 0839
000001e0: 0bd7 07b8 6fa7 66ba 5f0e 13ba 34db 2eb9
000001f0: 344a 85ba 9172 223a 9782 24ba 0ada 4639

network_body._body_endoder.seq_layers.2.weight f4 [128, 128]
0.0567958 -0.007279329 -0.0322443 -0.07113062 0.085982546 0.13170557 -0.16332898 -0.054903068
0.034454428 -0.0010439955 -0.011006874 0.03646465 -0.1768026 -0.04464298 -0.0038650546 -0.18816493
0.04542242 -0.05787907 -0.0423627 0.02055579 0.0142309535 0.044784524 -0.13331762 -0.021906147
-0.029395072 -0.08153296 0.12308983 0.111412056 -0.08216815 0.00912477 -0.017760957 -0.008010639
-0.11400172 -0.0662131 -0.004046737 -0.07289048 0.0927706 0.037665796 0.048253406 0.0659337
0.1321169 -0.13169678 -0.0342316 0.20323017 0.016964046 -0.06987118 0.016199527 -0.0027690483
0.13589875 -0.009763615 -0.12617494 0.09035812 -0.13717134 0.03202587 -0.07951341 0.10973195
-0.0068648797 0.03255967 -0.058256082 -0.025882188 -0.08081893 0.13841076 0.14709502 0.03426548
0.07123027 0.07651453 0.03337089 -0.12609498 -0.0018710608 -0.121979795 0.10492953 -0.11381333
-0.040182102 0.06648737 0.109048404 -0.0155490795 -0.040227342 -0.11946099 -0.09596515 0.02291281
0.14034203 -0.25648573 0.15392728 -0.07045008 0.0582795 -0.1148206 -0.07627866 0.10658928
-0.015158547 -0.03005436 0.12732086 -0.03488183 0.17238615 0.03421832 -0.058080915 -0.13081183
-0.167461 -0.026766121 0.03857788 0.021603698 0.05499871 -0.076947756 -0.057369042 -0.06087375
0.08927649 0.002561332 0.013514418 0.10406278 -0.12551853 0.0050615226 -0.0937459 0.23426515
0.018390441 -0.01847863 0.018474473 0.13085046 -0.076858886 -0.018449148 -0.0010104531 -0.079471
0.048396643 -0.11829015 0.06299364 0.14828724 0.05141748 -0.2967232 0.21782969 -0.012108547
-0.14735109 -0.10336023 0.075696394 -0.07779649 0.019364344 -0.08424618 0.10222381 -0.0077467076
-0.041598868 -0.06387113 -0.048568115 -0.023158774 -0.085451394 0.02414868 -0.009689365 -0.11563477
-0.10583118 0.096445955 0.093691915 0.06363024 -0.014538178 -0.09795077 -0.18830065 0.08028375
0.006631601 0.109194614 -0.030228348 0.049664285 0.05913306 0.21864688 0.26480827 -0.05221803
0.006334444 -0.033954844 0.070315644 0.035417136 -0.009260491 -0.04290576 0.002761062 0.15098284
0.078234054 -0.034941796 -0.009366295 -0.03002768 -0.09077687 0.15676643 -0.00011736621 -0.038341016
-0.046092287 -0.058083773 -0.10842071 0.0565632 -0.044744253 -0.0040001287 0.047116127 -0.07270592
0.08835904 0.025553178 -0.039392177 0.06584507 -0.083478786 0.0688052 -0.1657079 0.17148961
0.01546687 0.071498685 -0.04316341 -0.1093789 -0.08370101 0.01583081 0.06661535 -0.014222569
-0.04583723 0.017501056 0.03459182 -0.01140879 -0.032429814 0.08054421 0.11777373 -0.17709155
0.01333708 0.08137587 0.101284906 -0.007181953 0.020860735 -0.042778376 -0.054415327 0.0020672337
0.0868104 -0.00992342 -0.06722983 -0.0079914555 -0.08097767 0.08099469 -0.11099165 -0.02529011
0.05789906 -0.0005644757 0.14177662 -0.015803726 -0.056564853 -0.064524144 -0.1689073 0.037677307
-0.16249794 0.021593308 -0.11798102 0.004658165 0.078424394 0.0010042291 -0.04340432 -0.09894898
-0.059225686 -0.11807543 -0.11478664 -0.043360315 0.0990704 0.04244594 0.14912093 -0.032811146
0.07354848 -0.08878089 0.054068327 -0.0765297 -0.07124065 0.008327486 0.0714415 0.018016163
00000000: b6a2 683d 7087 eebb 9912 04bd eeac 91bd
00000010: 9e17 b03d d3dd 063e b63f 27be 0ae2 60bd
00000020: 1620 0d3d add6 88ba 2d56 34bc f55b 153d
00000030: be0b 35be 8fdb 36bd db4c 7dbb 4fae 40be
00000040: dc0c 3a3d 9b12 6dbd 8384 2dbd 9e64 a83c
00000050: f228 693c fa6f 373d 6a84 08be 8574 b3bc
00000060: efcd f0bc c1fa a6bd 8516 fc3d 012c e43d
00000070: c647 a8bd 0f80 153c 6d7f 91bc 0e3f 03bc
00000080: bc79 e9bd bc9a 87bd 7e9a 84bb 9b47 95bd
00000090: 83fe bd3d 7347 1a3d 5da5 453d 3f08 873d
000000a0: a749 073e 85db 06be 6f36 0cbd 921b 503e
000000b0: 2ff8 8a3c 9f18 8fbd dfb4 843c ec78 35bb
000000c0: 0b29 0b3e 92f7 1fbc 0134 01be ae0d b93d
000000d0: a576 0cbe 8f2d 033d edd7 a2bd 25bb e03d
000000e0: c9f2 e0bb 4a5d 053d ee9d 6ebd e206 d4bc
000000f0: 6584 a5bd 8dbb 0d3e 14a0 163e f659 0c3d
00000100: 2de1 913d a6b3 9c3d eaaf 083d 0b1f 01be
00000110: 623e f5ba 8bd0 f9bd 4be5 d63d f716 e9bd
00000120: fd95 24bd 882a 883d c554 df3d 91c1 7ebc
00000130: 6dc5 24bd f7a7 f4bd 6089 c4bd a5b3 bb3c
00000140: d2b5 0f3e 1952 83be 1d9f 1d3e 2248 90bd
00000150: 7cb6 6e3d 1027 ebbd fc37 9cbd 7b4b da3d
00000160: 8e5b 78bc 9034 f6bc 6660 023e 40e0 0ebd
00000170: ff85 303e 8228 0c3d 41e6 6dbd 89f3 05be
00000180: e57a 2bbe a044 dbbc d703 1e3d 3dfa b03c
00000190: 5446 613d c996 9dbd cdfb 6abd c156 79bd
000001a0: 98d6 b63d 05dc 273b 946b 5d3c de1e d53d
000001b0: ee87 00be 21db a53b dafd bfbd 34e3 6f3e
000001c0: 8da7 963c 7f60 97bc c757 973c aafd 053e
000001d0: 3168 9dbd ab22 97bc 2e71 84ba b1c1 a2bd
000001e0: 8f3b 463d 1b42 f2bd cf02 813d 9cd8 173e
000001f0: 239b 523d 1aec 97be bf0e 5f3e ed62 46bc
00000200: 34e3 16be 87ae d3bd b606 9b3d c453 9fbd
00000210: f9a1 9e3c 4389 acbd b85a d13d 18d8 fdbb
00000220: 9363 2abd dece 82bd 5cef 46bd 78b7 bdbc
00000230: 2401 afbd 74d3 c53c 24c0 1ebc ecd1 ecbd
00000240: 05be d8bd 7585 c53d 8ce1 bf3d 9250 823d
00000250: 8a31 6ebc 6a9a c8bd e3d1 40be cf6b a43d
00000260: e74d d93b 6da1 df3d 71a1 f7bc c76c 4b3d
00000270: 8235 723d f8e4 5f3e f394 873e 93e2 55bd
00000280: 2b91 cf3b 3c14 0bbd a601 903d 8f11 113d
00000290: 50b9 17bc f3bd 2fbd eff2 343b 3f9b 1a3e
000002a0: 2d39 a03d 211f 0fbd 1775 19bc 9cfc f5bc
000002b0: 39e9 b9bd 6187 203e 8122 f6b8 780b 1dbd
000002c0: 44cb 3cbd 40e9 6dbd ad0b debd d0ae 673d
000002d0: c045 37bd 8313 83bb d7fc 403d d7e6 94bd
000002e0: 96f5 b43d e654 d13c b159 21bd c8d9 863d
000002f0: edf6 aabd bee9 8c3d 55af 29be f99a 2f3e
00000300: c168 7d3c e76d 923d 1ecc 30bd 0b02 e0bd
00000310: 6f6b abbd 9daf 813c a16d 883d c705 69bc
00000320: d2bf 3bbd 605e 8f3c 27b0 0d3d efeb 3abc
00000330: 20d5 04bd 5df4 a43d 5a33 f13d 7d57 35be
00000340: c583 5a3c 64a8 a63d 766e cf3d 9756 ebbb
00000350: 22e4 aa3c 6138 2fbd 9be2 5ebd 6d7a 073b
00000360: a7c9 b13d d795 22bc cbaf 89bd 98ee 02bc
00000370: 9fd7 a5bd 8be0 a53d 974f e3bd 342d cfbc
00000380: 9127 6d3d 53f9 13ba e42d 113e d176 81bc
00000390: 8cb0 67bd 3c25 84bd 09f6 2cbe 8553 1a3d
000003a0: dc65 26be 73e4 b03c 08a0 f1bd 85a3 983b
000003b0: f89c a03d 56a0 833a bac8 31bd c3a5 cabd
000003c0: a296 72bd 88d1 f1bd 4215 ebbd 969a 31bd
000003d0: 6ce5 ca3d cbdb 2d3d 28b3 183e fb64 06bd
000003e0: 96a0 963d c1d2 b5bd c076 5d3d 9abb 9cbd
000003f0: 9ee6 91bd 0270 083c ec4f 923d a296 933c
