results/MoveToGoal6/MoveToGoal.onnx (onnx, 72639 bytes, 7 tensors)

action_model._continuous_distribution.log_sigma f4 [1, 2]
00000000: aeae 57bd ea39 84bc
-0.052656822 -0.016140897

action_model._continuous_distribution.mu.bias f4 [2]
00000000: 322d 9039 ce4d c339
0.00027499493 0.00037251267

action_model._continuous_distribution.mu.weight f4 [2, 128]
00000000: fa98 35bb 1e07 0f3d 4bcc afbb 9d2a 40bd
00000010: 89ec 94bc 3e9c ecbb 637c 943c 1229 db3b
00000020: d9da b3bc 7843 ffbc ca86 3abb 4623 d13c
00000030: d7fd 2bbd efa4 4fbc 51e9 523c c52d e3bc
00000040: 39a5 0ebd 87f9 e13c 4a82 973c 52ac abbc
00000050: 85c9 aa3c 6e92 1c3b 1891 673c 9c8f df3c
00000060: bd3a 9cbc 7bb5 6c3c 43d4 26bc 1674 883c
00000070: 79ab dfbb 8018 83bb bc9d e3bc 458e 18bc
00000080: 4a9e 8abc b717 b83b 84db 223d 131e ae3c
00000090: ba4a 9b3b 66cf ed3b b547 e83b ff1f 473b
000000a0: f2d8 aa3c 1596 17bb ccc0 dabc 58ba 18bd
000000b0: b7cf 4fbd a464 60bd 7412 323d de74 03bc
000000c0: 2f25 86bb 2852 8f38 f443 96bc 9307 963c
000000d0: 6df6 4c3c 4b38 583c a719 473c d6c3 053d
000000e0: 58b8 d2bc ce0c f3bb 92c7 00bd 1c31 01bc
000000f0: 3077 36bd 89bc 80bc 704a 463c b93a 87bc
00000100: f90c 6bbc 30ed 7f3c 778b c53b 91d4 59bc
00000110: 5022 0abd e1b7 023d e762 353a 60f7 eebc
00000120: 860f 85bc f776 5ebc 9a65 373c cae1 00bc
00000130: b8a7 22bc aac1 da3c 4d7f 19bc d987 cc3c
00000140: e795 41bc 7bd2 273c eded cfbc a7cf 053d
00000150: 73c6 2abc 6318 333c 6c9e 133c 0152 f8ba
00000160: 5b76 a13c 4d38 47bc dfa5 71bc 3ad7 113c
00000170: 96af 52bd 7c66 8dbc 4d21 573c 95ca 0d3d
00000180: ac38 9bbc 750a 34ba 2eb8 96bc 515a 223c
00000190: 9499 e3bc 499b f23b f96b 583c 87c2 073d
000001a0: 8d40 0e3d bb58 e43c 905d 76bc fc4b 77bc
000001b0: 859f 3f3c c5c6 bb3c 1924 ee3b 2f97 a03c
000001c0: d172 453c 1582 2cbc ca4a a03c 7247 03bc
000001d0: d69c debc 48d3 073d a9f1 3c3d 0d43 b6bc
000001e0: 4f96 173d 3cb2 16bc d719 20bc 2615 b1bc
000001f0: 2763 863c ae0d edbc 1eec 95bb dc31 0abc
00000200: 8c01 dcbc 580d 693c 21ff 5f3d a3b4 daba
00000210: fd3d 08bc 3616 0e3c 22de 3eb8 7125 e23a
00000220: 741b d9ba 4b57 463c cd25 67bc 1aee 00ba
00000230: 70a0 5f3a 47f7 c7bb 7d3c 903c 5d5e abbc
00000240: 1973 5e3c 01fd 613c c5eb b4ba 8a66 833c
00000250: a95f b5b9 e27c c2bc ae23 05bc 46e2 773b
00000260: b2cd 39bc c693 21bd a604 35bd 5f2d 813b
00000270: 4ce5 4e3d 3b53 573b 4f3c 1f3d 4476 c2ba
00000280: dd08 e0bc 416e 183c 1a74 a1bc 18ac f33b
00000290: 3223 91bb 6a6e cd3c 418a 9ebc ebe8 81bc
000002a0: c282 cfbc 5b20 153b 2406 ba3c 4c19 32bc
000002b0: 805c 4f3d d6db a13c e712 e53c 52dd ef3c
000002c0: 5e4f 1c3b 1de3 c1bb 1c3b ee3c 0fed 05b7
000002d0: deb9 5e3c ca5c 893b 3bfd 5fbc e54a 813c
000002e0: dc11 e93c d6ac 2fbc e9cb 91bc 7fda 7ebd
000002f0: 21e9 6bbd 30eb 993c 5480 e33c eb9b f23c
00000300: fd14 f6bb 8e71 d9bc 6690 3b3c 2074 bd3b
00000310: 513d 1abc df50 af3c 0f3d 5b3d 5a43 1cbc
00000320: 99e4 8ebc 0cea 1ebd 12a5 bd3c 9d17 eb3b
00000330: 65a0 a5bc 5e6f 08bc 8b23 3bbc 9158 40bb
00000340: 752d debb 00e2 b7bc 3082 2abd c6d3 ca3b
00000350: d3f0 453c b949 75bc 286d d0bb ab4b 8abc
00000360: 688b a0bb 7f27 36bd 1ca8 933c 9e05 c03c
00000370: 15ca f23b 1756 2039 6bda ab3c 39f5 013d
00000380: 5c4d c5bb 55fe 07bb fe14 693c 84d9 b63c
00000390: d244 6c3b c672 74bb 5bf1 233c d9ee 08bd
000003a0: 1f85 42bb e629 2c3d 4009 483d d1a9 083d
000003b0: c60e c9bb 617c a8bb 2312 a93c 0996 fdbb
000003c0: 26fc 5d3b 901d 1cbd 576b 75bc 0c1c 9fb9
000003d0: e116 1cb9 ca4a 2a3c 2e4a 713d 9b75 c63c
000003e0: 620f cdbc 6521 00bd 7704 2cbd f9c1 a43c
000003f0: 3dc4 16bd c4b1 e0bb 1c75 9dbc e8af b6bb
-0.002770959 0.034918897 -0.00536493 -0.04691564 -0.018179195 -0.007220774 0.018125718 0.0066882456
-0.02195494 -0.031160101 -0.0028461688 0.025529515 -0.041990127 -0.012673601 0.01287301 -0.027731786
-0.034825537 0.027584804 0.018494744 -0.020956192 0.020848045 0.002389099 0.014133714 0.027290158
-0.019070977 0.014447565 -0.010182443 0.016656917 -0.006825861 -0.0040007234 -0.027785175 -0.009311263
-0.016921181 0.0056180614 0.039760128 0.021254575 0.0047391327 0.00725739 0.0070886263 0.0030384061
0.0208554 -0.0023130227 -0.02670326 -0.037287086 -0.0507352 -0.05478348 0.04347463 -0.008023469
-0.004093788 6.834074e-05 -0.01834295 0.018314159 0.012509924 0.013197015 0.012152112 0.032657467
-0.025722668 -0.007417298 -0.031440325 -0.007885244 -0.04454726 -0.0157149 0.012102708 -0.016507493
-0.014346355 0.015620515 0.0060285884 -0.013295309 -0.03372413 0.03191364 0.00069193396 -0.029170692
-0.016242754 -0.013578168 0.011193657 -0.007866332 -0.009927683 0.026703674 -0.00936873 0.024967121
-0.011815525 0.010243054 -0.025382007 0.032668736 -0.010423291 0.010931107 0.009009939 -0.0018945338
0.019709757 -0.012159419 -0.014749019 0.008901412 -0.051436983 -0.017260782 0.013130498 0.034617025
-0.018947922 -0.00068680133 -0.01839837 0.009909228 -0.027783193 0.0074037653 0.013209336 0.0331445
0.03472953 0.027874341 -0.0150369555 -0.0150938 0.011695747 0.02292193 0.007267487 0.01960334
0.0120513 -0.010529061 0.019566912 -0.008012639 -0.027174395 0.033160478 0.046128903 -0.02224877
0.03700858 -0.009197768 -0.009771786 -0.02161653 0.016404701 -0.028937187 -0.0045752665 -0.008434739
-0.026856206 0.014224373 0.05468667 -0.0016685914 -0.00831556 0.008672288 -4.5506407e-05 0.001725359
-0.0016563968 0.012105773 -0.0141081335 -0.00049182924 0.0008530682 -0.006102476 0.017606968 -0.02091902
0.013577246 0.013793231 -0.0013803175 0.016040105 -0.00034594283 -0.02374119 -0.0081261825 0.0037824078
-0.0113405455 -0.03944757 -0.044193886 0.0039421762 0.050511643 0.0032856006 0.038875874 -0.0014836271
-0.027347976 0.00930363 -0.019708682 0.0074362867 -0.0044292444 0.025077064 -0.019353034 -0.015858134
-0.025330905 0.002275488 0.022708006 -0.010870289 0.050625324 0.019758146 0.027963115 0.029280338
0.0023851017 -0.0059169666 0.02908092 -7.982612e-06 0.013594119 0.0041919695 -0.013671215 0.015782783
0.028450899 -0.01072236 -0.017797427 -0.062220093 -0.057595376 0.018788904 0.027771153 0.029615363
-0.007509826 -0.026543405 0.0114480015 0.0057816654 -0.009414033 0.021400867 0.053525027 -0.009537542
-0.017442988 -0.038797423 0.02315 0.007174446 -0.020218084 -0.008327333 -0.011422048 -0.0029349665
-0.0067803212 -0.022446632 -0.041628063 0.006189796 0.012081343 -0.01497119 -0.0063606687 -0.016881784
-0.004899431 -0.04447126 0.018024497 0.023440178 0.007409344 0.0001529086 0.020978173 0.031728003
-0.006021185 -0.002075096 0.014226196 0.022320516 0.0036051762 -0.0037299856 0.010006274 -0.033430908
-0.0029681397 0.042032145 0.048836946 0.033365075 -0.0061357943 -0.0051417802 0.020638531 -0.007738833
0.0033872216 -0.03811413 -0.014979205 -0.0003034774 -0.00014885842 0.010393808 0.058908634 0.024226
-0.02503175 -0.031281848 -0.041996446 0.020112025 -0.03680824 -0.006857129 -0.019220881 -0.005575169

network_body._body_endoder.seq_layers.0.bias f4 [128]
00000000: 52b6 a4bb 07d0 06bd 0da0 8dba 0cfe bc3c
00000010: 15b6 aa3c 11e9 18ba 8e0e 973b 19fd 7f3c
00000020: efe4 653c b6e2 1ebb 18c4 0cbc 08cf 8cbb
00000030: 9333 1ebc 8b5e 62ba f11a 553b 524b 953a
00000040: e122 91bc 0363 303c aec4 8cbc a758 3fbb
00000050: 0268 293a b145 053c b5e0 a6ba a940 8639
00000060: 2241 8fbb 9f52 2f3b 2059 ebb9 4569 293c
00000070: 3eb4 16bb 3927 1ebb 4124 013b 969e 14bc
00000080: 9639 8b3c ad62 923b 9e41 0f3b ac41 88bb
00000090: 4c29 95bb f645 613a f29d 2ebb 9728 2f3c
000000a0: 99a2 f03a ec03 07bb bb5a af3a d15a 2c3c
000000b0: ea89 14bc af41 3c3a 166f 97ba 49fb 59bb
000000c0: f8d3 03bc a540 e4b9 dae5 ba3c 0b2d 49bb
000000d0: 91c0 a13c c7c7 033c 1b3c 45ba 122e d43b
000000e0: 50c3 95bb 16ad 0d3b 5ee2 eb3b abda 093d
000000f0: 6098 a939 48ae 433c b82b a4bb 9502 ddba
00000100: 89a1 dab9 0112 d73b 8902 bf3a d8e5 99ba
00000110: 245a e3ba afed 8a3a 6203 0638 72ca 89ba
00000120: 3171 a13c 4121 71bb 7ba7 afbc 3a3a 2aba
00000130: 7b7e 30ba e627 0e3d 5f38 e3ba d331 793b
00000140: ab98 1f3c a669 65bb c7fe b5bb 08a5 c1bb
00000150: cf25 9a3b 64e2 ea3a 24d8 ba3c c4c3 a2bb
00000160: 0613 033c 7b0e 94ba 00c1 c1bb d3a1 0a39
00000170: 3269 07bc 5662 20bb a5c5 9abb 6b19 943c
00000180: e6f1 1eba d9aa 2e3b 938b df3b 36dd c2bb
00000190: 961b 993c 480b 4abb 0397 3f3b 2246 17bc
000001a0: 6d99 bc3b ae0d 1abc 560d 5cbb d005 5f3c
000001b0: 2f9a 953a 7d0c e339 d741 1fbc ae85 aa3b
000001c0: 68b5 a33b 69fa 103c f293 0c3b 37da 3b3b
000001d0: 3674 a83a f724 ccbb 34c2 563c 4d62 0fbb
000001e0: 143a a3b7 84b3 9a3a a8fe 0ebb 5a88 0cbb
000001f0: d9de a2bb 3c23 24ba a733 2f3b 4fd2 213c
-0.005026617 -0.032913234 -0.0010805145 0.023070358 0.020838777 -0.00058330694 0.0046098894 0.015624308
0.014031633 -0.0024244017 -0.008591674 -0.004297141 -0.009655851 -0.0008635304 0.003251728 0.0011390245
-0.017716827 0.010765794 -0.017183628 -0.0029197128 0.0006462337 0.0081342915 -0.0012731763 0.00025606647
-0.004371778 0.0026752127 -0.00044889096 0.01034004 -0.0022995616 -0.0024132265 0.0019705447 -0.009071013
0.016995233 0.0044673295 0.002185918 -0.0041582193 -0.004552042 0.0008593494 -0.0026644436 0.01069083
0.0018359005 -0.0020601703 0.001337848 0.010519699 -0.009066084 0.00071814185 -0.0011553492 -0.003326135
-0.008046143 -0.00043535713 0.02281468 -0.0030697014 0.019745143 0.008043236 -0.000752391 0.0064752186
-0.004570402 0.002161806 0.007198616 0.033655804 0.0003234772 0.011943407 -0.0050100945 -0.0016861731
-0.00041700553 0.0065634255 0.0014572899 -0.0011741472 -0.001734559 0.00105994 3.195124e-05 -0.0010512604
0.019707294 -0.0036793503 -0.021442166 -0.0006493662 -0.0006732714 0.03470602 -0.0017335525 0.0038024082
0.009740989 -0.0035005598 -0.0055540535 -0.005909566 0.004704214 0.0017920253 0.022808142 -0.0049671847
0.008000141 -0.001129582 -0.0059129 0.0001322099 -0.008264827 -0.0024472675 -0.004723268 0.018078526
-0.00060632674 0.0026652126 0.0068220585 -0.0059467806 0.018689912 -0.0030829478 0.0029234297 -0.00923303
0.0057555945 -0.009402676 -0.0033577285 0.013612226 0.0011413748 0.00043306118 -0.009720287 0.005203924
0.0049959905 0.008848765 0.0021450487 0.0028664002 0.0012852016 -0.0062299925 0.013107825 -0.002187866
-1.9458159e-05 0.0011802767 -0.0021819267 -0.0021443577 -0.004970413 -0.0006261354 0.0026733668 0.009876802

network_body._body_endoder.seq_layers.0.weight f4 [128, 6]
00000000: 6962 c9be 4ba1 523e e93e 9bbe fc15 83bd
00000010: 75b6 e3bd ee92 38bf 3ad1 f63e a80a ad3b
00000020: 15e9 c23e 14af 13bf f43c af3d 12cb f7bd
00000030: 4075 9e3e fb78 3a3d e4a9 01bf 56ad 653e
00000040: f282 fe3e 3bf7 cb3e 2f2f b23e fcbd f8bd
00000050: 7e38 08bf 07be f3bd 3275 0b3e c8ca ecbc
00000060: 8cea 2abe 1cb8 163f 4b4c 1fbe 4a01 563d
00000070: cf4e 6bbf a2b7 ccbd 5cc3 f83d abc9 963e
00000080: c973 c33e be3d 64bc 198d 9dbe 4fd1 f3be
00000090: 7d93 bc3e 2527 523e bb9d 773e d167 613f
000000a0: 2d3e 203f 7a51 e63e 0f53 bfbe 6eb6 fe3e
000000b0: 646a 22bf fd62 853e 0560 b6be f91f e93e
000000c0: 5826 59bf 8149 2dbd f09f d83d 9b95 c83e
000000d0: 8373 173c 8cf0 e43d dd8b 0abd 833e ed3c
000000e0: d3dc 7ebe a280 343e 44c1 d33d d75d 6abd
000000f0: 16a2 fcbd cb43 70be a9f2 e03c 9f0d 863e
00000100: ae16 633f 597d b0be 4b84 77be 8fbb 843e
00000110: 5b7f 99be 8d63 7e3d 868a 2b3d 07ee a5be
00000120: 2969 19be 0a66 a0be fd2a 2b3e 10fc 073e
00000130: aa83 09bf d962 6d3e 16bb ba3d defd e53d
00000140: d83c b5be 4027 3b3e e595 60bf fbbc 12bf
00000150: 5e42 32bf d03b d33e 49ba 12bf 97de c6bd
00000160: cca7 473e bd0b 66bf 8b5a 8abe a13c 7b3e
00000170: 79e9 e63e 657a 9b3f 36af a73d 2196 d4be
00000180: 24a9 913c 1409 e53e 6aa8 393f a323 8f3d
00000190: 185e dcbe a1ff 0d3e b7c6 fe3e e1ea 22be
000001a0: 3a15 783e 64ab 9abd aa6b 84be 1748 da3d
000001b0: 38a7 9e3e cca1 fb3e ca22 2d3f 0ea1 e1be
000001c0: 7e86 05bf f10c 8abd ff41 0ebf 9ef8 89bd
000001d0: e376 413f d7bd bd3e 5629 a1be a2d2 9c3e
000001e0: afd7 4d3c a909 3d3f 5a78 fb3e eaa9 0b3d
000001f0: ae26 2dbd 65c3 2e3e 9836 19bf a7a3 8bbc
00000200: a795 233e 9c08 e33e d7ff 71bd cbed e2bd
00000210: 483f fcbe 05a4 06be 5392 74bf a964 033f
00000220: 58ec 343f 56fc 6d3e d41a 04be 7217 8f3d
00000230: 931d 01be 2416 a13e d141 a53e a90f be3e
00000240: eb44 f8bd 6d8c 1fbf 901e a33e 4479 a8bd
00000250: f65f 05bd b594 6f3f 2ca4 14be ad8e 8e3e
00000260: b4e8 f93e 93d4 ec3e c982 393e 2b2e 0c3f
00000270: 8ae8 6b3d 9927 7a3a ed8e 77be cd02 7b3f
00000280: 052b aa3b 7e88 2fbf 68cb 343d 4160 f7be
00000290: e3eb 0abe 6256 3b3f 0c78 57bf 9d87 64be
000002a0: 432b 03bf defe b5be ea57 8fbe 91be 463e
000002b0: 771c fdbe 1023 c2bd 0efd 433e 4029 3b3f
000002c0: ad83 513e 4866 8e3e a750 e83d 4645 4dbe
000002d0: 88d1 023d 0948 413e 72a6 2fbf 4f7b cf3e
000002e0: 5b06 e6bd 2136 54be 803c 773f 2d01 96bf
000002f0: 49f4 23be 2c32 03be 69ab a6be 21fa d73e
00000300: ba92 b53e 3b34 3abe 214f 1abe 6b6b aa3e
00000310: 3bc5 e7be d220 003f 4718 833e 8fa8 9dbe
00000320: 546e 2ebf f372 ecbd dfba 823e 67b9 86be
00000330: 9622 f43e ea22 cc3d d195 e83e 347e d4be
00000340: fd9c c03e 41ee 95be d92e 7abe 5eae 543c
00000350: 0e0f 1ebf b2d4 f03e 89c5 a33d a0aa 08bb
00000360: 3aae 69bf 7683 f0bb 3624 c2be 0b8e 92be
00000370: 22d8 adbe f5ad d33e 6183 8c3d 3e01 81be
00000380: 4587 ffbe 0283 833e 34db 8fbd 6416 bc3e
00000390: 9841 2cbd 94b8 7e3e fbf6 643e 9df6 d83e
000003a0: 8ff5 813d 694f 4b3e a908 0dbf 7e75 913e
000003b0: 5d05 1d3e ecf8 483d 478e 133c 2622 d73e
000003c0: b41a c8be 8b59 cdbe a45c a2be 6050 9e3e
000003d0: 5869 4dbe fcca e2bb 90c3 85be 01d6 82bd
000003e0: 1b5f 9ebe 8b02 60bd 3967 c13c f2e9 74be
000003f0: 94ec 84be 1b34 3e3f e345 fabd 5f17 08bf
-0.39332893 0.20569341 -0.30321434 -0.064006776 -0.11118785 -0.72099197 0.48206502 0.0052808113
0.38068452 -0.57689023 0.08556548 -0.120992795 0.3094883 0.045525532 -0.5064986 0.22429404
0.49709278 0.3983706 0.34801623 -0.12145612 -0.532112 -0.11901479 0.13618925 -0.028905287
-0.16691035 0.5887468 -0.15556447 0.052247323 -0.9191713 -0.09995963 0.12146637 0.29450735
0.38174275 -0.013930736 -0.3077171 -0.47620627 0.36831275 0.20522745 0.24181263 0.88049036
0.6259487 0.44984037 -0.37368056 0.49748558 -0.6344359 0.26052085 -0.35620132 0.45532206
-0.8482413 -0.042306427 0.10577381 0.3917664 0.009243849 0.11178693 -0.03382479 0.028960472
-0.24888925 0.17627195 0.10339597 -0.0572184 -0.12335603 -0.23463361 0.02745946 0.26182267
0.8870648 -0.34470633 -0.2417156 0.25924346 -0.29979977 0.062106658 0.041880153 -0.32408163
-0.14981522 -0.3132785 0.16715617 0.13279748 -0.5371653 0.23182239 0.09117715 0.11230062
-0.35397983 0.18276691 -0.8772872 -0.5731961 -0.6963252 0.4125657 -0.573155 -0.097104244
0.19497603 -0.8986166 -0.27022204 0.24534847 0.451 1.2146727 0.08187716 -0.4152079
0.017780848 0.4473349 0.72522604 0.06989219 -0.43040538 0.13867046 0.49760982 -0.15909912
0.24226847 -0.075522214 -0.2586339 0.10658281 0.30986953 0.4914688 0.6763121 -0.44068187
-0.52158344 -0.067407496 -0.5556945 -0.06736873 0.7557203 0.370589 -0.3147685 0.3062945
0.01256363 0.73842865 0.49115258 0.03409759 -0.042273216 0.17066725 -0.5984893 -0.017045809
0.15975057 0.44342506 -0.05908188 -0.11080512 -0.4926703 -0.13148506 -0.95535773 0.5132547
0.7067313 0.2324079 -0.12900859 0.06986894 -0.12608938 0.31462204 0.32276776 0.37121323
-0.1212252 -0.6232365 0.31859255 -0.082262546 -0.03256222 0.93586284 -0.14515752 0.27843228
0.4881035 0.4625593 0.18116297 0.54757947 0.057594813 0.00095426437 -0.24175616 0.9805115
0.0051931166 -0.68567646 0.044139296 -0.48315623 -0.13566546 0.73178685 -0.8416755 -0.22317357
-0.5123789 -0.3554601 -0.2799676 0.19408633 -0.4943578 -0.09479344 0.19139501 0.7310982
0.20460387 0.2781241 0.11343508 -0.20045957 0.031938106 0.18875135 -0.6861335 0.40523764
-0.11231681 -0.20723774 0.9657669 -1.1719109 -0.16011156 -0.12812108 -0.3255265 0.4218302
0.35463506 -0.18183987 -0.15069248 0.33285078 -0.45267662 0.5005008 0.2560446 -0.30792663
-0.681371 -0.11545362 0.25533196 -0.26313326 0.47682637 0.09967597 0.454268 -0.41502535
0.37619773 -0.29283336 -0.24431933 0.0129810255 -0.6174172 0.47037274 0.07996661 -0.0020853654
-0.91281474 -0.00733989 -0.37918252 -0.28623995 -0.3395396 0.41343656 0.06860996 -0.2519626
-0.4990789 0.2568589 -0.070242316 0.36735833 -0.042054743 0.24875098 0.2235984 0.4237565
0.06345665 0.19854511 -0.5509134 0.28409952 0.15334077 0.049065515 0.0090060895 0.4201824
-0.39082873 -0.40107378 -0.31711304 0.30920696 -0.20059717 -0.0069211703 -0.26125765 -0.06388474
-0.30931935 -0.054689925 0.02360879 -0.23917368 -0.25961745 0.74298257 -0.12220361 -0.5316066

network_body._body_endoder.seq_layers.2.bias f4 [128]
00000000: c9b1 6bba ded8 fa3b a022 923a 614f 9ebb
00000010: da42 643b f696 0bba 4315 bdba 9399 2dbb
00000020: 0b85 71ba 4c3f 263b 3684 8bbb ff19 4339
00000030: 1e91 fab9 7f58 c8bb 684d 5a38 ea2b 89bb
00000040: 58c6 023b 6ef7 a43b 16f8 64ba e663 c038
00000050: ae72 dfbb fa22 65ba 63e7 aa3a 1ca1 243a
00000060: 05de d9b9 1180 b13a c78e a238 9477 fbb9
00000070: 4ccd 9eba 82aa c8bb 3df5 29bb f5e3 15bc
00000080: 187e aaba 2aa8 95ba 1b71 ac3c d50e 89bb
00000090: bd98 21bb 1319 383b 2264 7cba fb7d 71ba
000000a0: 3610 67ba d282 5ebb 0d7a 4e3c d30e 0ebb
000000b0: e972 393b cbf5 07ba 18a7 f1ba 8de6 cdb9
000000c0: 13c3 a93b 5e7f d5bb d4e4 973b 70b0 8c3a
000000d0: 649e 17ba 1b6b 8aba c65a 0aba 600e eab8
000000e0: 05cf 0abb fbf0 59bc fb33 ea3b 510b 7a3c
000000f0: fec3 603c eac6 cc37 27fd 36ba 2c4c fd3a
00000100: 5f9c e6ba c65c 713c 7ab4 96bb 3a46 5dbb
00000110: 9cff e9bb 9fd5 e2bb c617 973b 6ed3 a13b
00000120: 70e0 3a3c 25ce 03bc 45fc a6bb a2bf 80ba
00000130: 5dce edba 864e 3c3b 6784 b6bb 0206 cdba
00000140: fd19 ffbb 49b7 04b9 1269 233c 0a3a 5fbc
00000150: 2fc0 bbba 37d3 2ebb 2248 ebb9 9945 a4ba
00000160: 4b2a 4438 08de 503c 742e 5fba 4584 46bb
00000170: 63e1 5eb9 443d 6d39 7562 3d36 c0a1 713b
00000180: 8ba5 233b 7863 87bb 45b2 0dba 293f bebb
00000190: b605 b9bb 442f f9ba d0b6 f53a c6dd 283b
000001a0: 8980 263b b60d 463c b079 893c a885 f2b9
000001b0: 3e0e a1ba 450e f23b c48d bf3b b965 403a
000001c0: 9688 9aba 6a75 183c 9517 ef39 e6ac c9ba
000001d0: 3a43 7f3c 4f79 bab7 a71e bfb8 9c53 90ba
000001e0: 07cc 923b 53f9 ccbb e292 db3b f87a 05ba
000001f0: 34f3 243b 2dda b8ba 50b7 ecb9 65ab c5ba
-0.00089910306 0.007655247 0.0011149235 -0.00483124 0.0034829886 -0.0005324924 -0.0014425892 -0.0026489242
-0.00092132454 0.0025367318 -0.004257704 0.00018606333 -0.00047791837 -0.006114065 5.204734e-05 -0.004186143
0.0019954648 0.0050343787 -0.00087344775 9.173881e-05 -0.006819091 -0.00087408687 0.0013038929 0.00062801107
-0.00041554883 0.0013542195 7.751356e-05 -0.00047963543 -0.0012115627 -0.0061238417 -0.0025933527 -0.0091485875
-0.001300755 -0.0011417915 0.021050027 -0.0041826763 -0.002465769 0.0028091117 -0.0009627958 -0.0009212193
-0.00088143663 -0.0033952487 0.012602341 -0.0021676316 0.0028297252 -0.00051864673 -0.0018436639 -0.0003927242
0.0051807254 -0.0065154275 0.0046354327 0.0010733735 -0.0005783795 -0.0010560484 -0.00052778085 -0.00011160667
-0.0021180522 -0.013302083 0.00714731 0.015261487 0.013718603 2.4411322e-05 -0.00069804717 0.0019325069
-0.001759421 0.014731592 -0.004599151 -0.0033763782 -0.0071410667 -0.0069224383 0.0046109883 0.0049385345
0.011406049 -0.008044754 -0.005095991 -0.0009822736 -0.0018143166 0.0028733327 -0.005569983 -0.0015642049
-0.0077850805 -0.0001265678 0.009973781 -0.013624677 -0.0014324243 -0.0026676187 -0.00044876436 -0.0012532949
4.676943e-05 0.012748249 -0.0008513697 -0.003029124 -0.00021255533 0.00022624905 2.8220504e-06 0.0036870092
0.0024970497 -0.0041317306 -0.00054052874 -0.005805869 -0.0056464327 -0.0019011279 0.0018746499 0.0025766953
0.0025406203 0.01208823 0.016781658 -0.0004625742 -0.001228757 0.007386955 0.005845757 0.00073393766
-0.0011789973 0.009305337 0.00045603202 -0.0015386611 0.015579993 -2.2229417e-05 -9.113299e-05 -0.0011011246
0.0044798884 -0.0062553077 0.0067008594 -0.0005091871 0.0025169374 -0.0014103107 -0.00045150006 -0.0015080987

network_body._body_endoder.seq_layers.2.weight f4 [128, 128]
00000000: 909f efbd 6c4a f4bc 1631 0a3e 331b ef3d
00000010: 76ab 2a3d 8f54 453d 6836 11bd 228d b8bb
00000020: 7752 423e ce35 4a3e c484 dd3d a5d8 803d
00000030: 1293 febb c0f6 11be 9779 513e c8a2 d33c
00000040: d0a2 c8bd ad2a 5a3e e79a 79bb 33da 28be
00000050: 105b 8e3d 3895 28bc e4aa c33c d11a 363e
00000060: b9f7 9e3d 7bca 353d e6c6 b43d 8341 e8bd
00000070: 0fe8 41bd 21d5 b1bd dd6b 72bc 1ca9 59bc
00000080: 1707 e03d 040d 80bd f30f e33d 8f8f b93d
00000090: f8c8 2dbb b352 a1bd c99d 6e3c ebbe 963d
000000a0: 20b6 09bd 3abe ae3d 24a6 15bd 1487 293e
000000b0: 41fd ebbc d765 96bd 98ec 05bb 3a1b 12be
000000c0: 3513 2cbb ad92 a7bd f98d b2bd 8f73 f0bd
000000d0: 9cee 18be 3404 013e 0d3a c4bd 46b6 68bc
000000e0: be67 2ebc 0c72 b0bb d494 793d 14ba c53d
000000f0: ef09 2ebd 2864 eabd cee3 a6bd 89ba 0fbe
00000100: 90e2 293d 5609 20be 55ac 0ebd baea bc3d
00000110: 4333 2f3e e517 17bd 65d6 f1bc eeac 6ebd
00000120: 5650 04be d3d1 433d 1122 1cbe e7e6 123c
00000130: 05ef 043e a53b edbc 3819 1e3e dba5 e03a
00000140: 090a a83d e442 f33d fe38 883d 195f eb3b
00000150: afe2 993b 3e57 b1bd 4c1c 353d 31cd 5e3d
00000160: 1d27 6bbd 76dc f43c e135 dcbc 8b08 983d
00000170: 1dc1 39bd 6911 b8bd c299 96bc 8b1e 033d
00000180: bdff 183d 933f d0bd be66 7d3d 4129 b4bd
00000190: 7c13 54bb da30 4f3e e33c 14bd 66bd 7d3d
000001a0: ab67 9dbd 6b01 143d 7161 033e 588e d8bd
000001b0: abd8 913d fc2a 3f3d 91dd f7bc ee8b 08bd
000001c0: bc55 8c3d 50b5 f73d c22e f73d 38b2 0ebd
000001d0: 127a b6bd 11f9 883d fe59 613d f50d 86bb
000001e0: 81e9 d0bd 6ae3 dbbd a735 7dba 8684 bbbd
000001f0: e20d 23bd fd0d d13d 402f 96bd f7bd a7bd
00000200: c05b 8b3d 60dd 33bd dc9c c93d ca46 8f3d
00000210: 0ccf 68bd b206 d83d 03fe 11bc 3758 c8bc
00000220: 3d93 693d 7c00 18be b0bb b5bd 81ea b03d
00000230: 4f2a 843c 4cf1 b63d 8dc4 1d3e 45e2 62bd
00000240: f118 e93c 6356 0cbc ad1c d6bc 1a13 303d
00000250: 53f4 883d d345 79bd 8812 d4bd da0d 093b
00000260: d2c4 e1ba abc9 9ebd d017 b8bd 8bb3 4b3d
00000270: 7bd9 f83c cc29 883c 9a53 1e3c 9439 aa3d
00000280: 2610 4dbc 01c2 eb3b 80c3 d13d 7041 81bc
00000290: 6a35 0cbd 81f4 81bd 1d3c 16bc f1cf 683e
000002a0: 8961 7ebd a13d 6b3d 0b5b 3dbd 9faa 293d
000002b0: 7d62 d33d e13c 67bb 2e90 283d fdd5 ad3c
000002c0: 16dc dfbd 5927 183d 0ddb 6b3d f785 db3a
000002d0: 910b 37be f992 4d3e a684 74bd 133f 413d
000002e0: 285f 51bd 9f2c 043e 3472 8b3c d167 3c3e
000002f0: 6d08 093e 21c4 173d c566 233d bfc1 45bd
00000300: 830b 4cbe 5e69 1cbd 7765 d3bd 314f d63d
00000310: 55ac fcbb 76eb d6bd ab08 9a3d 300a a43d
00000320: 2ad6 1cbd 3f98 2bbe eac7 433e 4d71 823d
00000330: 942d d53d 6c28 8e3d d755 f93b 5cbd 083d
00000340: f2aa a4bb 2361 c83d 18e0 08bb 0271 37be
00000350: 4a4f 0bbe cf33 8e3d 8c8e acbd 8fc3 7bbc
00000360: a2dc ff3d 0f6f fcbd 9109 253e e9a7 0c3d
00000370: 0bf3 0fbe ae8e d2bd f2f6 4ebd 0b37 b0bc
00000380: 489a 54bd 0f23 873d f647 91bd 96f8 2ebe
00000390: 3727 69bc ab43 a8bd 955e fa3d f35b ebbd
000003a0: 72d4 533d 40d5 6dbe 5413 1dbe 06c8 8bbd
000003b0: 1d52 923c 83b9 cebd 0218 cfbc 4aca ad3d
000003c0: b688 023e 09d6 ba3d 41e1 31be 8472 b9bc
000003d0: ec9d 923d a43a b83d 42d8 23be 5e63 d3bd
000003e0: e9d9 a83c 69df cebc 3080 b0bc 4088 59bd
000003f0: e77e 21bb f9b5 d13d 9fd7 c43c f1aa 02bc
-0.11700356 -0.029820643 0.13495287 0.1167511 0.041667424 0.048176344 -0.035452276 -0.0056320587
0.1897677 0.19747087 0.10816339 0.06291322 -0.007768997 -0.14254284 0.20456539 0.025834456
-0.09796679 0.21305342 -0.0038086714 -0.16489486 0.069509625 -0.010289483 0.023885198 0.17783667
0.07762093 0.044382554 0.08826999 -0.1134062 -0.04734045 -0.08683229 -0.014796224 -0.013284948
0.10938852 -0.062524825 0.110870264 0.09060585 -0.0026517492 -0.07877102 0.014563986 0.073606335
-0.033620954 0.085323766 -0.036535397 0.16555434 -0.028807284 -0.07343643 -0.002043521 -0.14268199
-0.0026256565 -0.08182273 -0.087184854 -0.11740791 -0.14934772 0.1259926 -0.09581385 -0.014203614
-0.010644851 -0.005384689 0.06093295 0.09654632 -0.042489942 -0.114448845 -0.08148919 -0.14036001
0.041475832 -0.15628561 -0.034832317 0.09224458 0.17109399 -0.036888022 -0.029521177 -0.058270387
-0.1292127 0.047807526 -0.1524737 0.008966184 0.12981804 -0.028959105 0.15439308 0.0017139273
0.08205039 0.11877993 0.066514954 0.0071829674 0.0046962122 -0.08659218 0.04421644 0.054394905
-0.05741035 0.02989028 -0.02688116 0.074235044 -0.045350183 -0.08987696 -0.018383864 0.03201155
0.037353266 -0.10168376 0.06186556 -0.08796931 -0.0032360246 0.20233479 -0.03619088 0.061948203
-0.07685789 0.036134165 0.1283014 -0.10574025 0.07121404 0.046671852 -0.030257018 -0.033336572
0.0685229 0.120951295 0.12069465 -0.03483793 -0.08910002 0.06688131 0.055017464 -0.0040910193
-0.10200787 -0.10736735 -0.0009659179 -0.09156136 -0.03980816 0.10207746 -0.07333231 -0.0819053
0.06804609 -0.04391229 0.09844372 0.06995924 -0.05683808 0.10548152 -0.008910659 -0.024456127
0.057025183 -0.14843935 -0.08873689 0.08638478 0.016133456 0.089327425 0.1540701 -0.05539157
0.028454276 -0.008565518 -0.02613672 0.042986967 0.06687226 -0.060857605 -0.10355097 0.0020912797
-0.0017224795 -0.07753309 -0.08988917 0.049731772 0.03037714 0.016621493 0.009663487 0.083117634
-0.012516057 0.007194758 0.10242367 -0.015778273 -0.034230627 -0.063454635 -0.009169606 0.22735573
-0.062104736 0.05743182 -0.046229403 0.041422483 0.103215195 -0.003528409 0.041153125 0.021220202
-0.1093065 0.0371469 0.05758195 0.0016748299 -0.17875506 0.20075597 -0.059696816 0.047179293
-0.05111614 0.12907647 0.01702223 0.18398978 0.1338212 0.037052277 0.03989293 -0.048280474
-0.19926266 -0.038186423 -0.10322087 0.10464323 -0.0077109733 -0.10494129 0.075211845 0.080097556
-0.03829018 -0.16757296 0.1911923 0.06369267 0.10409084 0.069413036 0.00760911 0.033383712
-0.005025261 0.09784152 -0.0020885523 -0.17914203 -0.13604465 0.069434755 -0.08425626 -0.015366449
0.12493254 -0.1232587 0.1611693 0.03433982 -0.14057557 -0.1028112 -0.050528474 -0.021510622
-0.051904947 0.06598484 -0.070938036 -0.17087016 -0.014230541 -0.08216032 0.12225071 -0.11492147
0.051716276 -0.2322588 -0.15339404 -0.06825261 0.01786142 -0.10093977 -0.025280003 0.08485849
0.12747464 0.09122855 -0.17371084 -0.022637613 0.071590275 0.0899556 -0.16000465 -0.10321687
0.02061172 -0.025253015 -0.0215455 -0.053108454 -0.002464229 0.10239787 0.024028597 -0.007975326
