results/Test4/MoveToGoal/MoveToGoal-7331.onnx (onnx, 72639 bytes, 7 tensors)

action_model._continuous_distribution.log_sigma f4 [1, 2]
00000000: 0000 0000 0000 0000
0.0 0.0

action_model._continuous_distribution.mu.bias f4 [2]
00000000: 0000 0000 0000 0000
0.0 0.0

action_model._continuous_distribution.mu.weight f4 [2, 128]
00000000: 009a 3ebc 553a cdbc 881b a63c 1b42 423c
00000010: 0113 11bd f751 203c 7ff0 81bb 28f9 7cbb
00000020: cf83 5fbb 048c 2a3c fe9b 2bbc 1f79 513b
00000030: 90ff d5bc 569e a9bc 4b16 073d c217 86bc
00000040: 1788 77bc ccff 81bc e9f9 0abd ba32 e7ba
00000050: 0d2d 65bc 804d 7dba 89a7 a53c cb9a 0cbd
00000060: 4eb1 2fbc c80a 97bb df75 bcbb 849c 223c
00000070: e3e0 9e3c b6fd 1abc fdfd 77bc 8538 f83b
00000080: eaf3 8a3a b5d5 393a 9671 be3c f0f1 3cbc
00000090: a55f 8d3c 4768 b2bb d7e8 39ba 4b4d 803c
000000a0: 3553 3b3b 47bb 79bc e857 bc3b a928 b93a
000000b0: 80b9 00bb 05a5 7d3c ecd5 20ba ab97 19bb
000000c0: 6f19 31bc 4349 223c 57d3 42bc 8fbb 743c
000000d0: d499 48bc 5de4 633c 2ae0 44bc 1084 183d
000000e0: eabd e8bb 5b86 b13b f8f4 56bb 63cd 753c
000000f0: baff fcbb 024c 9739 ef0d 6c3c c99f b43b
00000100: 5bb4 4bbc f7a1 45bc 4aa7 cd3b d8d4 ddbb
00000110: dc76 97bb 4b3e 04bd 5dae 4036 8a08 913b
00000120: 95a6 c33c 4764 3bbc fb0c 6fbd 67f7 5abc
00000130: 6372 993c ba1e 85bb 23b8 81bc 345d 183d
00000140: 698d 3ebc 6f15 7cbb 0030 cd3c 6a23 26bc
00000150: d279 093c a2ec 6c3c f61a 073c 02ee 2dbc
00000160: b771 49bc 5d0a 143c 6ce1 a5bc 7088 d63c
00000170: cb58 853c 1470 a23b b0db 8cbc 8f54 5d3c
00000180: 4d28 773c fb19 b93c 05fb 79bb a2ea d73c
00000190: b3d6 933b ddcc adbb e45f 213c 89a6 103c
000001a0: 8bd5 7b3c d6e8 86bc c389 85bb 0d8a d53c
000001b0: 938e a03c 2dab ffbc 47ba f93b fac2 e9bb
000001c0: 77b1 41bb 5d88 283d d748 253b 425c dcbc
000001d0: 5347 c73b 85db a93c 65b1 833b 9c68 993b
000001e0: 8091 67ba d5ac ccbb 8a6e c1ba 4f30 febb
000001f0: 4025 3f3c 28aa 333d 671f b4bb 9d0e 3cbc
00000200: 4824 ebbc 0408 0e3d 972a bf3b 7400 0bbc
00000210: 5dc4 7cbc 6dd6 4b3c 92e9 cdbc e491 a2bc
00000220: ab85 c6bc 1bd0 24bb 85df c1bb 038e 33bc
00000230: 234d 2ebc ed18 173d bb33 873b 588c e13b
00000240: 48cd 3abd dfc8 c33b 00c0 da3a 945b 033c
00000250: 1bb2 cb3b 22c0 013d 9043 81bb cd24 e1bb
00000260: 78a3 87bc 3805 1b3c 9800 f43c 85a8 a2bc
00000270: 9910 bbbc 0ed0 283c 42fb 093b fd50 893b
00000280: 7306 a5bc c6b0 aebc fb57 e2ba f269 f4bb
00000290: 122e 9abb 7183 11bd 5f4f f5ba db0b ca3b
000002a0: a9ed a33c 8f65 a73c 1fe4 803b ea2c 303c
000002b0: c4d1 233c af8d c0bb e104 b03b 5359 f63b
000002c0: 48f8 64bc 0d40 a43c 7844 0abb a744 66bc
000002d0: 6af5 28bb 1527 c03c b47b 9bbc 36e2 2fbc
000002e0: 77b1 b9bc b7b0 ee3b d3d8 ae3b 9485 1cbc
000002f0: 3b12 313c 6321 87bc a0d7 b63c 2adf a5bc
00000300: 851e 093c 48bc ae3c b662 a83a 481c 82bc
00000310: 9bf7 673c 0f56 74bc 080a 1bbc cf36 fcbc
00000320: b893 513c 783a 063c a435 963c cd12 30bc
00000330: a059 013d 1abe 73bc f4b7 96bc 7199 ca3b
00000340: 2068 643b 7e50 91bc a791 f0bc 2f5b b63b
00000350: ccf6 bb3c 42cb 5f3c f7bd e03a 0695 473c
00000360: ea42 59bc 95a8 7e3c 1d6f 433c 0fd6 42bc
00000370: a840 c93b 17af 273b 5570 e5bc 0b44 52bc
00000380: 741d a73a 0866 483b 9cf5 05bc 65fd 5a3c
00000390: d30d 6a3c cc32 0ebc 32b3 f2bc 3f71 2cbb
000003a0: 48fd 783c 0b80 b13c 23f1 c8bc b74c 053c
000003b0: 87f7 813c 3db7 6cbc 7b87 4e3b 42a3 633c
000003c0: da39 13bc fbe0 69bc 4052 7bbb 3f96 293c
000003d0: f335 99bc 933d 5e3c 0ae5 bd3b 5aba 1eba
000003e0: 124d 69bc 5fca 3f3c 21db 39bc 61dd 983c
000003f0: 6d29 37bd b138 a63a 6afb cc3b 1b95 98bb
-0.011633396 -0.025052229 0.0202768 0.011856581 -0.035418514 0.009785167 -0.003965437 -0.0038600657
-0.0034105664 0.010409359 -0.010474203 0.0031963063 -0.026122838 -0.020705383 0.032980245 -0.01636875
-0.01510813 -0.015869044 -0.03392974 -0.0017639019 -0.013987792 -0.00096627325 0.020221489 -0.03432731
-0.010723425 -0.0046094395 -0.005751356 0.009925012 0.019394344 -0.009459903 -0.015136239 0.007575097
0.0010601257 0.0007089035 0.023247521 -0.011532292 0.01725752 -0.0054445597 -0.0007091886 0.015661856
0.002858353 -0.015242404 0.005747784 0.0014126498 -0.0019641817 0.015481238 -0.00061353925 -0.0023436348
-0.0108092865 0.009905162 -0.011891208 0.014937296 -0.012243707 0.0139094265 -0.0120163355 0.03723532
-0.0071027176 0.0054176277 -0.0032799821 0.015002581 -0.0077209147 0.00028857595 0.014407619 0.005512212
-0.012433137 -0.012062541 0.006276046 -0.0067697577 -0.0046223234 -0.03228597 2.8711722e-06 0.0044260668
0.023883143 -0.011437482 -0.05836199 -0.013364649 0.018731302 -0.004062501 -0.015834874 0.03719826
-0.0116303945 -0.0038464924 0.025047302 -0.010140279 0.008390861 0.0144607145 0.008246174 -0.0106158275
-0.012295178 0.009035674 -0.020249091 0.026188105 0.016277691 0.0049572084 -0.017194599 0.01350893
0.015085292 0.022595396 -0.0038144004 0.026356999 0.004511678 -0.0053039626 0.009849522 0.008828768
0.015370737 -0.016468447 -0.0040752604 0.026066804 0.019599235 -0.031209553 0.007621083 -0.0071338387
-0.002955524 0.04114567 0.0025220418 -0.02689946 0.0060815006 0.020734558 0.00401895 0.00468166
-0.0008833632 -0.006246189 -0.0014757675 -0.0077572237 0.011666596 0.043863446 -0.0054969075 -0.011478093
-0.028703824 0.034675613 0.0058339345 -0.008483995 -0.015427676 0.01244126 -0.025135789 -0.019844957
-0.02423366 -0.0025148455 -0.005916538 -0.010959151 -0.010638508 0.036889005 0.00412604 0.0068831854
-0.045605928 0.0059748734 0.00166893 0.008017439 0.0062163 0.031677373 -0.0039448217 -0.006870842
-0.01655744 0.0094616935 0.02978544 -0.019855747 -0.022835063 0.01030351 0.0021054302 0.0041905628
-0.020144677 -0.021324527 -0.0017268652 -0.0074589187 -0.004705199 -0.035525743 -0.0018715671 0.006165964
0.020010786 0.02043417 0.003933444 0.010752896 0.0099987425 -0.005876265 0.0053716754 0.0075179725
-0.0139752105 0.020050073 -0.002109794 -0.014054454 -0.0025781044 0.023456136 -0.018979885 -0.010735085
-0.02266763 0.0072842496 0.005335906 -0.009553332 0.010807569 -0.016495412 0.022319615 -0.020248014
0.008369093 0.021330014 0.0012846801 -0.015882626 0.014158155 -0.014913096 -0.009462841 -0.030787854
0.012791567 0.008192651 0.018336125 -0.01074667 0.031579614 -0.014876867 -0.018398263 0.0061828424
0.0034852102 -0.017738577 -0.029366327 0.005565069 0.02294483 0.0136593 0.0017146458 0.012181526
-0.013260582 0.015543123 0.011928347 -0.011891856 0.006141741 0.002558654 -0.028007666 -0.0128336055
0.0012749867 0.0030578393 -0.008176234 0.013366078 0.0142855225 -0.008679103 -0.029626463 -0.0026312617
0.015197106 0.021667501 -0.024529045 0.008135966 0.0158651 -0.014447984 0.0031513858 0.013893904
-0.008985961 -0.014274831 -0.0038348585 0.010350763 -0.018702483 0.013564485 0.005795126 -0.000605499
-0.014239566 0.011705964 -0.011343748 0.01866025 -0.04471724 0.001268169 0.006255557 -0.0046564466

network_body._body_endoder.seq_layers.0.bias f4 [128]
00000000: 0000 0000 0000 0000 0000 0000 0000 0000
00000010: 0000 0000 0000 0000 0000 0000 0000 0000
00000020: 0000 0000 0000 0000 0000 0000 0000 0000
00000030: 0000 0000 0000 0000 0000 0000 0000 0000
00000040: 0000 0000 0000 0000 0000 0000 0000 0000
00000050: 0000 0000 0000 0000 0000 0000 0000 0000
00000060: 0000 0000 0000 0000 0000 0000 0000 0000
00000070: 0000 0000 0000 0000 0000 0000 0000 0000
00000080: 0000 0000 0000 0000 0000 0000 0000 0000
00000090: 0000 0000 0000 0000 0000 0000 0000 0000
000000a0: 0000 0000 0000 0000 0000 0000 0000 0000
000000b0: 0000 0000 0000 0000 0000 0000 0000 0000
000000c0: 0000 0000 0000 0000 0000 0000 0000 0000
000000d0: 0000 0000 0000 0000 0000 0000 0000 0000
000000e0: 0000 0000 0000 0000 0000 0000 0000 0000
000000f0: 0000 0000 0000 0000 0000 0000 0000 0000
00000100: 0000 0000 0000 0000 0000 0000 0000 0000
00000110: 0000 0000 0000 0000 0000 0000 0000 0000
00000120: 0000 0000 0000 0000 0000 0000 0000 0000
00000130: 0000 0000 0000 0000 0000 0000 0000 0000
00000140: 0000 0000 0000 0000 0000 0000 0000 0000
00000150: 0000 0000 0000 0000 0000 0000 0000 0000
00000160: 0000 0000 0000 0000 0000 0000 0000 0000
00000170: 0000 0000 0000 0000 0000 0000 0000 0000
00000180: 0000 0000 0000 0000 0000 0000 0000 0000
00000190: 0000 0000 0000 0000 0000 0000 0000 0000
000001a0: 0000 0000 0000 0000 0000 0000 0000 0000
000001b0: 0000 0000 0000 0000 0000 0000 0000 0000
000001c0: 0000 0000 0000 0000 0000 0000 0000 0000
000001d0: 0000 0000 0000 0000 0000 0000 0000 0000
000001e0: 0000 0000 0000 0000 0000 0000 0000 0000
000001f0: 0000 0000 0000 0000 0000 0000 0000 0000
0.0 0.0 0.0 0.0 0.0 0.0 0.0 0.0
0.0 0.0 0.0 0.0 0.0 0.0 0.0 0.0
0.0 0.0 0.0 0.0 0.0 0.0 0.0 0.0
0.0 0.0 0.0 0.0 0.0 0.0 0.0 0.0
0.0 0.0 0.0 0.0 0.0 0.0 0.0 0.0
0.0 0.0 0.0 0.0 0.0 0.0 0.0 0.0
0.0 0.0 0.0 0.0 0.0 0.0 0.0 0.0
0.0 0.0 0.0 0.0 0.0 0.0 0.0 0.0
0.0 0.0 0.0 0.0 0.0 0.0 0.0 0.0
0.0 0.0 0.0 0.0 0.0 0.0 0.0 0.0
0.0 0.0 0.0 0.0 0.0 0.0 0.0 0.0
0.0 0.0 0.0 0.0 0.0 0.0 0.0 0.0
0.0 0.0 0.0 0.0 0.0 0.0 0.0 0.0
0.0 0.0 0.0 0.0 0.0 0.0 0.0 0.0
0.0 0.0 0.0 0.0 0.0 0.0 0.0 0.0
0.0 0.0 0.0 0.0 0.0 0.0 0.0 0.0

network_body._body_endoder.seq_layers.0.weight f4 [128, 6]
00000000: b821 0ebf fc17 5d3d 73e3 003f 2eef 993e
00000010: e1de c93e a0c4 90be 575c ebbd 4338 ffbe
00000020: 6411 123e 1a4b 0e3e c53f 053f 63ba 563e
00000030: f962 cebe 8694 083f 3ede fcbe de0d 24bf
00000040: 1815 87bd f6ad 083f 039e 7a3f 2920 9abe
00000050: db14 eabd d330 0e3f a5a7 4b3e 30d2 07bf
00000060: 1bb7 0cbf af07 583f b624 543e ee64 05bf
00000070: f2d9 423e 595d 72be 8396 4d3e a0c5 33be
00000080: 1158 85be f819 d2be 5d1c 423e 9856 bdbe
00000090: d861 09bf 279d 25bf e231 ccbe f578 f63e
000000a0: 76aa ab3e 5c2c 883e dc88 193e b894 1bbe
000000b0: e0cc 94bd 4882 183d 0aaf e13e bbfd f53e
000000c0: 123c 86be 569e 163f 26fe 043e b300 9fbd
000000d0: dbde 013f 9065 7a3f 0bb5 d3be fac7 9dbd
000000e0: 8fd4 02be 95dd 1bbf f461 86be 6bea 50bd
000000f0: 3ef3 b1bd ee55 f7be f18e 6a3e b068 863b
00000100: df50 7fbe 5ac9 b43e 3f64 1cbe 15db b83e
00000110: 8662 90bd fbbf fcbc 258f a73e 3442 2ebf
00000120: a48f 093f 2d56 20bf 7cd5 9c3e 06eb 1e3d
00000130: b329 643e 3837 3cbc 4693 f23e e4a6 0ebe
00000140: c36d 7bbe 433f 55bf a604 20bc f929 c7bd
00000150: d420 933c dc31 9b3d 3d36 e7be 10f1 1b3f
00000160: 48d3 b4be a305 083f a710 a73b 6ebd 053f
00000170: 69be 8fbe e638 abbd c7e1 7cbe 0042 343e
00000180: 98bd e2be 7368 9a3e 4b56 2d3f f56b 16be
00000190: 5d97 603f 9493 17be ac15 0e3f 99d1 003f
000001a0: 9e9c 89bd 7fe8 abbe 9874 bcbe acd7 2ebf
000001b0: 9f47 c4bc bd77 0cbf 74d3 a73d dbd1 8ebd
000001c0: 60ca 8fbe 54b5 fdbe 077a 823e d291 813e
000001d0: e826 a43d a0a6 973e 0752 01bf 7469 823e
000001e0: ee66 bebe dd29 6bbe f423 373f f254 393f
000001f0: 53df 0bbe 6505 01bf 0b3a 9ebc 8030 913e
00000200: f04e 06be 1cc7 6bbf 0653 6a3e 7711 063e
00000210: c543 363e 12f3 1b3f bdd2 2cbd 36ed 18be
00000220: 533d 773e ce6e e9be 6056 c9be 5967 403e
00000230: f65f 323f afd5 2bbe 7aa9 dfbd de68 1bbf
00000240: 5aee 043f 797c 2fbf 88e8 c4be f572 013f
00000250: 9eaa c23d 4836 473e 49d7 91bf 9483 a4be
00000260: aec6 12be 012f 55be 9b6c 363e e37c b13d
00000270: 193e fd3d c0df 973e 5be0 c5be 52ac 84be
00000280: 97f5 653e acb8 e73e bf8e 59bf e881 7dbe
00000290: 71da 203e f3c5 0abe 1a48 81bf 37ed 30be
000002a0: 4570 e6be a0b2 08bf baeb fa3e d00b 3c3f
000002b0: 8302 74bf ae32 81be 2819 a3be 1768 b73e
000002c0: 4b27 c5bc 67c6 04bf 8752 71be 7478 afbe
000002d0: 6888 edbe bb0b cc3e acca 8abe 3cf1 2e3f
000002e0: b534 93be ee2e e8be 88e4 efbe 9db4 9ebe
000002f0: 5bdd 063e d5a5 89be 8219 703f 9f38 bc3e
00000300: 31f1 853e f6cf 7a3e 35f7 22be 6ef1 bd3c
00000310: c406 1c3f b99c 48bf 697a d23e fe43 27be
00000320: a86f 0f3f 485a f63e 38ad acbd 2019 9bbe
00000330: 7c4a fbbe 17ec 953d 8edb 0cbf 82f4 18be
00000340: f8f8 583e 2c9b 84bd dd1d 01bf 4ae9 383f
00000350: c654 093f e84a d23e b8d8 f33e 4605 5cbe
00000360: eda1 623e 4de5 44bc ce61 7e3e 2634 b73e
00000370: 0c94 00bf 2db9 043f a81e 363f 8fb8 d0be
00000380: ada4 473e c469 14be 49af ffbd bb22 023f
00000390: afe3 b5bd c960 e53e 5beb 203f e4f7 0abf
000003a0: 95f6 27bd 60fe dabd 48a9 aabe df6a b1bd
000003b0: df60 09bf b5c9 323f 18e7 a63e 49f0 f73d
000003c0: 06ed 9a3e f55b b7be 3d6b b4bd 4897 5d3e
000003d0: bbaf d7be 3963 15be f9a8 963d b165 013e
000003e0: 17ac 90bd be6d a33d 8903 633f 5aec c43d
000003f0: 1616 27bd c6e5 a9bd 3872 203f 79c8 2d3e
-0.555202 0.05397795 0.5034706 0.30065292 0.39427856 -0.28275013 -0.11492222 -0.49847612
0.14264446 0.13895836 0.5205043 0.20969538 -0.40309885 0.5335163 -0.49388307 -0.6408366
-0.0659582 0.53390443 0.97897357 -0.3010266 -0.11429759 0.5554325 0.1988817 -0.53055096
-0.54966897 0.84386724 0.20717129 -0.5210713 0.19028452 -0.23668422 0.20076947 -0.17555857
-0.26043752 -0.41035438 0.18956132 -0.36980128 -0.5366492 -0.6469292 -0.39881808 0.48139158
0.3352849 0.26596344 0.14993614 -0.1519345 -0.07265639 0.03723362 0.44078857 0.48045143
-0.26217705 0.5883535 0.12987575 -0.07763805 0.50730675 0.9781122 -0.41349062 -0.07704158
-0.12776397 -0.6088498 -0.26246607 -0.05100481 -0.08688973 -0.48307747 0.2290609 0.004101835
-0.24933194 0.3530987 -0.15272616 0.36104646 -0.07050042 -0.030853262 0.32726398 -0.6806977
0.53734803 -0.62631494 0.30631626 0.038798355 0.22281532 -0.011487775 0.47377986 -0.13930851
-0.2455359 -0.83299655 -0.009766733 -0.097248025 0.01795999 0.07577869 -0.45158568 0.6091471
-0.35317445 0.531336 0.0050984207 0.5224217 -0.2807496 -0.08360462 -0.24695502 0.17603302
-0.44285274 0.30157813 0.677098 -0.1468962 0.8773096 -0.1480239 0.5550182 0.5031982
-0.067193255 -0.33575818 -0.36807704 -0.6829784 -0.023959933 -0.54870206 0.08194628 -0.069736205
-0.28084087 -0.49552405 0.25483724 0.25306565 0.08015233 0.29619312 -0.5051579 0.2547108
-0.37187904 -0.22965188 0.71539235 0.7239524 -0.1365941 -0.50398856 -0.019314786 0.28357315
-0.1311605 -0.9210069 0.22883233 0.130926 0.1779929 0.6091777 -0.042193163 -0.14934239
0.24144487 -0.4559235 -0.3932371 0.18789424 0.69677675 -0.16780733 -0.10920997 -0.6070689
0.51926196 -0.68549305 -0.38458657 0.50566036 0.09505199 0.194543 -1.1393825 -0.32131636
-0.14333603 -0.20818712 0.17814867 0.086663984 0.1236536 0.29662895 -0.38647732 -0.2591272
0.22456966 0.4525808 -0.8498344 -0.24756587 0.15708329 -0.13552074 -1.0100129 -0.1727799
-0.4500753 -0.5339756 0.4900797 0.73455524 -0.9531633 -0.25233978 -0.3185513 0.35821602
-0.024066588 -0.5186524 -0.23566638 -0.34271586 -0.46393132 0.398527 -0.2710775 0.68336844
-0.2875115 -0.45348305 -0.46854043 -0.30997172 0.13170378 -0.26884332 0.9378892 0.36761948
0.26160577 0.24493393 -0.15914614 0.023186412 0.60947824 -0.7836414 0.41109017 -0.1633453
0.5602975 0.48115754 -0.08431476 -0.30292606 -0.49080265 0.07320421 -0.55022514 -0.14937022
0.21188724 -0.06474909 -0.5043619 0.7223097 0.5364498 0.41072774 0.4762628 -0.21486387
0.22132082 -0.01201756 0.24841997 0.35781974 -0.502259 0.51845056 0.7114053 -0.40765807
0.19496413 -0.14493471 -0.12484605 0.50834244 -0.08881318 0.44800404 0.62859124 -0.542845
-0.041006643 -0.106930494 -0.33332276 -0.08662962 -0.5366344 0.6983903 0.32598186 0.12106378
0.3025896 -0.35812345 -0.088095166 0.2163974 -0.4212626 -0.14588632 0.07356448 0.12636448
-0.070640735 0.07979916 0.8867727 0.09615393 -0.040792547 -0.08295779 0.62674284 0.16971005

network_body._body_endoder.seq_layers.2.bias f4 [128]
00000000: 0000 0000 0000 0000 0000 0000 0000 0000
00000010: 0000 0000 0000 0000 0000 0000 0000 0000
00000020: 0000 0000 0000 0000 0000 0000 0000 0000
00000030: 0000 0000 0000 0000 0000 0000 0000 0000
00000040: 0000 0000 0000 0000 0000 0000 0000 0000
00000050: 0000 0000 0000 0000 0000 0000 0000 0000
00000060: 0000 0000 0000 0000 0000 0000 0000 0000
00000070: 0000 0000 0000 0000 0000 0000 0000 0000
00000080: 0000 0000 0000 0000 0000 0000 0000 0000
00000090: 0000 0000 0000 0000 0000 0000 0000 0000
000000a0: 0000 0000 0000 0000 0000 0000 0000 0000
000000b0: 0000 0000 0000 0000 0000 0000 0000 0000
000000c0: 0000 0000 0000 0000 0000 0000 0000 0000
000000d0: 0000 0000 0000 0000 0000 0000 0000 0000
000000e0: 0000 0000 0000 0000 0000 0000 0000 0000
000000f0: 0000 0000 0000 0000 0000 0000 0000 0000
00000100: 0000 0000 0000 0000 0000 0000 0000 0000
00000110: 0000 0000 0000 0000 0000 0000 0000 0000
00000120: 0000 0000 0000 0000 0000 0000 0000 0000
00000130: 0000 0000 0000 0000 0000 0000 0000 0000
00000140: 0000 0000 0000 0000 0000 0000 0000 0000
00000150: 0000 0000 0000 0000 0000 0000 0000 0000
00000160: 0000 0000 0000 0000 0000 0000 0000 0000
00000170: 0000 0000 0000 0000 0000 0000 0000 0000
00000180: 0000 0000 0000 0000 0000 0000 0000 0000
00000190: 0000 0000 0000 0000 0000 0000 0000 0000
000001a0: 0000 0000 0000 0000 0000 0000 0000 0000
000001b0: 0000 0000 0000 0000 0000 0000 0000 0000
000001c0: 0000 0000 0000 0000 0000 0000 0000 0000
000001d0: 0000 0000 0000 0000 0000 0000 0000 0000
000001e0: 0000 0000 0000 0000 0000 0000 0000 0000
000001f0: 0000 0000 0000 0000 0000 0000 0000 0000
0.0 0.0 0.0 0.0 0.0 0.0 0.0 0.0
0.0 0.0 0.0 0.0 0.0 0.0 0.0 0.0
0.0 0.0 0.0 0.0 0.0 0.0 0.0 0.0
0.0 0.0 0.0 0.0 0.0 0.0 0.0 0.0
0.0 0.0 0.0 0.0 0.0 0.0 0.0 0.0
0.0 0.0 0.0 0.0 0.0 0.0 0.0 0.0
0.0 0.0 0.0 0.0 0.0 0.0 0.0 0.0
0.0 0.0 0.0 0.0 0.0 0.0 0.0 0.0
0.0 0.0 0.0 0.0 0.0 0.0 0.0 0.0
0.0 0.0 0.0 0.0 0.0 0.0 0.0 0.0
0.0 0.0 0.0 0.0 0.0 0.0 0.0 0.0
0.0 0.0 0.0 0.0 0.0 0.0 0.0 0.0
0.0 0.0 0.0 0.0 0.0 0.0 0.0 0.0
0.0 0.0 0.0 0.0 0.0 0.0 0.0 0.0
0.0 0.0 0.0 0.0 0.0 0.0 0.0 0.0
0.0 0.0 0.0 0.0 0.0 0.0 0.0 0.0

network_body._body_endoder.seq_layers.2.weight f4 [128, 128]
00000000: 72f6 513d 3e57 943d 7d39 343e e0c5 793d
00000010: 08ad 1fbd c5ff 383d 97b8 a4bd 06cd 8d3d
00000020: c486 ce3d 868a f9bd b2ff 963b 8d1d 06be
00000030: e182 32be a98e aa3d 7ff4 7e3d a608 e83d
00000040: 33ac 853d 5ab1 2e3e 3dd2 a1bd 7925 e33d
00000050: 1921 3f3e 946f 9b3d 3a35 fabd ca48 283d
00000060: b22b 2abd 970c 193c e1f2 9f3c 0793 20be
00000070: 1f40 693d 6956 f63d 896c 00bc 5dc0 cf3d
00000080: 5077 dbbd 497e 79bd 28e8 b5bc 3575 013e
00000090: 731e db3d 260e 09bd c954 ed3c 0b35 ecbc
000000a0: c1f4 fdbc 7703 02be 200c 853a 356b d23c
000000b0: a421 1dbe 7385 86bd fb23 28bd ec77 133c
000000c0: 1cb0 df3a ebde 093b 0b68 313e d296 7a3d
000000d0: 8173 443d 5f73 973d 43f7 4ebe 58ef 06bd
000000e0: dfee 3d3c dfbb 833c 617d 5cbd d4a3 863b
000000f0: 45e4 1fbd 1c12 e4bd 7fbd 633e 063a 63bd
00000100: 2186 12bd 5376 d13c c0bf 2ebb 6170 c03d
00000110: 487d b83d 0b4e 5f3c 87b9 753c 7e27 c8bd
00000120: 5894 2dbe 4b59 4dbd bd08 c2bc cbf7 a0bb
00000130: 9fe8 5b3e e929 6f3d 542b 4a3c cc1d 9839
00000140: fd87 793b aab2 95bc b0cc 91bb 26eb 3b3d
00000150: 727a 9f3c e614 f63d fb65 1dbd ae28 90bc
00000160: 9f14 9dbd 782a bebd fccb ad3d 964a 3f3d
00000170: 0a15 5a3d d48c b0bd 49c1 3fbd f1cb 683d
00000180: 9940 9abc 077e cf3c 01ae 5bbd 02a9 19bd
00000190: f78a 8a3d 6911 9abd cdde 953b 3cfd 873c
000001a0: 313e 19be 22e6 4fbc 9786 d53c 452e 693d
000001b0: 70da b03d fcaf 90bc e181 03be 7561 683d
000001c0: e49c f53d 95ea dbbd 5c34 80bd 916c 82bd
000001d0: 2c32 82bc 3beb 54be 6c27 153d d71a 533e
000001e0: 9f9d 2abd a7aa 11be 7d27 d5bc 6e4c f3bc
000001f0: 43cb a0bd 0395 a3bd 59a4 613e b4a7 dcbd
00000200: e2f0 393d 0dd6 e2bd c6c2 2c3d df5f 8d3d
00000210: ee59 78bd 7d66 64bd ccd5 143e 77c2 903d
00000220: b7ab 73bc b101 a13d aec2 81bc 7477 553d
00000230: 1f87 aa3c 171f c73d 2e17 b93d 32d0 63bd
00000240: 5a3f 01bd 6704 b43b 8a42 2fbe 2afb efbd
00000250: 9a1e 073e 835e 693e 7803 893d d35e f4bd
00000260: 936b babd bdc2 613e b068 45bd 907c ab3c
00000270: fb6d 46bd af1a 873d e2bc ec3b c41e 23bd
00000280: 9826 8ebd 21d4 91bd b31b 7dbd 29fa 043e
00000290: 38bd b2bc d26e 5dbd 1720 ffbb 3ab8 103e
000002a0: 81d4 34bd 3d97 3bbe e22e 0e3e 2a49 acbd
000002b0: 5d25 0d3e 953a f03d e705 e73a cde9 10bc
000002c0: 24bb b43d c2ff 64bd 91f4 0bbd 4c9d 9a3b
000002d0: f9cb 0f3e 12cf d63d 777a 31be 6cdf 103e
000002e0: 1ccf eebc dc05 533e 050f af3d 1d77 dfbd
000002f0: 684a 873c eb08 f73c cb01 543d 6da6 0abe
00000300: da4c 8dbd e4b3 263e 8e3c 64bd 9097 733c
00000310: cdbe 11be b00a 7abc 50d2 82bc 8f55 0d3d
00000320: abdd 78bd f356 eebd 80a9 a13d 4b75 f9bc
00000330: 30ba d63d 723b f43b d9a8 96bd 3254 4f3d
00000340: 2664 0d3d 02bd 9d3c 6540 b3bc 0563 7abd
00000350: 4900 46bd 1db4 03be 6cf5 ba3d c900 143e
00000360: 6bba f4bd 893e 3abd 9dfa f1bc 9952 91bd
00000370: 5999 1ebd 0a8d 053e da63 35be 0ee5 053e
00000380: e998 1b3e bca6 28bd 5ad1 d6bd a19d 77bd
00000390: 865d 663d fa42 1d3c 9ddf 4e3d 2673 4b3d
000003a0: 3aaa f63d 23af cf3d bc18 543e 74cb ac3d
000003b0: 9dda 603d 3854 54bc e086 b6bd 9187 41bc
000003c0: 9950 293d eaf3 08be 46d7 87bd e5c9 d6bb
000003d0: 763c 0cbe 9476 e53c 71b6 45bc 2ca2 d03d
000003e0: f9cd 5fbd ec0e be3d a54d 69bd 8ae1 863b
000003f0: d523 54bd 29da 043e 01de bb3d 73f9 dfbc
0.05126042 0.072432026 0.17600055 0.060979724 -0.038983375 0.045165796 -0.0804302 0.06923871
0.10084298 -0.121846244 0.004608118 -0.1309721 -0.17432739 0.083279915 0.06224489 0.113297746
0.06526985 0.17059842 -0.07901428 0.11091132 0.1866497 0.07589641 -0.122171834 0.041085042
-0.041545577 0.009341381 0.019524993 -0.15681086 0.056945916 0.120282 -0.007838377 0.10144112
-0.107161164 -0.06091145 -0.022205427 0.12642367 0.10699167 -0.03346076 0.028971093 -0.028833887
-0.031000497 -0.12696634 0.0010150708 0.025685886 -0.15344864 -0.06568422 -0.04104994 0.00900076
0.0017066034 0.002103741 0.17324845 0.06117899 0.047961716 0.07395052 -0.2021151 -0.0329431
0.011592596 0.016080795 -0.05383051 0.0041088853 -0.039036054 -0.111362666 0.22240256 -0.055475257
-0.035772447 0.025569117 -0.0026664585 0.093964346 0.090082705 0.013629447 0.014997846 -0.097731575
-0.1695112 -0.050133985 -0.023685807 -0.0049123517 0.21475457 0.058389578 0.012339432 0.000290139
0.003807544 -0.01827367 -0.0044494495 0.045878552 0.019467566 0.12015705 -0.038427334 -0.017597523
-0.07669949 -0.09285444 0.084861726 0.04670199 0.05324272 -0.08620611 -0.04681519 0.05683512
-0.01882963 0.02532865 -0.05363274 -0.037514694 0.06764787 -0.07522852 0.004573679 0.016600244
-0.1496513 -0.012689145 0.026065154 0.05692889 0.08635414 -0.01766204 -0.12842514 0.056733567
0.11992815 -0.10738102 -0.06259987 -0.06368364 -0.015893064 -0.20792858 0.03641455 0.20615707
-0.041654225 -0.14225255 -0.026019806 -0.02969953 -0.07851269 -0.07987406 0.2203535 -0.10774174
0.04539574 -0.11075983 0.042177938 0.069030516 -0.06063264 -0.055761803 0.14534682 0.07068341
-0.014872483 0.07861651 -0.0158399 0.052115873 0.020816384 0.09722727 0.09037624 -0.055618472
-0.031554557 0.005493689 -0.17115226 -0.117178276 0.13195267 0.2278996 0.06690115 -0.11932149
-0.091025494 0.22046943 -0.04819554 0.02093342 -0.04844473 0.06596886 0.007224665 -0.039824262
-0.06940955 -0.071205385 -0.061793994 0.12986054 -0.021818742 -0.054060765 -0.007785808 0.14132777
-0.044147972 -0.18319412 0.13885072 -0.084123924 0.13783784 0.11729924 0.001762566 -0.008844805
0.08824757 -0.055907972 -0.034168784 0.0047184583 0.14042653 0.10488714 -0.17331873 0.14147729
-0.029151492 0.20607704 0.085477866 -0.10911391 0.016514972 0.03015562 0.051759522 -0.13540049
-0.06899424 0.1627956 -0.055721812 0.014867678 -0.14232941 -0.015261337 -0.015969425 0.034505423
-0.060758274 -0.11637678 0.07893658 -0.030451437 0.10484731 0.0074533755 -0.07356424 0.050617404
0.034519337 0.019255165 -0.021881292 -0.06112959 -0.048340116 -0.12861677 0.09128842 0.14453425
-0.11949619 -0.045469794 -0.029538447 -0.070958324 -0.038720462 0.13042083 -0.17713872 0.13075659
0.1519505 -0.041174635 -0.104891494 -0.06045306 0.056241535 0.009598488 0.050506223 0.04967036
0.12044187 0.101408266 0.2071256 0.08437243 0.054895986 -0.012959532 -0.08912444 -0.011812107
0.04133663 -0.13374296 -0.06632857 -0.0065548294 -0.13694939 0.028010644 -0.012067423 0.10187182
-0.05463979 0.0928019 -0.056958813 0.004116242 -0.051791985 0.12973846 0.09173203 -0.027340626
