results/MoveToGoal1/MoveToGoal/MoveToGoal-22660.pt (torch, 439135 bytes, 36 tensors)

network_body._body_endoder.seq_layers.0.weight f4 [128, 6]
0.16175482 0.5404322 -0.034367315 -0.12716673 0.38374296 0.6181409 0.62880534 0.5442939
0.61019546 0.5794592 -0.46558198 -0.46119642 0.29757723 -0.063392475 -0.051082503 0.07916561
-0.39603832 0.4243138 -0.56181955 0.051277217 -0.2860711 0.36542347 -0.22337082 -0.18819605
0.023228273 0.029324248 -0.16731998 -0.059566714 -0.3228813 0.8111381 0.14585198 -0.24054264
0.7335953 -0.28339776 0.21258196 -0.029935393 -0.25927627 0.9167954 0.05537754 0.43742472
0.09281071 -0.7243657 0.6345207 -0.7575133 -0.48824218 0.25443485 -0.44701573 0.01600208
-0.5862547 0.9369224 -1.7155888 -0.39124855 0.007019768 -0.5278562 -0.21084797 -0.00755872
0.24298075 -0.051702853 -0.55416054 1.1344234 -0.6078867 0.18719938 -0.18828212 0.2293635
-0.38579053 -1.0396639 0.69112897 0.12310345 0.8887567 -0.5605609 0.51925415 0.36378375
0.006326872 -0.21280119 -0.014500746 0.1341136 0.11482173 0.5243363 0.23508698 0.14377028
0.5876237 -0.56694263 -0.018771917 0.41640267 -0.16512612 0.22490492 0.4555512 -0.008440831
-0.5173632 -0.32417503 0.15236188 0.4452732 0.6216077 -0.22814499 -0.26093644 -0.21752076
-0.5295126 0.130013 -0.5829395 0.43831038 0.2546903 -0.7733929 -0.009032251 0.32899788
-0.31928334 0.2322257 -0.0927653 0.16610324 0.2646371 -0.11224873 -0.4486474 0.24673161
0.34604165 -0.4528232 0.23284979 -0.063049614 -0.6493594 -0.060614325 0.014518087 -0.12874576
0.40351322 -0.47784552 0.69404894 -0.15650316 -0.056087222 -0.2140548 0.0058401693 -0.3337979
0.1504999 -0.23378569 0.028692713 0.5167347 0.0042833067 -0.92365104 0.37331218 -0.7206726
-0.54306006 0.382335 0.07027212 -0.15466875 -0.012515262 -0.4352384 0.4198746 -0.2725823
-0.31224495 -0.015294969 0.30536556 -0.054677874 0.46308634 0.44557738 0.8894882 0.023396637
-1.0996948 -0.5814077 -0.22162896 0.35306627 -0.008774532 -0.49077874 0.49708188 -0.04034194
-0.20741628 -0.5302344 0.28891602 -0.07695936 -0.8062694 0.3013009 0.4577173 -0.21378052
0.111891076 0.63790894 -0.3019606 -0.2641085 -0.07411716 -0.015865272 0.23807411 0.50391877
-0.18661493 -0.29001912 -0.11190472 -0.46428734 0.4336662 0.1501508 0.30771512 -0.21857758
0.8428821 0.54915565 0.035302337 -0.13033175 0.40693858 -0.7741282 -0.4558387 0.045117214
-0.62205255 0.40075833 -0.44562444 0.2152014 0.37837908 -0.21663687 -0.18613613 -0.6365907
-0.1638736 0.10175458 0.04508428 0.0072792843 -0.29637504 -0.69638795 -0.23568943 -0.15579784
0.6016914 -0.11366934 0.2581159 -0.20487307 -0.053323295 0.05469751 0.25298202 -0.22033976
0.40332615 0.0049261055 -0.08073327 -0.047646515 0.45759788 0.08520383 0.41718745 1.2440193
-0.9308964 0.24492642 -0.29746127 -0.30184096 0.434516 -0.27874398 0.12539518 0.115533136
0.0012412334 -0.37595257 0.3871338 -0.17868946 0.30846542 0.076385155 -0.020910643 -0.40011266
-0.54182917 0.72371626 -0.0631801 -0.06075456 -0.10102845 -0.7339856 0.038548853 0.2119874
-0.44485697 0.26082024 0.39962667 -0.6317777 0.41799644 0.65543056 0.11692337 -1.000185
00000000: 0ea3 253e c459 0a3f bec4 0cbd ff37 02be
00000010: f579 c43e 7b3e 1e3f 63f9 203f d856 0b3f
00000020: c535 1c3f 7057 143f c360 eebe f021 ecbe
00000030: 0b5c 983e ead3 81bd e33b 51bd 9421 a23d
00000040: 89c5 cabe a93f d93e 68d3 0fbf 0f08 523d
00000050: e977 92be c918 bb3e 52bb 64be 77b6 40be
00000060: 3849 be3c 6839 f03c ee55 2bbe 3afc 73bd
00000070: b350 a5be bfa6 4f3f 395a 153e cf50 76be
00000080: e7cc 3b3f 8319 91be 16af 593e 123b f5bc
00000090: dcbf 84be 1ab3 6a3f 8fd3 623d 22f6 df3e
000000a0: 8b13 be3d 0870 39bf f36f 223f 64ec 41bf
000000b0: e1fa f9be 4945 823e 3fdf e4be cb16 833c
000000c0: ca14 16bf 25da 6f3f 6a98 dbbf bb51 c8be
000000d0: 1506 e63b 9521 07bf 88e8 57be 24af f7bb
000000e0: f2cf 783e 5fc6 53bd 77dd 0dbf c934 913f
000000f0: 769e 1bbf 32b1 3f3e 07cd 40be 44de 6a3e
00000100: 5686 c5be b513 85bf d4ed 303f a91d fc3d
00000110: 8f85 633f eb80 0fbf d7ed 043f dd41 ba3e
00000120: a651 cf3b 8ee8 59be 8994 6dbc 1355 093e
00000130: a827 eb3d e73a 063f a4ba 703e 8438 133e
00000140: 826e 163f 2723 11bf 90c7 99bc bb32 d53e
00000150: d216 29be 7a4d 663e 023e e93e 694b 0abc
00000160: ea71 04bf 45fa a5be c104 1c3e d9fa e33e
00000170: af21 1f3f d79e 69be 7699 85be c3bd 5ebe
00000180: 238e 07bf 2122 053e 863b 15bf 386a e03e
00000190: c466 823e 14fd 45bf 02fc 13bc 6972 a83e
000001a0: 1b79 a3be 93cc 6d3e bcfb bdbd f816 2a3e
000001b0: 847e 873e aae2 e5bd 1db5 e5be 36a7 7c3e
000001c0: 5f2c b13e 71d8 e7be 2d70 6e3e 2820 81bd
000001d0: 6b3c 26bf ba46 78bd 45dd 6d3c eed5 03be
000001e0: 4999 ce3e 2ba8 f4be 31ad 313f 5d42 20be
000001f0: b7bb 65bd 2e31 5bbe e45e bf3b 8fe7 aabe
00000200: a51c 1a3e 8465 6fbe fb0c eb3c ba48 043f
00000210: fb5a 8c3b 6574 6cbf c622 bf3e 007e 38bf
00000220: fc05 0bbf 6ac1 c33e d4ea 8f3d 7c61 1ebe
00000230: d00c 4dbc 91d7 debe cef9 d63e e88f 8bbe
00000240: 92de 9fbe c097 7abc e058 9c3e e8f5 5fbd
00000250: a719 ed3e b822 e43e 80b5 633f 4eaa bf3c
00000260: cdc2 8cbf 23d7 14bf b4f2 62be 1ac5 b43e
00000270: 0ec3 0fbc 5a47 fbbe 8481 fe3e 973d 25bd
00000280: ef64 54be 71bd 07bf cdec 933e de9c 9dbd
00000290: ac67 4ebf 1d44 9a3e ec59 ea3e 48e9 5abe
000002a0: 2627 e53d 004e 233f 949a 9abe 3b39 87be
000002b0: bdca 97bd e3f7 81bc b3c9 733e d200 013f
000002c0: fc17 3fbe 637d 94be 4d2e e5bd 12b7 edbe
000002d0: 7f09 de3e 22c1 193e d68c 9d3e cdd2 5fbe
000002e0: 1fc7 573f 7795 0c3f 2f99 103d b075 05be
000002f0: 415a d03e 442d 46bf b163 e9be d4cc 383d
00000300: d63e 1fbf 3230 cd3e e328 e4be c15d 5c3e
00000310: e7ba c13e 0ed6 5dbe 789a 3ebe 9cf7 22bf
00000320: 7bce 27be b564 d03d 4baa 383d 1087 ee3b
00000330: 78be 97be 7b46 32bf 9258 71be 7889 1fbe
00000340: 7308 1a3f 79cb e8bd c427 843e 3fca 51be
00000350: 8769 5abd 7f0a 603d dc86 813e bfa0 61be
00000360: c480 ce3e 2b6b a13b 7c57 a5bd fe28 43bd
00000370: 454a ea3e 587f ae3d 9899 d53e 063c 9f3f
00000380: 3a4f 6ebf fecd 7a3e d84c 98be e68a 9abe
00000390: e278 de3e 88b7 8ebe 9867 003e a39c ec3d
000003a0: e2b0 a23a db7c c0be 6736 c63e 5ffa 36be
000003b0: 2eef 9d3e d26f 9c3d cc4c abbc 91db ccbe
000003c0: 51b5 0abf 7845 393f 9164 81bd c6d9 78bd
000003d0: 01e8 cebd 7be6 3bbf 67e5 1d3d 3a13 593e
000003e0: 4bc4 e3be 3b8a 853e de9b cc3e 2fbc 21bf
000003f0: a103 d63e 4cca 273f 8575 ef3d 1006 80bf

network_body._body_endoder.seq_layers.0.bias f4 [128]
-0.00014769364 -0.00019737384 -0.00033191533 0.00038398165 -0.000255559 -0.00049370696 -0.00029487163 -0.00011742127
0.00013332059 1.8615794e-05 -0.0007136363 0.000261873 -7.9666344e-05 5.374376e-05 2.7114034e-05 -0.0006275138
2.1306561e-05 0.00020167384 -5.1427924e-05 -0.0010470694 -0.00065391586 0.00039664662 -1.8813515e-05 -0.00051498594
-7.957569e-06 -0.00011106891 2.6192454e-05 -0.00052452943 -0.0010670972 0.0006011745 0.00014643502 9.792855e-05
0.0001663383 4.445462e-05 -0.0005178148 0.0001555045 -0.00046958253 0.0013910804 0.0007481525 -0.0008236811
0.00036170616 -0.0007020692 0.00042942882 0.00024799886 -0.00017837115 0.00014552043 0.0001053969 -0.0005232648
0.00029988028 -0.0008578836 -0.0007649588 0.00013354541 -0.00086402625 -0.00096428284 -0.0006712601 -0.0013013909
-0.0013934844 -0.0018825636 0.00024240844 0.00024867506 -0.0008681551 -0.0010281961 -0.00025260757 9.900906e-05
-0.00044024657 0.0001515441 0.0002752319 -0.0007690819 0.00014797968 0.00038916874 -0.00079108943 0.00045986532
-0.0023475918 -0.00065599947 0.0005403804 -0.0006701672 0.00022955902 -0.00028085176 -0.0005862426 -0.000587988
-0.00019730035 -0.0005567535 -0.00032258464 0.0005061289 -0.0010519914 -0.00029527687 -0.00044575025 0.00029154887
-0.00015852656 -0.00053714204 -0.00026182164 -0.000110580695 0.00072088355 -0.0006124879 0.00033642814 0.00026457364
-0.0015787985 -0.0007123996 2.3479583e-05 -0.00079632417 -0.0002725113 -0.0015538641 0.00073521124 -1.2349089e-05
0.000111048736 -0.0006647497 0.000101380734 -0.0005799485 -0.0010069836 -0.001387075 -0.00023523248 -0.00047289176
-0.00043258234 -0.00048627195 0.0003754349 0.00068449107 -0.0003639617 0.00030469336 -0.0009230215 -0.00037892064
0.00034837145 9.238814e-05 0.00010283662 -0.0003723494 -0.00093008636 -0.0018288296 -0.00020876562 -0.0002248933
00000000: 36de 1ab9 23f6 4eb9 ec04 aeb9 2551 c939
00000010: 8cfc 85b9 1d6c 01ba 0099 9ab9 1040 f6b8
00000020: f9cb 0b39 1d29 9c37 5213 3bba 004c 8939
00000030: 8b12 a7b8 ec6a 6138 f272 e337 bd7f 24ba
00000040: 7ebb b237 6978 5339 50b4 57b8 d23d 89ba
00000050: 8d6b 2bba 02f5 cf39 b7d1 9db7 1f00 07ba
00000060: 8081 05b7 abed e8b8 deb7 db37 9380 09ba
00000070: d7dd 8bba 2398 1d3a 5a8c 1939 fd5e cd38
00000080: 196b 2e39 c974 3a38 f7bd 07ba ec0e 2339
00000090: 4d32 f6b9 ea54 b63a aa1f 443a 4eec 57ba
000000a0: 61a3 bd39 110b 38ba f624 e139 d805 8239
000000b0: 2409 3bb9 d896 1839 8808 dd38 b52b 09ba
000000c0: 4039 9d39 98e3 60ba 8487 48ba 5308 0c39
000000d0: d27f 62ba edc7 7cba 81f7 2fba 6f93 aaba
000000e0: 94a5 b6ba 5ac0 f6ba 052f 7e39 9a60 8239
000000f0: e794 63ba 89c4 86ba 6a70 84b9 16a3 cf38
00000100: e5d0 e6b9 cfe7 1e39 004d 9039 369c 49ba
00000110: fe2a 1b39 5809 cc39 1d61 4fba 141a f139
00000120: 0eda 19bb 61f7 2bba 51a8 0d3a 29ae 2fba
00000130: c8b5 7039 493f 93b9 13ae 19ba 3523 1aba
00000140: 69e2 4eb9 18f3 11ba 9420 a9b9 bcad 043a
00000150: f9e2 89ba 64cf 9ab9 96b3 e9b9 07db 9839
00000160: 263a 26b9 fece 0cba 1b45 89b9 8fe7 e7b8
00000170: adf9 3c3a 5e8f 20ba 9f62 b039 79b6 8a39
00000180: b0ef ceba 54c0 3aba 05f6 c437 69c0 50ba
00000190: d9df 8eb9 07ab cbba 31bb 403a ef2e 4fb7
000001a0: d6e2 e838 9942 2eba 5e9c d438 af07 18ba
000001b0: c3fc 83ba 84ce b5ba bda8 76b9 75ee f7b9
000001c0: 38cc e2b9 51f2 feb9 05d6 c439 6b6f 333a
000001d0: 1dd2 beb9 40bf 9f39 edf6 71ba dea9 c6b9
000001e0: a0a5 b639 81c0 c138 fda9 d738 e437 c3b9
000001f0: 0ad1 73ba 57b5 efba 18e8 5ab9 56d1 6bb9

network_body._body_endoder.seq_layers.2.weight f4 [128, 128]
0.09434365 0.06574868 -0.031264585 0.058143456 0.08046899 -0.09605975 -0.04627677 -0.035202883
0.030998554 0.040480632 -0.14090294 0.09329655 -0.07390671 -0.1591359 -0.022379307 0.117232524
0.02418626 0.064189896 -0.1180556 -0.085352466 0.1882092 -0.009844942 0.008680842 4.403735e-06
0.07508521 0.0768756 0.0022988617 0.06353308 -0.012411521 0.10654001 0.0801513 0.09024225
0.09238439 -0.075699724 -0.017074615 -0.15612474 0.10110679 -0.014355082 0.0657208 -0.045824215
0.017423732 -0.0843456 0.05428629 -0.04688511 0.03365165 -0.078206606 -0.052907348 -0.025638921
-0.046339665 0.04387404 0.027109073 0.1152007 0.07534312 -0.07455805 -0.025307368 0.084683865
-0.056329858 -0.088333435 -0.05387696 0.0850019 -0.014563059 0.07214721 -0.14067826 0.07567489
-0.05687937 -0.0355028 -0.1668281 0.18130824 -0.043133922 0.031165862 0.05159426 -0.09176997
0.105243616 -0.015236701 0.022883946 -0.03995769 0.096268706 -0.084727295 -0.077243954 -0.071778424
0.21062443 -0.05293473 0.148599 0.04698489 0.030958565 -0.040353283 0.090285756 0.03230187
-0.020134065 -0.04307706 -0.07479261 -0.016653266 0.08860373 0.08608934 -0.10890216 -0.057492405
0.04374288 0.089775935 0.1463255 -0.17672455 0.030093448 -0.030889414 -0.011536299 0.16335587
-0.0024547954 -0.17060061 0.10386913 0.0144456895 0.014057835 -0.053392153 0.011477146 -0.11240334
-0.08680196 0.016829088 0.077531934 0.12593986 -0.14984968 -0.17073506 -0.01080381 -0.036862183
-0.009631142 0.08354832 0.014758079 -0.16608383 -0.05244891 -0.14078058 0.004721895 0.03335591
-0.007247584 0.094277285 -0.102264054 0.12656441 0.010168205 -0.07264022 0.14910191 0.14745454
0.042634383 0.037199467 0.041394737 -0.0032001717 -0.020890493 -0.18359555 0.06409063 -0.1291885
0.101320796 0.024581147 -0.11501224 -0.120154776 0.021094315 0.102382906 0.07043681 0.021071725
-0.014637899 0.13949601 0.13631153 -0.04884181 -0.043199353 0.14625081 0.09495775 0.010271724
-0.023766736 0.11963366 -0.08469249 -0.0018510234 0.052741814 -0.10138752 -0.032591306 -0.12212267
-0.032042243 -0.124362625 -0.009948469 -0.033827607 0.0083815055 -0.13164422 0.20520999 0.022957176
-0.1095615 0.05693076 -0.15185504 -0.08109884 -0.016848493 -0.014951206 0.054890778 0.11885422
-0.07841232 -0.042093765 0.08250307 0.07788119 -0.05424991 0.020595254 -0.020455593 0.10558736
-0.09545788 -0.08328792 -0.15456328 0.0077458974 -0.095241375 -0.003445301 -0.06634933 -0.011526074
0.02398138 -0.06428047 -0.040228125 -0.052670993 -0.090166 -0.08482236 0.0076831765 0.028478116
0.08090726 0.039273 0.038513638 -0.0061164903 -0.12119054 0.07034321 -0.08207825 0.037632205
-0.006672642 0.08513451 0.021865623 0.005395284 -0.10507737 0.080279246 -0.025494158 -0.049877327
0.04535488 -0.090869695 0.045304745 0.12224506 0.0038862247 0.0260844 0.091551654 0.088918984
-0.072795145 -0.0072049163 -0.06499378 -0.036742363 0.075210996 -0.13901743 0.07433575 0.016966408
-0.030312696 0.02000353 0.011441728 0.14542979 0.067152485 0.07924643 0.047318548 0.008193351
0.09153559 -0.06633643 -0.023281742 -0.024954759 0.034594923 -0.05602774 0.002732081 0.089111485
00000000: 3e37 c13d 3ea7 863d 4b0f 00bd d527 6e3d
00000010: edcc a43d f9ba c4bd b68c 3dbd e630 10bd
00000020: aef0 fd3c 05cf 253d dc48 10be 4312 bf3d
00000030: 675c 97bd 85f4 22be cf54 b7bc 9b17 f03d
00000040: 4322 c63c fe75 833d 22c7 f1bd 46cd aebd
00000050: eab9 403e ae4c 21bc 173a 0e3c ccc3 9336
00000060: 46c6 993d f470 9d3d 80a8 163b a21d 823d
00000070: b159 4bbc a631 da3d 5d26 a43d eed0 b83d
00000080: 0734 bd3d 7508 9bbd 10e0 8bbc 2adf 1fbe
00000090: 1411 cf3d 9431 6bbc a098 863d 2cb2 3bbd
000000a0: 37bc 8e3c 63bd acbd 4d5b 5e3d 9a0a 40bd
000000b0: 50d6 093d c92a a0bd 60b5 58bd b708 d2bc
000000c0: a9ce 3dbd 44b5 333d d913 de3c 58ee eb3d
000000d0: 7e4d 9a3d e4b1 98bd 6651 cfbc bc6e ad3d
000000e0: 23ba 66bd 29e8 b4bd 16ae 5cbd 7a15 ae3d
000000f0: e699 6ebc ebc1 933d f60d 10be 70fb 9a3d
00000100: 58fa 68bd 626b 11bd fcd4 2abe dea8 393e
00000110: 32ad 30bd 8d4f ff3c 8154 533d e5f1 bbbd
00000120: f789 d73d 5ba3 79bc 1d77 bb3c adaa 23bd
00000130: 8728 c53d 8185 adbd 1432 9ebd 9100 93bd
00000140: eead 573e 16d2 58bd 562a 183e 3a73 403d
00000150: d19c fd3c 7c49 25bd bde7 b83d f74e 043d
00000160: 32f0 a4bc 9271 30bd de2c 99bd 6e6c 88bc
00000170: df75 b53d 9c4f b03d 1808 dfbd 287d 6bbd
00000180: bc2b 333d 72dc b73d 5ad6 153e 48f7 34be
00000190: 8986 f63c cc0b fdbc bf02 3dbc c346 273e
000001a0: a2e0 20bb edb1 2ebe 57b9 d43d 9dad 6c3c
000001b0: d552 663c bbb1 5abd a40a 3c3c b933 e6bd
000001c0: 3ac5 b1bd 28dd 893c 10c9 9e3d 61f6 003e
000001d0: 3272 19be 2cd5 2ebe 7702 31bc cdfc 16bd
000001e0: f0cb 1dbc 621b ab3d dfcb 713c e111 2abe
000001f0: abd4 56bd c928 10be 20ba 9a3b 35a0 083d
00000200: 247d edbb 7314 c13d d16f d1bd 1a9a 013e
00000210: 8b98 263c 65c4 94bd 2cae 183e 53fe 163e
00000220: 64a1 2e3d 785e 183d 878d 293d f9b9 51bb
00000230: 8a22 abbc 7900 3cbe f341 833d fd49 04be
00000240: 4781 cf3d 675e c93c 8a8b ebbd b513 f6bd
00000250: fccd ac3c 21ae d13d 2d41 903d 9c9e ac3c
00000260: ccd3 6fbc 0bd8 0e3e 4095 0b3e 5a0e 48bd
00000270: cef1 30bd c6c2 153e 3579 c23d bc4a 283c
00000280: 75b2 c2bc 7e02 f53d 4273 adbd 0a9e f2ba
00000290: cd07 583d 43a4 cfbd 767e 05bd 731b fabd
000002a0: ba3e 03bd d5b1 febd e7fe 22bc d18e 0abd
000002b0: 9552 093c becd 06be 9122 523e b010 bc3c
000002c0: c861 e0bd 3b30 693d e37f 1bbe 2617 a6bd
000002d0: da05 8abc e7f5 74bc 27d5 603d d769 f33d
000002e0: a396 a0bd 836a 2cbd 5ff7 a83d 2c80 9f3d
000002f0: 2735 5ebd 61b7 a83c 7d92 a7bc 303e d83d
00000300: 6c7f c3bd db92 aabd d645 1ebe 4cd1 fd3b
00000310: e90d c3bd 8fca 61bb 28e2 87bd dcd7 3cbc
00000320: 9974 c43c 7ba5 83bd 3fc6 24bd 8abd 57bd
00000330: f4a8 b8bd 58b7 adbd 28c3 fb3b f04a e93c
00000340: b5b2 a53d badc 203d 7ac0 1d3d d76c c8bb
00000350: bf32 f8bd 1a10 903d a418 a8bd 3a24 1a3d
00000360: 2ea6 dabb 015b ae3d 891f b33c ecca b03b
00000370: ce32 d7bd 7269 a43d 20d9 d0bc 2b4c 4cbd
00000380: 0ac6 393d e419 babd 7891 393d 9e5b fa3d
00000390: 08b0 7e3b f4ae d53c 6f7f bb3d 281b b63d
000003a0: 9f15 95bd 3817 ecbb 751b 85bd 297f 16bd
000003b0: 3908 9a3d 965a 0ebe 573d 983d 23fd 8a3c
000003c0: 5552 f8bc 71de a33c 1676 3b3c 8ceb 143e
000003d0: 3e87 893d f44b a23d 18d1 413d 683d 063c
000003e0: 0377 bb3d 65db 87bd 5ab9 bebc ec6d ccbc
000003f0: 68b3 0d3d 587d 65bd b70c 333b 1580 b63d

network_body._body_endoder.seq_layers.2.bias f4 [128]
-0.00042421906 0.00037486057 -0.00010872085 -0.0008855973 0.0013701293 0.00020080814 0.00036183183 0.0003215605
-0.0012833131 -0.0002966562 -0.0006631113 -0.00040617405 -0.0005460149 -9.918229e-05 3.5468664e-05 0.00042639446
0.00039436136 -0.0004986556 0.0019348235 0.00016486338 3.0039995e-05 -0.0010022232 -0.00020276557 0.00020039853
-7.857599e-05 -0.001204566 -0.000462213 -0.00059142953 -0.00046598093 0.00027495364 -0.0006718125 7.320318e-05
-0.0003304491 -0.0012291648 -0.00074700813 0.0003570531 -0.0005768328 0.00034403618 -0.00027839048 -0.0014829226
0.00025197916 7.0980315e-07 -0.00053503097 -0.0001458434 -0.00012714908 -8.052303e-05 -0.00096740125 -0.0011194556
4.95863e-05 -0.00024566415 -0.0017706436 -0.00025448162 -0.00031442606 -0.00066994084 -0.00063193904 -0.0007693033
0.00013849964 -0.0006463446 0.00013302773 -0.00035738348 -4.5396067e-05 0.00036162717 -0.0009586476 0.00065971975
-0.00091917365 -0.00017013073 -0.00032776356 -0.0006214223 -0.0016015297 -0.00053934247 0.0002344567 -7.10574e-07
-0.0001976024 8.739534e-06 0.0019892177 -0.00054110837 0.0002440018 -0.0003084086 -0.0002863354 -0.000582778
-0.00097357197 -0.001282714 -0.00032906386 -0.0007320274 0.00033524743 -0.0010575799 -0.0005270399 -3.474925e-05
-9.228619e-05 -0.0009879257 -0.0012120102 0.00042566296 -0.00086274475 -0.00013637963 -0.0005299145 -0.00011911322
0.0003588071 -0.0011304071 -0.0005838555 -0.00035105305 0.00011391578 0.00018699717 -0.00053500757 -0.0003503913
-0.0009176915 0.00034705218 -0.00041040938 0.00028924402 0.00017954041 9.563306e-05 -0.0011705428 7.0591595e-05
0.00027219317 -0.00021321107 -0.000612591 -0.00026103196 -0.00044584242 -0.0004983493 -2.6388176e-05 0.0005160904
-0.00067899865 0.0008421805 -1.9915717e-05 -9.0326226e-05 -0.00038658458 -0.00042940557 -0.00017064503 0.0001732825
00000000: b869 deb9 ef88 c439 1001 e4b8 6e27 68ba
00000010: e995 b33a 0690 5239 3fb4 bd39 1f97 a839
00000020: d834 a8ba 8588 9bb9 a5d4 2dba c2f3 d4b9
00000030: 7122 0fba 1600 d0b8 30c4 1438 b28d df39
00000040: 49c2 ce39 36b8 02ba e799 fd3a 2ddf 2c39
00000050: 66fe fb37 085d 83ba 789d 54b9 1222 5239
00000060: 2ac9 a4b8 87e2 9dba 2e55 f2b9 2a0a 1bba
00000070: e74e f4b9 a727 9039 931c 30ba a884 9938
00000080: 2140 adb9 ed1b a1ba ded2 43ba db32 bb39
00000090: 9836 17ba c15f b439 f0f4 91b9 a05e c2ba
000000a0: 121c 8439 4d89 3e35 5241 0cba 8aed 18b9
000000b0: 5253 05b9 79de a8b8 3399 7dba b2ba 92ba
000000c0: e2fa 4f38 7ccc 80b9 f114 e8ba f26b 85b9
000000d0: 8dd9 a4b9 f89e 2fba b6a8 25ba 12ab 49ba
000000e0: 373a 1139 746f 29ba 5c7d 0b39 335f bbb9
000000f0: a867 3eb8 c798 bd39 c04d 7bba 0bf1 2c3a
00000100: b3f4 70ba 1f65 32b9 aed7 abb9 f2e6 22ba
00000110: 6bea d1ba a962 0dba 7ed8 7539 46be 3eb5
00000120: 7e33 4fb9 03a0 1237 895d 023b 2bd9 0dba
00000130: bcda 7f39 e7b1 a1b9 491f 96b9 92c5 18ba
00000140: 4f37 7fba bd20 a8ba 3486 acb9 87e5 3fba
00000150: 26c4 af39 7e9e 8aba 0d29 0aba b9bf 11b8
00000160: c589 c1b8 497d 81ba 50dc 9eba 842b df39
00000170: d229 62ba 2101 0fb9 f6e9 0aba 6ccc f9b8
00000180: 461e bc39 2b2a 94ba e10d 19ba 8b0d b8b9
00000190: 12e6 ee38 ac14 4439 c03f 0cba b9b4 b7b9
000001a0: 3c91 70ba 8ef4 b539 372c d7b9 ada5 9739
000001b0: 0343 3c39 9c8e c838 e66c 99ba 930a 9438
000001c0: 26b5 8e39 6991 5fb9 4996 20ba 1edb 88b9
000001d0: f5bf e9b9 a8a3 02ba 2d5c ddb7 3e4a 073a
000001e0: d4fe 31ba c7c5 5c3a ad10 a7b7 866d bdb8
000001f0: 81ae cab9 d721 e1b9 2def 32b9 2bb3 3539

action_model._continuous_distribution.log_sigma f4 [1, 2]
-0.0083230985 -0.008005437
00000000: 9b5d 08bc 3d29 03bc

action_model._continuous_distribution.mu.weight f4 [2, 128]
-0.0053976825 -0.027779536 0.007614813 -0.013192253 0.027544856 0.001043998 0.0077345152 0.0352324
-0.0026615188 0.01203819 0.005215969 0.0063706264 0.0035201674 0.0069364766 -0.008733144 -0.03008621
-0.030790681 0.014032715 0.030831233 -0.009128943 0.037560582 -0.0019092988 0.012673396 -0.03378855
0.031148676 0.0010546208 0.012226049 -0.0035467513 0.0039011126 0.0020556226 0.013606661 -0.012143375
-0.020601884 0.0134492265 -0.0017579877 -0.027562508 0.023491882 -0.03192966 0.032059528 0.0015119994
0.019741483 0.015769823 0.01802316 0.017080076 -0.004653518 -0.003844766 0.005868756 -0.003482648
0.04031948 0.025594797 0.015158329 -0.0041068564 0.024136923 -0.011051834 0.016422484 0.010868462
-0.042105004 0.01573272 -0.009924193 0.0082115065 0.009202092 -0.023317818 0.0016041369 0.0058176205
-0.010543058 0.0033412087 -0.008323059 0.0063022384 -0.0007708686 -0.019614084 -0.034372848 0.003158821
0.0032032235 -0.0127201425 0.010309592 -0.013320277 0.0019215007 0.0007896198 0.018054321 0.0040370463
-0.0025116603 0.014292864 0.00702385 0.014455868 -0.028411834 -0.004875246 -0.00021374556 -0.005628708
-0.012219248 -0.008985176 -0.024526041 -0.02346745 -0.017135972 0.0069425656 -0.015862217 -0.008064808
-0.013668471 -0.010791441 -0.008046547 0.02271813 -0.016108373 -0.011840138 0.011129648 0.00085240934
-0.036341533 -0.013910034 0.0119137885 -0.0031945382 -0.01162967 -0.0019111682 0.00082238734 -0.0021595675
-0.029619355 0.015605327 0.017507462 -0.009644099 -0.012033062 0.005038407 -0.011323753 0.011362104
0.011966785 0.028118385 -0.013663734 0.0023036073 0.0043545724 -0.013123898 0.022597136 -0.02068125
-0.018292455 0.004621174 0.031338833 -0.00342144 -0.01198051 -0.014591991 0.016204957 -0.009085205
0.0044837664 0.03321585 -0.0149331475 0.007463516 -0.02393708 0.008918122 0.013227491 0.018247673
0.008371505 0.004368499 0.024615323 0.00088635 0.013001549 -0.0070666857 -0.022008084 -0.02001995
0.023622409 0.0024031922 -0.026782248 -0.0045567607 0.0064747003 0.03314969 -0.0050360393 -0.028879482
-0.0034625228 -0.0074121505 -0.020519989 0.0033682315 -0.013916092 0.0006304354 0.022265855 -0.0023287633
-0.001440011 0.0064013246 0.0007544392 -0.0007662809 -0.010167945 -0.010188667 -0.0070038796 0.014349527
0.021841595 -0.0030375875 -0.04890611 -0.007250869 0.022203416 -0.01681024 -0.0077200094 -0.009706079
-0.032504667 -0.008526277 -0.02469768 0.00884935 5.7979698e-05 0.0044687674 0.026460713 -0.000316587
-0.004387186 -0.006800495 -0.012407261 0.0031858492 0.0010111525 0.0027116034 -0.015931863 0.010615254
0.001914166 -0.024793727 -0.016216908 0.016679684 0.02041372 0.012134522 0.021948392 -0.005217198
-0.004579825 -0.0036744243 0.013153166 -0.0059401356 -0.0026332506 0.014178687 0.022179216 0.011302555
-0.0027912245 -0.0032790562 0.016983388 0.015026136 0.012478117 0.04977687 -0.0021503528 -0.027494278
0.011832792 0.009449169 -0.010177443 -0.010730883 -0.009889088 0.021659167 0.007657649 -0.0137073025
0.008308577 0.010174212 0.0074164607 0.032706082 -0.00072505424 -0.024643129 0.0021853328 0.00902767
-0.007889201 0.01272494 -0.006000995 -0.0099173635 -0.005778878 0.026103567 0.013366371 -0.0007041196
-0.011773687 -0.0047766264 -0.016652394 0.012947363 0.009081257 -0.017504554 0.021445304 -0.008710769
00000000: 0bdf b0bb e991 e3bc ae85 f93b 5224 58bc
00000010: c0a5 e13c c3d6 883a d171 fd3b d94f 103d
00000020: e06c 2ebb d43b 453c b8ea aa3b b0c0 d03b
00000030: 9cb2 663b 624b e33b 7615 0fbc 5b77 f6bc
00000040: bd3c fcbc 79e9 653c c891 fc3c 9091 15bc
00000050: 20d9 193d 7041 faba 13a4 4f3c dd65 0abd
00000060: 822b ff3c 343b 8a3a c44f 483c 9d70 68bb
00000070: cfa9 7f3b a0b7 063b 79ee 5e3c 02f5 46bc
00000080: 48c5 a8bc 255a 5c3c 476c e6ba c5ca e1bc
00000090: 0c72 c03c adc8 02bd da50 033d 482e c63a
000000a0: e4b8 a13c b72f 813c 4ea5 933c 84eb 8b3c
000000b0: 8a7c 98bb 78f8 7bbb b24e c03b 233d 64bb
000000c0: 0a26 253d 2eac d13c a45a 783c cf92 86bb
000000d0: ccba c53c c012 35bc 7288 863c a211 323c
000000e0: 4c76 2cbd e8e1 803c 1599 22bc 8e89 063c
000000f0: 5fc4 163c 0205 bfbc e741 d23a bda1 be3b
00000100: cabc 2cbc 2ef8 5a3b 715d 08bc 0283 ce3b
00000110: 1e14 4aba b7ad a0bc 8bca 0cbd 3904 4f3b
00000120: 2ced 513b 2568 50bc 90e9 283c 4b3d 5abc
00000130: ddda fb3a 7dfe 4e3a a8e6 933c 3349 843b
00000140: ab9a 24bb 9e2c 6a3c 5328 e63b 4ed8 6c3c
00000150: efbf e8bc 87c0 9fbb e320 60b9 0671 b8bb
00000160: 3e33 48bc 8f36 13bc d6ea c8bc cf3e c0bc
00000170: bd60 8cbc 767e e33b 7bf1 81bc 4222 04bc
00000180: b9f1 5fbc 96ce 30bc aad5 03bc 5f1b ba3c
00000190: b5f5 83bc 23fd 41bc 2159 363c 3974 5f3a
000001a0: dcda 14bd e9e6 63bc 0d32 433c 755b 51bb
000001b0: 5f8a 3ebc 2a80 faba 7b95 573a 8887 0dbb
000001c0: 4aa4 f2bc 7cad 7f3c cf6b 8f3c 4802 1ebc
000001d0: 5226 45bc 3919 a53b 4387 39bc 1e28 3a3c
000001e0: 5610 443c 8758 e63c dbdd 5fbc 1ef8 163b
000001f0: cdb0 8e3b 9e05 57bc a11d b93c ba6b a9bc
00000200: 0fda 95bc 386d 973b 265d 003d 3d3a 60bb
00000210: e749 44bc 3f13 6fbc 42c0 843c 1dda 14bc
00000220: 8fec 923b 580d 083d 29aa 74bc 8390 f43b
00000230: b217 c4bc 511d 123c 1eb8 583c 257c 953c
00000240: a328 093c a025 8f3b 13a6 c93c f159 683a
00000250: 7304 553c a88f e7bb 4c4a b4bc e100 a4bc
00000260: c883 c13c e07e 1d3b 7266 dbbc e150 95bb
00000270: b929 d43b f8c7 073d 5c05 a5bb aa94 ecbc
00000280: 7eeb 62bb a0e1 f2bb 8919 a8bc 8cbd 5c3b
00000290: 5200 64bc ce43 253a e266 b63c 2a9e 18bb
000002a0: c0be bcba 34c2 d13b 8fc5 453a 3ee0 48ba
000002b0: 7497 26bc 5eee 26bc cd80 e5bb 471a 6b3c
000002c0: 25ed b23c 4312 47bb c651 48bd b398 edbb
000002d0: f0e3 b53c a1b5 89bc 22f8 fcbb 3f06 1fbc
000002e0: 9d23 05bd ccb1 0bbc ca52 cabc ddfc 103c
000002f0: 3a2f 7338 bd6e 923b 23c4 d83c 96fb a5b9
00000300: 62c2 8fbb b0d6 debb d347 4bbc aec9 503b
00000310: a688 843a 28b5 313b 8a83 82bc 9aeb 2d3c
00000320: c1e4 fa3a 371c cbbc 52d9 84bc d5a3 883c
00000330: ac3a a73c e0cf 463c 1dcd b33c 07f5 aabb
00000340: 5b12 96bb 9cce 70bb 6080 573c 78a5 c2bb
00000350: 9d92 2cbb b94d 683c 30b1 b53c 5a2e 393c
00000360: faec 36bb 6fe5 56bb bf20 8b3c 2f30 763c
00000370: 0471 4c3c d5e2 4b3d efec 0cbb ae3b e1bc
00000380: 54de 413c b0d0 1a3c 4abf 26bc 96d0 2fbc
00000390: d705 22bc 916e b13c 04ed fa3b 9894 60bc
000003a0: b320 083c bdb1 263c c805 f33b d0f6 053d
000003b0: 9111 3eba 63e0 c9bc cd37 0f3b cbe8 133c
000003c0: b541 01bc 447c 503c ffa3 c4bb 707c 22bc
000003d0: be5c bdbb 26d7 d53c a0fe 5a3c ab94 38ba
000003e0: 6ce6 40bc 3f85 9cbb 9a6a 88bc 2d21 543c
000003f0: 8dc9 143c b665 8fbc 10ae af3c 9db7 0ebc

action_model._continuous_distribution.mu.bias f4 [2]
-0.00041769125 0.0003311575
00000000: 92fd dab9 359f ad39

exp_avg f4 [128, 6]
-0.00019941005 0.00041621903 -8.543252e-05 0.00027319524 0.00041621903 -0.00040290647 -0.00014974129 0.0003780532
-7.380636e-05 0.0002481441 0.0003780532 -0.0003659613 3.0664253e-06 -8.155273e-06 1.6667899e-06 -5.352907e-06
-8.155273e-06 7.894431e-06 -0.00017040249 0.00044569414 -9.624974e-05 0.00029254195 0.00044569414 -0.00043143885
-3.7823668e-07 7.8929844e-07 -1.638589e-07 5.1807484e-07 7.8929844e-07 -7.6405314e-07 6.1768715e-06 -2.1532649e-05
3.2075563e-06 -1.4133457e-05 -2.1532649e-05 2.084396e-05 -0.000619145 0.0014092353 -0.00028599647 0.00092498516
0.0014092353 -0.0013641616 -4.11914e-07 1.2182659e-06 -2.6654195e-07 7.9963763e-07 1.2182659e-06 -1.1793002e-06
-0.00076358375 0.0017790043 -0.0003621984 0.0011676917 0.0017790043 -0.001722104 -1.07382885e-08 2.060125e-08
-4.436357e-09 1.3522119e-08 2.060125e-08 -1.9942325e-08 -0.00020198371 0.00040686195 -7.981004e-05 0.0002670535
0.00040686195 -0.0003938487 -1.0642517e-05 2.8933186e-05 -5.7828006e-06 1.8990984e-05 2.8933186e-05 -2.8007773e-05
1.3818228e-05 -3.3908585e-05 6.5286717e-06 -2.2256705e-05 -3.3908585e-05 3.2824046e-05 -3.2541366e-06 7.5791263e-06
-1.590376e-06 4.974739e-06 7.5791263e-06 -7.3367128e-06 -0.00025408558 0.0005035057 -0.00010583898 0.00033048788
0.0005035057 -0.0004874013 0.0006433 -0.0014972239 0.00030681348 -0.0009827384 -0.0014972239 0.001449336
-0.0008479894 0.0020206184 -0.00039569798 0.0013262806 0.0020206184 -0.0019559895 -0.00051172945 0.0012433229
-0.0002450956 0.00081608427 0.0012433229 -0.0012035555 0.00012135174 -0.00034036126 5.4014345e-05 -0.00022340416
-0.00034036126 0.0003294753 -2.7544481e-06 2.5945486e-05 -5.431909e-06 1.7029932e-05 2.5945486e-05 -2.5115633e-05
6.9061157e-06 -1.7269527e-05 3.5082232e-06 -1.13352635e-05 -1.7269527e-05 1.671717e-05 6.7248885e-07 -1.2398491e-06
2.9110805e-07 -8.138044e-07 -1.2398491e-06 1.2001933e-06 4.834477e-10 -1.1102524e-09 2.2296948e-10 -7.2874035e-10
-1.1102524e-09 1.0747417e-09 0.00016763943 -0.0003627435 8.147212e-05 -0.00023809525 -0.0003627435 0.0003511413
-3.4542867e-05 9.622825e-05 -1.1553495e-05 6.316167e-05 9.622825e-05 -9.31505e-05 -2.4443834e-06 7.1643117e-06
-1.558204e-06 4.7024655e-06 7.1643117e-06 -6.935165e-06 -6.177169e-08 4.17145e-06 -6.05509e-07 2.7380306e-06
4.17145e-06 -4.0380332e-06 2.9045588e-05 -9.489708e-05 9.823226e-06 -6.2288e-05 -9.489708e-05 9.186178e-05
0.0001777389 -0.0004440069 9.333462e-05 -0.0002914344 -0.0004440069 0.00042980554 -0.00086000614 0.002010845
-0.0004199262 0.0013198657 0.002010845 -0.0019465294 -0.000246708 0.00063504535 -0.00013235881 0.000416827
0.00063504535 -0.0006147337 -6.673493e-07 1.5400304e-06 -3.0562228e-07 1.0108355e-06 1.5400304e-06 -1.4907732e-06
-0.00058812584 0.0013898836 -0.00028691394 0.00091228314 0.0013898836 -0.0013454289 1.3076866e-05 -2.7398695e-05
4.8852576e-06 -1.7983783e-05 -2.7398695e-05 2.652236e-05 0.0005534083 -0.0012084993 0.0002403932 -0.00079322717
-0.0012084993 0.0011698462 -0.00015634845 0.0005356788 -9.460011e-05 0.00035160538 0.0005356788 -0.0005185449
0.0007383828 -0.0018725323 0.00037624678 -0.0012290805 -0.0018725323 0.0018126399 -0.00013187398 0.00031416648
-6.4970445e-05 0.00020621059 0.00031416648 -0.000304118 -0.00016829623 0.0004836198 -0.00010464209 0.0003174353
0.0004836198 -0.0004681514 0.00023255953 -0.00061744906 0.00012853814 -0.00040527736 -0.00061744906 0.00059770024
2.964063e-05 -1.4896599e-05 7.507759e-06 -9.777716e-06 -1.4896599e-05 1.4420152e-05 0.0005357586 -0.0012191274
0.0002457933 -0.0008002033 -0.0012191274 0.0011801342 -6.9438227e-07 1.9294796e-06 -3.964525e-07 1.2664602e-06
00000000: ba18 51b9 f937 da39 3c2a b3b8 a53b 8f39
00000010: f937 da39 313d d3b9 df03 1db9 7135 c639
00000020: 7dc8 9ab8 5619 8239 7135 c639 7fde bfb9
00000030: c9c8 4d36 a1d2 08b7 77b6 df35 1f9d b3b6
00000040: a1d2 08b7 5372 0437 12ae 32b9 0eac e939
00000050: b0d9 c9b8 5160 9939 0eac e939 be32 e2b9
00000060: 7410 cbb4 2de0 5335 31f1 2fb4 d511 0b35
00000070: 2de0 5335 5519 4db5 ec42 cf36 03a1 b4b7
00000080: 6641 5736 bc1e 6db7 03a1 b4b7 10da ae37
00000090: 1e4e 22ba 17b6 b83a ccf1 95b9 b47a 723a
000000a0: 17b6 b83a abcd b2ba 0725 ddb4 4c83 a335
000000b0: 3f19 8fb4 aea6 5635 4c83 a335 7248 9eb5
000000c0: 3d2b 48ba 7b2d e93a 72e5 bdb9 3b0d 993a
000000d0: 7b2d e93a 39b8 e1ba 7e7b 38b2 a1f6 b032
000000e0: 9c6e 98b1 e94e 6832 a1f6 b032 a34d abb2
000000f0: 97cb 53b9 1650 d539 b05f a7b8 5003 8c39
00000100: 1650 d539 7a7d ceb9 438d 32b7 8bb5 f237
00000110: e109 c2b6 d44e 9f37 8bb5 f237 3cf2 eab7
00000120: d6d4 6737 1139 0eb8 dd10 db36 e9b3 bab7
00000130: 1139 0eb8 8dac 0938 a461 5ab6 3350 fe36
00000140: e774 d5b5 afec a636 3350 fe36 e22d f6b6
00000150: ca36 85b9 b2fd 033a dff5 ddb8 5545 ad39
00000160: b2fd 033a e589 ffb9 22a3 283a 7f3e c4ba
00000170: cfdb a039 3bcf 80ba 7f3e c4ba a5f7 bd3a
00000180: 9b4b 5eba 5a6c 043b af75 cfb9 98d6 ad3a
00000190: 5a6c 043b 0f30 00bb 9525 06ba fef6 a23a
000001a0: 2d80 80b9 7dee 553a fef6 a23a 9fc0 9dba
000001b0: 387e fe38 8472 b2b9 768d 6238 9941 6ab9
000001c0: 8472 b2b9 6dbd ac39 0fd9 38b6 82a5 d937
000001d0: be43 b6b6 80db 8e37 82a5 d937 69af d2b7
000001e0: 15bb e736 07de 90b7 d16e 6b36 962c 3eb7
000001f0: 07de 90b7 d93b 8c37 1585 3435 e468 a6b5
00000200: 9649 9c34 3674 5ab5 e468 a6b5 5416 a135
00000210: 9ce3 0430 8997 98b0 5428 752f 8b50 48b0
00000220: 8997 98b0 1db6 9330 5ec8 2f39 9c2e beb9
00000230: 03dc aa38 35a9 79b9 9c2e beb9 6319 b839
00000240: 1fe2 10b8 26ce c938 e2d5 41b7 aa75 8438
00000250: 26ce c938 cb59 c3b8 300a 24b6 f864 f036
00000260: 7b23 d1b5 dfc9 9d36 f864 f036 9db4 e8b6
00000270: 59a7 84b3 7cf8 8b36 438a 22b5 02bf 3736
00000280: 7cf8 8b36 717e 87b6 eda6 f337 7b03 c7b8
00000290: 6fce 2437 9ea0 82b8 7b03 c7b8 eba5 c038
000002a0: 6c5f 3a39 99c9 e8b9 a4bc c338 aacb 98b9
000002b0: 99c9 e8b9 8657 e139 0972 61ba 62c8 033b
000002c0: 8a29 dcb9 58ff ac3a 62c8 033b b022 ffba
000002d0: 9658 81b9 2c79 263a ccc9 0ab9 9389 da39
000002e0: 2c79 263a 1526 21ba e523 33b5 0bb3 ce35
000002f0: 6814 a4b4 0bac 8735 0bb3 ce35 9416 c8b5
00000300: 752c 1aba c12c b63a f06c 96b9 4926 6f3a
00000310: c12c b63a 1a59 b0ba b664 5b37 40d6 e5b7
00000320: 0bec a336 e1db 96b7 40d6 e5b7 567c de37
00000330: 9a12 113a 8266 9eba 0f12 7c39 93f0 4fba
00000340: 8266 9eba 8655 993a 78f1 23b9 cc6c 0c3a
00000350: 0c64 c6b8 ad57 b839 cc6c 0c3a f6ee 07ba
00000360: 0890 413a c26f f5ba fd42 c539 1919 a1ba
00000370: c26f f5ba 1a96 ed3a a747 0ab9 b6b6 a439
00000380: be40 88b8 3c3a 5839 b6b6 a439 0772 9fb9
00000390: ad78 30b9 5a8e fd39 4b73 dbb8 726d a639
000003a0: 5a8e fd39 3872 f5b9 39db 7339 4edc 21ba
000003b0: 32c8 0639 687b d4b9 4edc 21ba fcae 1c3a
000003c0: c5a4 f837 68ec 79b7 29eb fb36 f80a 24b7
000003d0: 68ec 79b7 15ee 7137 2772 0c3a 21cb 9fba
000003e0: d1dd 8039 bcc4 51ba 21cb 9fba bcae 9a3a
000003f0: 9665 3ab5 357c 0136 04d8 d4b4 3efb a935

exp_avg_sq f4 [128, 6]
2.135037e-08 8.922464e-08 3.6719434e-09 3.844034e-08 8.922464e-08 8.3608334e-08 3.3193047e-08 1.4937093e-07
6.0341834e-09 6.435294e-08 1.4937093e-07 1.3996862e-07 1.7986506e-11 9.0967e-11 3.787966e-12 3.919099e-11
9.0967e-11 8.524102e-11 1.2443988e-08 7.260936e-08 3.0288039e-09 3.1282028e-08 7.260936e-08 6.803887e-08
1.2402836e-13 5.2186315e-13 2.1738823e-14 2.2483245e-13 5.2186315e-13 4.8901405e-13 2.1921187e-09 9.371963e-09
3.6377468e-10 4.0376884e-09 9.371963e-09 8.7820355e-09 1.6808707e-07 7.8839014e-07 3.2712617e-08 3.3965927e-07
7.8839014e-07 7.3876413e-07 2.1342726e-13 1.3014439e-12 5.748794e-14 5.606964e-13 1.3014439e-12 1.2195235e-12
2.9856133e-07 1.4413594e-06 5.9740024e-08 6.209758e-07 1.4413594e-06 1.3506316e-06 1.705937e-16 6.0267527e-16
2.3296707e-17 2.596485e-16 6.0267527e-16 5.647392e-16 1.7444275e-08 6.619628e-08 2.7177158e-09 2.8519098e-08
6.619628e-08 6.2029486e-08 2.4145033e-10 1.3121803e-09 5.2604705e-11 5.6532196e-10 1.3121803e-09 1.2295844e-09
3.4618236e-10 1.5915418e-09 6.3977816e-11 6.856784e-10 1.5915418e-09 1.491361e-09 3.718959e-12 1.8249766e-11
7.3675045e-13 7.8624815e-12 1.8249766e-11 1.7101019e-11 3.823265e-08 1.3938454e-07 5.360029e-09 6.005054e-08
1.3938454e-07 1.3061083e-07 2.3845718e-07 1.1536367e-06 4.6114256e-08 4.970171e-07 1.1536367e-06 1.0810195e-06
9.744139e-07 4.4249105e-06 1.793702e-07 1.9063691e-06 4.4249105e-06 4.1463823e-06 3.5816126e-07 1.6683989e-06
6.7749795e-08 7.187903e-07 1.6683989e-06 1.5633793e-06 3.7609425e-07 1.5938643e-06 6.357445e-08 6.866786e-07
1.5938643e-06 1.493537e-06 6.4485867e-10 2.228708e-09 8.994074e-11 9.601856e-10 2.228708e-09 2.0884188e-09
4.485377e-11 2.400714e-10 9.597947e-12 1.0342911e-10 2.400714e-10 2.2495984e-10 2.0003125e-12 7.855962e-12
3.0851312e-13 3.384556e-12 7.855962e-12 7.3614595e-12 1.484833e-19 6.9701335e-19 2.7600112e-20 3.0029184e-19
6.9701335e-19 6.531391e-19 6.875428e-08 2.8470942e-07 1.1354126e-08 1.2266032e-07 2.8470942e-07 2.667881e-07
4.4065935e-08 1.6318639e-07 6.2319723e-09 7.030501e-08 1.6318639e-07 1.5291444e-07 2.378734e-12 1.6991492e-11
7.7416757e-13 7.320383e-12 1.6991492e-11 1.5921948e-11 2.4136787e-10 9.874004e-10 3.9243324e-11 4.2539827e-10
9.874004e-10 9.252474e-10 1.2632835e-07 5.254553e-07 2.076233e-08 2.2638007e-07 5.254553e-07 4.9238025e-07
1.925783e-08 1.04748935e-07 4.4201305e-09 4.5128626e-08 1.04748935e-07 9.815542e-08 3.405902e-07 1.6623411e-06
6.953368e-08 7.161806e-07 1.6623411e-06 1.5577035e-06 3.508169e-08 1.9756018e-07 8.174744e-09 8.5114145e-08
1.9756018e-07 1.8512458e-07 2.8759346e-13 1.3675002e-12 5.4030253e-14 5.891553e-13 1.3675002e-12 1.2814216e-12
1.3190292e-07 6.799096e-07 2.8617553e-08 2.92923e-07 6.799096e-07 6.371121e-07 4.2075946e-10 1.6807704e-09
6.7541264e-11 7.2412065e-10 1.6807704e-09 1.5749726e-09 1.9175609e-07 8.3996537e-07 3.4819926e-08 3.6187927e-07
8.3996537e-07 7.87093e-07 7.0923346e-07 3.0791646e-06 1.2359679e-07 1.3265854e-06 3.0791646e-06 2.8853435e-06
8.536639e-07 4.120033e-06 1.7012955e-07 1.7750185e-06 4.120033e-06 3.8606927e-06 1.23580834e-08 6.16056e-08
2.5496127e-09 2.6541315e-08 6.16056e-08 5.772778e-08 2.2579611e-08 1.4885421e-07 6.382159e-09 6.413032e-08
1.4885421e-07 1.394844e-07 5.6959813e-08 3.1815551e-07 1.3197861e-08 1.3706985e-07 3.1815551e-07 2.981289e-07
5.394369e-08 2.3394297e-07 9.310971e-09 1.0078884e-07 2.3394297e-07 2.1921718e-07 2.0801582e-07 9.4739437e-07
3.9213525e-08 4.0816266e-07 9.4739437e-07 8.8775977e-07 1.5256489e-12 7.996494e-12 3.306225e-13 3.4450999e-12
00000000: f665 b732 c49b bf33 8355 7c31 9a19 2533
00000010: c49b bf33 2b8c b333 2490 0e33 c562 2034
00000020: 3d55 cf31 6732 8a33 c562 2034 484a 1634
00000030: 0336 9e2d de09 c82e f746 852c 225d 2c2e
00000040: de09 c82e 6e72 bb2e 3dc9 5532 6bed 9b33
00000050: 4823 5031 f45a 0633 6bed 9b33 c41c 9233
00000060: bea4 0b2a 34e4 122b 50ce c328 8b23 7d2a
00000070: 34e4 122b 2da5 092b 29a4 1631 5402 2132
00000080: bcfc c72f e2bb 8a31 5402 2132 cddf 1632
00000090: 6c7b 3434 c2a1 5335 e77f 0c33 6a5a b634
000000a0: c2a1 5335 7c4f 4635 384c 702a 7529 b72b
000000b0: 8b73 8129 6fd2 1d2b 7529 b72b f7a1 ab2b
000000c0: f549 a034 bb74 c135 6d4a 8033 22b1 2635
000000d0: bb74 c135 5947 b535 60ae 4425 96b5 2d26
000000e0: cbdf d623 5bad 9525 96b5 2d26 66c6 2226
000000f0: 5ed8 9532 ca27 8e33 90c2 3a31 29fa f432
00000100: ca27 8e33 1235 8533 1dbd 842f 3d58 b430
00000110: a25b 672e ff64 1b30 3d58 b430 28fe a830
00000120: d650 be2f 66bd da30 4fb0 8c2e 547a 3c30
00000130: 66bd da30 9af8 cc30 68d9 822c d286 a02d
00000140: 7760 4f2b 7851 0a2d d286 a02d 126c 962d
00000150: 3e35 2433 bba9 1534 502b b831 22f5 8033
00000160: bba9 1534 083e 0c34 4e05 8034 a8d6 9a35
00000170: 290f 4633 c16a 0535 a8d6 9a35 8c17 9135
00000180: 9bc8 8235 b179 9436 e898 4034 58de ff35
00000190: b179 9436 2721 8b36 4f49 c034 c0ed df35
000001a0: d87d 9133 e5f2 4035 c0ed df35 4ed5 d135
000001b0: 00ea c934 c3ec d535 6c86 8833 3254 3835
000001c0: c3ec d535 8a75 c835 e541 3130 d927 1931
000001d0: 23c8 c52e 87f7 8330 d927 1931 da83 0f31
000001e0: db44 452e 0cfb 832f 4fd9 282d 6a71 e32e
000001f0: 0cfb 832f 9158 772f 6dc2 0c2c 1c34 0a2d
00000200: 6dad ad2a be2a 6e2c 1c34 0a2d 1181 012d
00000210: 534c 2f20 d7b8 4d21 7d56 021f d242 b120
00000220: d7b8 4d21 ccc5 4021 11a6 9333 2ada 9834
00000230: f90f 4332 9db4 0334 2ada 9834 143b 8f34
00000240: 0243 3d33 5538 2f34 0221 d631 97fa 9633
00000250: 5538 2f34 cd30 2434 7663 272c 7075 952d
00000260: a7e8 592b 13c8 002d 7075 952d 0a0d 8c2d
00000270: 82b1 842f 10b5 8730 0e98 2c2e 7cdd e92f
00000280: 10b5 8730 7f54 7e30 dfa4 0734 030d 0d35
00000290: d958 b232 e112 7334 030d 0d35 1d2c 0435
000002a0: 6b6c a532 56f2 e033 e1df 9731 73d3 4133
000002b0: 56f2 e033 83c9 d233 5cda b634 9b1d df35
000002c0: 8b52 9533 8e3f 4035 9b1d df35 4912 d135
000002d0: baac 1633 ee20 5434 e870 0c32 ffc7 b633
000002e0: ee20 5434 a8c6 4634 96e6 a12a 6375 c02b
000002f0: a454 7329 1dd5 252b 6375 c02b 1458 b42b
00000300: 33a1 0d34 0883 3635 aad2 f532 0843 9d34
00000310: 0883 3635 0306 2b35 a150 e72f da00 e730
00000320: 5a86 942e 760b 4730 da00 e730 6c76 d830
00000330: 83e5 4d34 fb79 6135 ea8c 1533 4f48 c234
00000340: fb79 6135 9e48 5335 2762 3e35 a5a3 4e36
00000350: 07b6 0434 210d b235 a5a3 4e36 d3a1 4136
00000360: 5627 6535 d03e 8a36 dbac 3634 2c3d ee35
00000370: d03e 8a36 198b 8136 6d4f 5432 094c 8433
00000380: 4335 2f31 f8fc e332 094c 8433 5ef0 7733
00000390: 17f5 c132 bcd4 1f34 104a db31 04b8 8933
000003a0: bcd4 1f34 2ec5 1534 faa3 7433 f6ce aa34
000003b0: cebc 6232 792d 1334 f6ce aa34 860e a034
000003c0: b7af 6733 c131 7b34 15f6 1f32 4071 d833
000003d0: c131 7b34 f661 6b34 f45a 5f34 7250 7e35
000003e0: ba6b 2833 7321 db34 7250 7e35 634e 6e35
000003f0: 4bb7 d62b 02ad 0c2d b91f ba2a 676d 722c

exp_avg f4 [128]
5.7696347e-05 5.2405787e-05 -1.1304853e-06 6.178219e-05 1.0941267e-07 -2.9848595e-06 0.00019534845 1.6887621e-07
0.00024660586 2.8557485e-09 5.6399273e-05 4.0107234e-06 -4.7004146e-06 1.0506197e-06 6.979606e-05 -0.00020754541
0.00028009847 0.0001723496 -4.7180944e-05 3.5965672e-06 -2.3939047e-06 -1.7186818e-07 -1.5390336e-10 -5.028356e-05
1.3339177e-05 9.931181e-07 5.7824735e-07 -1.3154657e-05 -6.154831e-05 0.00027874374 8.803009e-05 2.1347924e-07
0.00019266592 -3.7980112e-06 -0.00016752238 7.4255855e-05 -0.00025957072 4.3549808e-05 6.703945e-05 -8.559089e-05
-2.064971e-06 -0.00016899566 2.6746483e-07 2.5720066e-05 4.8220827e-05 1.6316859e-05 0.00024148528 -7.877946e-05
0.00022470417 -0.00013090108 -3.7640344e-05 -4.383638e-05 -1.2053526e-05 1.0662488e-05 -7.8442674e-05 -2.6376378e-08
3.458286e-07 3.806213e-08 2.057263e-05 0.00026040952 6.2035056e-06 1.7947417e-05 -2.3099781e-05 0.00021607554
-1.0898095e-05 3.6768213e-07 0.0002996413 7.9067013e-07 -5.60595e-08 0.00010205919 1.4071049e-05 2.0378187e-05
1.1824659e-06 -0.00014584658 2.5561567e-06 -1.8696636e-06 0.00012099064 -0.00019091334 -0.00025417857 -1.0220725e-05
4.3801415e-07 -7.9484505e-07 -0.00023388781 1.1906985e-06 -6.458164e-05 -6.183369e-05 2.7144816e-07 -9.925665e-06
9.8946046e-05 3.3075492e-05 -0.00020573943 1.3498189e-05 1.7551404e-08 -9.2258216e-07 1.6380634e-05 0.00011020691
-3.8426984e-05 2.4880526e-05 4.157316e-08 1.0631068e-08 -6.1456403e-06 9.832943e-07 3.96099e-06 -2.777363e-05
0.00012775017 -0.00014374444 0.00029057564 4.8064503e-05 -0.00011389131 -5.9000962e-05 4.350303e-05 -6.627868e-06
-1.7965283e-05 -2.1745154e-06 0.000110454064 7.6224433e-06 -9.205305e-05 0.00019727675 -2.0356372e-06 -6.65317e-07
0.00035892625 0.00019403789 1.4288596e-09 7.2682783e-06 -0.00011311843 3.0352574e-05 -7.3997006e-05 -3.8324904e-07
00000000: fbfe 7138 49ce 5b38 2ebb 97b5 1091 8138
00000010: 40f6 ea33 7f4f 48b6 73d6 4c39 5754 3534
00000020: e14a 8139 dc3e 4431 428e 6c38 da93 8636
00000030: 41b8 9db6 0503 8d35 795f 9238 8ca0 59b9
00000040: 2eda 9239 beb8 3439 27e4 45b8 8e5c 7136
00000050: f8a6 20b6 c48a 38b4 f237 29af 90e7 52b8
00000060: 54cb 5f37 474b 8535 db38 1b35 d2b2 5cb7
00000070: 7f13 81b8 5a24 9239 cb9c b838 ba38 6534
00000080: 5d06 4a39 56e1 7eb6 f2a8 2fb9 cfb9 9b38
00000090: fe16 88b9 40a9 3638 8897 8c38 427f b3b8
000000a0: ef93 0ab6 6d34 31b9 1698 8f34 6cc1 d737
000000b0: b840 4a38 30e0 8837 3637 7d39 6736 a5b8
000000c0: 919e 6b39 7e42 09b9 03e0 1db8 f4dc 37b8
000000d0: 8039 4ab7 0ae3 3237 9781 a4b8 4592 e2b2
000000e0: 52aa b934 c179 2333 6393 ac37 9387 8839
000000f0: b527 d036 c98d 9637 67c6 c1b7 5692 6239
00000100: f6d6 36b7 d965 c534 2d19 9d39 703e 5435
00000110: 12c6 70b3 9c08 d638 b212 6c37 d3f1 aa37
00000120: 38b5 9e35 65ee 18b9 708a 2b36 27f1 fab5
00000130: 5bbc fd38 e92f 48b9 4543 85b9 ae79 2bb7
00000140: 3528 eb34 565d 55b5 c83f 75b9 17d0 9f35
00000150: 0170 87b8 b6ac 81b8 8dbb 9134 6886 26b7
00000160: 4181 cf38 8aba 0a38 c2bb 57b9 4876 6237
00000170: f2c3 9632 5da7 77b5 2569 8937 e21e e738
00000180: a92c 21b8 86b6 d037 2c8e 3233 eea3 3632
00000190: a636 ceb6 bcf9 8335 a5e8 8436 6bfb e8b7
000001a0: adf4 0539 1bba 16b9 6758 9839 de98 4938
000001b0: eed8 eeb8 cd77 77b8 0677 3638 f464 deb6
000001c0: 27b4 96b7 e4ed 11b6 93a3 e738 4ac4 ff36
000001d0: 9b0c c1b8 13dc 4e39 fb9b 08b6 3c98 32b5
000001e0: 442e bc39 a676 4b39 8761 c430 09e2 f336
000001f0: ff39 edb8 a89d fe37 d72e 9bb8 59c1 cdb4

exp_avg_sq f4 [128]
1.7145009e-09 2.8702445e-09 1.7479811e-12 1.395229e-09 1.0027884e-14 1.8008733e-10 1.5149348e-08 2.5007962e-14
2.7696515e-08 1.1580739e-17 1.271998e-09 2.5214272e-11 3.0582353e-11 3.5067928e-13 2.6783502e-09 2.2167756e-08
8.502714e-08 3.2059194e-08 3.062698e-08 4.282583e-11 4.6131033e-12 1.5095661e-13 1.3393497e-20 5.470847e-09
3.1357152e-09 3.2650084e-13 1.897344e-11 1.0096916e-08 2.0128088e-09 3.1942804e-08 3.796227e-09 2.6277273e-14
1.3064837e-08 3.2296926e-11 1.6140392e-08 5.9167853e-08 7.9168686e-08 1.1837853e-09 2.8603153e-09 6.1135315e-09
4.4953437e-09 1.8204705e-08 1.53657e-13 2.0282742e-10 4.1929082e-09 1.2897428e-10 3.810063e-08 9.780865e-09
2.2754902e-08 9.376588e-09 3.045383e-09 1.9652884e-09 9.1711784e-11 2.8370895e-10 4.0669637e-09 7.90805e-16
5.4147485e-13 3.1626643e-16 4.795038e-10 3.9680238e-08 1.5459448e-11 1.5847339e-10 3.4759298e-10 2.1179478e-08
2.2041062e-10 1.6039184e-12 8.511619e-08 9.865088e-13 4.219154e-14 6.0991354e-09 1.0753567e-09 4.1335643e-10
6.8607196e-11 1.2223887e-08 5.6879705e-12 3.4429185e-11 1.2515322e-08 4.0952965e-08 3.5365293e-08 4.430256e-11
1.9432843e-12 4.9605524e-12 7.7078035e-08 4.38872e-12 1.7880052e-09 7.692607e-09 2.1645755e-11 2.5815081e-09
1.7275436e-08 2.8398288e-09 2.3207084e-08 4.533382e-09 1.4973958e-16 8.2700703e-13 1.6084938e-10 7.506842e-09
1.1964828e-09 7.8239526e-10 9.008105e-16 1.02857745e-16 2.1610071e-11 1.3714012e-09 4.629475e-11 6.301915e-09
5.6042313e-09 1.488128e-08 5.910567e-08 4.9357807e-09 7.65787e-09 2.4160813e-09 1.0058089e-09 1.0994972e-10
5.644566e-10 1.9520921e-12 5.529104e-09 4.9005643e-11 1.1138927e-08 1.6237136e-08 6.585808e-12 2.3732231e-13
5.359145e-08 1.3627427e-08 3.212345e-18 2.7540692e-09 8.349906e-09 1.6388115e-09 2.477997e-09 6.682771e-12
00000000: a3a3 eb30 e03d 4531 a801 f62b 42c2 bf30
00000010: 74a5 3428 1402 462f c521 8232 6f40 e128
00000020: 48e9 ed32 7ea0 5523 73d2 ae30 7ec9 dd2d
00000030: ab80 062e 366a c52a 090e 3831 696b be32
00000040: 2a98 b633 75b1 0933 b88a 0333 9959 3c2e
00000050: 244f a22c 48f6 292a fafe 7c1e 14fa bb31
00000060: 167c 5731 bbcd b72a 63e4 a62d b576 2d32
00000070: b551 0a31 7c31 0933 f76f 8231 44af ec28
00000080: c373 6032 1b0b 0e2e 19a5 8a32 be1f 7e33
00000090: 7203 aa33 beb2 a230 338f 4431 310f d231
000000a0: 7675 9a31 9260 9c32 9d00 2d2a d802 5f2f
000000b0: 3611 9031 08cf 0d2f 16a4 2333 b308 2832
000000c0: 8f76 c332 ac16 2132 f246 5131 b80d 0731
000000d0: 25ad c92e 7cf8 9b2f 64bd 8b31 1cef 6326
000000e0: 6069 182b b050 b625 15ce 0330 e26c 2a33
000000f0: 95fb 872d 4b3e 2e2f 5d17 bf2f 2aee b532
00000100: 1358 722f 40bb e12b 1fc9 b633 bad6 8a2b
00000110: 8903 3e29 9090 d131 c0cb 9330 bf3e e32f
00000120: 6bde 962e 3901 5232 af20 c82c d16b 172e
00000130: f802 5732 43e4 2f33 8de4 1733 40d8 422e
00000140: 19bf 082c af88 ae2c 1986 a533 136a 9a2c
00000150: d7bd f530 7228 0432 e865 be2d 5f66 3131
00000160: 1665 9432 cc26 4331 eb58 c732 0dc4 9b31
00000170: 53a3 2c25 23c8 682b 13db 302f 71f7 0032
00000180: 7f71 a430 2c10 5730 0bd2 8126 7f2c ed24
00000190: 8e15 be2d e47b bc30 419b 4b2e 3b88 d831
000001a0: 578f c031 90a8 7f32 5fdb 7d33 9697 a931
000001b0: ab8f 0332 2708 2631 c13c 8a30 31c8 f12e
000001c0: 1a28 1b30 c45d 092c 83fa bd31 7387 572e
000001d0: 855d 3f32 d779 8b32 afb7 e72c c099 852a
000001e0: 6c2c 6633 0f1e 6a32 7b07 6d22 1942 3d31
000001f0: 4673 0f32 8e3c e130 6249 2a31 0d21 eb2c
