results/MoveToGoal10/MoveToGoal/checkpoint.pt (torch, 16255 bytes, 24 tensors)

network_body._body_endoder.seq_layers.0.weight f4 [20, 6]
0.63302666 -0.7002098 0.61404926 0.85208315 0.44023794 0.47701114 0.7036527 0.62758017
0.092318274 0.4389673 -0.30431575 0.18200427 0.105963424 -0.2973367 -0.52683324 -0.731937
1.2566272 0.88654196 -0.041957293 0.298143 -0.10817573 0.5291484 0.46558702 -0.013552828
-0.18964574 0.1151537 -0.01933663 -0.24181962 0.62461555 0.09780856 -0.24169467 -0.7171835
0.6331685 -0.38196957 0.6157721 0.29420298 0.31911233 -0.3516683 0.0767333 -0.22081742
-0.06861088 -0.558264 -0.09258975 -0.28837106 0.4274317 -0.024787983 -0.03375387 0.1917423
-0.41967443 -0.35883692 0.025526164 -0.07009568 -0.5118898 0.24537659 0.07406723 -0.332938
-0.21052182 0.028485844 0.25156894 0.009845793 -0.114723824 0.23336308 0.2407624 0.2279908
0.14182258 0.2649949 -0.5320647 0.20300756 -0.3503959 0.25322503 0.13086867 0.8128749
-0.12123754 -0.66206247 -0.21178563 -0.0326206 -0.37341407 0.28556493 0.5264926 0.19121037
-0.37211516 0.17930855 0.18430598 0.06563426 -0.5449038 0.113058686 0.6185891 0.5353788
-1.0601285 0.5204519 0.10851721 -0.5560252 0.100608625 -0.48451456 -0.27365416 -0.49611053
0.028507307 0.37486073 0.21249399 -0.07856771 -0.15610658 0.06338572 0.12092198 0.22588712
-0.061609287 -0.34247047 0.04694445 -0.60264117 0.29320475 0.467183 -0.38981712 0.0058921566
0.4100186 -0.14160885 0.27287033 0.10586134 -0.39728862 0.42143032 -0.32167253 0.27679846
00000000: 090e 223f f340 33bf 5532 1d3f 1f22 5a3f
00000010: de66 e13e ce3a f43e 9522 343f 18a9 203f
00000020: 5d11 bd3d 52c0 e03e 46cf 9bbe 545f 3a3e
00000030: 5a03 d93d 843c 98be 8bde 06bf 3960 3bbf
00000040: 29d9 a03f 6af4 623f 69db 2bbd 33a6 983e
00000050: 3d8b ddbd 4576 073f 6c61 ee3e ae0c 5ebc
00000060: 7e32 42be b4d5 eb3d da67 9ebc 909f 77be
00000070: cee6 1f3f db4f c83d cf7e 77be 5699 37bf
00000080: 5517 223f 8491 c3be 3ea3 1d3f c6a1 963e
00000090: b162 a33e de0d b4be 5926 9d3d f61d 62be
000000a0: dc83 8cbd 64ea 0ebf b29f bdbd 5fa5 93be
000000b0: 54d8 da3e 2b10 cbbc 7f41 0abd 1858 443e
000000c0: 91df d6be 79b9 b7be 3f1c d13c 538e 8fbd
000000d0: 360b 03bf 0044 7b3e 8fb0 973d d976 aabe
000000e0: 0893 57be 255b e93c a5cd 803e 4050 213c
000000f0: 53f4 eabd bbf6 6e3e 6b8a 763e 6c76 693e
00000100: f039 113e 69ad 873e 6435 08bf 37e1 4f3e
00000110: 1767 b3be b6a6 813e 7002 063e 9218 503f
00000120: 634b f8bd ed7c 29bf 55de 58be 2e9d 05bd
00000130: 2130 bfbe 9135 923e 38c8 063f a7cc 433e
00000140: e185 bebe a99c 373e b5ba 3c3e 416b 863d
00000150: d17e 0bbf 508b e73d db5b 1e3f 960e 093f
00000160: 4ab2 87bf 563c 053f 453e de3d ab57 0ebf
00000170: e50b ce3d 4b12 f8be 661c 8cbe 3302 febe
00000180: 2888 e93c bfed bf3e 0698 593e 1ce8 a0bd
00000190: 67da 1fbe 5fd0 813d f1a5 f73d f44e 673e
000001a0: 055a 7cbd 4a58 afbe d348 403d b146 1abf
000001b0: ef1e 963e 9c32 ef3e 1c96 c7be fe12 c13b
000001c0: f5ed d13e e901 11be a9b5 8b3e d5cd d83d
000001d0: 6a69 cbbe b7c5 d73e 43b2 a4be 87b8 8d3e

network_body._body_endoder.seq_layers.0.bias f4 [20]
0.006064193 -0.01112164 0.015493698 -0.013760661 0.010285186 0.010424664 -0.015468079 0.05179331
-0.0065532085 0.023803134 0.018023951 0.01277628 -0.006319075 -0.0029325772 0.01733644 0.016230825
0.047546532 -0.010918803 0.0046549016 -0.043401454
00000000: 23b6 c63b 8a37 36bc 48d9 7d3c 6574 61bc
00000010: 3283 283c 36cc 2a3c d36d 7dbc 3925 543d
00000020: 4cbc d6bb cafe c23c f7a6 933c 9a53 513c
00000030: 3e10 cfbb 7b30 40bb 2605 8e3c 82f6 843c
00000040: 27c0 423d c7e4 32bc 2588 983b b9c5 31bd

action_model._continuous_distribution.log_sigma f4 [1, 2]
-0.015456049 -0.011361439
00000000: 5e3b 7dbc 5425 3abc

action_model._continuous_distribution.mu.weight f4 [2, 20]
-0.074286185 -0.012236341 -0.0067030853 -0.04207418 0.0069428263 -0.106572166 0.0023170342 -0.09004602
0.024381226 -0.0705231 0.028688462 0.010592643 0.03609421 -0.064526886 -0.049014766 -0.0800399
0.041575804 0.01410656 -0.0033425994 -0.0012120876 -0.047119964 -0.0023446109 0.07647143 -0.0055911746
0.044459816 0.08521437 0.036979612 0.061995186 -0.049710758 0.022382304 0.051380586 0.09196989
-0.009803796 0.04860446 -0.0016773072 0.0407543 -0.074209005 -0.0022610084 0.034882333 -0.030442953
00000000: 5b23 98bd ef7a 48bc 8ea5 dbbb fa55 2cbd
00000010: a680 e33b 8242 dabd 62d9 173b 0c6a b8bd
00000020: 23bb c73c 6a6e 90bd 1104 eb3c c48c 2d3c
00000030: 86d7 133d ac26 84bd b5c3 48bd f6eb a3bd
00000040: 644b 2a3d 331f 673c 830f 5bbb e9de 9eba
00000050: dd00 41bd 0ba8 19bb 0e9d 9c3d 2c36 b7bb
00000060: 7f1b 363d df84 ae3d ef77 173d aaee 7d3d
00000070: 829d 4bbd 185b b73c 7374 523d b65a bc3d
00000080: 1aa0 20bc 7815 473d 17d9 dbba fbed 263d
00000090: e4fa 97bd 6d2d 14bb c7e0 0e3d 8063 f9bc

action_model._continuous_distribution.mu.bias f4 [2]
0.014194239 0.010318345
00000000: f48e 683c 470e 293c

exp_avg f4 [20, 6]
0.00011213326 6.503845e-05 2.0639269e-05 1.9924582e-05 6.503845e-05 -3.9218005e-05 0.0002968168 -0.0009585741
0.00011197727 -0.00029365972 -0.0009585741 0.00057801796 0.00033457504 -0.004205157 0.001280018 -0.0012882528
-0.004205157 0.0025357008 -0.004955012 0.004368891 0.0008119043 0.0013384118 0.004368891 -0.00263443
0.0010394102 -0.0027284634 0.0005511088 -0.0008358665 -0.0027284634 0.0016452566 0.00064083835 -2.4120478e-05
-0.00023463271 -7.389257e-06 -2.4120478e-05 1.4544447e-05 -8.000706e-05 0.0002442007 -4.961489e-05 7.4811e-05
0.0002442007 -0.00014725237 0.0010225144 -0.00084844057 -0.00016403818 -0.00025992026 -0.00084844057 0.0005116078
-7.872232e-05 8.2461585e-05 8.991503e-06 2.5262154e-05 8.2461585e-05 -4.972415e-05 -2.6223799e-05 -0.0014913707
0.0006633286 -0.00045688226 -0.0014913707 0.0008992932 0.0038441748 -0.005468061 0.00020303519 -0.0016751431
-0.005468061 0.0032972256 0.00202063 -0.006075847 0.0010911073 -0.0018613398 -0.006075847 0.0036637222
-8.3981995e-06 6.460282e-06 2.1404965e-06 1.9791105e-06 6.460282e-06 -3.8955345e-06 -0.0021463772 -0.0041335444
0.0024148133 -0.0012663137 -0.0041335444 0.0024925186 0.00014854415 -0.00020189796 5.90162e-07 -6.1851555e-05
-0.00020189796 0.000121744 0.00014367368 -5.0141673e-05 -4.5289922e-05 -1.5360927e-05 -5.0141673e-05 3.0235304e-05
0.0034573125 7.002646e-05 -0.0016684355 2.1453154e-05 7.002646e-05 -4.2227024e-05 0.0015181922 -0.0010122212
-0.0003502948 -0.00031009453 -0.0010122212 0.0006103668 -0.00022140423 -0.0012428707 0.0006068005 -0.00038075424
-0.0012428707 0.0007494482 3.7614096e-05 -0.00015857305 3.819289e-05 -4.8578935e-05 -0.00015857305 9.5619136e-05
00000000: 1629 eb38 4165 8838 7e22 ad37 b723 a737
00000010: 4165 8838 037e 24b8 149e 9b39 d248 7bba
00000020: 57d5 ea38 57f6 99b9 d248 7bba 2186 173a
00000030: e769 af39 6acb 89bb 47c6 a73a 97da a8ba
00000040: 6acb 89bb 002e 263b a75d a2bb ea28 8f3b
00000050: fad5 543a a66d af3a ea28 8f3b 67a6 2cbb
00000060: d23c 883a 05d0 32bb 4978 103a 0d1e 5bba
00000070: 05d0 32bb a7a5 d73a effd 273a 5556 cab7
00000080: bd07 76b9 3cf1 f7b6 5556 cab7 ed03 7437
00000090: 77c9 a7b8 1008 8039 9519 50b8 dae3 9c38
000000a0: 1008 8039 c267 1ab9 e405 863a e269 5eba
000000b0: aa01 2cb9 e845 88b9 e269 5eba 6b1d 063a
000000c0: b917 a5b8 3aef ac38 36da 1637 10ea d337
000000d0: 3aef ac38 e68e 50b8 2efb dbb7 197a c3ba
000000e0: 3be3 2d3a b389 efb9 197a c3ba 8cbe 6b3a
000000f0: 8dee 7b3b 6c2d b3bb d8e5 5439 7a90 dbba
00000100: 6c2d b3bb 4416 583b 8c6c 043b e617 c7bb
00000110: 7c03 8f3a 33f8 f3ba e617 c7bb 0f1b 703b
00000120: fee5 0cb7 66c5 d836 73a5 0f36 dcd0 0436
00000130: 66c5 d836 63b6 82b6 3caa 0cbb af72 87bb
00000140: d841 1e3b 70fa a5ba af72 87bb 8659 233b
00000150: 84c2 1b39 92b4 53b9 a06b 1e35 4db6 81b8
00000160: 92b4 53b9 d050 ff38 1ca7 1639 364f 52b8
00000170: aff5 3db8 57db 80b7 364f 52b8 d2a1 fd37
00000180: 1494 623b 2bdb 9238 68af daba 4cf6 b337
00000190: 2bdb 9238 ec1c 31b8 14fe c63a 82ac 84ba
000001a0: c6a7 b7b9 2f94 a2b9 82ac 84ba 0601 203a
000001b0: bf28 68b9 d2e7 a2ba b111 1f3a f89f c7b9
000001c0: d2e7 a2ba 9e76 443a d4c3 1d38 a146 26b9
000001d0: 4e31 2038 3cc1 4bb8 a146 26b9 2287 c838

exp_avg_sq f4 [20, 6]
1.7228916e-06 5.7804054e-06 1.0370311e-07 5.424955e-07 5.7804054e-06 2.1017931e-06 1.6338185e-05 5.9905564e-05
2.0821083e-06 5.62218e-06 5.9905564e-05 2.1782058e-05 0.00026273628 0.0008776164 2.3727753e-05 8.236487e-05
0.0008776164 0.00031910668 0.00022987773 0.00070362 1.46840275e-05 6.603522e-05 0.00070362 0.0002558409
0.00022033748 0.0007235813 1.9786668e-05 6.790851e-05 0.0007235813 0.00026309866 4.3971995e-06 1.3483715e-05
2.5478212e-07 1.265456e-06 1.3483715e-05 4.9027644e-06 6.3815014e-07 2.1148173e-06 5.395723e-08 1.984767e-07
2.1148173e-06 7.689592e-07 1.8480322e-06 5.8356495e-06 9.0499974e-08 5.476801e-07 5.8356495e-06 2.1218793e-06
1.8459427e-07 5.4306065e-07 1.121782e-08 5.096662e-08 5.4306065e-07 1.9746015e-07 3.028663e-06 1.0652027e-05
3.5113416e-07 9.996998e-07 1.0652027e-05 3.8731414e-06 0.00040765014 0.0013411575 3.4724042e-05 0.00012586855
0.0013411575 0.000487653 0.00064522086 0.0021057997 5.6062498e-05 0.00019763087 0.0021057997 0.00076568156
1.2277965e-09 3.7747943e-09 9.9929814e-11 3.542666e-10 3.7747943e-09 1.3725387e-09 0.00025882057 0.0008423377
2.276081e-05 7.9053985e-05 0.0008423377 0.00030627925 4.447623e-08 1.302709e-07 1.7905875e-09 1.222602e-08
1.302709e-07 4.736736e-08 7.438048e-08 2.3760522e-07 4.724575e-09 2.22994e-08 2.3760522e-07 8.639471e-08
7.594175e-05 0.00025937238 4.5535676e-06 2.4342278e-05 0.00025937238 9.430944e-05 1.2558997e-05 3.930263e-05
9.2364377e-07 3.6885797e-06 3.930263e-05 1.42906865e-05 0.00013608843 0.00044204236 1.2031859e-05 4.1485946e-05
0.00044204236 0.00016072916 5.065105e-07 1.6215511e-06 3.2620907e-08 1.5218376e-07 1.6215511e-06 5.896064e-07
00000000: 1b3e e735 4ef5 c136 63b3 de33 02a0 1135
00000010: 4ef5 c136 880c 0d36 fc0d 8937 1c43 7b38
00000020: 59ba 0b36 29a6 bc36 1c43 7b38 9db8 b637
00000030: debf 8939 d70f 663a f60a c737 4ebb ac38
00000040: d70f 663a c64d a739 550b 7139 2473 383a
00000050: 6b5b 7637 647c 8a38 2473 383a 6222 8639
00000060: 640a 6739 b8ae 3d3a 8cfb a537 1b6a 8e38
00000070: b8ae 3d3a 81f0 8939 a88b 9336 1d38 6237
00000080: fdc8 8834 bdd8 a935 1d38 6237 6d82 a436
00000090: 584d 2b35 49ec 0d36 9abe 6733 dc1c 5534
000000a0: 49ec 0d36 796a 4e35 e709 f835 d9cf c336
000000b0: e358 c233 4a04 1335 d9cf c336 9c65 0e36
000000c0: e334 4634 d8c6 1135 7eb8 4032 64e6 5a33
000000d0: d8c6 1135 6f05 5434 0940 4b36 1cb6 3237
000000e0: 8383 bc34 6c2d 8635 1cb6 3237 08f6 8136
000000f0: e0b9 d539 c7c9 af3a a8a4 1138 95fb 0339
00000100: c7c9 af3a adab ff39 0a24 293a 7501 0a3b
00000110: a624 6b38 223b 4f39 7501 0a3b 05b8 483a
00000120: 40bf a830 71b3 8131 7cbf db2e 97c2 c22f
00000130: 71b3 8131 eaa3 bc30 4fb2 8739 53d0 5c3a
00000140: 78ee be37 c9c9 a538 53d0 5c3a 1b94 a039
00000150: 2206 3f33 98e0 0b34 b218 f630 9b0a 5232
00000160: 98e0 0b34 f770 4b33 1abb 9f33 6d20 7f34
00000170: cd55 a231 e68c bf32 6d20 7f34 fe87 b933
00000180: eb42 9f38 5ffc 8739 d9ca 9836 a532 cc37
00000190: 5ffc 8739 ffc7 c538 7bb4 5237 e1d8 2438
000001a0: 51f0 7735 5189 7736 e1d8 2438 08c2 6f37
000001b0: f6b2 0e39 ecc1 e739 71dc 4937 3201 2e38
000001c0: ecc1 e739 6889 2839 23f7 0735 12a4 d935
000001d0: 111b 0c33 f467 2334 12a4 d935 7145 1e35

exp_avg f4 [20]
9.015639e-06 -0.0001328777 -0.00058291975 0.00060561637 -0.0003782201 -3.3435674e-06 3.3851124e-05 -0.00011761094
1.143084e-05 -0.00020673407 -0.0007579835 -0.0008422347 8.9552515e-07 -0.0005729928 -2.7987126e-05 -6.9506427e-06
9.707317e-06 -0.00014031428 -0.00017228689 -2.1981428e-05
00000000: e041 1737 1655 0bb9 15cf 18ba 3ac2 1e3a
00000010: d84b c6b9 0d62 60b6 5efb 0d38 e5a5 f6b8
00000020: 15c7 3f37 c1c6 58b9 69b3 46ba 6ac9 5cba
00000030: 0564 7035 e534 16ba e5c5 eab7 9139 e9b6
00000040: 9cdc 2237 5421 13b9 e9a7 34b9 c264 b8b7

exp_avg_sq f4 [20]
1.1107374e-07 1.1511191e-06 1.6863873e-05 1.352046e-05 1.3904009e-05 2.5909702e-07 4.0637303e-08 1.12135304e-07
1.0435221e-08 2.0468464e-07 2.5771082e-05 4.046407e-05 7.253469e-11 1.618599e-05 2.5032276e-09 4.5657145e-09
4.983984e-06 7.5522155e-07 8.494074e-06 3.1159008e-08
00000000: 6f87 ee33 2780 9a35 e476 8d37 efd5 6237
00000010: 4445 6937 061a 8b34 3089 2e33 09cf f033
00000020: 9646 3332 49c7 5b34 fa2e d837 f7b7 2938
00000030: 6681 9f2e 26c7 8737 3f05 2c31 73e0 9c31
00000040: 193c a736 6eba 4a35 c581 0e37 b1d3 0533

exp_avg f4 [1, 2]
0.03766958 0.011670914
00000000: 6b4b 1a3d 5c37 3f3c

exp_avg_sq f4 [1, 2]
0.006518487 0.008247754
00000000: 0899 d53b 9621 073c

exp_avg f4 [2, 20]
-0.0004900455 0.017557371 0.009103864 -0.08704351 -0.07548121 0.0056618876 0.00076518784 0.0031065799
0.0005714178 0.0049590175 -0.04240649 -0.042298134 3.0796888e-05 0.030630583 0.00074227405 0.00021654401
-0.011846647 -0.030398406 -0.045599815 -0.0005815658 0.00023194184 -0.0027647668 -0.014812801 -0.050111774
-0.03260262 0.0005995231 0.0019934338 0.0004756793 4.457035e-06 0.001003895 -0.009823878 -0.003033019
1.568219e-05 -0.018053446 -7.708161e-05 0.00019811981 -0.0039728777 -0.02638677 -0.05249781 0.0020611053
00000000: 6676 00ba 7ad4 8f3c 6028 153c de43 b2bd
00000010: e595 9abd 5b87 b93b e396 483a c397 4b3b
00000020: 33cb 153a 417f a23b 6db2 2dbd cf40 2dbd
00000030: e82b 0138 fdec fa3c 2b95 423a 1710 6339
00000040: 7018 42bc 1406 f9bc dfc6 3abd 3874 18ba
00000050: 6a35 7339 1731 35bb 64b1 72bc 0142 4dbd
00000060: 538a 05bd 5029 1d3a 45a4 023b 9864 f939
00000070: a48d 9536 2095 833a 55f4 20bc 9dc5 46bb
00000080: 3f8d 8337 d2e4 93bc e0a6 a1b8 62be 4f39
00000090: ea2e 82bb 1129 d8bc f207 57bd 9c13 073b

exp_avg_sq f4 [2, 20]
1.7915563e-05 0.00014268578 0.0056628147 0.22252208 0.12216588 0.00018621198 0.0001524798 3.690673e-05
2.8271006e-06 0.00027322542 0.025310524 0.01195312 3.6105284e-08 0.0040972647 1.8785896e-06 1.2080629e-06
0.000422393 0.044548366 0.16093999 0.0001799318 2.2585733e-05 0.00011630735 0.0060874927 0.230475
0.12469883 0.00020295777 0.00017076808 4.364724e-05 2.5587492e-06 0.00028187304 0.02595899 0.010862305
3.6942943e-08 0.004963037 1.9153392e-06 1.3819883e-06 0.0005144885 0.046810582 0.16840254 0.00018759284
00000000: 6149 9637 ec9d 1539 228f b93b d4dc 633e
00000010: 1b32 fa3d e641 4339 fce2 1f39 4dcc 1a38
00000020: 38b9 3d36 b23f 8f39 0458 cf3c 05d7 433c
00000030: 2e12 1b33 5942 863b d923 fc35 ba24 a235
00000040: a174 dd39 5978 363d 74cd 243e 13ac 3c39
00000050: 7e76 bd37 08ea f338 9779 c73b a301 6c3e
00000060: 1a62 ff3d 10d1 5439 3510 3339 de11 3738
00000070: fab6 2b36 5cc8 9339 f3a7 d43c cff7 313c
00000080: 32ab 1e33 f9a0 a23b 4789 0036 c27c b935
00000090: bdde 063a 74bc 3f3d b771 2c3e 92b4 4439

exp_avg f4 [2]
-0.012528324 -0.0071311337
00000000: 9943 4dbc 49ac e9bb

exp_avg_sq f4 [2]
0.0042108395 0.0043901866
00000000: 15fb 893b 8edb 8f3b

exp_avg f4 [20, 6]
-0.0018232507 0.0032293093 1.0259183e-05 0.0009893007 0.0032293093 -0.0019472658 -3.73987e-05 0.00017480974
-6.942606e-05 5.3553056e-05 0.00017480974 -0.000105409854 0.00021175128 0.0015721471 -0.001175867 0.00048162823
0.0015721471 -0.0009480013 0.002656521 -0.0015833764 -0.0017538965 -0.00048506825 -0.0015833764 0.00095477235
0.0056557357 0.006485537 -0.009907864 0.0019868482 0.006485537 -0.0039107637 8.602828e-05 0.0016669376
-0.0011782977 0.0005106672 0.0016669376 -0.0010051595 0.0052138222 0.0058071953 -0.009041679 0.0017790376
0.0058071953 -0.0035017258 -0.0059746625 -0.006261537 0.01009885 -0.0019182253 -0.006261537 0.0037756923
0.0003849938 -0.0038175224 0.0018314241 -0.0011695 -0.0038175224 0.0023019572 -2.5186204e-05 2.7727854e-05
1.0331337e-05 8.494443e-06 2.7727854e-05 -1.671983e-05 0.007950229 -0.00028334785 -0.008213105 -8.680313e-05
-0.00028334785 0.0001708583 -0.0002454516 0.0011497881 -0.000461674 0.0003522383 0.0011497881 -0.0006933197
1.4220596e-05 -0.0005381956 0.00031414058 -0.00016487653 -0.0005381956 0.0003245307 -0.001940593 -0.0023025076
0.0034489713 -0.00070537446 -0.0023025076 0.0013884066 0.0008165864 -0.0032364072 0.0014876729 -0.0009914751
-0.0032364072 0.0019515458 -0.009242867 0.022624718 -0.004707731 0.006931095 0.022624718 -0.013642652
0.0027111764 -0.0048150737 0.00014854096 -0.0014751005 -0.0048150737 0.0029034775 -0.0030867262 -0.002181836
0.004534823 -0.0006684069 -0.002181836 0.0013156426 2.3721868e-05 -1.3808206e-05 -1.571267e-05 -4.2301535e-06
-1.3808206e-05 8.3263185e-06 0.0007933491 0.00092605373 -0.0014024987 0.00028369707 0.00092605373 -0.0005584082
00000000: 24fa eeba d2a2 533b db1e 2c37 6cab 813a
00000010: d2a2 533b 663b ffba 8cdc 1cb8 224d 3739
00000020: d598 91b8 289e 6038 224d 3739 7c0f ddb8
00000030: 8d09 5e39 8110 ce3a 8d1f 9aba 0c83 fc39
00000040: 8110 ce3a 4a83 78ba 0719 2e3b 4c89 cfba
00000050: 00e3 e5ba c250 feb9 4c89 cfba b049 7a3a
00000060: c053 b93b a184 d43b 9854 22bc c835 023b
00000070: a184 d43b dd25 80bb 156a b438 257d da3a
00000080: 1c71 9aba 4cde 053a 257d da3a 8ebf 83ba
00000090: b6d8 aa3b 494a be3b 8d23 14bc 992e e93a
000000a0: 494a be3b 367d 65bb 1ac7 c3bb 942d cdbb
000000b0: a675 253c f66c fbba 942d cdbb 9b71 773b
000000c0: fed8 c939 662f 7abb 650c f03a e949 99ba
000000d0: 662f 7abb 6fdc 163b f646 d3b7 1d99 e837
000000e0: c154 2d37 5b83 0e37 1d99 e837 9041 8cb7
000000f0: ad41 023c 4e8e 94b9 4290 06bc 130a b6b8
00000100: 4e8e 94b9 6d28 3339 f5af 80b9 7db4 963a
00000110: d60c f2b9 a0ac b839 7db4 963a e6bf 35ba
00000120: ff94 6e37 b215 0dba 3cb3 a439 b5e2 2cb9
00000130: b215 0dba c625 aa39 7f5b feba abe5 16bb
00000140: 2308 623b e1e8 38ba abe5 16bb 32fb b53a
00000150: 3010 563a e719 54bb 05fe c23a 62f4 81ba
00000160: e719 54bb 03cb ff3a 656f 17bc 7957 b93c
00000170: 4f43 9abb 3d1e e33b 7957 b93c 6e85 5fbc
00000180: fead 313b c4c7 9dbb a9c1 1b39 2958 c1ba
00000190: c4c7 9dbb 4548 3e3b ac4a 4abb 22fd 0ebb
000001a0: da98 943b 0738 2fba 22fd 0ebb a471 ac3a
000001b0: 53fe c637 cba9 67b7 b4ce 83b7 bef0 8db6
000001c0: cba9 67b7 44b1 0b37 c2f8 4f3a 6ac2 723a
000001d0: 0cd4 b7ba 2dbd 9439 6ac2 723a 2462 12ba

exp_avg_sq f4 [20, 6]
6.674786e-06 2.1360003e-05 9.809195e-07 2.0046496e-06 2.1360003e-05 7.766635e-06 2.2902666e-06 8.648775e-06
4.1751326e-07 8.1169435e-07 8.648775e-06 3.1447494e-06 0.0004027981 0.0014561359 6.747082e-05 0.00013665928
0.0014561359 0.0005294605 1.5989828e-05 4.6606594e-05 4.1973144e-06 4.3740615e-06 4.6606594e-05 1.6946455e-05
0.017730795 0.0630374 0.0031741448 0.0059160963 0.0630374 0.022920767 0.00025358642 0.0009085492
4.5122113e-05 8.526815e-05 0.0009085492 0.00033035406 0.015640525 0.055603135 0.0027850198 0.005218395
0.055603135 0.020217633 0.0124951685 0.044367824 0.002379791 0.0041639567 0.044367824 0.01613246
1.3778533e-05 6.422705e-05 4.9598207e-06 6.027754e-06 6.422705e-05 2.335335e-05 5.965657e-08 1.7401442e-07
7.955194e-09 1.633136e-08 1.7401442e-07 6.327259e-08 0.008478844 0.029695306 0.0014334638 0.0027869216
0.029695306 0.010797404 0.00011552997 0.0004227877 1.9650466e-05 3.9678907e-05 0.0004227877 0.00015372841
0.00011256976 0.00040822767 1.8381883e-05 3.8312388e-05 0.00040822767 0.00014843376 0.0010760695 0.003819818
0.0002215777 0.00035849234 0.003819818 0.0013889081 0.00023529012 0.0008518821 4.454967e-05 7.994976e-05
0.0008518821 0.00030975003 0.019954717 0.07393027 0.0033719924 0.0069384025 0.07393027 0.026881505
0.00019112646 0.00069609814 3.0754924e-05 6.532911e-05 0.00069609814 0.0002531055 0.002282316 0.007957929
0.00047740593 0.0007468566 0.007957929 0.0028935508 1.8340114e-07 6.3638316e-07 2.8788353e-08 5.972497e-08
6.3638316e-07 2.3139286e-07 0.0008950847 0.0031920082 0.00014779047 0.00029957198 0.0031920082 0.0011606321
00000000: faf7 df36 422e b337 23a8 8335 9e87 0636
00000010: 422e b337 714d 0237 7bb2 1936 351a 1137
00000020: 9626 e034 36e3 5935 351a 1137 620a 5336
00000030: a52e d339 d0db be3a 1f7f 8d38 324c 0f39
00000040: d0db be3a 7ecb 0a3a e521 8637 737b 4338
00000050: a8d6 8c36 e7c4 9236 737b 4338 3c28 8e37
00000060: 2c40 913c c119 813d 5005 503b d0db c13b
00000070: c119 813d 55c4 bb3c cbf3 8439 b42b 6e3a
00000080: 8041 3d38 fdd1 b238 b42b 6e3a 5f33 ad39
00000090: 8f20 803c 1dc0 633d e184 363b 12ff aa3b
000000a0: 1dc0 633d 739f a53c 89b8 4c3c 09bb 353d
000000b0: 45f6 1b3b cd71 883b 09bb 353d 3928 843c
000000c0: 592a 6737 a3b1 8638 896c a636 0342 ca36
000000d0: a3b1 8638 f0e6 c337 8c1c 8033 b8d8 3a34
000000e0: 50ab 0832 0a49 8c32 b8d8 3a34 79e0 8733
000000f0: d9ea 0a3c 9243 f33c 10e3 bb3a c9a4 363b
00000100: 9243 f33c 98e7 303c ae48 f238 9ba9 dd39
00000110: 0ed7 a437 e76c 2638 9ba9 dd39 2832 2139
00000120: 6e13 ec38 6407 d639 cb32 9a37 9db1 2038
00000130: 6407 d639 e2a4 1b39 e70a 8d3a e955 7a3b
00000140: 5057 6839 07f4 bb39 e955 7a3b 060c b63a
00000150: 36b8 7639 d750 5f3a d8da 3a38 b3aa a738
00000160: d750 5f3a f265 a239 1378 a33c c168 973d
00000170: a5fc 5c3b 8a5b e33b c168 973d 9a36 dc3c
00000180: 1e69 4839 5b7a 363a d9fe 0038 4d01 8938
00000190: 5b7a 363a 3fb3 8439 e992 153b f961 023c
000001a0: 574c fa39 b3c8 433a f961 023c baa1 3d3b
000001b0: ecec 4434 ebd3 2a35 424a f732 2642 8033
000001c0: ebd3 2a35 c974 7834 1ea4 6a3a 0331 513b
000001d0: 34f8 1a39 df0f 9d39 0331 513b 5a20 983a

exp_avg f4 [20]
0.00044764736 2.4232153e-05 0.00021793133 -0.00021948793 0.0008990258 0.00023107113 0.0008049946 -0.00086797535
-0.00052918564 3.8436397e-06 -3.9277555e-05 0.00015938384 -7.460475e-05 -0.000319174 -0.00044863136 0.0031362418
-0.00066746626 -0.00030244654 -1.9140962e-06 0.00012836969
00000000: 36b2 ea39 2746 cb37 7f84 6439 5826 66b9
00000010: 9aac 6b3a af4b 7239 4606 533a d788 63ba
00000020: 0cb9 0aba 9df8 8036 f4bd 24b8 4620 2739
00000030: 1f75 9cb8 cf56 a7b9 4836 ebb9 6889 4d3b
00000040: e7f8 2eba b091 9eb9 ec73 00b6 fa9a 0639

exp_avg_sq f4 [20]
4.1044424e-07 1.6619103e-07 2.7980466e-05 8.955715e-07 0.0012112979 1.7458304e-05 0.0010684442 0.0008525528
1.2341582e-06 3.3437804e-09 0.0005706112 8.124109e-06 7.84431e-06 7.339978e-05 1.636942e-05 0.0014206124
1.33758995e-05 0.00015291577 1.2228444e-08 6.133619e-05
00000000: 075b dc34 3e72 3234 98b7 ea37 3467 7035
00000010: 6ac4 9e3a 6c73 9237 0a0b 8c3a da7d 5f3a
00000020: 5aa5 a535 68c8 6531 1295 153a c84c 0837
00000030: 0e9b 0337 35ee 9938 1051 8937 d833 ba3a
00000040: 0d69 6037 0458 2039 4415 5232 9ea1 8038

exp_avg f4 [1, 20]
0.0013283939 0.00010191816 0.0008116127 0.016297592 -0.018053895 0.001482425 -0.033692263 -0.019022552
0.0028237351 -4.94184e-05 0.004301043 0.0010137353 -0.0076583317 -0.016335092 0.00029406493 -0.0041019786
0.0010824321 0.0070587764 -3.7424732e-05 -0.012836838
00000000: 811d ae3a e5bc d538 68c2 543a 8782 853c
00000010: c3e5 93bc ee4d c23a e600 0abd 2fd5 9bbc
00000020: 6a0e 393b 9a46 4fb8 c4ef 8c3b 50df 843a
00000030: bef2 fabb 2cd1 85bc ba2c 9a39 e469 86bb
00000040: 65e0 8d3a 4f4d e73b 80f8 1cb8 9a51 52bc

exp_avg_sq f4 [1, 20]
0.0010331451 2.3829245e-06 0.00059317664 0.0013293826 0.3604523 0.0005034634 0.6789383 0.07349639
1.10608025e-05 3.369519e-07 0.0021443574 0.0003458512 0.006981484 2.4768076 0.00058627565 0.007160637
0.00050908496 0.0062176734 2.5738887e-06 0.23842348
00000000: 996a 873a 55ea 1f36 697f 1b3a ae3e ae3a
00000010: 348d b83e dbfa 033a e7ce 2d3f 4685 963d
00000020: c991 3937 51e6 b434 5988 0c3b 5d53 b539
00000030: efc4 e43b 0484 1e40 4bb0 193a c7a3 ea3b
00000040: 1d74 053a a0bd cb3b 12bb 2c36 4925 743e

network_body._body_endoder.seq_layers.0.weight f4 [20, 6]
0.596643 -0.12325845 0.21407041 -0.061290134 0.07428828 -0.30475125 0.38317838 0.39630544
-0.058390208 -0.10675951 -1.2142136 -0.12734489 -0.12806779 -0.18186 -0.32939932 -0.06868942
0.35938153 1.2230295 -0.3150567 0.074854985 0.3019019 0.16623586 -0.37068343 -0.38044
0.17857683 0.22672251 0.085122466 -0.14591995 0.36508372 -0.29400635 0.5991578 0.20831358
0.21957207 -0.42603138 -0.11742191 0.09007361 0.0040101456 -0.045700334 -0.38617772 0.010528581
0.7013078 -0.23524778 0.2959583 0.34765428 0.06103823 0.13500595 0.17346668 -0.08067093
0.1967487 -0.2955855 -0.6056697 0.10292569 -0.16627027 -0.08724998 -0.093671024 -0.5954664
0.4171698 -0.12669396 -0.41260758 0.02168702 0.29638672 0.82637167 0.4914416 -0.05390752
-0.5266859 0.007833093 -0.021135248 -0.5243216 -0.5713325 -0.099816166 0.19705549 0.4879411
0.087951034 -0.21274327 -0.19365676 0.22891185 -0.28909287 -0.870056 -0.6687636 0.74978304
0.2885183 0.8698387 0.8291041 0.3069857 -0.8140082 -0.90894 -0.5441679 -0.47393736
0.5129726 0.34390414 0.16744198 0.029350536 -0.5224372 -0.4031494 -0.10991422 -0.2664364
-0.15705001 -0.46839738 0.08630216 -0.10025571 0.20656326 -0.07363855 0.003153708 -0.390835
0.33289993 0.85116845 0.1321532 -0.4428304 -0.28530076 -0.2773426 -0.017473437 -0.10972877
-0.7259401 0.035712518 -0.18640955 0.19647074 -0.22488834 0.4587306 0.2611098 0.3929485
00000000: 98bd 183f ed6e fcbd 4635 5b3e 5d0b 7bbd
00000010: 7424 983d 5b08 9cbe f52f c43e 8ce8 ca3e
00000020: 922a 6fbd bba4 dabd 5a6b 9bbf b366 02be
00000030: 3424 03be 8239 3abe 07a7 a8be 0aad 8cbd
00000040: db00 b83e 3b8c 9c3f 1d4f a1be 924d 993d
00000050: e392 9a3e bc39 2a3e 38ca bdbe 08c9 c2be
00000060: d8dc 363e f229 683e b054 ae3d 0a6c 15be
00000070: 41ec ba3e 0088 96be 6862 193f 2850 553e
00000080: 80d7 603e c920 dabe e67a f0bd 8378 b83d
00000090: 8a67 833b 4630 3bbd 16b9 c5be 1280 2c3c
000000a0: e888 333f cbe4 70be d987 973e beff b13e
000000b0: 3903 7a3d 003f 0a3e 40a1 313e cd36 a5bd
000000c0: 7e78 493e fc56 97be 2b0d 1bbf b4ca d23d
000000d0: c142 2abe 1eb0 b2bd 98d6 bfbd 7c70 18bf
000000e0: 4897 d53e 10bc 01be 4d41 d3be faa8 b13c
000000f0: 00c0 973e 188d 533f 3c9e fb3e 22ce 5cbd
00000100: e3d4 06bf 6056 003c d423 adbc f139 06bf
00000110: d942 12bf 6b6c ccbd eac8 493e 6ad3 f93e
00000120: ac1f b43d 5fd9 59be f54d 46be de67 6a3e
00000130: fb03 94be fdbb 5ebf 1734 2bbf c8f1 3f3f
00000140: acb8 933e c0ad 5e3f 2b40 543f 3b2d 9d3e
00000150: d762 50bf 4bb0 68bf 964e 0bbf eba7 f2be
00000160: 2c52 033f 3414 b03e e975 2b3e 8970 f03c
00000170: 72be 05bf 9969 cebe b51a e1bd 5a6a 88be
00000180: b8d1 20be c8d1 efbe 30bf b03d de52 cdbd
00000190: 5285 533e cfcf 96bd 71ae 4e3b 861b c8be
000001a0: dc71 aa3e 2de6 593f 2b53 073e abba e2be
000001b0: f112 92be d9ff 8dbe 7424 8fbc 7ab9 e0bd
000001c0: 36d7 39bf 4a47 123d 25e2 3ebe a02f 493e
000001d0: 2149 66be bdde ea3e 2fb0 853e 8c30 c93e

network_body._body_endoder.seq_layers.0.bias f4 [20]
-0.020813188 -0.04050692 -0.047232144 0.07778711 -0.03840606 -0.04128206 -0.03790218 0.041412488
0.14917815 0.00064259203 -0.020800581 -0.04809432 -0.023516083 0.045299996 0.043812048 -0.05463581
0.06105517 0.045886647 -0.02567469 -0.033483334
00000000: 6b80 aabc 96ea 25bd 7e76 41bd d94e 9f3d
00000010: ac4f 1dbd 6117 29bd 513f 1bbd 24a0 293d
00000020: 28c2 183e 9f73 283a fb65 aabc 8dfe 44bd
00000030: cda4 c0bc 7d8c 393d 4374 333d cdc9 5fbd
00000040: fc14 7a3d a3f3 3b3d ba53 d2bc d225 09bd

value_heads.value_heads.extrinsic.weight f4 [1, 20]
-0.24929647 0.28422207 0.4497832 -0.063707806 -0.26206213 0.34723154 -0.24511045 0.25870168
-0.56482196 -0.09281913 -0.31411082 0.23491137 0.011399926 0.09471861 -0.40791333 -0.32591024
-0.35150093 0.119428724 0.06451519 -0.035739146
00000000: 9347 7fbe 8e85 913e fc49 e63e 3d79 82bd
00000010: 022d 86be 55c8 b13e 3cfe 7abe 8c74 843e
00000020: 2c98 10bf f517 bebd 22d3 a0be 9b8c 703e
00000030: c1c6 3a3c d5fb c13d 04da d0be b5dd a6be
00000040: eef7 b3be 0c97 f43d 8a20 843d 3663 12bd
