results/MoveToGoal10/MoveToGoal/MoveToGoal-7476.onnx (onnx, 2351 bytes, 5 tensors)

action_model._continuous_distribution.log_sigma f4 [1, 2]
00000000: 5e3b 7dbc 5425 3abc
-0.015456049 -0.011361439

action_model._continuous_distribution.mu.bias f4 [2]
00000000: f48e 683c 470e 293c
0.014194239 0.010318345

action_model._continuous_distribution.mu.weight f4 [2, 20]
00000000: 5b23 98bd ef7a 48bc 8ea5 dbbb fa55 2cbd
00000010: a680 e33b 8242 dabd 62d9 173b 0c6a b8bd
00000020: 23bb c73c 6a6e 90bd 1104 eb3c c48c 2d3c
00000030: 86d7 133d ac26 84bd b5c3 48bd f6eb a3bd
00000040: 644b 2a3d 331f 673c 830f 5bbb e9de 9eba
00000050: dd00 41bd 0ba8 19bb 0e9d 9c3d 2c36 b7bb
00000060: 7f1b 363d df84 ae3d ef77 173d aaee 7d3d
00000070: 829d 4bbd 185b b73c 7374 523d b65a bc3d
00000080: 1aa0 20bc 7815 473d 17d9 dbba fbed 263d
00000090: e4fa 97bd 6d2d 14bb c7e0 0e3d 8063 f9bc
-0.074286185 -0.012236341 -0.0067030853 -0.04207418 0.0069428263 -0.106572166 0.0023170342 -0.09004602
0.024381226 -0.0705231 0.028688462 0.010592643 0.03609421 -0.064526886 -0.049014766 -0.0800399
0.041575804 0.01410656 -0.0033425994 -0.0012120876 -0.047119964 -0.0023446109 0.07647143 -0.0055911746
0.044459816 0.08521437 0.036979612 0.061995186 -0.049710758 0.022382304 0.051380586 0.09196989
-0.009803796 0.04860446 -0.0016773072 0.0407543 -0.074209005 -0.0022610084 0.034882333 -0.030442953

network_body._body_endoder.seq_layers.0.bias f4 [20]
00000000: 23b6 c63b 8a37 36bc 48d9 7d3c 6574 61bc
00000010: 3283 283c 36cc 2a3c d36d 7dbc 3925 543d
00000020: 4cbc d6bb cafe c23c f7a6 933c 9a53 513c
00000030: 3e10 cfbb 7b30 40bb 2605 8e3c 82f6 843c
00000040: 27c0 423d c7e4 32bc 2588 983b b9c5 31bd
0.006064193 -0.01112164 0.015493698 -0.013760661 0.010285186 0.010424664 -0.015468079 0.05179331
-0.0065532085 0.023803134 0.018023951 0.01277628 -0.006319075 -0.0029325772 0.01733644 0.016230825
0.047546532 -0.010918803 0.0046549016 -0.043401454

network_body._body_endoder.seq_layers.0.weight f4 [20, 6]
00000000: 090e 223f f340 33bf 5532 1d3f 1f22 5a3f
00000010: de66 e13e ce3a f43e 9522 343f 18a9 203f
00000020: 5d11 bd3d 52c0 e03e 46cf 9bbe 545f 3a3e
00000030: 5a03 d93d 843c 98be 8bde 06bf 3960 3bbf
00000040: 29d9 a03f 6af4 623f 69db 2bbd 33a6 983e
00000050: 3d8b ddbd 4576 073f 6c61 ee3e ae0c 5ebc
00000060: 7e32 42be b4d5 eb3d da67 9ebc 909f 77be
00000070: cee6 1f3f db4f c83d cf7e 77be 5699 37bf
00000080: 5517 223f 8491 c3be 3ea3 1d3f c6a1 963e
00000090: b162 a33e de0d b4be 5926 9d3d f61d 62be
000000a0: dc83 8cbd 64ea 0ebf b29f bdbd 5fa5 93be
000000b0: 54d8 da3e 2b10 cbbc 7f41 0abd 1858 443e
000000c0: 91df d6be 79b9 b7be 3f1c d13c 538e 8fbd
000000d0: 360b 03bf 0044 7b3e 8fb0 973d d976 aabe
000000e0: 0893 57be 255b e93c a5cd 803e 4050 213c
000000f0: 53f4 eabd bbf6 6e3e 6b8a 763e 6c76 693e
00000100: f039 113e 69ad 873e 6435 08bf 37e1 4f3e
00000110: 1767 b3be b6a6 813e 7002 063e 9218 503f
00000120: 634b f8bd ed7c 29bf 55de 58be 2e9d 05bd
00000130: 2130 bfbe 9135 923e 38c8 063f a7cc 433e
00000140: e185 bebe a99c 373e b5ba 3c3e 416b 863d
00000150: d17e 0bbf 508b e73d db5b 1e3f 960e 093f
00000160: 4ab2 87bf 563c 053f 453e de3d ab57 0ebf
00000170: e50b ce3d 4b12 f8be 661c 8cbe 3302 febe
00000180: 2888 e93c bfed bf3e 0698 593e 1ce8 a0bd
00000190: 67da 1fbe 5fd0 813d f1a5 f73d f44e 673e
000001a0: 055a 7cbd 4a58 afbe d348 403d b146 1abf
000001b0: ef1e 963e 9c32 ef3e 1c96 c7be fe12 c13b
000001c0: f5ed d13e e901 11be a9b5 8b3e d5cd d83d
000001d0: 6a69 cbbe b7c5 d73e 43b2 a4be 87b8 8d3e
0.63302666 -0.7002098 0.61404926 0.85208315 0.44023794 0.47701114 0.7036527 0.62758017
0.092318274 0.4389673 -0.30431575 0.18200427 0.105963424 -0.2973367 -0.52683324 -0.731937
1.2566272 0.88654196 -0.041957293 0.298143 -0.10817573 0.5291484 0.46558702 -0.013552828
-0.18964574 0.1151537 -0.01933663 -0.24181962 0.62461555 0.09780856 -0.24169467 -0.7171835
0.6331685 -0.38196957 0.6157721 0.29420298 0.31911233 -0.3516683 0.0767333 -0.22081742
-0.06861088 -0.558264 -0.09258975 -0.28837106 0.4274317 -0.024787983 -0.03375387 0.1917423
-0.41967443 -0.35883692 0.025526164 -0.07009568 -0.5118898 0.24537659 0.07406723 -0.332938
-0.21052182 0.028485844 0.25156894 0.009845793 -0.114723824 0.23336308 0.2407624 0.2279908
0.14182258 0.2649949 -0.5320647 0.20300756 -0.3503959 0.25322503 0.13086867 0.8128749
-0.12123754 -0.66206247 -0.21178563 -0.0326206 -0.37341407 0.28556493 0.5264926 0.19121037
-0.37211516 0.17930855 0.18430598 0.06563426 -0.5449038 0.113058686 0.6185891 0.5353788
-1.0601285 0.5204519 0.10851721 -0.5560252 0.100608625 -0.48451456 -0.27365416 -0.49611053
0.028507307 0.37486073 0.21249399 -0.07856771 -0.15610658 0.06338572 0.12092198 0.22588712
-0.061609287 -0.34247047 0.04694445 -0.60264117 0.29320475 0.467183 -0.38981712 0.0058921566
0.4100186 -0.14160885 0.27287033 0.10586134 -0.39728862 0.42143032 -0.32167253 0.27679846
