results/MoveToGoal9/MoveToGoal.onnx (onnx, 2351 bytes, 5 tensors)

action_model._continuous_distribution.log_sigma f4 [1, 2]
0	0xbd35be09	-0.044370685
1	0xbd5097c6	-0.050925992

action_model._continuous_distribution.mu.bias f4 [2]
0	0xbbf6c055	-0.007530252
1	0xbce22635	-0.02760611

action_model._continuous_distribution.mu.weight f4 [2, 20]
0	0x3d88bebb	0.06677004
1	0xbcf3cdac	-0.029761158
2	0xbd37ee01	-0.044904713
3	0xbc35b160	-0.011089653
4	0xbdc5ca83	-0.09657767
5	0xbceeb3b5	-0.029138425
6	0x3c803275	0.01564906
7	0x3b1c05dd	0.0023807206
8	0xbd56bfa1	-0.052428845
9	0x3da0100f	0.07815563
10	0xbd82f926	-0.063951775
11	0x3d4a27c4	0.04935433
12	0x3da971e3	0.08273675
13	0x3c3aa019	0.011390709
14	0x3ccbaac4	0.0248617
15	0x3d3fa012	0.046783514
16	0xbd377052	-0.04478485
17	0xbd7d343a	-0.061817385
18	0xbc52fcaa	-0.012877623
19	0x3ce763f1	0.028245898
20	0x3dfea9ab	0.12434705
21	0xbd15df72	-0.036590047
22	0xbdb82cc6	-0.08992915
23	0x3d39a383	0.045321953
24	0xbdf4e017	-0.11956804
25	0x3d695213	0.056963038
26	0x3d0f58f6	0.03499695
27	0x3b69b55e	0.0035661082
28	0x3d886b2a	0.06661065
29	0x3d7bfddb	0.061521392
30	0x3cb91bef	0.022596328
31	0xbd0af596	-0.033925615
32	0xbdcbb227	-0.09946089
33	0x3d6bca62	0.057566054
34	0xbd62579a	-0.055259325
35	0xbccbdebc	-0.024886481
36	0xbc360f28	-0.011112012
37	0xbe0e0ad1	-0.13871314
38	0x3d47fe9f	0.04882681
39	0xbd2f922e	-0.042864017

network_body._body_endoder.seq_layers.0.bias f4 [20]
0	0x3cbcab73	0.023030972
1	0xbc5a3765	-0.013318871
2	0x3ce31c6e	0.027723517
3	0x3c8e8e05	0.017401705
4	0x3d3f10c7	0.04664686
5	0xbc5281f6	-0.012848368
6	0xbcbdf538	-0.023188218
7	0xbd913398	-0.07089919
8	0x3cc24cf2	0.023718331
9	0x3d5d977a	0.054099537
10	0xbc6ced55	-0.014460881
11	0xbb798316	-0.0038072518
12	0x3c608dbf	0.01370567
13	0x3c8ad467	0.016946984
14	0xbc970ab8	-0.018437728
15	0xba745f41	-0.0009322055
16	0xbda39bf2	-0.079887286
17	0x3d16b762	0.03679598
18	0x3d379acf	0.04482537
19	0x3c6f5e99	0.014609956

network_body._body_endoder.seq_layers.0.weight f4 [20, 6]
0	0xbef2a8e4	-0.47394478
1	0xbe1f6056	-0.15564093
2	0xbe8aad9c	-0.27085578
3	0xbd96437a	-0.07337089
4	0xbeac990a	-0.3371051
5	0xbf0df1cf	-0.55447096
6	0xbdc6e6c6	-0.09711985
7	0xbe6e1445	-0.2324992
8	0xbee3c4c0	-0.44486046
9	0xbe8bc372	-0.2729755
10	0xbec7c99a	-0.39020997
11	0xbe95e3f7	-0.29275486
12	0xbde2d191	-0.11075128
13	0xbea11624	-0.31462204
14	0xbedf26a5	-0.4358417
15	0x3ef0f044	0.47058308
16	0x3eb0a868	0.34503484
17	0xbeddaa82	-0.4329415
18	0x3eb5a44f	0.3547692
19	0xbe24a138	-0.16077125
20	0x3f17ba3f	0.59268564
21	0x3e93895a	0.28815728
22	0xbe03680c	-0.1283266
23	0x3eacb02e	0.33728164
24	0x3b5a00e8	0.00332647
25	0xbf24196c	-0.6410129
26	0x3f0b5eeb	0.5444171
27	0xbe2ad67c	-0.16683382
28	0x3f810ec5	1.0082632
29	0xbe265ecf	-0.16247104
30	0xbe7b05a1	-0.24513866
31	0xbf81092c	-1.0080924
32	0xbe96b91a	-0.29438096
33	0xbc695d9a	-0.014243508
34	0xbe6970f7	-0.22796999
35	0xbe99d108	-0.3004229
36	0xbe2d2522	-0.16908696
37	0x3f4cc978	0.79994917
38	0xbefc27cd	-0.49249116
39	0x3e55e197	0.20886837
40	0x3db1c57b	0.086802445
41	0xbe1fd881	-0.15609933
42	0xbe82e404	-0.25564587
43	0x3efe981b	0.49725422
44	0xbdbfb84f	-0.09361326
45	0x3dc6afea	0.09701522
46	0xbf54b043	-0.83081454
47	0x3e33ee0e	0.1757128
48	0x3ec49a6b	0.38399062
49	0x3eedb21b	0.46424946
50	0x3f2b23e8	0.66851664
51	0xbeaa65e0	-0.3328085
52	0xbf5aa2b3	-0.8540451
53	0x3c3a8ee6	0.011386609
54	0x3edeadff	0.43492123
55	0xbd125027	-0.03572097
56	0x3d876cd2	0.06612553
57	0x3e70cf53	0.23516588
58	0xbeb5e5f1	-0.35526994
59	0x3c9b0621	0.01892382
60	0x3eb41f4b	0.35180125
61	0x3ecd876e	0.40142387
62	0xbf0c3a04	-0.54776025
63	0xbf1d8b7c	-0.6154096
64	0x3ed3c96c	0.4136461
65	0xbbd6ee9e	-0.006559207
66	0x3f13cd14	0.577348
67	0x3d90c2f5	0.07068435
68	0x3f238a29	0.6388269
69	0xbeec0436	-0.46096963
70	0x3e8c2afd	0.27376547
71	0xbed7c7da	-0.42144662
72	0x3da86575	0.082224764
73	0xbe4839ff	-0.19553374
74	0x3d8c2d46	0.06844573
75	0xbe81386a	-0.25238353
76	0x3ef932d9	0.48671606
77	0xbe5d24a3	-0.21596007
78	0x3ee08e5e	0.43858618
79	0x3d208dc6	0.039197706
80	0xbe293e79	-0.16527738
81	0xbf082b57	-0.5319113
82	0xbee1a296	-0.44069356
83	0x3d9d15e6	0.076701924
84	0xbe43fffe	-0.19140622
85	0x3ea57ecb	0.32323298
86	0xbe46bea6	-0.19408664
87	0xbee4e196	-0.44703358
88	0xbed20bf9	-0.4102476
89	0x3ede5b9d	0.4342927
90	0xbeb34907	-0.35016653
91	0x3f3e8fbd	0.7443808
92	0x3f01c2e1	0.50687987
93	0xbedd5818	-0.43231273
94	0x3f1183f9	0.56842
95	0x3eff3281	0.4984322
96	0x3e085044	0.13311869
97	0x3f59d856	0.8509573
98	0xbe2b3504	-0.16719443
99	0xbdf3d9d9	-0.119067855
100	0xbfb24540	-1.3927383
101	0xbe942493	-0.28934154
102	0x3f23758b	0.6385123
103	0x3f01100b	0.50415105
104	0xbe32a22b	-0.17444675
105	0xbefa1e9c	-0.48851478
106	0xbea5a0d5	-0.32349268
107	0xbecc22af	-0.3987021
108	0xbf74812b	-0.95509595
109	0xbde0624a	-0.10956247
110	0xbf3dfb03	-0.7421114
111	0x3e4867d0	0.19570851
112	0x3c004901	0.0078299055
113	0xbd5b8d92	-0.05360181
114	0xbee2c12b	-0.44288
115	0x3eb5f334	0.35537112
116	0x3f1d0cea	0.6134783
117	0xbe4c8797	-0.19973598
118	0x3e82c7c2	0.25543028
119	0xbe447f6b	-0.19189231
