results/MoveToGoal12/MoveToGoal/checkpoint.pt (torch, 16255 bytes, 24 tensors)

network_body._body_endoder.seq_layers.0.weight f4 [20, 6]
000000 c0 3a 9f bd 07 8a 08 3f 41 64 f5 bd 20 d5 96 be
       -0.077748775 0.53335613 -0.119820125 -0.29459476
000010 c0 47 18 3e de 3b 68 bf 25 47 0d 3e cd dd 31 be
       0.1487112 -0.9071635 0.1379667 -0.17369767
000020 37 d9 7a be 83 93 4e bf a4 34 9b 3c 28 c1 b7 3c
       -0.24496923 -0.80693835 0.018946 0.022430971
000030 18 21 c0 be ec 68 01 3f 39 93 45 be f6 be 26 bf
       -0.3752525 0.50550723 -0.19294442 -0.65135133
000040 1b 32 30 3f 8e db 8c 3d f8 08 85 bf 37 30 0b bd
       0.68826455 0.06877814 -1.0393362 -0.033981528
000050 3a 7f cc 3d d5 cc 26 bf 43 13 c9 bd 7e 3c ba 3e
       0.09985204 -0.651563 -0.09818127 0.36374277
000060 c5 6a 02 be 8a ca af 3d 6f a4 88 be cf e8 0c 3d
       -0.12736042 0.08583553 -0.26687953 0.03440171
000070 99 49 ef 3c 76 3f ed be aa ba d2 be 88 73 30 be
       0.029209899 -0.4633748 -0.41158038 -0.17231572
000080 5a 99 fb bd 04 0e 46 3e 9a 4c 3b 3e ff 73 0d bf
       -0.12285109 0.19341284 0.1829094 -0.5525512
000090 c4 13 7e be aa 62 0f bf 91 c0 6c bd 53 9d 03 3f
       -0.24812227 -0.56009924 -0.057800833 0.5141193
0000a0 a2 33 0b be 5a a3 58 be f7 5b 98 be 78 fe 41 3e
       -0.13593915 -0.21156064 -0.29757664 0.18944728
0000b0 f7 fb 8e 3f 50 bd 05 be 56 1b 20 3c 7e bd 8a 3d
       1.1170644 -0.13060498 0.009772142 0.06774424
0000c0 ca af c4 bd 57 3b 99 be f9 54 12 be 13 44 bf 3d
       -0.096038416 -0.29928085 -0.14290227 0.09339156
0000d0 4f 2c fa 3e 1b 88 4d be a0 8d 08 bf 0d 55 dd 3c
       0.4886193 -0.20071451 -0.533411 0.027018094
0000e0 b9 f5 db 3e 51 06 b2 3e af 43 c0 3e 3a 35 6e 3e
       0.4296091 0.34770444 0.37551638 0.23262492
0000f0 21 a7 cb 3e a0 ce cf 3e c1 0b 8b 3e 1d 79 ac 3e
       0.39775947 0.4058733 0.27157405 0.33686152
000100 5a 01 96 3e 34 e8 4b be 55 26 87 be 99 f6 80 bf
       0.29297906 -0.19912797 -0.26396433 -1.0075256
000110 55 fe 3f bf 5b a5 8d bd bf b2 9e 3e 3a ef 82 3c
       -0.74997455 -0.06916305 0.30995747 0.015983213
000120 4d 63 c4 3d 9a fa 31 be ea 85 47 bf 83 20 eb 3e
       0.095892526 -0.17380753 -0.7793871 0.45923242
000130 64 7a 15 bf 8d fb 4a 3e c0 e4 fc 3e 7b 08 bf 3e
       -0.5838988 0.19822522 0.49393272 0.37311158
000140 7c cf 49 bf 40 04 0a bf 49 7a 25 3e 27 58 47 bd
       -0.7883222 -0.53912735 0.1615993 -0.048668053
000150 5f 00 36 be 05 8b 1e bd 5e 93 46 bd da ca a1 be
       -0.17773579 -0.038706798 -0.048480384 -0.31600076
000160 e3 00 26 3f 3b 54 1e 3e 27 f4 b9 bf 62 ec 26 bc
       0.64845103 0.15461819 -1.4527634 -0.010188194
000170 ef 78 e3 3d 48 15 9b 3e a3 45 0e 3f f3 97 06 bd
       0.111070506 0.30289674 0.5557501 -0.032859754
000180 23 5b 14 3f fb 8d 08 3e 56 f9 15 bf ef 0e 9d 3e
       0.57951564 0.13335411 -0.5858358 0.30675456
000190 ed 17 d8 3e 77 5a 73 3f d5 2b e0 be 65 f0 99 bd
       0.42205754 0.95059913 -0.4378344 -0.07516555
0001a0 95 37 1a 3f ed 87 24 3f 3f bc bb 3e f6 47 2c be
       0.6024106 0.64269906 0.36667058 -0.16824326
0001b0 e7 17 96 b7 d5 42 64 be 3c 4a 5f 3e da 8a 3d 3e
       -1.7892524e-05 -0.2229112 0.21805662 0.18509999
0001c0 09 42 28 3f 68 ea 0d 3e d1 e7 0d be 7e bd a7 3e
       0.6572576 0.1385895 -0.13857962 0.3276176
0001d0 7f 73 f9 3e ca c2 84 3e 44 d2 f3 3d bb 26 7f be
       0.4872093 0.25929862 0.11905339 -0.24917118

network_body._body_endoder.seq_layers.0.bias f4 [20]
000000 9f ec aa 3d 5d 83 a4 bc 42 d8 80 3d 3d 54 e5 3d
       0.08345913 -0.02008217 0.06291248 0.11197708
000010 93 1e 96 3d 87 df 00 3e 0f 3f 41 3e 93 ff 19 be
       0.0733005 0.12585269 0.18871711 -0.150389
000020 e8 f8 05 3e 51 39 1d 3e b8 77 d0 3d 61 c1 ba 3b
       0.13083231 0.15353896 0.101790845 0.005699322
000030 95 63 46 3e ed bc 9c 3c 8b bf 74 3d b4 5a 0b 3e
       0.19373925 0.019133056 0.059752982 0.13608819
000040 f9 8b 07 3d 16 d6 d8 bc b4 fa e0 3c b0 0f 94 bd
       0.033092473 -0.026469272 0.027463295 -0.07229555

action_model._continuous_distribution.log_sigma f4 [1, 2]
000000 5e 9f 86 be a0 db 25 bf
       -0.26293463 -0.64788246

action_model._continuous_distribution.mu.weight f4 [2, 20]
000000 09 ef d1 3d c1 cb ed bd 5a 3f a9 3d 32 47 96 bc
       0.102506705 -0.116111286 0.082640365 -0.018344495
000010 dc a6 ca 3d 49 5f 67 3e 60 0f 20 be 3b a0 58 bd
       0.09895107 0.22594942 -0.15630865 -0.052887183
000020 34 d5 2d 3e 8f 05 80 3d a6 aa aa 3d 2a 13 25 be
       0.16975862 0.0625106 0.0833333 -0.16120592
000030 56 e8 32 be 70 04 a3 3d 56 50 fc 3d db 00 a6 3d
       -0.17471442 0.07959831 0.1232001 0.08105632
000040 fd 76 99 bc d3 87 be 3c 62 6e 79 3d 92 24 15 bd
       -0.018733496 0.023258125 0.060896285 -0.03641183
000050 da 7e 79 bd 21 8e b2 bd f3 46 2b bb f1 9c 42 3e
       -0.06091199 -0.08718515 -0.0026134818 0.19005181
000060 35 f6 ad 3c 9e c6 1c 3c 34 58 23 3d a4 47 79 3e
       0.021235565 0.009568838 0.03987904 0.24343735
000070 45 86 05 3c d7 89 9c be de d6 44 bd e3 9b 70 be
       0.008149688 -0.30573913 -0.048056476 -0.23496966
000080 ef db 85 be ef 39 f8 3d ea 97 1d 3d 55 a2 b1 bd
       -0.2614436 0.12120425 0.038474955 -0.086735405
000090 49 6c 28 3e 81 77 56 be 1f 2e 2a be f9 1c 0b be
       0.16447558 -0.20944025 -0.16619156 -0.13585271

action_model._continuous_distribution.mu.bias f4 [2]
000000 63 b6 be 3d c8 d9 a5 bc
       0.09312131 -0.020245448

exp_avg f4 [20, 6]
000000 60 3d 18 39 c7 55 ad bc a2 df 2b 3c bb 67 d4 bb
       0.00014518714 -0.021159066 0.01049033 -0.006482092
000010 c7 55 ad bc 95 0a 51 3c 2d 9d 7e ba 4e d9 6f 39
       -0.021159066 0.012758871 -0.0009712752 0.00022873768
000020 3e 38 ac 39 a7 f4 92 38 4e d9 6f 39 c7 a0 10 b9
       0.000328483 7.0073926e-05 0.00022873768 -0.00013792804
000030 21 21 4a bb a7 41 2f bc b2 fd de 3b 78 c2 56 bb
       -0.00308425 -0.010696805 0.006805145 -0.003276972
000040 a7 41 2f bc c8 5b d3 3b 91 0b f5 39 56 74 3a bb
       -0.010696805 0.00645015 0.0004673866 -0.002845069
000050 b6 d9 a8 3a 4d 7b 64 ba 56 74 3a bb f8 dc e0 3a
       0.0012882266 -0.0008715883 -0.002845069 0.0017155698
000060 28 a1 b8 bb 2f f4 23 bc 0b a3 fb 3b d0 e8 48 bb
       -0.0056344457 -0.010006948 0.0076793483 -0.0030656345
000070 2f f4 23 bc 41 ba c5 3b 68 8a 26 bc a6 00 f7 bc
       -0.010006948 0.006034166 -0.010164835 -0.030151676
000080 60 66 a3 3c b8 56 17 bc a6 00 f7 bc 24 f1 94 3c
       0.019946277 -0.009236984 -0.030151676 0.018181391
000090 4a 00 a8 b9 b7 5c 20 bb 86 d7 b3 3a 18 82 44 ba
       -0.00032043672 -0.0024469325 0.0013720847 -0.0007496192
0000a0 b7 5c 20 bb 62 65 c1 3a 78 c8 00 3a e0 56 71 bb
       -0.0024469325 0.0014754946 0.00049126847 -0.0036825463
0000b0 cb 3c e9 3a 70 de 93 ba e0 56 71 bb f0 86 11 3b
       0.0017794607 -0.0011281502 -0.0036825463 0.0022205673
0000c0 52 ab 00 bc 99 38 b5 bc 97 6f 72 3c 95 11 de bb
       -0.007853346 -0.022121714 0.014797113 -0.0067769983
0000d0 99 38 b5 bc 43 8d 5a 3c cd 13 97 3c 81 e4 86 bd
       -0.022121714 0.0133393435 0.018442059 -0.065865524
0000e0 50 77 c9 3c 37 4c a5 bc 81 e4 86 bd 0d ae 22 3d
       0.024593025 -0.020177944 -0.065865524 0.03971677
0000f0 6d 2f c3 37 b5 b2 8c bc 12 24 0c 3c 67 69 ac bb
       2.3267896e-05 -0.017175058 0.008553522 -0.0052615884
000100 b5 b2 8c bc 63 ae 29 3c d5 49 11 bb a3 af ab 3a
       -0.017175058 0.010356518 -0.0022169251 0.0013098608
000110 0d 2e c3 39 75 62 d2 39 a3 af ab 3a 73 0d 4f ba
       0.0003722761 0.00040127677 0.0013098608 -0.00078984274
000120 8f 34 07 bb 51 b3 3c 3b fc e5 0f ba e5 3b 67 3a
       -0.0020630693 0.0028793404 -0.00054892874 0.00088208757
000130 51 b3 3c 3b 60 92 e3 ba c9 ba 41 bc 63 ef fe 3b
       0.0028793404 -0.0017362349 -0.011824318 0.007780002
000140 64 b7 e1 3a f5 32 1c 3b 63 ef fe 3b a6 b9 99 bb
       0.0017220792 0.0023834084 0.007780002 -0.0046913205
000150 53 f6 03 bc 72 2f 3a bc ce 03 1c 3c e0 26 64 bb
       -0.008054334 -0.011363851 0.0095223915 -0.003481321
000160 72 2f 3a bc e0 89 e0 3b 1f 41 37 3b 50 9b b6 bc
       -0.011363851 0.0068523735 0.00279624 -0.022290856
000170 ac 5a 20 3c 45 c4 df bb 50 9b b6 bc 0a 39 5c 3c
       0.009787243 -0.006828817 -0.022290856 0.013441334
000180 e3 03 27 bc c4 1c cb 3c f1 ec f7 bb fc e4 f8 3b
       -0.010193798 0.02479399 -0.0075660874 0.0075956564
000190 c4 1c cb 3c de f3 74 bc a1 96 69 3c e8 ab 16 bd
       0.02479399 -0.014950721 0.014257104 -0.036785036
0001a0 ce d3 3e 3c 18 a2 38 bc e8 ab 16 bd 8b b5 b5 3c
       0.011647178 -0.011269115 -0.036785036 0.022181293
0001b0 5b 19 22 3c 37 38 08 bd ed c0 42 3c 7a ec 26 bc
       0.0098937405 -0.033256736 0.011886817 -0.010188216
0001c0 37 38 08 bd ba 47 a4 3c 7b c1 3d 3c d2 64 63 bc
       -0.033256736 0.020053733 0.011581774 -0.013879018
0001d0 39 c6 b1 3a 11 53 8b bb d2 64 63 bc 31 1e 09 3c
       0.0013563103 -0.0042518456 -0.013879018 0.008369015

exp_avg_sq f4 [20, 6]
000000 f4 1c 36 39 c6 94 31 3c b8 f9 6f 3b 39 54 85 3a
       0.00017367658 0.010838693 0.003661735 0.0010172195
000010 c6 94 31 3c ac 23 81 3b bc db 1e 36 19 20 f8 38
       0.010838693 0.00394102 2.3671737e-06 0.0001183154
000020 51 f1 1e 38 21 4b 3a 37 19 20 f8 38 98 70 34 38
       3.789488e-05 1.1103956e-05 0.0001183154 4.3020205e-05
000030 4e e2 87 38 7a 93 79 3b f8 fa a9 3a 09 62 bb 39
       6.479454e-05 0.0038082288 0.0012968471 0.0003574046
000040 7a 93 79 3b a6 7e b5 3a 35 8f 24 36 a4 61 73 38
       0.0038082288 0.0013846948 2.4521262e-06 5.802665e-05
000050 af 86 76 37 62 bb b6 36 a4 61 73 38 68 fd b0 37
       1.4694101e-05 5.445837e-06 5.802665e-05 2.1098836e-05
000060 9e 2a f4 38 39 ee ce 3b a6 d3 0b 3b 5b 5d 1b 3a
       0.00011642765 0.0063150194 0.002133587 0.0005926692
000070 39 ee ce 3b 8a 7b 16 3b ef b4 13 3a d5 a6 07 3d
       0.0063150194 0.0022961819 0.0005634566 0.033118088
000080 84 1f 39 3c 29 b2 4b 3b d5 a6 07 3d 92 4b 45 3c
       0.011299018 0.0031081534 0.033118088 0.012041943
000090 b2 82 1a 36 46 c7 1e 39 9b 3c 58 38 4d 6c 6e 37
       2.3023863e-06 0.0001514229 5.1554856e-05 1.4211121e-05
0000a0 46 c7 1e 39 6a ee 66 38 58 45 66 37 f6 3e 67 39
       0.0001514229 5.5058314e-05 1.3725214e-05 0.00022053331
0000b0 f6 f6 59 38 de 9e ad 37 f6 3e 67 39 3e 2a a8 38
       5.1966832e-05 2.0697185e-05 0.00022053331 8.0187325e-05
0000c0 ec b7 ae 39 6b b5 9c 3c 3b 0d d5 3b ed 50 eb 3a
       0.000333249 0.019129476 0.0065018213 0.0017953195
0000d0 6b b5 9c 3c dd eb e3 3b 43 a5 ce 3a 2c a1 94 3d
       0.019129476 0.0069556073 0.0015765805 0.072573036
0000e0 50 9f b5 3c 0c 2f df 3b 2c a1 94 3d b6 2b d8 3c
       0.022170693 0.0068110283 0.072573036 0.02638803
0000f0 5c 21 f6 38 17 3d ee 3b 7f d3 20 3b 00 df 32 3a
       0.00011736408 0.007270466 0.0024540124 0.0006823391
000100 17 3d ee 3b 0a 40 2d 3b 55 8f 54 37 79 1e 24 3a
       0.007270466 0.0026435875 1.2669557e-05 0.00062606443
000110 af 51 53 39 59 71 76 38 79 1e 24 3a dd b2 6e 39
       0.00020152958 5.8756534e-05 0.00062606443 0.0002276408
000120 69 66 28 37 4f f8 09 3a 69 ac 25 39 58 2d 4f 38
       1.00374245e-05 0.0005263136 0.00015799854 4.9394876e-05
000130 4f f8 09 3a ce aa 48 39 53 b0 c3 39 63 11 91 3c
       0.0005263136 0.00019137116 0.0003732467 0.017708486
000140 98 f0 bc 3b 01 d6 d9 3a 63 11 91 3c ad fd d2 3b
       0.0057659857 0.0016619564 0.017708486 0.006438932
000150 fd f1 62 39 7d e7 3b 3c 3c 3a 7d 3b 3d 14 8d 3a
       0.00021643187 0.011468765 0.0038639447 0.0010763478
000160 7d e7 3b 3c 69 a5 88 3b fd 14 3b 39 dc 7e 3f 3c
       0.011468765 0.004170109 0.00017841528 0.0116879605
000170 3d 6b 81 3b 9c c6 8f 3a dc 7e 3f 3c 09 42 8b 3b
       0.0039495514 0.0010969224 0.0116879605 0.0042498154
000180 7c 13 d0 39 12 09 e8 3c 54 b2 1b 3c a9 36 2e 3b
       0.0003968737 0.028324638 0.009502966 0.0026582873
000190 12 09 e8 3c 39 bd 28 3c 3f d8 57 3a 1d 44 3a 3d
       0.028324638 0.01029902 0.00082338223 0.045475114
0001a0 43 7d 70 3c 82 d9 8b 3b 1d 44 3a 3d 7c 74 87 3c
       0.014678302 0.0042678723 0.045475114 0.016535036
0001b0 62 15 3a 3a 07 8a 23 3d 7b 04 58 3c 55 92 75 3b
       0.0007098523 0.039926555 0.013184662 0.0037471254
0001c0 07 8a 23 3d f3 da 6d 3c 58 44 e4 39 61 bf bc 3c
       0.039926555 0.014517534 0.0004353847 0.023040475
0001d0 38 b9 f8 3b 6f b6 0d 3b 61 bf bc 3c 67 42 09 3c
       0.007590439 0.0021623631 0.023040475 0.008377648

exp_avg f4 [20]
000000 d1 38 40 bb d4 fd 04 38 47 5a c2 ba 4e c5 ce b9
       -0.002933074 3.170765e-05 -0.001482793 -0.00039438385
000010 87 d1 b5 ba 49 f5 88 bb de d5 b1 b9 67 d1 05 ba
       -0.0013871648 -0.004179631 -0.00033919414 -0.0005104751
000020 97 f7 48 bb 36 97 15 bc 58 07 1c bb b4 64 3e 39
       -0.0030665153 -0.00913029 -0.0023808088 0.00018157327
000030 f3 42 d1 39 4b 5b 8d 3a e9 78 ce ba f8 80 4a bb
       0.00039913467 0.0010784654 -0.0015752587 -0.0030899625
000040 69 3e 61 3b be 16 a7 bb f0 0f 97 bb c6 2b fc ba
       0.0034369475 -0.0050991466 -0.004610054 -0.001923912

exp_avg_sq f4 [20]
000000 6f 63 5a 39 56 92 18 36 c1 76 99 38 90 a7 95 35
       0.00020827142 2.2734944e-06 7.317728e-05 1.1150132e-06
000010 91 7b fe 38 ec d2 26 3a c8 43 43 36 44 31 8e 36
       0.0001213468 0.0006363827 2.9096718e-06 4.237665e-06
000020 4c b8 c0 39 af c8 b6 3a f9 7d 12 39 38 d5 49 37
       0.00036758406 0.0013945306 0.00013970573 1.20301775e-05
000030 cb ac 29 37 90 67 b2 39 51 15 67 39 04 80 6b 39
       1.01134165e-05 0.00034027966 0.00022037818 0.00022459036
000040 9d ad 0e 3a b5 11 65 3a 96 1e 49 3a f3 1e e8 39
       0.00054427405 0.00087382953 0.0007672099 0.00044273547

exp_avg f4 [1, 2]
000000 25 14 97 3d fe 37 2c 3d
       0.07376889 0.042045586

exp_avg_sq f4 [1, 2]
000000 5f 98 89 3c b6 6e 76 3c
       0.016796289 0.015041044

exp_avg f4 [2, 20]
000000 db 5d 1d be d7 97 a0 3b 09 fb fc bd 3e a1 84 ba
       -0.15367834 0.004900913 -0.12352569 -0.0010118855
000010 f7 cc 8b bd c1 bb 35 bd 29 19 1a 3b 10 ed 87 39
       -0.06826203 -0.04436851 0.0023513532 0.00025925832
000020 94 82 4f bd ae 5e 31 3c 16 75 e6 bd 20 7c 6c 3b
       -0.05066164 0.010825796 -0.11252801 0.0036084726
000030 d8 2d ae 3b 31 54 0b be 25 d0 46 bd a2 57 8a bc
       0.0053155236 -0.13606335 -0.048538346 -0.01688749
000040 d1 5f a4 bd 6e f2 e2 ba be f8 f7 bc 76 ad 13 bd
       -0.08026088 -0.0017314681 -0.030269977 -0.036054097
000050 41 2b 2a 3e 26 f2 2d bb a5 c2 27 3e 5a c2 ae bb
       0.16618063 -0.0026542037 0.16382845 -0.005333227
000060 c0 16 97 3d 1b e7 b7 3d 60 12 a2 bb e5 9b bf bb
       0.07377386 0.08979627 -0.004946038 -0.0058474415
000070 79 88 6e 3d d5 51 8d 3d 2c 1d b8 3d 88 d5 40 bb
       0.05823562 0.06900374 0.08989939 -0.002942415
000080 84 ff 88 ba 5e 30 43 3d b5 f3 91 3d 16 85 42 3e
       -0.0010452126 0.04765355 0.071265616 0.18996081
000090 75 1d 69 bc e9 86 b3 3d 39 a7 35 3d 32 dd a7 3d
       -0.0142282145 0.087659664 0.04434893 0.081964865

exp_avg_sq f4 [2, 20]
000000 00 5a 5d 3f 54 11 1d 3a 5d ba 28 3f 39 5c 55 38
       0.86465454 0.0005991657 0.6590937 5.0869046e-05
000010 a8 2c 34 3e 93 28 03 3e 2c 6b cb 39 25 d6 f4 38
       0.1759516 0.12808447 0.00038799027 0.00011674714
000020 1a ba cb 3d 9a 73 40 3c 2f b0 b5 3e 78 b0 11 3a
       0.099476054 0.011746312 0.3548598 0.0005557607
000030 62 b5 28 3a f7 9b d8 3e 17 d9 d9 3d f0 17 70 3e
       0.00064357196 0.42306492 0.1063711 0.23446631
000040 d9 12 b1 3d 43 88 09 3d bc 5b 26 3d bd cb af 3d
       0.08646173 0.033577215 0.04061483 0.08583782
000050 f6 78 d9 3f 53 61 97 3a 29 59 a7 3f 56 3b 08 39
       1.6990039 0.0011549391 1.3074085 0.00012992075
000060 27 20 b1 3e df b4 84 3e b5 3f 4d 3a 71 6c 86 39
       0.34594843 0.25919244 0.00078296225 0.00025639267
000070 33 e0 48 3e 35 60 e0 3c 08 9e 30 3f b1 e9 8c 3a
       0.19616775 0.027389625 0.68991137 0.0010750798
000080 3c 13 a1 3a bc 9b 4d 3f b5 e6 59 3e bd 27 00 3f
       0.0012289057 0.80315757 0.21279414 0.50060636
000090 9f 78 24 3e 83 20 96 3d fa da a4 3d d8 5c 32 3e
       0.16061638 0.0733042 0.08049579 0.1741823

exp_avg f4 [2]
000000 ec 3c 91 bc 48 c9 9a 3c
       -0.017729245 0.018894807

exp_avg_sq f4 [2]
000000 d1 00 36 3c 38 07 b3 3c
       0.011108593 0.021854028

exp_avg f4 [20, 6]
000000 11 c5 a4 37 0e bb 09 b9 ef ac 5c 38 87 c6 28 b8
       1.964209e-05 -0.00013135021 5.2613144e-05 -4.0239214e-05
000010 0e bb 09 b9 43 1a a6 38 fc de 1d b6 08 f7 2d 38
       -0.00013135021 7.9203885e-05 -2.3524617e-06 4.147648e-05
000020 dc 77 9d b7 51 2d 55 37 08 f7 2d 38 09 cd d1 b7
       -1.8771672e-05 1.270634e-05 4.147648e-05 -2.5010218e-05
000030 c1 cc 0d 39 d4 a4 64 ba 37 c9 b5 39 20 17 8c b9
       0.00013523085 -0.0008722071 0.00034672927 -0.0002672011
000040 d4 a4 64 ba 2b df 09 3a bf 07 ed 38 36 c9 47 ba
       -0.0008722071 0.000525939 0.000113024835 -0.00076212303
000050 e5 5f a0 39 76 d1 74 b9 36 c9 47 ba e0 f0 f0 39
       0.00030589025 -0.00023347684 -0.00076212303 0.00045955833
000060 53 c8 3a b9 e8 b8 94 3a 90 eb ed b9 a2 3e b6 39
       -0.00017812969 0.001134661 -0.0004537967 0.0003476041
000070 e8 b8 94 3a bf 5b 33 ba f9 54 f0 b6 5c d3 6f 38
       0.001134661 -0.00068419793 -7.1624495e-06 5.7178884e-05
000080 16 82 c7 b7 04 f1 92 37 5c d3 6f 38 45 9d 10 b8
       -2.3783225e-05 1.7516788e-05 5.7178884e-05 -3.4478744e-05
000090 13 95 09 34 92 2f 7a b5 6d c6 cd 34 05 4a 99 b4
       1.2813352e-07 -9.320148e-07 3.83286e-07 -2.8552327e-07
0000a0 92 2f 7a b5 8a dc 16 35 0f 9d 14 36 3b bf c1 b6
       -9.320148e-07 5.620028e-07 2.2145139e-06 -5.7741104e-06
0000b0 03 bd d8 35 02 6b ed b5 3b bf c1 b6 70 a8 69 36
       1.6148264e-06 -1.7689019e-06 -5.7741104e-06 3.481775e-06
0000c0 53 8f 05 38 29 41 f4 38 47 46 94 b8 b2 a7 15 38
       3.1843152e-05 0.00011646964 -7.07028e-05 3.5680547e-05
0000d0 29 41 f4 38 f1 48 93 b8 14 5f c6 37 6f 93 2b b9
       0.00011646964 -7.0230926e-05 2.3647714e-05 -0.00016362754
0000e0 9b 4c 8a 38 de 3f 52 b8 6f 93 2b b9 75 eb ce 38
       6.594622e-05 -5.0127383e-05 -0.00016362754 9.866703e-05
0000f0 16 89 27 39 7a 29 84 ba c1 a4 d1 39 9d f3 a1 b9
       0.0001597743 -0.0010083162 0.00039986338 -0.0003088982
000100 7a 29 84 ba 02 63 1f 3a 3f ef 90 38 18 76 ed b9
       -0.0010083162 0.0006080122 6.911018e-05 -0.0004529215
000110 b0 87 3d 39 2c 7e 11 b9 18 76 ed b9 4c 30 8f 39
       0.00018074992 -0.0001387528 -0.0004529215 0.0002731107
000120 a2 62 fe 38 60 9f 59 ba 30 11 af 39 6d 56 85 b9
       0.000121300356 -0.0008301642 0.00033391407 -0.0002543213
000130 60 9f 59 ba d6 39 03 3a f6 bc cd b8 b1 62 28 3a
       -0.0008301642 0.00050058716 -9.8103585e-05 0.00064233976
000140 e5 67 86 b9 0b 57 4e 39 b1 62 28 3a 7b 12 cb b9
       -0.0002563588 0.00019678117 0.00064233976 -0.00038732946
000150 70 04 c5 38 b0 c3 1d ba b4 e4 7a 39 27 53 41 b9
       9.3945186e-05 -0.00060182344 0.00023927056 -0.00018436891
000160 b0 c3 1d ba 5b 43 be 39 76 4b 40 b9 71 ba 3f 3a
       -0.00060182344 0.00036289808 -0.00018338658 0.0007313854
000170 6c 3d 84 b9 c0 f1 6a 39 71 ba 3f 3a 32 39 e7 b9
       -0.00025222765 0.00022406038 0.0007313854 -0.00044102367
000180 89 28 c7 36 1e 2c 39 b8 a1 50 96 37 1a e9 62 b7
       5.935381e-06 -4.4148524e-05 1.791894e-05 -1.3524923e-05
000190 1e 2c 39 b8 25 51 df 37 4e 65 d7 38 0f a7 a1 b9
       -4.4148524e-05 2.6621457e-05 0.000102708684 -0.0003083278
0001a0 1d c7 d3 38 e7 16 c6 b8 0f a7 a1 b9 c9 f3 42 39
       0.00010098352 -9.4456416e-05 -0.0003083278 0.00018592099
0001b0 b0 1d d8 34 d1 6c 70 36 f9 f0 fa b5 07 4f 93 35
       4.0254736e-07 3.5826126e-06 -1.8696584e-06 1.0975353e-06
0001c0 d1 6c 70 36 ce f9 10 b6 99 69 2d b9 25 a7 8d 3a
       3.5826126e-06 -2.1603078e-06 -0.00016537904 0.0010807259
0001d0 78 20 e2 b9 f2 94 ad 39 25 a7 8d 3a 32 d5 2a ba
       -0.0004313027 0.00033108104 0.0010807259 -0.0006516754

exp_avg_sq f4 [20, 6]
000000 e8 f0 ad 33 93 82 ca 35 83 79 cb 34 a3 0b 18 34
       8.099761e-08 1.5088175e-06 3.7900108e-07 1.4160337e-07
000010 93 82 ca 35 87 44 13 35 47 20 38 32 26 e6 a9 34
       1.5088175e-06 5.486149e-07 1.0717549e-08 3.1646158e-07
000020 7a 16 9b 33 04 1f ff 32 26 e6 a9 34 e9 1a f7 33
       7.2218384e-08 2.9700011e-08 3.1646158e-07 1.1506729e-07
000030 bb ac 5f 36 70 4e 8f 38 b7 97 8d 37 81 30 d7 36
       3.3330132e-06 6.8333815e-05 1.6879158e-05 6.413146e-06
000040 70 4e 8f 38 81 6d d0 37 e0 9f 3b 36 81 4f 57 38
       6.8333815e-05 2.4846524e-05 2.795823e-06 5.133404e-05
000050 38 cd 58 37 05 a8 a1 36 81 4f 57 38 97 93 9c 37
       1.29223845e-05 4.817734e-06 5.133404e-05 1.8665376e-05
000060 8f c5 7b 36 7b cb d4 38 28 39 be 37 71 c4 1f 37
       3.7516909e-06 0.00010146849 2.267638e-05 9.522876e-06
000070 7b cb d4 38 5c bf 1a 38 a5 17 92 32 b0 67 82 34
       0.00010146849 3.689468e-05 1.700739e-08 2.428983e-07
000080 29 a5 87 33 25 d1 c3 32 b0 67 82 34 ed a9 bd 33
       6.31647e-08 2.2796096e-08 2.428983e-07 8.831908e-08
000090 2b 1e c2 2d 87 e6 c9 2e 09 59 d2 2d 8c 96 17 2d
       2.2068644e-11 9.1813716e-11 2.3913775e-11 8.616784e-12
0000a0 87 e6 c9 2e 23 d3 12 2e b9 0b db 2f e1 bf 0c 31
       9.1813716e-11 3.3384084e-11 3.9844197e-10 2.0481752e-09
0000b0 f3 0d 6e 2f e9 59 53 2f e1 bf 0c 31 aa b5 4c 30
       2.165093e-10 1.9222281e-10 2.0481752e-09 7.447293e-10
0000c0 76 1c 2d 36 bc 11 02 37 c5 23 80 36 50 50 43 35
       2.5795575e-06 7.752733e-06 3.8188614e-06 7.276003e-07
0000d0 bc 11 02 37 fe 2c 3d 36 b9 ad 05 34 61 cc 1f 36
       7.752733e-06 2.8189384e-06 1.244979e-07 2.381181e-06
0000e0 f0 66 22 35 93 f4 6f 34 61 cc 1f 36 48 6a 68 35
       6.0499497e-07 2.2347585e-07 2.381181e-06 8.6581394e-07
0000f0 2a 69 8d 36 15 42 b8 38 e7 d5 b0 37 92 57 0a 37
       4.21437e-06 8.7861124e-05 2.1080441e-05 8.24583e-06
000100 15 42 b8 38 a3 fe 05 38 c9 5a 83 35 59 37 99 37
       8.7861124e-05 3.194682e-05 9.786683e-07 1.8264795e-05
000110 7f fd 98 36 48 12 e6 35 59 37 99 37 5c d7 de 36
       4.559464e-06 1.7141656e-06 1.8264795e-05 6.6411867e-06
000120 95 0a 54 36 42 12 83 38 96 d0 83 37 6d d1 c4 36
       3.1596621e-06 6.2499676e-05 1.5713547e-05 5.8656356e-06
000130 42 12 83 38 19 a2 be 37 9c 16 06 36 a3 64 1b 38
       6.2499676e-05 2.2725248e-05 1.9980716e-06 3.7048605e-05
000140 15 36 1b 37 18 57 69 36 a3 64 1b 38 fe 01 62 37
       9.251312e-06 3.47704e-06 3.7048605e-05 1.3471114e-05
000150 27 10 dc 35 69 53 02 38 10 a7 00 37 f4 b2 43 36
       1.6395978e-06 3.1072097e-05 7.668292e-06 2.9161429e-06
000160 69 53 02 38 99 8c 3d 37 77 99 28 36 14 ea 7b 38
       3.1072097e-05 1.1298013e-05 2.512328e-06 6.0061066e-05
000170 18 6f 5b 37 6f 23 bd 36 14 ea 7b 38 02 32 b7 37
       1.3079283e-05 5.636764e-06 6.0061066e-05 2.1838587e-05
000180 75 93 91 31 d5 dd 7e 33 23 d5 89 32 0a 5b bf 31
       4.2368193e-09 5.934074e-08 1.6045822e-08 5.5691816e-09
000190 d5 dd 7e 33 a3 57 b9 32 b2 a3 20 35 92 11 02 37
       5.934074e-08 2.1576687e-08 5.984285e-07 7.752695e-06
0001a0 92 a3 a8 35 e3 4f 43 35 92 11 02 37 bd 2c 3d 36
       1.2564581e-06 7.275941e-07 7.752695e-06 2.8189236e-06
0001b0 68 73 5b 31 f9 48 07 32 70 13 93 31 66 25 4b 30
       3.1934295e-09 7.874626e-09 4.280473e-09 7.3904116e-10
0001c0 f9 48 07 32 17 c3 44 31 0a b1 be 36 28 37 d9 38
       7.874626e-09 2.863265e-09 5.6830513e-06 0.0001035764
0001d0 31 a1 d8 37 39 16 23 37 28 37 d9 38 38 f6 1d 38
       2.5824267e-05 9.720731e-06 0.0001035764 3.7661026e-05

exp_avg f4 [20]
000000 f0 bc 98 b7 9f eb c0 36 a3 8e fd b8 0f 8e dd b8
       -1.8207793e-05 5.749476e-06 -0.00012090548 -0.00010564562
000010 62 ed 24 39 8a fa 04 37 25 b9 0a b4 9f db 56 b5
       0.00015728691 7.926146e-06 -1.2919607e-07 -8.0040803e-07
000020 38 6f 87 37 63 45 be b7 02 90 12 b9 f1 aa 83 b8
       1.6145044e-05 -2.2682076e-05 -0.00013977292 -6.278407e-05
000030 c4 55 f1 b8 a7 bb ba 38 61 f4 ae b8 8d 9e d4 38
       -0.000115077506 8.904124e-05 -8.342486e-05 0.0001013848
000040 54 59 cd b6 33 44 33 b8 a1 4f 05 35 6d 16 1d 39
       -6.1198753e-06 -4.274044e-05 4.9662236e-07 0.00014981041

exp_avg_sq f4 [20]
000000 b8 0b f9 32 ad f0 d0 31 b4 3c b0 35 f5 64 84 35
       2.8992744e-08 6.0809584e-09 1.3130689e-06 9.864149e-07
000010 e1 d8 02 36 ff 5e a0 31 23 4c f8 2b c6 17 2d 2e
       1.949775e-06 4.6674127e-09 1.7642592e-12 3.935676e-11
000020 65 f5 1f 34 e8 84 44 33 5d 99 e2 35 aa 6c bc 34
       1.4897303e-07 4.5755684e-08 1.6882947e-06 3.5096792e-07
000030 ed 30 a1 35 03 1a 3f 35 25 46 20 35 c3 e6 9a 35
       1.2009674e-06 7.1190897e-07 5.970672e-07 1.1541055e-06
000040 85 b7 9c 30 16 f5 1f 34 99 5f 26 2f b3 90 05 36
       1.1402653e-09 1.489719e-07 1.5131575e-10 1.990277e-06

exp_avg f4 [1, 20]
000000 f5 87 ba ba 69 62 5d 38 d5 09 c6 b9 bb 7c fc b9
       -0.0014231192 5.2782158e-05 -0.00037772828 -0.00048158117
000010 37 b9 51 ba 35 c5 0b 38 12 80 27 36 42 b1 a0 36
       -0.00080003164 3.3323846e-05 2.4959486e-06 4.789007e-06
000020 5c f6 84 38 5e 09 df b9 d9 93 f1 b9 1e f3 03 bb
       6.3401385e-05 -0.00042540854 -0.00046077257 -0.0020133923
000030 b4 d5 a4 ba a3 f5 06 bb f5 8a 67 ba dd f9 58 b9
       -0.0012575896 -0.0020593188 -0.0008832657 -0.00020692447
000040 45 de 7c 38 df 3a cb b9 c3 4e 25 36 3b 6a 96 ba
       6.0288487e-05 -0.0003876304 2.4632761e-06 -0.0011475751

exp_avg_sq f4 [1, 20]
000000 39 9b 42 39 a9 35 51 34 79 41 68 37 28 df 98 37
       0.00018559107 1.9484163e-07 1.3843522e-05 1.8223727e-05
000010 83 bc 00 38 3d 39 ba 33 aa f2 0a 30 69 0e c7 30
       3.0693143e-05 8.6717115e-08 5.0548954e-10 1.4483251e-09
000020 e1 39 21 35 bc 83 a0 37 f6 38 78 37 a8 1a c3 39
       6.00614e-07 1.913483e-05 1.4795214e-05 0.0003721316
000030 23 f3 fb 38 a8 0e cf 39 a7 01 c7 38 17 3b b1 36
       0.000120139004 0.00039493036 9.489367e-05 5.28189e-06
000040 fb c9 06 35 b6 5c eb 36 3d 02 9b 32 a8 ce 0d 39
       5.021281e-07 7.0143387e-06 1.8045393e-08 0.00013523793

network_body._body_endoder.seq_layers.0.weight f4 [20, 6]
000000 d7 e3 d6 be 09 1a 25 3f f3 c8 9d be 74 ff a5 be
       -0.41970703 0.6449285 -0.30817375 -0.32421458
000010 2f b0 8c be 91 4f c9 be 46 d0 d9 be 67 62 65 be
       -0.27478167 -0.39318517 -0.42541713 -0.22400819
000020 6f f7 4f 3e a1 8e bd be 1b 82 5a 3e 97 db b9 3e
       0.20309232 -0.3702288 0.21338694 0.36300346
000030 d9 0b 07 be 48 aa 19 bf 2a 82 31 be 0f d5 ec 3d
       -0.13188113 -0.60025454 -0.1733481 0.11564075
000040 5e ec 04 3f a5 87 94 be 3b 43 95 3e bd b1 68 be
       0.5192317 -0.2900974 0.29152855 -0.22724052
000050 78 bb a5 3e 6a ae 46 3d 50 d2 b5 3e 7d d4 fb be
       0.3236959 0.048506178 0.35512018 -0.49185553
000060 18 3b 25 be 5a 87 7c 3d 46 ff 8a 3f 99 1e 28 be
       -0.16135824 0.06165252 1.0859153 -0.16417922
000070 81 46 70 3f 43 3b 60 3e 88 92 b6 3e ce a4 aa 3e
       0.9385758 0.21897607 0.3565867 0.3332886
000080 0d bd fa 3e ad 02 0c bf 71 10 4a be e8 4a 8d 3e
       0.4897236 -0.5469158 -0.19732834 0.2759621
000090 af 99 99 3e 74 c0 09 bf 21 15 03 3f 41 21 32 3c
       0.30000064 -0.53809285 0.51204115 0.010872186
0000a0 78 c1 8e 3d 35 db a5 3e b2 7f 1b bf cd e5 3b be
       0.06970495 0.32393804 -0.6074172 -0.18349381
0000b0 36 67 8f 3e a2 ce 59 be 48 f1 c0 be 3b b7 dc 3e
       0.2800843 -0.2127023 -0.37684083 0.43108544
0000c0 d9 99 53 3e 81 7c 1e 3e 81 4a 39 be d9 cd 9e bd
       0.20664157 0.15477182 -0.18094827 -0.07754106
0000d0 3f 24 a7 be c5 53 cd bc 34 26 a5 3d 87 e5 11 3e
       -0.3264484 -0.025064358 0.08063927 0.14247714
0000e0 19 df 0f be ce f2 28 be b6 02 47 3e d1 a2 28 3e
       -0.14049949 -0.16498873 0.19434628 0.1646836
0000f0 90 12 87 bc e0 b7 04 bd 87 7c 90 3e 94 90 14 3e
       -0.016488343 -0.03240192 0.28220007 0.14508277
000100 db 21 dc 3e f6 d7 02 3e 60 51 e6 3d 24 fd f4 3e
       0.4299458 0.12777695 0.1124599 0.4784938
000110 c8 cd b7 bd d4 f7 bf be 58 98 53 3e 97 90 24 bf
       -0.089747965 -0.37493765 0.20663583 -0.64283127
000120 4c 74 7e be 75 11 2c 3f 62 b2 cd 3e 0a c8 a2 3e
       -0.24849051 0.6721414 0.40175158 0.31793243
000130 f3 fb 86 bd 3c e2 4c bd b4 5d 5e 3e 56 f6 25 bf
       -0.06591024 -0.05002044 0.21715432 -0.64829004
000140 2b 70 64 bd 83 d3 11 3f b1 4f 81 3f fe 9b 49 bf
       -0.055771034 0.56963366 1.0102445 -0.7875365
000150 3a e0 4e be b4 57 10 3e dc b1 56 bf a0 95 16 be
       -0.20202723 0.14095956 -0.8386514 -0.14705515
000160 1c db 87 3c 32 26 80 3d ec 42 3b bf b6 f6 b5 be
       0.016583972 0.06257285 -0.7314899 -0.35539788
000170 cf 11 18 bf 41 8a 9f bd c0 d4 28 be fb e8 fe be
       -0.59402174 -0.07790042 -0.16487408 -0.49787125
000180 a3 50 19 bf d5 6e 7f 3d 01 49 50 bf 1b 6f c7 3e
       -0.59888667 0.062361557 -0.81361395 0.38951954
000190 60 36 52 be 1d 57 97 3f b5 7a 88 bf ef 87 96 3d
       -0.20528555 1.182346 -1.0662447 0.07350146
0001a0 b6 96 b1 3d f8 b0 2f 3f 0f 7c 2b be 7e 6f 3e 3e
       0.08671324 0.6862941 -0.16746543 0.18597218
0001b0 3a 73 ca 3e 96 41 1a bf e7 94 42 bf 1b d6 0a 3f
       0.39541036 -0.60256326 -0.76008457 0.5423295
0001c0 9d ea 17 be 80 a1 93 3f 57 d0 5a be 59 9c 6b 3d
       -0.14835592 1.1533661 -0.21368538 0.05752215
0001d0 0a 7f 02 bf 60 8c 81 3e ca e3 16 3f 3e 48 27 3f
       -0.50975096 0.2530241 0.5894133 0.6534461

network_body._body_endoder.seq_layers.0.bias f4 [20]
000000 14 d6 fc 3b 2e a2 68 3d d5 5e 9a 3c 3a f9 87 3c
       0.00771595 0.05679529 0.018844048 0.016598333
000010 ee 51 a2 3b b0 84 b7 bd f0 cb 57 bd 66 55 34 bd
       0.0049536144 -0.08960855 -0.052684724 -0.044026755
000020 85 75 11 bd 31 03 ac 3d 29 35 dc 3c 59 b8 39 3c
       -0.035512466 0.08399046 0.026880817 0.011335456
000030 79 90 6c 3d b1 8f 3f bc c5 2b 39 3d 40 6a d7 3d
       0.057754967 -0.011691974 0.045207758 0.105183125
000040 92 8d 3b 3d aa 5e 75 3d 53 ad 9d 3c 9e 26 12 bc
       0.04578931 0.05990473 0.019247686 -0.00892034

value_heads.value_heads.extrinsic.weight f4 [1, 20]
000000 89 bc 7e 3d 4b a0 c0 3e 11 9f cd 3e a5 0a af 3e
       0.06219152 0.37622294 0.4016042 0.3418781
000010 7a a2 05 bf 52 26 b8 3e 45 9d 7a bd 2c a7 55 be
       -0.52201045 0.35966736 -0.06118514 -0.20864552
000020 c1 37 04 bf d2 57 99 3d e3 6b e9 3e a6 f4 5f 3e
       -0.51647574 0.074874535 0.45590124 0.2187067
000030 d0 a3 c5 3e cb a2 9e be 44 94 8a 3e c0 3f e5 be
       0.38601542 -0.30983576 0.27066243 -0.447752
000040 1c 3a 69 be 81 33 64 3e ef 03 7a 3e 94 87 ff be
       -0.22776073 0.22285272 0.24415563 -0.49908125
