results/MoveToGoal5/MoveToGoal/MoveToGoal-162896.onnx (onnx, 72639 bytes, 7 tensors)

action_model._continuous_distribution.log_sigma f4 [1, 2]
-0.020036403 -0.06320202
00000000: 6223 a4bc 1070 81bd

action_model._continuous_distribution.mu.bias f4 [2]
0.00081238983 -0.00055088
00000000: 8ff6 543a ee68 10ba

action_model._continuous_distribution.mu.weight f4 [2, 128]
0.008105416 0.008179577 -0.01016632 -0.020353166 0.03186363 -0.016118515 0.00024001517 -0.0062435423
0.014509627 0.026487412 -0.021973638 0.014607372 0.020034725 -0.016878324 0.004769822 -0.028551126
-0.017152796 0.00092066755 0.0003015284 -0.029173521 0.042037796 -0.015892379 0.022763647 -0.014629226
-0.014265986 0.02288738 -0.015103717 -0.03370095 -0.0078886775 -0.0070542083 -0.015233861 -0.025541645
0.014261532 0.02702373 -0.01715839 -0.022663165 -0.0016420513 0.022961162 -0.021549549 0.0028099644
-0.008596593 -0.0014923755 0.027721934 -0.008128566 0.011833662 0.002653692 -0.003928908 0.00042885964
0.042724747 -0.043071304 -0.005385656 0.04253297 0.010022468 0.01508725 0.019327058 -0.021602198
4.0860807e-05 0.021118179 -0.030194359 0.024609802 0.016139805 0.002510373 -0.019701006 -0.008075147
-0.015189274 0.009530989 0.014579619 -0.04201225 -0.0077831247 0.019173978 -0.017018389 -0.008034616
0.03389596 -0.02851767 0.0019820966 -0.0029388794 -0.023843912 0.010871594 -0.015882833 0.024824474
0.029279051 -0.012904138 0.033291265 -0.0058841505 -0.019702157 -0.009894154 -0.019019173 -0.02144731
0.00085791433 -0.007819905 -0.016565884 -0.042029727 -0.03478724 -0.03725819 0.0066413735 -0.011963723
-0.017655259 0.0155100515 0.0070813284 -0.025874306 0.03486902 0.03078167 -0.015244307 -0.014735522
-0.031169504 -0.015056274 -0.0053795106 0.028728263 0.017662587 -0.016718375 0.03220213 -0.0046014036
0.00043722894 -0.016871436 0.00462742 -0.010866589 0.0165614 0.016808411 -0.024194807 0.03177281
-0.03008949 -0.00768392 0.0012582577 0.009098014 -0.038306493 0.003314525 0.018409992 0.017962463
-0.024749592 -0.018023916 0.018668959 -0.013799497 -0.035444565 0.038145464 0.032704152 0.013254572
0.016985686 -0.0057181474 -0.015260029 -0.044273756 -0.009130315 0.04505571 -0.029532759 -0.010393677
-0.0047152005 -0.04264803 -0.04245979 -0.0075682183 0.031476274 -0.009104345 -0.011989482 -0.009031702
0.0014063806 -0.012868862 0.0204175 0.008851508 -0.0052317358 0.016874813 0.014215272 0.02084313
-0.044856846 0.013230616 -0.046024445 -0.016580079 -0.033013463 -0.0075395196 0.025924956 0.020507881
-0.0060881334 0.0013182649 -0.02059456 0.01170707 -0.0209508 0.011325425 -0.052220408 0.0053354055
0.017697757 -0.025800442 0.0038394805 -0.018655047 0.0025275531 -0.047902845 0.008999737 -0.015403955
-0.0060493764 0.012940706 -0.021076176 0.017201312 0.009038673 0.024849622 0.009341019 0.0039790687
-0.0015972883 0.03389019 0.0059897616 0.0013154586 0.0195184 -0.01733325 0.009596916 -0.018256672
-0.042515118 -0.015506163 0.0029089039 0.015987687 0.026093474 0.016516263 -0.024800953 -0.022681063
0.00879739 0.005952774 -0.018992934 -0.04847038 0.01731146 -0.016632728 -0.0040086964 -0.011541216
0.009470137 -0.020619044 -0.027049806 0.00509926 -0.048422303 -0.0007875895 -0.006896236 0.0103285145
0.020807924 0.019360237 0.012756302 0.01443769 -0.01596446 0.0041750027 -0.014358815 -0.020687258
-0.01185446 -0.010027714 -0.022016354 -0.0141916 0.03543732 -0.021885134 0.032667458 -0.01925292
-0.024432048 -0.0021951234 -0.018335775 5.0375835e-05 0.02906768 0.001358555 0.009855284 0.026635783
0.06592041 -0.01149329 0.018333765 0.019416673 -0.0071573113 -0.035514154 0.016256075 0.00222496
00000000: 94cc 043c a203 063c a390 26bc afbb a6bc
00000010: 7083 023d fa0a 84bc 95ac 7b39 a196 ccbb
00000020: c9b9 6d3c 21fc d83c 0f02 b4bc c253 6f3c
00000030: dd1f a43c 6944 8abc 2b4c 9c3b 0de4 e9bc
00000040: 0584 8cbc f458 713a 7516 9e39 4ffd eebc
00000050: d32f 2c3d bc30 82bc d47a ba3c 6caf 6fbc
00000060: e2bb 69bc 517e bb3c 9575 77bc 020a 0abd
00000070: 833f 01bc fd26 e7bb 7297 79bc b63c d1bc
00000080: 33a9 693c df60 dd3c c08f 8cbc 1aa8 b9bc
00000090: 193a d7ba 0c19 bc3c ae88 b0bc 6127 383b
000000a0: b9d8 0cbc d09b c3ba 1c19 e33c ad2d 05bc
000000b0: fae1 413c 90e9 2d3b 12be 80bb 91d8 e039
000000c0: 2500 2f3d 896b 30bd 287a b0bb 0d37 2e3d
000000d0: 4735 243c 8330 773c c753 9e3c 18f7 b0bc
000000e0: f561 2b38 0800 ad3c 295a f7bc 7f9a c93c
000000f0: a037 843c 1285 243b 0164 a1bc 9f4d 04bc
00000100: 6fdc 78bc de27 1c3c 5bdf 6e3c 0915 2cbd
00000110: 9509 ffbb bf12 9d3c 266a 8bbc 9fa3 03bc
00000120: 7dd6 0a3d e49d e9bc 10e6 013b 379a 40bb
00000130: 4f54 c3bc c51e 323c b71c 82bc b25c cb3c
00000140: 9fda ef3c e16b 53bc 6c5c 083d d5cf c0bb
00000150: 6b66 a1bc 171b 22bc 19ce 9bbc 45b2 afbc
00000160: a8e5 603a 0f1f 00bc 2db5 87bc 5d27 2cbd
00000170: 117d 0ebd 0b9c 18bd e19f d93b 7e03 44bc
00000180: c3a1 90bc df1d 7e3c 7d0a e83b 5af6 d3bc
00000190: d1d2 0e3d d729 fc3c 42c3 79bc 426d 71bc
000001a0: 3057 ffbc 97ae 76bc 9b46 b0bb 8957 eb3c
000001b0: 21b1 903c f9f4 88bc 61e6 033d 5fc7 96bb
000001c0: e03b e539 f735 8abc 9da1 973b c709 32bc
000001d0: c6ab 873c cbb1 893c 3034 c6bc 3524 023d
000001e0: 3c7e f6bc 65c9 fbbb 1fec a43a d60f 153c
000001f0: 45e7 1cbd 8038 593b 8dd0 963c 0426 933c
00000200: a8bf cabc e4a6 93bc a5ef 983c 4917 62bc
00000210: 522e 11bd 6b3e 1c3d caf4 053d b429 593c
00000220: 9125 8b3c 4c5f bbbb 3305 7abc 6658 35bd
00000230: 5197 15bc 568c 383d afee f1bc 3e4a 2abc
00000240: f881 9abb b3af 2ebd 51ea 2dbd d1fe f7bb
00000250: 44ed 003d 642a 15bc 886f 44bc b4f9 13bc
00000260: 4d56 b83a ebd7 52bc 9a42 a73c ea05 113c
00000270: fb6e abbb 0c3d 8a3c 2ce7 683c 36bf aa3c
00000280: d0bb 37bd 3ac5 583c 2184 3cbd f2d2 87bc
00000290: 2039 07bd 130e f7bb 9360 d43c 2500 a83c
000002a0: f77e c7bb a1c9 ac3a ecb5 a8bc 03cf 3f3c
000002b0: 03a1 abbc 468e 393c 11e5 55bd a0d4 ae3b
000002c0: e3fa 903c 735b d3bc cb9f 7b3b 78d2 98bc
000002d0: 4ea5 253b c635 44bd a273 133c df60 7cbc
000002e0: d939 c6bb 4105 543c f2a7 acbc c4e9 8c3c
000002f0: f116 143c 6f91 cb3c 130b 193c d962 823b
00000300: 1a5c d1ba 71d0 0a3d c345 c43b 776b ac3a
00000310: 0de5 9f3c 76fe 8dbc 623c 1d3c 048f 95bc
00000320: 5524 2ebd 900d 7ebc 4fa3 3e3b 9cf8 823c
00000330: fbc1 d53c 1d4d 873c 5e2b cbbc a3cd b9bc
00000340: ee22 103c 7d0f c33b 1297 9bbc e188 46bd
00000350: c3d0 8d3c 5c41 88bc 625b 83bb 5e17 3dbc
00000360: a228 1b3c 45e9 a8bc 8e97 ddbc b117 a73b
00000370: 7756 46bd 3d76 4eba d2f9 e1bb ee38 293c
00000380: 6175 aa3c 5c99 9e3c cfff 503c 108c 6c3c
00000390: e6c7 82bc 76ce 883b 3c41 6bbc 5378 a9bc
000003a0: 3639 42bc 484b 24bc a45b b4bc e283 68bc
000003b0: b926 113d 7448 b3bc 50ce 053d 4db8 9dbc
000003c0: b825 c8bc 0fdc 0fbb e834 96bc a44a 5338
000003d0: 581f ee3c 8b11 b23a 0f78 213c 4933 da3c
000003e0: 4801 873d 5a4e 3cbc b130 963c b70f 9f3c
000003f0: e187 eabb 4a77 11bd 762b 853c a2d0 113b

network_body._body_endoder.seq_layers.0.bias f4 [128]
-0.0026339022 0.009955433 -0.0057453522 -0.0019151958 -0.005454191 0.0040650414 -0.0052313968 -0.0019888422
0.016883485 0.0033768099 -0.004374758 -0.0030504386 -0.0027962972 0.008684824 0.0035593559 -0.016134027
-0.0054962793 0.0005162683 -0.001501108 -0.009026224 -0.005450625 0.00017819036 0.0019256 -0.0026584773
0.014129869 -0.0016427209 -0.0040166713 -0.0012121744 -0.007734799 0.0007376287 0.0017395758 -0.00335382
0.0016805286 0.00094694144 -0.0018875789 -0.007506438 -0.0020111778 0.027726468 0.011524255 0.00017547046
-0.00059246685 0.0021545007 0.002837769 0.000985581 0.006445084 -0.0021546949 -0.0013003912 -0.005861378
-0.0029984473 -0.015396722 -0.0016106707 0.034119185 -0.004147102 0.0028401944 -0.008578036 0.0038748905
0.0088729225 -0.0030893548 0.0042064097 -0.010752577 -0.002384965 0.011805611 0.0016945164 0.00045049033
0.0013964284 -0.005877846 0.004676221 0.0003273111 0.01709326 0.005911734 -0.001955418 -0.0010723176
0.0054056025 -0.0103514055 -0.008961186 -0.004737563 0.016464451 -0.0202936 0.010987265 -0.014950528
-0.00780622 0.019122316 -0.019228239 -0.001206837 0.0009876319 0.0042155636 0.00011230373 -0.002806727
-0.0051493156 -0.00046731508 0.008078999 -0.008503379 0.003483355 0.0033289972 0.0048027835 0.0075726854
0.0076245973 -0.0043363296 0.0044638985 -0.003096245 -0.023031816 0.0053728134 -0.008485439 -0.00049870426
0.0047010025 -0.0017497599 0.0022700732 -0.002847569 0.012760635 -0.0115401065 5.152112e-05 0.013137261
-0.015530314 -0.0006413656 -0.0029336922 0.0012751421 0.002070777 -0.005648875 0.0032095306 0.01159996
0.0018653676 -0.005405994 0.015748879 0.0031245712 0.0154404715 -0.006004962 -0.0060894964 0.0008771555
00000000: 8c9d 2cbb 1d1c 233c 8243 bcbb 4f07 fbba
00000010: 12b9 b2bb 0a34 853b 236c abbb 3c57 02bb
00000020: 3c4f 8a3c 784d 5d3b 215a 8fbb dee9 47bb
00000030: 1542 37bb cb4a 0e3c 1544 693b 822b 84bc
00000040: 221a b4bb 2e56 073a d4c0 c4ba bae2 13bc
00000050: 289b b2bb 9cd8 3a39 6a64 fc3a d939 2ebb
00000060: f780 673c 9150 d7ba 489e 83bb d3e1 9eba
00000070: 3274 fdbb 6d5d 413a 7a02 e43a c3cb 5bbb
00000080: 2f45 dc3a 2a3c 783a a368 f7ba 91f8 f5bb
00000090: f7cd 03bb 9e22 e33c 3bd0 3c3c 7efe 3739
000000a0: c74f 1bba 8632 0d3b ddf9 393b 9c2e 813a
000000b0: 4831 d33b c835 0dbb e371 aaba cd10 c0bb
000000c0: 9981 44bb 8842 7cbc 241d d3ba 8fc0 0b3d
000000d0: 6ae4 87bb 8e22 3a3b e48a 0cbc e0f1 7d3b
000000e0: bc5f 113c c676 4abb ecd5 893b 942b 30bc
000000f0: 134d 1cbb 526c 413c 891a de3a ca2f ec39
00000100: 5d08 b73a f29a c0bb fc3a 993b f49a ab39
00000110: 2a07 8c3c 38b7 c13b 7826 00bb 028d 8cba
00000120: 7b21 b13b f198 29bc f0d1 12bc 8f3d 9bbb
00000130: 75e0 863c c43e a6bc ee03 343c 0ff3 74bc
00000140: 52cb ffbb 67a6 9c3c 8a84 9dbc bb2e 9eba
00000150: 6d73 813a b622 8a3b 9b84 eb38 11f1 37bb
00000160: 97bb a8bb f801 f5b9 c75d 043c c251 0bbc
00000170: 0049 643b 4e2b 5a3b ab60 9d3b 4a24 f83b
00000180: c2d7 f93b c517 8ebb e545 923b 5fea 4abb
00000190: 38ad bcbc 6d0e b03b 8306 0bbc 7abb 02ba
000001a0: de0a 9a3b 3358 e5ba 82c5 143b 489e 3abb
000001b0: fc11 513c b712 3dbc 6218 5838 ab3d 573c
000001c0: dc72 7ebc 5121 28ba 3043 40bb ab22 a73a
000001d0: dfb5 073b 331a b9bb fd56 523b c20d 3e3c
000001e0: 5a7f f43a c424 b1bb cb03 813c 9bc5 4c3b
000001f0: 08fa 7c3c 46c5 c4bb 668a c7bb e9f0 653a

network_body._body_endoder.seq_layers.0.weight f4 [128, 6]
0.31693587 -0.07211931 0.4320084 -0.68277276 0.18754762 -1.1508975 0.27770147 0.34419551
0.82092184 0.038516406 -0.2003954 -0.043735348 -0.3066082 0.3642048 0.09094898 -0.22938636
-0.57689565 0.121213056 0.45200315 0.17626391 -0.17412232 0.03221383 -0.6732674 -0.074242786
0.60185075 0.31823444 0.32814562 -0.89655966 0.91876394 0.057914805 -0.0954923 -0.37519786
0.69699544 0.10451212 0.43242243 -0.02669882 -0.071023844 0.24854867 0.01510472 -0.5821048
-0.13023733 -0.52918833 -0.3765687 -0.2145368 0.0038738654 0.6404776 -0.09504746 0.23515834
0.04207455 -0.30322355 -0.37309733 0.026185852 0.014606013 -0.16577975 -0.083134204 0.19708154
-0.19802675 -0.691323 -0.24454364 -0.59588426 -0.37109765 -0.04021159 0.34000126 -0.031105569
-0.42187163 -0.45913208 -0.22033249 -0.095143445 0.2408758 0.18525967 0.25006798 -0.19213302
-0.2764641 -0.07735947 -0.3681613 0.106746726 0.25089455 0.71579176 0.33031955 0.11915115
-0.061457664 -0.020306883 -0.5897274 -0.43487176 -0.008942068 0.18755282 -0.4391062 0.17004716
-0.18967777 -0.012626687 0.24605776 0.3229953 0.45775044 -0.2461888 -0.3749538 0.10114738
0.14142793 0.13502595 0.008119369 -0.13541596 -0.6430543 0.17926778 0.19770072 -0.20055746
0.21692316 0.1146548 0.6542271 -0.38469645 0.21485534 -0.18459776 -0.04693988 -0.13716754
-0.06293232 -0.63753945 -0.15773213 0.052250456 0.37124437 -0.6699958 -0.13528773 -0.251252
-0.39524266 0.46996945 0.3815159 -0.009848075 0.0036070538 0.15829737 -0.036650125 0.32061797
0.010710377 -0.021313759 0.2323266 0.15620634 -0.08062247 -0.6577649 -0.30904377 -0.28496563
-0.084685065 0.3656608 0.23347223 -0.2532666 0.34863377 0.85065675 0.0021475933 -0.3391194
0.27394125 0.04745171 0.05533564 -0.2041176 0.4945125 0.39145836 0.16084978 0.38681737
0.1205999 -0.72856456 0.73469317 -0.23615846 -0.3318348 0.12403417 0.17582366 0.2904604
0.43814343 -0.19929379 -0.124089584 0.061339635 -0.2516652 0.1258991 0.4012952 0.2594483
0.20920147 -0.23595034 -0.051031105 0.5031008 -0.001970427 0.46094972 -0.65558344 0.058041576
-0.020128226 0.49349082 0.11447404 -0.8540655 0.006015012 1.1146477 0.092989616 -1.1729064
0.65452224 -0.38075328 0.57386255 -0.06261647 0.546741 0.098886706 1.0445826 0.6384112
-0.10549283 -0.1257304 0.28541195 0.52202725 -0.10478474 0.40522003 -0.054452755 0.21779907
0.29515377 0.13950448 0.14020431 1.022306 0.25026214 0.33803147 1.26327 -0.29524
0.4240024 -0.44000483 -0.057763226 -0.3062066 -0.2758867 -0.5020781 0.05830348 0.90135115
0.36049604 0.1547752 0.19274649 0.35636446 0.11825436 -0.8255996 0.92603344 -0.043851454
-0.38177514 -0.99995357 0.10263146 0.5371383 -0.4672372 -0.14914647 0.44383988 0.43188348
-0.3008191 0.29610977 0.42839053 0.0020446014 0.59031427 -0.21758586 -0.17253546 -0.7344325
-0.48559678 0.06504344 0.052134555 -0.34137443 -0.19751178 0.6511008 -0.9614799 0.017030345
-0.54792255 -0.060255963 0.24497823 0.7065252 0.4681681 0.14623694 0.1660582 -0.14534837
00000000: 6b45 a23e 4ab3 93bd 3430 dd3e 32ca 2ebf
00000010: 7c0c 403e 9c50 93bf e32e 8e3e 653a b03e
00000020: ef27 523f 61c3 1d3d 7434 4dbe d623 33bd
00000030: c0fb 9cbe 0d79 ba3e 7543 ba3d 42e4 6abe
00000040: 6faf 13bf 8d3e f83d f56c e73e 877e 343e
00000050: 1f4d 32be a6f2 033d 415b 2cbf 9a0c 98bd
00000060: e412 1a3f a0ef a23e b402 a83e ef84 65bf
00000070: 1d34 6b3f 1338 6d3d 7891 c3bd ef19 c0be
00000080: 4b6e 323f 730a d63d 7966 dd3e 7cb7 dabc
00000090: f374 91bd 8b83 7e3e ca79 773c d204 15bf
000000a0: ef5c 05be e378 07bf 9dcd c0be 89af 5bbe
000000b0: ade0 7d3b 57f6 233f 3ea8 c2bd 59cd 703e
000000c0: 5d56 2c3d 1e40 9bbe 9d06 bfbe b683 d63c
000000d0: 0f4e 6f3c 2bc2 29be 4442 aabd becf 493e
000000e0: 86c7 4abe 8bfa 30bf a669 7abe df8b 18bf
000000f0: 8300 bebe e8b4 24bd a514 ae3e 1bd1 febc
00000100: 8fff d7be 5c13 ebbe d79e 61be 91da c2bd
00000110: 25a8 763e b6b4 3d3e e908 803e 85be 44be
00000120: b48c 8dbe a46e 9ebd a37f bcbe 079e da3d
00000130: 4075 803e 213e 373f a51f a93e 8505 f43d
00000140: 08bb 7bbd 9f5a a6bc 60f8 16bf 83a7 debe
00000150: c081 12bc d90d 403e 87d2 e0be d820 2e3e
00000160: e43a 42be 2ae0 4ebc 91f6 7b3e a45f a53e
00000170: 445e ea3e eb18 7cbe f2f9 bfbe 5c26 cf3d
00000180: 7cd2 103e 3e44 0a3e 1a07 053c 7baa 0abe
00000190: 359f 24bf f991 373e 0f72 4a3e ef5e 4dbe
000001a0: 1b21 5e3e 23d0 ea3d 6d7b 273f eff6 c4be
000001b0: 0a03 5c3e 3207 3dbe 0844 40bd a675 0cbe
000001c0: a9e2 80bd c935 23bf 8884 21be 9304 563d
000001d0: be13 be3e d884 2bbf de88 0abe 1aa4 80be
000001e0: 3f5d cabe d69f f03e 0d56 c33e d259 21bc
000001f0: 5264 6c3b b518 223e 711e 16bd 0a28 a43e
00000200: 947a 2f3c 319a aebc 06e7 6d3e 8ef4 1f3e
00000210: 651d a5bd 4863 28bf fc3a 9ebe 04e7 91be
00000220: 5d6f adbd e437 bb3e 5813 6f3e 29ac 81be
00000230: 2080 b23e a4c4 593f a3be 0c3b 0fa1 adbe
00000240: 0742 8c3e b95c 423d a0a7 623d 3404 51be
00000250: be30 fd3e 3b6d c83e ceb5 243e ed0c c63e
00000260: 15fd f63d 3583 3abf da14 3c3f 86d3 71be
00000270: 40e6 a9be a005 fe3d 1e0b 343e 3ab7 943e
00000280: 5654 e03e ac13 4cbe ae22 febd 453f 7b3d
00000290: 43da 80be b2eb 003e 9176 cd3e 68d6 843e
000002a0: e938 563e f79c 71be fe05 51bd 37cb 003f
000002b0: 4822 01bb 9a01 ec3e 51d4 27bf 01bd 6d3d
000002c0: f3e3 a4bc d4aa fc3e 5e71 ea3d 09a4 5abf
000002d0: 9419 c53b c7ac 8e3f 5771 be3d cc21 96bf
000002e0: c58e 273f 18f2 c2be a8e8 123f 103d 80bd
000002f0: 38f7 0b3f 1d85 ca3d e2b4 853f eb6e 233f
00000300: a00c d8bd 78bf 00be 8421 923e 94a3 053f
00000310: 6299 d6bd 0079 cf3e da09 5fbd b806 5f3e
00000320: 651e 973e 43da 0e3e b891 0f3e ecda 823f
00000330: 5c22 803e 7612 ad3e d5b2 a13f b329 97be
00000340: d816 d93e 5048 e1be 2299 6cbd 1dc7 9cbe
00000350: 0641 8dbe 3188 00bf a1cf 6e3d f3be 663f
00000360: f092 b83e 647d 1e3e 565f 453e 6775 b63e
00000370: 582f f23d 7f5a 53bf 8710 6d3f 959d 33bd
00000380: 0878 c3be f5fc 7fbf 7130 d23d e581 093f
00000390: b739 efbe dab9 18be fb3e e33e d51f dd3e
000003a0: f604 9abe b39b 973e 0156 db3e b8fe 053b
000003b0: d61e 173f d4ce 5ebe 23ad 30be c503 3cbf
000003c0: 24a0 f8be 7f35 853d 0b8b 553d a1c8 aebe
000003d0: 8740 4abe 8bae 263f 8c23 76bf 3983 8b3c
000003e0: a744 0cbf f5ce 76bd 93db 7a3e d6de 343f
000003f0: bbb3 ef3e 23bf 153e 290b 2a3e 34d6 14be

network_body._body_endoder.seq_layers.2.bias f4 [128]
-8.728449e-05 -0.0003273697 -0.003736595 -0.00153359 0.008613156 -0.0013017781 0.006151566 -0.0018038721
-0.0011562946 0.00033531705 -0.0002426884 -0.007881078 -0.0003282644 -0.0013760672 0.0018976426 -0.0010171009
-0.007602745 0.012420146 0.010657835 -0.0010477912 0.0147073185 0.005049914 -0.0022622112 -0.00015053156
-0.002002783 -0.0005803138 -0.0018758471 0.0056588133 -0.0017420818 -0.0009175121 -0.0010759447 0.00090701063
0.0043426463 -0.0042788237 0.006351189 0.0016189382 0.015100466 0.00042330736 -0.002607817 -0.002035937
-0.003807528 -0.0054768682 0.007983516 -0.00380361 -0.0008019651 -0.0036099849 0.008286702 -0.0037085463
0.013892179 0.0027892892 -0.0028259757 -0.004792184 -0.001183591 0.00038413724 -0.006718475 -0.0074955467
-0.0018452953 5.0136416e-05 -0.001544871 -0.0006514805 0.0055172294 -0.0009672305 -0.0023036639 -0.003034
-0.003967444 -0.0010373492 -0.0012821299 -0.0019454692 -0.001347583 8.955748e-05 -0.0021103949 0.0005718337
0.0003514333 -0.0010210308 -0.002305203 0.0018576348 -0.0036589506 -0.0015720078 0.008668478 -0.0017440573
-0.007283211 -0.0017166934 0.0059288153 5.4678687e-05 0.005234484 0.0064598527 -0.000157577 0.0015898714
-0.002698874 -0.0006774874 -0.00022971294 0.006723024 0.0075840456 -0.0014244561 -0.00082833454 0.0082065975
0.009091213 0.007743261 0.0033908372 0.0074850237 0.0025644857 0.011408784 -0.0006448527 -0.00028318903
-0.00055373966 -0.00014364148 -0.0029033725 0.00044708248 -0.00067523075 -0.003251786 0.0049970313 0.0001938841
0.004403598 -0.0006099896 -0.0067742765 -0.005417239 0.00012833002 0.0061424198 -0.008692555 0.0049252487
0.0063802325 -0.0035508417 0.00032356448 -0.0016117187 -0.00022619775 0.0016101539 0.0043532406 -0.0032750214
00000000: 810c b7b8 d1a2 abb9 a9e1 74bb be02 c9ba
00000010: 321e 0d3c 6da0 aaba 1393 c93b e76f ecba
00000020: cf8e 97ba 7ecd af39 2c7a 7eb9 a31f 01bc
00000030: e71a acb9 275d b4ba 52ba f83a 3e50 85ba
00000040: 7320 f9bb de7d 4b3c 339e 2e3c 0a56 89ba
00000050: f7f6 703c c079 a53b 9b41 14bb 02d8 1db9
00000060: 1f41 03bb 3320 18ba fcde f5ba 916d b93b
00000070: 9156 e4ba 3285 70ba b706 8dba 74c4 6d3a
00000080: c24c 8e3b 6035 8cbb a31d d03b 8d32 d43a
00000090: f267 773c 5aef dd39 e9e7 2abb 5b6d 05bb
000000a0: b887 79bb 4d77 b3bb 4bcd 023c fd45 79bb
000000b0: f83a 52ba 7f95 6cbb f3c4 073c 150b 73bb
000000c0: 069c 633c 82cc 363b 0134 39bb c107 9dbb
000000d0: b922 9bba 0766 c939 a726 dcbb 349d f5bb
000000e0: d6dd f1ba 9149 5238 457d caba 1ec8 2aba
000000f0: e0c9 b43b bd8d 7dba 11f9 16bb 13d6 46bb
00000100: 5501 82bb aaf7 87ba 240d a8ba 1dff feba
00000110: 62a1 b0ba ced0 bb38 8d4e 0abb 1ce7 153a
00000120: 9440 b839 1cd4 85ba e312 17bb e17b f33a
00000130: 01cb 6fbb d40b ceba 3b06 0e3c da98 e4ba
00000140: 01a8 eebb ac02 e1ba 8246 c23b cb56 6538
00000150: 0986 ab3b 2cad d33b 413b 25b9 3b63 d03a
00000160: 98df 30bb 6999 31ba 19df 70b9 d04c dc3b
00000170: 9683 f83b d1b4 baba 9724 59ba f774 063c
00000180: 50f3 143c 2ebb fd3b cf38 5e3b ee44 f53b
00000190: ee10 283b e9eb 3a3c 550b 29ba fd78 94b9
000001a0: d728 11ba 779e 16b9 8246 3ebb 6566 ea39
000001b0: f801 31ba eb1b 55bb 23be a33b 5e4d 4b39
000001c0: 0f4c 903b b6e7 1fba c0fa ddbb 1883 b1bb
000001d0: 5490 0639 5a46 c93b 386b 0ebc fb63 a13b
000001e0: 4511 d13b 3db5 68bb 17a4 a939 4e40 d3ba
000001f0: 7f2f 6db9 cd0b d33a a1a5 8e3b bea1 56bb

network_body._body_endoder.seq_layers.2.weight f4 [128, 128]
-0.0586475 -0.11001945 -0.054010723 0.13934848 0.027546473 0.25413647 0.06596959 -0.021840136
-0.0815314 -0.020949608 -0.05534473 0.05410014 -0.0012473629 0.093677476 -0.0060610804 -0.011723844
-0.13109745 -0.08597276 -0.0716839 -0.16240071 0.030494994 0.1505777 0.021848176 -0.083358295
-0.031453863 0.017341271 -0.026055602 -0.046018053 0.09438089 0.089150965 0.103974804 0.03921854
0.066132374 -0.08874297 0.05219892 0.07217924 0.036603086 -0.09980999 -0.06445858 -0.112215154
-0.11768139 0.0907568 0.04951626 -0.07309361 -0.030670987 0.06000748 -0.048001915 0.054560646
-0.08043789 0.017927172 -0.026532507 -0.0057687983 -0.017732754 -0.056762837 0.0943384 -0.076931275
0.0076457933 -0.016606659 0.02550962 -0.0065360717 -0.03825943 0.00037155225 0.13547769 0.076072566
0.07904288 -0.1023158 -0.02115634 0.0325764 -0.11435015 -0.04471007 -0.050696015 0.058143876
-0.050389722 -0.028093012 0.0285541 0.14110532 0.105049714 -0.038717795 -0.09097614 -0.12752762
0.10151179 -0.09855298 -0.099411435 0.0065959916 0.06938688 -0.011768263 -0.0060102153 0.013403278
0.13197988 -0.13651253 0.14458048 0.00076161633 -0.029315103 -0.16646037 -0.024081197 0.14396513
0.0827244 0.0073555987 0.0799908 -0.08921279 -0.119380824 0.06451971 0.1330777 -0.04382232
-0.016771415 0.011197223 -0.010214801 0.026820676 -0.15873156 -0.014481253 0.027262991 -0.17704916
-0.014278668 -0.09745824 -0.013739906 0.11168246 -0.03411379 0.0886902 -0.17321038 0.08733311
-0.006776066 -0.051201463 -0.07459355 0.1363454 -0.054458644 0.086302236 -0.052358642 -0.0044134283
-0.2174609 -0.0242896 -0.06857068 0.123570964 0.098114796 0.2098432 -0.028014723 -0.035330568
-0.075728714 0.015639609 0.033585545 0.12739094 0.018596398 -0.05633241 0.010192029 0.043004166
-0.24752906 -0.051842716 0.03050954 -0.014489998 0.058558248 0.016278202 0.13023964 0.00088475016
0.08009475 -0.16190137 -0.01809504 0.11279718 -0.078877546 -0.0026598577 0.05571818 -0.08157993
-0.11612058 -0.074949734 -0.058689356 0.12062821 -0.015247381 -0.26597247 -0.02945164 0.08881173
-0.0103747975 -0.08066816 0.119928576 0.06523906 -0.07629978 0.040857226 0.17319635 0.101035476
0.1299198 -0.056951653 -0.11616018 0.06426901 0.14372113 -0.12726507 0.05433765 -0.08055412
-0.03444666 0.037130915 0.0070795314 0.028088273 -0.08719447 0.016792296 0.04569895 -0.009582311
0.14979513 0.049707115 -0.055030398 -0.16060981 -0.03415525 -0.06915124 0.08272054 -0.0012830466
0.016055238 -0.13908458 -0.030177861 0.07458397 0.08082814 0.032981094 -0.0036207784 0.083949186
-0.075584754 -0.03085283 0.1054252 -0.08597696 -0.043679073 -0.1812183 0.0074189752 0.017139591
0.029751131 -0.070009515 -0.05773842 -0.052777573 0.03350461 0.119774505 0.21800195 0.038159188
-0.017135149 0.10864708 0.09823696 -0.05849233 0.05183385 -0.073838346 0.040043294 -0.14790237
-0.09420458 0.018343085 -0.13525923 0.07090144 0.091110334 -0.007382593 -0.12535235 -0.07356064
0.034656886 -0.009741356 -0.07428926 0.04168135 0.04398468 0.075377285 -0.15037324 0.09931157
-0.22107539 0.004570901 0.005419472 -0.08254443 -0.119086094 0.03638343 0.116938435 0.055253223
00000000: 5c38 70bd e151 e1bd 593a 5dbd 5eb1 0e3e
00000010: 24a9 e13c 2d1e 823e 101b 873d 16ea b2bc
00000020: eff9 a6bd 839e abbc 28b1 62bd 1c98 5d3d
00000030: 8e7e a3ba fad9 bf3d 079c c6bb 5e15 40bc
00000040: 693e 06be 7d12 b0bd 02cf 92bd 5f4c 26be
00000050: a3d0 f93c 0a31 1a3e f2fa b23c c1b7 aabd
00000060: c4d5 00bd 480f 8e3c 8f72 d5bc 6d7d 3cbd
00000070: c54a c13d c894 b63d bef0 d43d 9fa3 203d
00000080: 6970 873d e0be b5bd 89ce 553d b6d2 933d
00000090: 1eed 153d 2e69 ccbd dc02 84bd 0fd1 e5bd
000000a0: f102 f1bd b3de b93d 90d1 4a3d 1ab2 95bd
000000b0: b941 fbbc 67ca 753d a89d 44bd fc7a 5f3d
000000c0: 9fbc a4bd 01dc 923c b35a d9bc 3008 bdbb
000000d0: 4844 91bc 2680 68bd 7e34 c13d 258e 9dbd
000000e0: 9089 fa3b b00a 88bc 8df9 d03c 8b2c d6bb
000000f0: ecb5 1cbd e6cc c239 aaba 0a3e efcb 9b3d
00000100: 3ce1 a13d f28a d1bd 1050 adbc d56e 053d
00000110: 6930 eabd e821 37bd a0a6 4fbd 4628 6e3d
00000120: 7465 4ebd 5123 e6bc 4aea e93c ea7d 103e
00000130: 4e24 d73d 8d96 1ebd b351 babd 9a96 02be
00000140: 6ae5 cf3d 25d6 c9bd 3998 cbbd 3023 d83b
00000150: b51a 8e3d accf 40bc 57f1 c4bb 6c99 5b3c
00000160: bc25 073e f1c9 0bbe e80c 143e 35a7 473a
00000170: 3a26 f0bc 9674 2abe ee45 c5bc 986b 133e
00000180: 696b a93d 3c07 f13b 37d2 a33d 32b5 b6bd
00000190: ef7d f4bd e922 843d 8545 083e 087f 33bd
000001a0: 3564 89bc 8f74 373c fb5b 27bc 09b7 db3c
000001b0: 878a 22be c742 6dbc a356 df3c 604c 35be
000001c0: 13f1 69bc 3098 c7bd 581d 61bc c6b9 e43d
000001d0: e7ba 0bbd 35a3 b53d 105e 31be b4db b23d
000001e0: c309 debb a0b8 51bd 81c4 98bd 219e 0b3e
000001f0: 0710 5fbd 3abf b03d 0476 56bd 859e 90bb
00000200: 12ae 5ebe fcfa c6bc c96e 8cbd c612 fd3d
00000210: 69f0 c83d 23e1 563e 227f e5bc c9b6 10bd
00000220: a817 9bbd a31e 803c ff90 093d c572 023e
00000230: 7957 983c d0bc 66bd 78fc 263c 2325 303d
00000240: 4278 7dbe 0759 54bd 25ef f93c 7567 6dbc
00000250: c6da 6f3d dd59 853c 8a5d 053e 94ee 673a
00000260: b708 a43d 79c9 25be 0d3c 94bc 3502 e73d
00000270: 8d8a a1bd 0251 2ebb bf38 643d 6113 a7bd
00000280: a0d0 edbd 3f7f 99bd 4064 70bd ec0b f73d
00000290: 27d0 79bc 8b2d 88be 9144 f1bc ede2 b53d
000002a0: 0efb 29bc 5935 a5bd 1d9d f53d 0e9c 853d
000002b0: 0f43 9cbd e859 273d 625a 313e b0eb ce3d
000002c0: b209 053e 2346 69bd 63e5 edbd 799f 833d
000002d0: a22b 133e c651 02be 2891 5e3d 8ff9 a4bd
000002e0: f117 0dbd 9616 183d 6afb e73b 6119 e63c
000002f0: 0493 b2bd ff8f 893c d22e 3b3d 20ff 1cbc
00000300: e563 193e b099 4b3d 8e67 61bd e676 24be
00000310: 60e6 0bbd 2a9f 8dbd 6369 a93d e62b a8ba
00000320: 4686 833c 306c 0ebe 9037 f7bc 7bbf 983d
00000330: 3989 a53d 2f17 073d 954a 6dbb 8ded ab3d
00000340: 2ecc 9abd 13bf fcbc 2be9 d73d b014 b0bd
00000350: d4e8 32bd 4a91 39be e01a f33b 5468 8c3c
00000360: a5b8 f33c 2661 8fbd 1f7f 6cbd 4c2d 58bd
00000370: 213c 093d 564c f53d e73b 5f3e cf4c 1c3d
00000380: 035f 8cbc 5c82 de3d 7630 c93d a795 6fbd
00000390: bb4f 543d 8f38 97bd 7004 243d b873 17be
000003a0: 55ee c0bd 3d44 963c 6581 0abe c634 913d
000003b0: 0e98 ba3d aee9 f1bb 5e5c 00be f6a6 96bd
000003c0: 61f4 0d3d 359a 1fbc f824 98bd 10ba 2a3d
000003d0: 4829 343d 685f 9a3d 71fb 19be dd63 cb3d
000003e0: 9661 62be 7fc7 953b d495 b13b 0e0d a9bd
000003f0: 69e3 f3bd cb06 153d 6b7d ef3d 3451 623d
