results/MoveToGoal5/MoveToGoal/MoveToGoal-162896.pt (torch, 439199 bytes, 36 tensors)

network_body._body_endoder.seq_layers.0.weight f4 [128, 6]
0	0x3ea2456b	0.31693587
1	0xbd93b34a	-0.07211931
2	0x3edd3034	0.4320084
3	0xbf2eca32	-0.68277276
4	0x3e400c7c	0.18754762
5	0xbf93509c	-1.1508975
6	0x3e8e2ee3	0.27770147
7	0x3eb03a65	0.34419551
8	0x3f5227ef	0.82092184
9	0x3d1dc361	0.038516406
10	0xbe4d3474	-0.2003954
11	0xbd3323d6	-0.043735348
12	0xbe9cfbc0	-0.3066082
13	0x3eba790d	0.3642048
14	0x3dba4375	0.09094898
15	0xbe6ae442	-0.22938636
16	0xbf13af6f	-0.57689565
17	0x3df83e8d	0.121213056
18	0x3ee76cf5	0.45200315
19	0x3e347e87	0.17626391
20	0xbe324d1f	-0.17412232
21	0x3d03f2a6	0.03221383
22	0xbf2c5b41	-0.6732674
23	0xbd980c9a	-0.074242786
24	0x3f1a12e4	0.60185075
25	0x3ea2efa0	0.31823444
26	0x3ea802b4	0.32814562
27	0xbf6584ef	-0.89655966
28	0x3f6b341d	0.91876394
29	0x3d6d3813	0.057914805
30	0xbdc39178	-0.0954923
31	0xbec019ef	-0.37519786
32	0x3f326e4b	0.69699544
33	0x3dd60a73	0.10451212
34	0x3edd6679	0.43242243
35	0xbcdab77c	-0.02669882
36	0xbd9174f3	-0.071023844
37	0x3e7e838b	0.24854867
38	0x3c7779ca	0.01510472
39	0xbf1504d2	-0.5821048
40	0xbe055cef	-0.13023733
41	0xbf0778e3	-0.52918833
42	0xbec0cd9d	-0.3765687
43	0xbe5baf89	-0.2145368
44	0x3b7de0ad	0.0038738654
45	0x3f23f657	0.6404776
46	0xbdc2a83e	-0.09504746
47	0x3e70cd59	0.23515834
48	0x3d2c565d	0.04207455
49	0xbe9b401e	-0.30322355
50	0xbebf069d	-0.37309733
51	0x3cd683b6	0.026185852
52	0x3c6f4e0f	0.014606013
53	0xbe29c22b	-0.16577975
54	0xbdaa4244	-0.083134204
55	0x3e49cfbe	0.19708154
56	0xbe4ac786	-0.19802675
57	0xbf30fa8b	-0.691323
58	0xbe7a69a6	-0.24454364
59	0xbf188bdf	-0.59588426
60	0xbebe0083	-0.37109765
61	0xbd24b4e8	-0.04021159
62	0x3eae14a5	0.34000126
63	0xbcfed11b	-0.031105569
64	0xbed7ff8f	-0.42187163
65	0xbeeb135c	-0.45913208
66	0xbe619ed7	-0.22033249
67	0xbdc2da91	-0.095143445
68	0x3e76a825	0.2408758
69	0x3e3db4b6	0.18525967
70	0x3e8008e9	0.25006798
71	0xbe44be85	-0.19213302
72	0xbe8d8cb4	-0.2764641
73	0xbd9e6ea4	-0.07735947
74	0xbebc7fa3	-0.3681613
75	0x3dda9e07	0.106746726
76	0x3e807540	0.25089455
77	0x3f373e21	0.71579176
78	0x3ea91fa5	0.33031955
79	0x3df40585	0.11915115
80	0xbd7bbb08	-0.061457664
81	0xbca65a9f	-0.020306883
82	0xbf16f860	-0.5897274
83	0xbedea783	-0.43487176
84	0xbc1281c0	-0.008942068
85	0x3e400dd9	0.18755282
86	0xbee0d287	-0.4391062
87	0x3e2e20d8	0.17004716
88	0xbe423ae4	-0.18967777
89	0xbc4ee02a	-0.012626687
90	0x3e7bf691	0.24605776
91	0x3ea55fa4	0.3229953
92	0x3eea5e44	0.45775044
93	0xbe7c18eb	-0.2461888
94	0xbebff9f2	-0.3749538
95	0x3dcf265c	0.10114738
96	0x3e10d27c	0.14142793
97	0x3e0a443e	0.13502595
98	0x3c05071a	0.008119369
99	0xbe0aaa7b	-0.13541596
100	0xbf249f35	-0.6430543
101	0x3e3791f9	0.17926778
102	0x3e4a720f	0.19770072
103	0xbe4d5eef	-0.20055746
104	0x3e5e211b	0.21692316
105	0x3dead023	0.1146548
106	0x3f277b6d	0.6542271
107	0xbec4f6ef	-0.38469645
108	0x3e5c030a	0.21485534
109	0xbe3d0732	-0.18459776
110	0xbd404408	-0.04693988
111	0xbe0c75a6	-0.13716754
112	0xbd80e2a9	-0.06293232
113	0xbf2335c9	-0.63753945
114	0xbe218488	-0.15773213
115	0x3d560493	0.052250456
116	0x3ebe13be	0.37124437
117	0xbf2b84d8	-0.6699958
118	0xbe0a88de	-0.13528773
119	0xbe80a41a	-0.251252
120	0xbeca5d3f	-0.39524266
121	0x3ef09fd6	0.46996945
122	0x3ec3560d	0.3815159
123	0xbc2159d2	-0.009848075
124	0x3b6c6452	0.0036070538
125	0x3e2218b5	0.15829737
126	0xbd161e71	-0.036650125
127	0x3ea4280a	0.32061797
128	0x3c2f7a94	0.010710377
129	0xbcae9a31	-0.021313759
130	0x3e6de706	0.2323266
131	0x3e1ff48e	0.15620634
132	0xbda51d65	-0.08062247
133	0xbf286348	-0.6577649
134	0xbe9e3afc	-0.30904377
135	0xbe91e704	-0.28496563
136	0xbdad6f5d	-0.084685065
137	0x3ebb37e4	0.3656608
138	0x3e6f1358	0.23347223
139	0xbe81ac29	-0.2532666
140	0x3eb28020	0.34863377
141	0x3f59c4a4	0.85065675
142	0x3b0cbea3	0.0021475933
143	0xbeada10f	-0.3391194
144	0x3e8c4207	0.27394125
145	0x3d425cb9	0.04745171
146	0x3d62a7a0	0.05533564
147	0xbe510434	-0.2041176
148	0x3efd30be	0.4945125
149	0x3ec86d3b	0.39145836
150	0x3e24b5ce	0.16084978
151	0x3ec60ced	0.38681737
152	0x3df6fd15	0.1205999
153	0xbf3a8335	-0.72856456
154	0x3f3c14da	0.73469317
155	0xbe71d386	-0.23615846
156	0xbea9e640	-0.3318348
157	0x3dfe05a0	0.12403417
158	0x3e340b1e	0.17582366
159	0x3e94b73a	0.2904604
160	0x3ee05456	0.43814343
161	0xbe4c13ac	-0.19929379
162	0xbdfe22ae	-0.124089584
163	0x3d7b3f45	0.061339635
164	0xbe80da43	-0.2516652
165	0x3e00ebb2	0.1258991
166	0x3ecd7691	0.4012952
167	0x3e84d668	0.2594483
168	0x3e5638e9	0.20920147
169	0xbe719cf7	-0.23595034
170	0xbd5105fe	-0.051031105
171	0x3f00cb37	0.5031008
172	0xbb012248	-0.001970427
173	0x3eec019a	0.46094972
174	0xbf27d451	-0.65558344
175	0x3d6dbd01	0.058041576
176	0xbca4e3f3	-0.020128226
177	0x3efcaad4	0.49349082
178	0x3dea715e	0.11447404
179	0xbf5aa409	-0.8540655
180	0x3bc51994	0.006015012
181	0x3f8eacc7	1.1146477
182	0x3dbe7157	0.092989616
183	0xbf9621cc	-1.1729064
184	0x3f278ec5	0.65452224
185	0xbec2f218	-0.38075328
186	0x3f12e8a8	0.57386255
187	0xbd803d10	-0.06261647
188	0x3f0bf738	0.546741
189	0x3dca851d	0.098886706
190	0x3f85b4e2	1.0445826
191	0x3f236eeb	0.6384112
192	0xbdd80ca0	-0.10549283
193	0xbe00bf78	-0.1257304
194	0x3e922184	0.28541195
195	0x3f05a394	0.52202725
196	0xbdd69962	-0.10478474
197	0x3ecf7900	0.40522003
198	0xbd5f09da	-0.054452755
199	0x3e5f06b8	0.21779907
200	0x3e971e65	0.29515377
201	0x3e0eda43	0.13950448
202	0x3e0f91b8	0.14020431
203	0x3f82daec	1.022306
204	0x3e80225c	0.25026214
205	0x3ead1276	0.33803147
206	0x3fa1b2d5	1.26327
207	0xbe9729b3	-0.29524
208	0x3ed916d8	0.4240024
209	0xbee14850	-0.44000483
210	0xbd6c9922	-0.057763226
211	0xbe9cc71d	-0.3062066
212	0xbe8d4106	-0.2758867
213	0xbf008831	-0.5020781
214	0x3d6ecfa1	0.05830348
215	0x3f66bef3	0.90135115
216	0x3eb892f0	0.36049604
217	0x3e1e7d64	0.1547752
218	0x3e455f56	0.19274649
219	0x3eb67567	0.35636446
220	0x3df22f58	0.11825436
221	0xbf535a7f	-0.8255996
222	0x3f6d1087	0.92603344
223	0xbd339d95	-0.043851454
224	0xbec37808	-0.38177514
225	0xbf7ffcf5	-0.99995357
226	0x3dd23071	0.10263146
227	0x3f0981e5	0.5371383
228	0xbeef39b7	-0.4672372
229	0xbe18b9da	-0.14914647
230	0x3ee33efb	0.44383988
231	0x3edd1fd5	0.43188348
232	0xbe9a04f6	-0.3008191
233	0x3e979bb3	0.29610977
234	0x3edb5601	0.42839053
235	0x3b05feb8	0.0020446014
236	0x3f171ed6	0.59031427
237	0xbe5eced4	-0.21758586
238	0xbe30ad23	-0.17253546
239	0xbf3c03c5	-0.7344325
240	0xbef8a024	-0.48559678
241	0x3d85357f	0.06504344
242	0x3d558b0b	0.052134555
243	0xbeaec8a1	-0.34137443
244	0xbe4a4087	-0.19751178
245	0x3f26ae8b	0.6511008
246	0xbf76238c	-0.9614799
247	0x3c8b8339	0.017030345
248	0xbf0c44a7	-0.54792255
249	0xbd76cef5	-0.060255963
250	0x3e7adb93	0.24497823
251	0x3f34ded6	0.7065252
252	0x3eefb3bb	0.4681681
253	0x3e15bf23	0.14623694
254	0x3e2a0b29	0.1660582
255	0xbe14d634	-0.14534837

network_body._body_endoder.seq_layers.0.bias f4 [128]
0	0xbb2c9d8c	-0.0026339022
1	0x3c231c1d	0.009955433
2	0xbbbc4382	-0.0057453522
3	0xbafb074f	-0.0019151958
4	0xbbb2b912	-0.005454191
5	0x3b85340a	0.0040650414
6	0xbbab6c23	-0.0052313968
7	0xbb02573c	-0.0019888422
8	0x3c8a4f3c	0.016883485
9	0x3b5d4d78	0.0033768099
10	0xbb8f5a21	-0.004374758
11	0xbb47e9de	-0.0030504386
12	0xbb374215	-0.0027962972
13	0x3c0e4acb	0.008684824
14	0x3b694415	0.0035593559
15	0xbc842b82	-0.016134027
16	0xbbb41a22	-0.0054962793
17	0x3a07562e	0.0005162683
18	0xbac4c0d4	-0.001501108
19	0xbc13e2ba	-0.009026224
20	0xbbb29b28	-0.005450625
21	0x393ad89c	0.00017819036
22	0x3afc646a	0.0019256
23	0xbb2e39d9	-0.0026584773
24	0x3c6780f7	0.014129869
25	0xbad75091	-0.0016427209
26	0xbb839e48	-0.0040166713
27	0xba9ee1d3	-0.0012121744
28	0xbbfd7432	-0.007734799
29	0x3a415d6d	0.0007376287
30	0x3ae4027a	0.0017395758
31	0xbb5bcbc3	-0.00335382
32	0x3adc452f	0.0016805286
33	0x3a783c2a	0.00094694144
34	0xbaf768a3	-0.0018875789
35	0xbbf5f891	-0.007506438
36	0xbb03cdf7	-0.0020111778
37	0x3ce3229e	0.027726468
38	0x3c3cd03b	0.011524255
39	0x3937fe7e	0.00017547046
40	0xba1b4fc7	-0.00059246685
41	0x3b0d3286	0.0021545007
42	0x3b39f9dd	0.002837769
43	0x3a812e9c	0.000985581
44	0x3bd33148	0.006445084
45	0xbb0d35c8	-0.0021546949
46	0xbaaa71e3	-0.0013003912
47	0xbbc010cd	-0.005861378
48	0xbb448199	-0.0029984473
49	0xbc7c4288	-0.015396722
50	0xbad31d24	-0.0016106707
51	0x3d0bc08f	0.034119185
52	0xbb87e46a	-0.004147102
53	0x3b3a228e	0.0028401944
54	0xbc0c8ae4	-0.008578036
55	0x3b7df1e0	0.0038748905
56	0x3c115fbc	0.0088729225
57	0xbb4a76c6	-0.0030893548
58	0x3b89d5ec	0.0042064097
59	0xbc302b94	-0.010752577
60	0xbb1c4d13	-0.002384965
61	0x3c416c52	0.011805611
62	0x3ade1a89	0.0016945164
63	0x39ec2fca	0.00045049033
64	0x3ab7085d	0.0013964284
65	0xbbc09af2	-0.005877846
66	0x3b993afc	0.004676221
67	0x39ab9af4	0.0003273111
68	0x3c8c072a	0.01709326
69	0x3bc1b738	0.005911734
70	0xbb002678	-0.001955418
71	0xba8c8d02	-0.0010723176
72	0x3bb1217b	0.0054056025
73	0xbc2998f1	-0.0103514055
74	0xbc12d1f0	-0.008961186
75	0xbb9b3d8f	-0.004737563
76	0x3c86e075	0.016464451
77	0xbca63ec4	-0.0202936
78	0x3c3403ee	0.010987265
79	0xbc74f30f	-0.014950528
80	0xbbffcb52	-0.00780622
81	0x3c9ca667	0.019122316
82	0xbc9d848a	-0.019228239
83	0xba9e2ebb	-0.001206837
84	0x3a81736d	0.0009876319
85	0x3b8a22b6	0.0042155636
86	0x38eb849b	0.00011230373
87	0xbb37f111	-0.002806727
88	0xbba8bb97	-0.0051493156
89	0xb9f501f8	-0.00046731508
90	0x3c045dc7	0.008078999
91	0xbc0b51c2	-0.008503379
92	0x3b644900	0.003483355
93	0x3b5a2b4e	0.0033289972
94	0x3b9d60ab	0.0048027835
95	0x3bf8244a	0.0075726854
96	0x3bf9d7c2	0.0076245973
97	0xbb8e17c5	-0.0043363296
98	0x3b9245e5	0.0044638985
99	0xbb4aea5f	-0.003096245
100	0xbcbcad38	-0.023031816
101	0x3bb00e6d	0.0053728134
102	0xbc0b0683	-0.008485439
103	0xba02bb7a	-0.00049870426
104	0x3b9a0ade	0.0047010025
105	0xbae55833	-0.0017497599
106	0x3b14c582	0.0022700732
107	0xbb3a9e48	-0.002847569
108	0x3c5111fc	0.012760635
109	0xbc3d12b7	-0.0115401065
110	0x38581862	5.152112e-05
111	0x3c573dab	0.013137261
112	0xbc7e72dc	-0.015530314
113	0xba282151	-0.0006413656
114	0xbb404330	-0.0029336922
115	0x3aa722ab	0.0012751421
116	0x3b07b5df	0.002070777
117	0xbbb91a33	-0.005648875
118	0x3b5256fd	0.0032095306
119	0x3c3e0dc2	0.01159996
120	0x3af47f5a	0.0018653676
121	0xbbb124c4	-0.005405994
122	0x3c8103cb	0.015748879
123	0x3b4cc59b	0.0031245712
124	0x3c7cfa08	0.0154404715
125	0xbbc4c546	-0.006004962
126	0xbbc78a66	-0.0060894964
127	0x3a65f0e9	0.0008771555

network_body._body_endoder.seq_layers.2.weight f4 [128, 128]
0	0xbd70385c	-0.0586475
1	0xbde151e1	-0.11001945
2	0xbd5d3a59	-0.054010723
3	0x3e0eb15e	0.13934848
4	0x3ce1a924	0.027546473
5	0x3e821e2d	0.25413647
6	0x3d871b10	0.06596959
7	0xbcb2ea16	-0.021840136
8	0xbda6f9ef	-0.0815314
9	0xbcab9e83	-0.020949608
10	0xbd62b128	-0.05534473
11	0x3d5d981c	0.05410014
12	0xbaa37e8e	-0.0012473629
13	0x3dbfd9fa	0.093677476
14	0xbbc69c07	-0.0060610804
15	0xbc40155e	-0.011723844
16	0xbe063e69	-0.13109745
17	0xbdb0127d	-0.08597276
18	0xbd92cf02	-0.0716839
19	0xbe264c5f	-0.16240071
20	0x3cf9d0a3	0.030494994
21	0x3e1a310a	0.1505777
22	0x3cb2faf2	0.021848176
23	0xbdaab7c1	-0.083358295
24	0xbd00d5c4	-0.031453863
25	0x3c8e0f48	0.017341271
26	0xbcd5728f	-0.026055602
27	0xbd3c7d6d	-0.046018053
28	0x3dc14ac5	0.09438089
29	0x3db694c8	0.089150965
30	0x3dd4f0be	0.103974804
31	0x3d20a39f	0.03921854
32	0x3d877069	0.066132374
33	0xbdb5bee0	-0.08874297
34	0x3d55ce89	0.05219892
35	0x3d93d2b6	0.07217924
36	0x3d15ed1e	0.036603086
37	0xbdcc692e	-0.09980999
38	0xbd8402dc	-0.06445858
39	0xbde5d10f	-0.112215154
40	0xbdf102f1	-0.11768139
41	0x3db9deb3	0.0907568
42	0x3d4ad190	0.04951626
43	0xbd95b21a	-0.07309361
44	0xbcfb41b9	-0.030670987
45	0x3d75ca67	0.06000748
46	0xbd449da8	-0.048001915
47	0x3d5f7afc	0.054560646
48	0xbda4bc9f	-0.08043789
49	0x3c92dc01	0.017927172
50	0xbcd95ab3	-0.026532507
51	0xbbbd0830	-0.0057687983
52	0xbc914448	-0.017732754
53	0xbd688026	-0.056762837
54	0x3dc1347e	0.0943384
55	0xbd9d8e25	-0.076931275
56	0x3bfa8990	0.0076457933
57	0xbc880ab0	-0.016606659
58	0x3cd0f98d	0.02550962
59	0xbbd62c8b	-0.0065360717
60	0xbd1cb5ec	-0.03825943
61	0x39c2cce6	0.00037155225
62	0x3e0abaaa	0.13547769
63	0x3d9bcbef	0.076072566
64	0x3da1e13c	0.07904288
65	0xbdd18af2	-0.1023158
66	0xbcad5010	-0.02115634
67	0x3d056ed5	0.0325764
68	0xbdea3069	-0.11435015
69	0xbd3721e8	-0.04471007
70	0xbd4fa6a0	-0.050696015
71	0x3d6e2846	0.058143876
72	0xbd4e6574	-0.050389722
73	0xbce62351	-0.028093012
74	0x3ce9ea4a	0.0285541
75	0x3e107dea	0.14110532
76	0x3dd7244e	0.105049714
77	0xbd1e968d	-0.038717795
78	0xbdba51b3	-0.09097614
79	0xbe02969a	-0.12752762
80	0x3dcfe56a	0.10151179
81	0xbdc9d625	-0.09855298
82	0xbdcb9839	-0.099411435
83	0x3bd82330	0.0065959916
84	0x3d8e1ab5	0.06938688
85	0xbc40cfac	-0.011768263
86	0xbbc4f157	-0.0060102153
87	0x3c5b996c	0.013403278
88	0x3e0725bc	0.13197988
89	0xbe0bc9f1	-0.13651253
90	0x3e140ce8	0.14458048
91	0x3a47a735	0.00076161633
92	0xbcf0263a	-0.029315103
93	0xbe2a7496	-0.16646037
94	0xbcc545ee	-0.024081197
95	0x3e136b98	0.14396513
96	0x3da96b69	0.0827244
97	0x3bf1073c	0.0073555987
98	0x3da3d237	0.0799908
99	0xbdb6b532	-0.08921279
100	0xbdf47def	-0.119380824
101	0x3d8422e9	0.06451971
102	0x3e084585	0.1330777
103	0xbd337f08	-0.04382232
104	0xbc896435	-0.016771415
105	0x3c37748f	0.011197223
106	0xbc275bfb	-0.010214801
107	0x3cdbb709	0.026820676
108	0xbe228a87	-0.15873156
109	0xbc6d42c7	-0.014481253
110	0x3cdf56a3	0.027262991
111	0xbe354c60	-0.17704916
112	0xbc69f113	-0.014278668
113	0xbdc79830	-0.09745824
114	0xbc611d58	-0.013739906
115	0x3de4b9c6	0.11168246
116	0xbd0bbae7	-0.03411379
117	0x3db5a335	0.0886902
118	0xbe315e10	-0.17321038
119	0x3db2dbb4	0.08733311
120	0xbbde09c3	-0.006776066
121	0xbd51b8a0	-0.051201463
122	0xbd98c481	-0.07459355
123	0x3e0b9e21	0.1363454
124	0xbd5f1007	-0.054458644
125	0x3db0bf3a	0.086302236
126	0xbd567604	-0.052358642
127	0xbb909e85	-0.0044134283
128	0xbe5eae12	-0.2174609
129	0xbcc6fafc	-0.0242896
130	0xbd8c6ec9	-0.06857068
131	0x3dfd12c6	0.123570964
132	0x3dc8f069	0.098114796
133	0x3e56e123	0.2098432
134	0xbce57f22	-0.028014723
135	0xbd10b6c9	-0.035330568
136	0xbd9b17a8	-0.075728714
137	0x3c801ea3	0.015639609
138	0x3d0990ff	0.033585545
139	0x3e0272c5	0.12739094
140	0x3c985779	0.018596398
141	0xbd66bcd0	-0.05633241
142	0x3c26fc78	0.010192029
143	0x3d302523	0.043004166
144	0xbe7d7842	-0.24752906
145	0xbd545907	-0.051842716
146	0x3cf9ef25	0.03050954
147	0xbc6d6775	-0.014489998
148	0x3d6fdac6	0.058558248
149	0x3c8559dd	0.016278202
150	0x3e055d8a	0.13023964
151	0x3a67ee94	0.00088475016
152	0x3da408b7	0.08009475
153	0xbe25c979	-0.16190137
154	0xbc943c0d	-0.01809504
155	0x3de70235	0.11279718
156	0xbda18a8d	-0.078877546
157	0xbb2e5102	-0.0026598577
158	0x3d6438bf	0.05571818
159	0xbda71361	-0.08157993
160	0xbdedd0a0	-0.11612058
161	0xbd997f3f	-0.074949734
162	0xbd706440	-0.058689356
163	0x3df70bec	0.12062821
164	0xbc79d027	-0.015247381
165	0xbe882d8b	-0.26597247
166	0xbcf14491	-0.02945164
167	0x3db5e2ed	0.08881173
168	0xbc29fb0e	-0.0103747975
169	0xbda53559	-0.08066816
170	0x3df59d1d	0.119928576
171	0x3d859c0e	0.06523906
172	0xbd9c430f	-0.07629978
173	0x3d2759e8	0.040857226
174	0x3e315a62	0.17319635
175	0x3dceebb0	0.101035476
176	0x3e0509b2	0.1299198
177	0xbd694623	-0.056951653
178	0xbdede563	-0.11616018
179	0x3d839f79	0.06426901
180	0x3e132ba2	0.14372113
181	0xbe0251c6	-0.12726507
182	0x3d5e9128	0.05433765
183	0xbda4f98f	-0.08055412
184	0xbd0d17f1	-0.03444666
185	0x3d181696	0.037130915
186	0x3be7fb6a	0.0070795314
187	0x3ce61961	0.028088273
188	0xbdb29304	-0.08719447
189	0x3c898fff	0.016792296
190	0x3d3b2ed2	0.04569895
191	0xbc1cff20	-0.009582311
192	0x3e1963e5	0.14979513
193	0x3d4b99b0	0.049707115
194	0xbd61678e	-0.055030398
195	0xbe2476e6	-0.16060981
196	0xbd0be660	-0.03415525
197	0xbd8d9f2a	-0.06915124
198	0x3da96963	0.08272054
199	0xbaa82be6	-0.0012830466
200	0x3c838646	0.016055238
201	0xbe0e6c30	-0.13908458
202	0xbcf73790	-0.030177861
203	0x3d98bf7b	0.07458397
204	0x3da58939	0.08082814
205	0x3d07172f	0.032981094
206	0xbb6d4a95	-0.0036207784
207	0x3dabed8d	0.083949186
208	0xbd9acc2e	-0.075584754
209	0xbcfcbf13	-0.03085283
210	0x3dd7e92b	0.1054252
211	0xbdb014b0	-0.08597696
212	0xbd32e8d4	-0.043679073
213	0xbe39914a	-0.1812183
214	0x3bf31ae0	0.0074189752
215	0x3c8c6854	0.017139591
216	0x3cf3b8a5	0.029751131
217	0xbd8f6126	-0.070009515
218	0xbd6c7f1f	-0.05773842
219	0xbd582d4c	-0.052777573
220	0x3d093c21	0.03350461
221	0x3df54c56	0.119774505
222	0x3e5f3be7	0.21800195
223	0x3d1c4ccf	0.038159188
224	0xbc8c5f03	-0.017135149
225	0x3dde825c	0.10864708
226	0x3dc93076	0.09823696
227	0xbd6f95a7	-0.05849233
228	0x3d544fbb	0.05183385
229	0xbd97388f	-0.073838346
230	0x3d240470	0.040043294
231	0xbe1773b8	-0.14790237
232	0xbdc0ee55	-0.09420458
233	0x3c96443d	0.018343085
234	0xbe0a8165	-0.13525923
235	0x3d9134c6	0.07090144
236	0x3dba980e	0.091110334
237	0xbbf1e9ae	-0.007382593
238	0xbe005c5e	-0.12535235
239	0xbd96a6f6	-0.07356064
240	0x3d0df461	0.034656886
241	0xbc1f9a35	-0.009741356
242	0xbd9824f8	-0.07428926
243	0x3d2aba10	0.04168135
244	0x3d342948	0.04398468
245	0x3d9a5f68	0.075377285
246	0xbe19fb71	-0.15037324
247	0x3dcb63dd	0.09931157
248	0xbe626196	-0.22107539
249	0x3b95c77f	0.004570901
250	0x3bb195d4	0.005419472
251	0xbda90d0e	-0.08254443
252	0xbdf3e369	-0.119086094
253	0x3d1506cb	0.03638343
254	0x3def7d6b	0.116938435
255	0x3d625134	0.055253223

network_body._body_endoder.seq_layers.2.bias f4 [128]
0	0xb8b70c81	-8.728449e-05
1	0xb9aba2d1	-0.0003273697
2	0xbb74e1a9	-0.003736595
3	0xbac902be	-0.00153359
4	0x3c0d1e32	0.008613156
5	0xbaaaa06d	-0.0013017781
6	0x3bc99313	0.006151566
7	0xbaec6fe7	-0.0018038721
8	0xba978ecf	-0.0011562946
9	0x39afcd7e	0.00033531705
10	0xb97e7a2c	-0.0002426884
11	0xbc011fa3	-0.007881078
12	0xb9ac1ae7	-0.0003282644
13	0xbab45d27	-0.0013760672
14	0x3af8ba52	0.0018976426
15	0xba85503e	-0.0010171009
16	0xbbf92073	-0.007602745
17	0x3c4b7dde	0.012420146
18	0x3c2e9e33	0.010657835
19	0xba89560a	-0.0010477912
20	0x3c70f6f7	0.0147073185
21	0x3ba579c0	0.005049914
22	0xbb14419b	-0.0022622112
23	0xb91dd802	-0.00015053156
24	0xbb03411f	-0.002002783
25	0xba182033	-0.0005803138
26	0xbaf5defc	-0.0018758471
27	0x3bb96d91	0.0056588133
28	0xbae45691	-0.0017420818
29	0xba708532	-0.0009175121
30	0xba8d06b7	-0.0010759447
31	0x3a6dc474	0.00090701063
32	0x3b8e4cc2	0.0043426463
33	0xbb8c3560	-0.0042788237
34	0x3bd01da3	0.006351189
35	0x3ad4328d	0.0016189382
36	0x3c7767f2	0.015100466
37	0x39ddef5a	0.00042330736
38	0xbb2ae7e9	-0.002607817
39	0xbb056d5b	-0.002035937
40	0xbb7987b8	-0.003807528
41	0xbbb3774d	-0.0054768682
42	0x3c02cd4b	0.007983516
43	0xbb7945fd	-0.00380361
44	0xba523af8	-0.0008019651
45	0xbb6c957f	-0.0036099849
46	0x3c07c4f3	0.008286702
47	0xbb730b15	-0.0037085463
48	0x3c639c06	0.013892179
49	0x3b36cc82	0.0027892892
50	0xbb393401	-0.0028259757
51	0xbb9d07c1	-0.004792184
52	0xba9b22b9	-0.001183591
53	0x39c96607	0.00038413724
54	0xbbdc26a7	-0.006718475
55	0xbbf59d34	-0.0074955467
56	0xbaf1ddd6	-0.0018452953
57	0x38524991	5.0136416e-05
58	0xbaca7d45	-0.001544871
59	0xba2ac81e	-0.0006514805
60	0x3bb4c9e0	0.0055172294
61	0xba7d8dbd	-0.0009672305
62	0xbb16f911	-0.0023036639
63	0xbb46d613	-0.003034
64	0xbb820155	-0.003967444
65	0xba87f7aa	-0.0010373492
66	0xbaa80d24	-0.0012821299
67	0xbafeff1d	-0.0019454692
68	0xbab0a162	-0.001347583
69	0x38bbd0ce	8.955748e-05
70	0xbb0a4e8d	-0.0021103949
71	0x3a15e71c	0.0005718337
72	0x39b84094	0.0003514333
73	0xba85d41c	-0.0010210308
74	0xbb1712e3	-0.002305203
75	0x3af37be1	0.0018576348
76	0xbb6fcb01	-0.0036589506
77	0xbace0bd4	-0.0015720078
78	0x3c0e063b	0.008668478
79	0xbae498da	-0.0017440573
80	0xbbeea801	-0.007283211
81	0xbae102ac	-0.0017166934
82	0x3bc24682	0.0059288153
83	0x386556cb	5.4678687e-05
84	0x3bab8609	0.005234484
85	0x3bd3ad2c	0.0064598527
86	0xb9253b41	-0.000157577
87	0x3ad0633b	0.0015898714
88	0xbb30df98	-0.002698874
89	0xba319969	-0.0006774874
90	0xb970df19	-0.00022971294
91	0x3bdc4cd0	0.006723024
92	0x3bf88396	0.0075840456
93	0xbabab4d1	-0.0014244561
94	0xba592497	-0.00082833454
95	0x3c0674f7	0.0082065975
96	0x3c14f350	0.009091213
97	0x3bfdbb2e	0.007743261
98	0x3b5e38cf	0.0033908372
99	0x3bf544ee	0.0074850237
100	0x3b2810ee	0.0025644857
101	0x3c3aebe9	0.011408784
102	0xba290b55	-0.0006448527
103	0xb99478fd	-0.00028318903
104	0xba1128d7	-0.00055373966
105	0xb9169e77	-0.00014364148
106	0xbb3e4682	-0.0029033725
107	0x39ea6665	0.00044708248
108	0xba3101f8	-0.00067523075
109	0xbb551beb	-0.003251786
110	0x3ba3be23	0.0049970313
111	0x394b4d5e	0.0001938841
112	0x3b904c0f	0.004403598
113	0xba1fe7b6	-0.0006099896
114	0xbbddfac0	-0.0067742765
115	0xbbb18318	-0.005417239
116	0x39069054	0.00012833002
117	0x3bc9465a	0.0061424198
118	0xbc0e6b38	-0.008692555
119	0x3ba163fb	0.0049252487
120	0x3bd11145	0.0063802325
121	0xbb68b53d	-0.0035508417
122	0x39a9a417	0.00032356448
123	0xbad3404e	-0.0016117187
124	0xb96d2f7f	-0.00022619775
125	0x3ad30bcd	0.0016101539
126	0x3b8ea5a1	0.0043532406
127	0xbb56a1be	-0.0032750214

action_model._continuous_distribution.log_sigma f4 [1, 2]
0	0xbca42362	-0.020036403
1	0xbd817010	-0.06320202

action_model._continuous_distribution.mu.weight f4 [2, 128]
0	0x3c04cc94	0.008105416
1	0x3c0603a2	0.008179577
2	0xbc2690a3	-0.01016632
3	0xbca6bbaf	-0.020353166
4	0x3d028370	0.03186363
5	0xbc840afa	-0.016118515
6	0x397bac95	0.00024001517
7	0xbbcc96a1	-0.0062435423
8	0x3c6db9c9	0.014509627
9	0x3cd8fc21	0.026487412
10	0xbcb4020f	-0.021973638
11	0x3c6f53c2	0.014607372
12	0x3ca41fdd	0.020034725
13	0xbc8a4469	-0.016878324
14	0x3b9c4c2b	0.004769822
15	0xbce9e40d	-0.028551126
16	0xbc8c8405	-0.017152796
17	0x3a7158f4	0.00092066755
18	0x399e1675	0.0003015284
19	0xbceefd4f	-0.029173521
20	0x3d2c2fd3	0.042037796
21	0xbc8230bc	-0.015892379
22	0x3cba7ad4	0.022763647
23	0xbc6faf6c	-0.014629226
24	0xbc69bbe2	-0.014265986
25	0x3cbb7e51	0.02288738
26	0xbc777595	-0.015103717
27	0xbd0a0a02	-0.03370095
28	0xbc013f83	-0.0078886775
29	0xbbe726fd	-0.0070542083
30	0xbc799772	-0.015233861
31	0xbcd13cb6	-0.025541645
32	0x3c69a933	0.014261532
33	0x3cdd60df	0.02702373
34	0xbc8c8fc0	-0.01715839
35	0xbcb9a81a	-0.022663165
36	0xbad73a19	-0.0016420513
37	0x3cbc190c	0.022961162
38	0xbcb088ae	-0.021549549
39	0x3b382761	0.0028099644
40	0xbc0cd8b9	-0.008596593
41	0xbac39bd0	-0.0014923755
42	0x3ce3191c	0.027721934
43	0xbc052dad	-0.008128566
44	0x3c41e1fa	0.011833662
45	0x3b2de990	0.002653692
46	0xbb80be12	-0.003928908
47	0x39e0d891	0.00042885964
48	0x3d2f0025	0.042724747
49	0xbd306b89	-0.043071304
50	0xbbb07a28	-0.005385656
51	0x3d2e370d	0.04253297
52	0x3c243547	0.010022468
53	0x3c773083	0.01508725
54	0x3c9e53c7	0.019327058
55	0xbcb0f718	-0.021602198
56	0x382b61f5	4.0860807e-05
57	0x3cad0008	0.021118179
58	0xbcf75a29	-0.030194359
59	0x3cc99a7f	0.024609802
60	0x3c8437a0	0.016139805
61	0x3b248512	0.002510373
62	0xbca16401	-0.019701006
63	0xbc044d9f	-0.008075147
64	0xbc78dc6f	-0.015189274
65	0x3c1c27de	0.009530989
66	0x3c6edf5b	0.014579619
67	0xbd2c1509	-0.04201225
68	0xbbff0995	-0.0077831247
69	0x3c9d12bf	0.019173978
70	0xbc8b6a26	-0.017018389
71	0xbc03a39f	-0.008034616
72	0x3d0ad67d	0.03389596
73	0xbce99de4	-0.02851767
74	0x3b01e610	0.0019820966
75	0xbb409a37	-0.0029388794
76	0xbcc3544f	-0.023843912
77	0x3c321ec5	0.010871594
78	0xbc821cb7	-0.015882833
79	0x3ccb5cb2	0.024824474
80	0x3cefda9f	0.029279051
81	0xbc536be1	-0.012904138
82	0x3d085c6c	0.033291265
83	0xbbc0cfd5	-0.0058841505
84	0xbca1666b	-0.019702157
85	0xbc221b17	-0.009894154
86	0xbc9bce19	-0.019019173
87	0xbcafb245	-0.02144731
88	0x3a60e5a8	0.00085791433
89	0xbc001f0f	-0.007819905
90	0xbc87b52d	-0.016565884
91	0xbd2c275d	-0.042029727
92	0xbd0e7d11	-0.03478724
93	0xbd189c0b	-0.03725819
94	0x3bd99fe1	0.0066413735
95	0xbc44037e	-0.011963723
96	0xbc90a1c3	-0.017655259
97	0x3c7e1ddf	0.0155100515
98	0x3be80a7d	0.0070813284
99	0xbcd3f65a	-0.025874306
100	0x3d0ed2d1	0.03486902
101	0x3cfc29d7	0.03078167
102	0xbc79c342	-0.015244307
103	0xbc716d42	-0.014735522
104	0xbcff5730	-0.031169504
105	0xbc76ae97	-0.015056274
106	0xbbb0469b	-0.0053795106
107	0x3ceb5789	0.028728263
108	0x3c90b121	0.017662587
109	0xbc88f4f9	-0.016718375
110	0x3d03e661	0.03220213
111	0xbb96c75f	-0.0046014036
112	0x39e53be0	0.00043722894
113	0xbc8a35f7	-0.016871436
114	0x3b97a19d	0.00462742
115	0xbc3209c7	-0.010866589
116	0x3c87abc6	0.0165614
117	0x3c89b1cb	0.016808411
118	0xbcc63430	-0.024194807
119	0x3d022435	0.03177281
120	0xbcf67e3c	-0.03008949
121	0xbbfbc965	-0.00768392
122	0x3aa4ec1f	0.0012582577
123	0x3c150fd6	0.009098014
124	0xbd1ce745	-0.038306493
125	0x3b593880	0.003314525
126	0x3c96d08d	0.018409992
127	0x3c932604	0.017962463
128	0xbccabfa8	-0.024749592
129	0xbc93a6e4	-0.018023916
130	0x3c98efa5	0.018668959
131	0xbc621749	-0.013799497
132	0xbd112e52	-0.035444565
133	0x3d1c3e6b	0.038145464
134	0x3d05f4ca	0.032704152
135	0x3c5929b4	0.013254572
136	0x3c8b2591	0.016985686
137	0xbbbb5f4c	-0.0057181474
138	0xbc7a0533	-0.015260029
139	0xbd355866	-0.044273756
140	0xbc159751	-0.009130315
141	0x3d388c56	0.04505571
142	0xbcf1eeaf	-0.029532759
143	0xbc2a4a3e	-0.010393677
144	0xbb9a81f8	-0.0047152005
145	0xbd2eafb3	-0.04264803
146	0xbd2dea51	-0.04245979
147	0xbbf7fed1	-0.0075682183
148	0x3d00ed44	0.031476274
149	0xbc152a64	-0.009104345
150	0xbc446f88	-0.011989482
151	0xbc13f9b4	-0.009031702
152	0x3ab8564d	0.0014063806
153	0xbc52d7eb	-0.012868862
154	0x3ca7429a	0.0204175
155	0x3c1105ea	0.008851508
156	0xbbab6efb	-0.0052317358
157	0x3c8a3d0c	0.016874813
158	0x3c68e72c	0.014215272
159	0x3caabf36	0.02084313
160	0xbd37bbd0	-0.044856846
161	0x3c58c53a	0.013230616
162	0xbd3c8421	-0.046024445
163	0xbc87d2f2	-0.016580079
164	0xbd073920	-0.033013463
165	0xbbf70e13	-0.0075395196
166	0x3cd46093	0.025924956
167	0x3ca80025	0.020507881
168	0xbbc77ef7	-0.0060881334
169	0x3aacc9a1	0.0013182649
170	0xbca8b5ec	-0.02059456
171	0x3c3fcf03	0.01170707
172	0xbcaba103	-0.0209508
173	0x3c398e46	0.011325425
174	0xbd55e511	-0.052220408
175	0x3baed4a0	0.0053354055
176	0x3c90fae3	0.017697757
177	0xbcd35b73	-0.025800442
178	0x3b7b9fcb	0.0038394805
179	0xbc98d278	-0.018655047
180	0x3b25a54e	0.0025275531
181	0xbd4435c6	-0.047902845
182	0x3c1373a2	0.008999737
183	0xbc7c60df	-0.015403955
184	0xbbc639d9	-0.0060493764
185	0x3c540541	0.012940706
186	0xbcaca7f2	-0.021076176
187	0x3c8ce9c4	0.017201312
188	0x3c1416f1	0.009038673
189	0x3ccb916f	0.024849622
190	0x3c190b13	0.009341019
191	0x3b8262d9	0.0039790687
192	0xbad15c1a	-0.0015972883
193	0x3d0ad071	0.03389019
194	0x3bc445c3	0.0059897616
195	0x3aac6b77	0.0013154586
196	0x3c9fe50d	0.0195184
197	0xbc8dfe76	-0.01733325
198	0x3c1d3c62	0.009596916
199	0xbc958f04	-0.018256672
200	0xbd2e2455	-0.042515118
201	0xbc7e0d90	-0.015506163
202	0x3b3ea34f	0.0029089039
203	0x3c82f89c	0.015987687
204	0x3cd5c1fb	0.026093474
205	0x3c874d1d	0.016516263
206	0xbccb2b5e	-0.024800953
207	0xbcb9cda3	-0.022681063
208	0x3c1022ee	0.00879739
209	0x3bc30f7d	0.005952774
210	0xbc9b9712	-0.018992934
211	0xbd4688e1	-0.04847038
212	0x3c8dd0c3	0.01731146
213	0xbc88415c	-0.016632728
214	0xbb835b62	-0.0040086964
215	0xbc3d175e	-0.011541216
216	0x3c1b28a2	0.009470137
217	0xbca8e945	-0.020619044
218	0xbcdd978e	-0.027049806
219	0x3ba717b1	0.00509926
220	0xbd465677	-0.048422303
221	0xba4e763d	-0.0007875895
222	0xbbe1f9d2	-0.006896236
223	0x3c2938ee	0.0103285145
224	0x3caa7561	0.020807924
225	0x3c9e995c	0.019360237
226	0x3c50ffcf	0.012756302
227	0x3c6c8c10	0.01443769
228	0xbc82c7e6	-0.01596446
229	0x3b88ce76	0.0041750027
230	0xbc6b413c	-0.014358815
231	0xbca97853	-0.020687258
232	0xbc423936	-0.01185446
233	0xbc244b48	-0.010027714
234	0xbcb45ba4	-0.022016354
235	0xbc6883e2	-0.0141916
236	0x3d1126b9	0.03543732
237	0xbcb34874	-0.021885134
238	0x3d05ce50	0.032667458
239	0xbc9db84d	-0.01925292
240	0xbcc825b8	-0.024432048
241	0xbb0fdc0f	-0.0021951234
242	0xbc9634e8	-0.018335775
243	0x38534aa4	5.0375835e-05
244	0x3cee1f58	0.02906768
245	0x3ab2118b	0.001358555
246	0x3c21780f	0.009855284
247	0x3cda3349	0.026635783
248	0x3d870148	0.06592041
249	0xbc3c4e5a	-0.01149329
250	0x3c9630b1	0.018333765
251	0x3c9f0fb7	0.019416673
252	0xbbea87e1	-0.0071573113
253	0xbd11774a	-0.035514154
254	0x3c852b76	0.016256075
255	0x3b11d0a2	0.00222496

action_model._continuous_distribution.mu.bias f4 [2]
0	0x3a54f68f	0.00081238983
1	0xba1068ee	-0.00055088

exp_avg f4 [128, 6]
0	0xb94a9967	-0.00019321368
1	0x39e5a465	0.00043800767
2	0xb93d0499	-0.00018026157
3	0x39996f6e	0.00029265456
4	0x39e5a465	0.00043800767
5	0xb9cc0cbd	-0.00038919403
6	0x399c4282	0.0002980419
7	0x3a5406b2	0.0008088156
8	0xba250a77	-0.000629581
9	0x3a0daa47	0.00054040964
10	0x3a5406b2	0.0008088156
11	0xba3c65a4	-0.00071867765
12	0xb5b960a5	-1.3811701e-06
13	0x378be932	1.6678681e-05
14	0xb69de246	-4.7053063e-06
15	0x373af676	1.1143848e-05
16	0x378be932	1.6678681e-05
17	0xb778a31c	-1.4819929e-05
18	0x3720cc7a	9.584352e-06
19	0x38368594	4.3516586e-05
20	0xb7973a73	-1.802782e-05
21	0x37f3e750	2.907557e-05
22	0x38368594	4.3516586e-05
23	0xb8222e41	-3.8666887e-05
24	0xb94a281c	-0.00019279163
25	0x38035b72	3.1318e-05
26	0x3861974b	5.3785083e-05
27	0x37af8848	2.0925087e-05
28	0x38035b72	3.1318e-05
29	0xb7e96f91	-2.7827717e-05
30	0xb612a139	-2.184954e-06
31	0xb966fc89	-0.00022028586
32	0xb859cbd6	-5.192667e-05
33	0xb91a555c	-0.00014718383
34	0xb966fc89	-0.00022028586
35	0x394d3e8e	0.00019573627
36	0x36e1b395	6.7264286e-06
37	0xb7ef5d65	-2.853451e-05
38	0x384253e8	4.6331348e-05
39	0xb79fee76	-1.9065319e-05
40	0xb7ef5d65	-2.853451e-05
41	0x37d4b059	2.5354488e-05
42	0x3906517d	0.00012809593
43	0xb8b78cbd	-8.7523345e-05
44	0x382fb24f	4.1889314e-05
45	0xb87546f7	-5.8478643e-05
46	0xb8b78cbd	-8.7523345e-05
47	0x38a31817	7.776933e-05
48	0xb9908b32	-0.0002756953
49	0xb9c5c7cc	-0.00037723628
50	0x38f8dcb6	0.00011866672
51	0xb9842598	-0.00025205011
52	0xb9c5c7cc	-0.00037723628
53	0x39afbd28	0.00033519533
54	0xb9d5958b	-0.00040737944
55	0xbaa8354c	-0.0012833267
56	0x3a0e6526	0.00054319424
57	0xba60c6be	-0.0008574537
58	0xbaa8354c	-0.0012833267
59	0x3a957656	0.0011403065
60	0x37a91651	2.0156762e-05
61	0x38fe2cd4	0.00012120014
62	0xb75edb5d	-1.3283306e-05
63	0x38a9d3ab	8.097974e-05
64	0x38fe2cd4	0.00012120014
65	0xb8e1d93a	-0.00010769298
66	0xb9ce7481	-0.00039378184
67	0xba2efd70	-0.00066753384
68	0x39d50370	0.00040629087
69	0xb9e9d6c0	-0.00044601224
70	0xba2efd70	-0.00066753384
71	0x3a1b7cff	0.00059314066
72	0xb6635690	-3.3876022e-06
73	0xb8243936	-3.915393e-05
74	0x3798185c	1.8131155e-05
75	0xb7db739a	-2.6160666e-05
76	0xb8243936	-3.915393e-05
77	0x3811ebf2	3.4790435e-05
78	0xb92edd46	-0.00016676364
79	0xb7f454e3	-2.9126595e-05
80	0xb895e699	-7.147826e-05
81	0xb7a33ff0	-1.9460887e-05
82	0xb7f454e3	-2.9126595e-05
83	0x37d91a02	2.5880527e-05
84	0xba2076c3	-0.00061212125
85	0xbadb74ec	-0.001674322
86	0x3a4d1a23	0.0007824024
87	0xba92a13b	-0.0011186966
88	0xbadb74ec	-0.001674322
89	0x3ac2ffd6	0.001487727
90	0x3888a661	6.515976e-05
91	0x392096e7	0.00015315005
92	0xb895d243	-7.144038e-05
93	0x38d69871	0.000102327096
94	0x392096e7	0.00015315005
95	0xb90eb14f	-0.00013608228
96	0x372efe4e	1.0430418e-05
97	0x37a93cbb	2.017465e-05
98	0xb716d5f8	-8.990515e-06
99	0x376226c1	1.3479673e-05
100	0x37a93cbb	2.017465e-05
101	0xb796606a	-1.792629e-05
102	0xb82a0d8a	-4.0543768e-05
103	0x39abfaa7	0.00032802412
104	0xb92e46fd	-0.00016620378
105	0x3965d0bd	0.00021916903
106	0x39abfaa7	0.00032802412
107	0xb998d020	-0.00029146764
108	0xba08b8cc	-0.0005215525
109	0xb9dadd81	-0.00041745233
110	0x39702065	0.00022900251
111	0xb9923c09	-0.0002789202
112	0xb9dadd81	-0.00041745233
113	0x39c27950	0.00037092948
114	0x37a224bb	1.9329009e-05
115	0xb5ea41da	-1.7453524e-06
116	0xb541a6f5	-7.214106e-07
117	0xb59c8499	-1.1661497e-06
118	0xb5ea41da	-1.7453524e-06
119	0x35d02652	1.550836e-06
120	0xb7eca9eb	-2.8212517e-05
121	0xb8a95406	-8.0741986e-05
122	0x38884f72	6.499783e-05
123	0xb86245e6	-5.3947697e-05
124	0xb8a95406	-8.0741986e-05
125	0x3896751d	7.1743714e-05
126	0xb89b360c	-7.401043e-05
127	0xba437d14	-0.0007457298
128	0x39cd03f9	0.00039103607
129	0xba029d92	-0.0004982586
130	0xba437d14	-0.0007457298
131	0x3a2db3cc	0.0006626218
132	0x34a848ed	3.13455e-07
133	0xb3df2829	-1.0391552e-07
134	0xb2ae439d	-2.0287013e-08
135	0xb3951a18	-6.9430996e-08
136	0xb3df2829	-1.0391552e-07
137	0x33c64977	9.233457e-08
138	0xb986862f	-0.00025658446
139	0x382b1930	4.0793035e-05
140	0xb58d0bae	-1.0508718e-06
141	0x37e4a3ae	2.7255937e-05
142	0x382b1930	4.0793035e-05
143	0xb81807ef	-3.6247013e-05
144	0xb927a48f	-0.00015987664
145	0xb8d5be15	-0.00010192037
146	0xb652372f	-3.132456e-06
147	0xb88ecfdd	-6.809805e-05
148	0xb8d5be15	-0.00010192037
149	0x38bdebff	9.05618e-05
150	0xb8955e25	-7.1224094e-05
151	0x38023fad	3.1053718e-05
152	0xb7d24533	-2.5066174e-05
153	0x37ae0d45	2.0748595e-05
154	0x38023fad	3.1053718e-05
155	0xb7e7777b	-2.7592983e-05
156	0x3a0428c3	0.00050414744
157	0x394a1dcd	0.00019275323
158	0xb88de9df	-6.766966e-05
159	0x39070b3f	0.00012878793
160	0x394a1dcd	0.00019275323
161	0xb933977d	-0.00017127204
162	0xb9ca52b8	-0.00038590073
163	0x39f454ca	0.0004660248
164	0xb91ea494	-0.00015129364
165	0x39a33fe5	0.00031137388
166	0x39f454ca	0.0004660248
167	0xb9d91a10	-0.00041408883
168	0xb6b53e5c	-5.40148e-06
169	0xb6ceb9bf	-6.160902e-06
170	0x3701866f	7.720299e-06
171	0xb68a1f9f	-4.1164017e-06
172	0xb6ceb9bf	-6.160902e-06
173	0x36b7afe3	5.474301e-06
174	0x39a5c492	0.0003161771
175	0xba67bcf3	-0.00088401063
176	0x39c77fe9	0.00038051538
177	0xba1ad5ee	-0.0005906512
178	0xba67bcf3	-0.00088401063
179	0x3a4de982	0.0007854925
180	0x38fc1d51	0.00012021757
181	0x3a13a8c0	0.00056327507
182	0xb98be177	-0.0002668013
183	0x39c55115	0.0003763518
184	0x3a13a8c0	0.00056327507
185	0xba03340e	-0.000500501
186	0x3980c04d	0.00024557338
187	0x3a7d6bf7	0.0009667272
188	0xb9df9991	-0.0004264829
189	0x3a2952d3	0.000645918
190	0x3a7d6bf7	0.0009667272
191	0xba612de1	-0.00085899053
192	0x38740d1c	5.8186342e-05
193	0x3781d488	1.5476966e-05
194	0xb705110d	-7.931388e-06
195	0x372d7dd8	1.0340904e-05
196	0x3781d488	1.5476966e-05
197	0xb766b8da	-1.3752107e-05
198	0x37bd53f2	2.2569646e-05
199	0x37da247d	2.6004616e-05
200	0xb7939808	-1.759456e-05
201	0x3791c076	1.7374969e-05
202	0x37da247d	2.6004616e-05
203	0xb7c1d4f0	-2.310655e-05
204	0x3a397204	0.00070741796
205	0x3afa5330	0.0019098278
206	0xba6d4873	-0.00090516283
207	0x3aa74120	0.0012760498
208	0x3afa5330	0.0019098278
209	0xbade6d73	-0.0016969874
210	0x33ac3534	8.019052e-08
211	0x3474200c	2.273593e-07
212	0xb3c424b1	-9.1336354e-08
213	0x34231cb1	1.5190996e-07
214	0x3474200c	2.273593e-07
215	0xb458eb2f	-2.0202127e-07
216	0xb9ae9348	-0.000332976
217	0xba62e0fc	-0.0008654741
218	0x39dc4bf2	0.00042018254
219	0xba1796c2	-0.00057826575
220	0xba62e0fc	-0.0008654741
221	0x3a499829	0.0007690215
222	0xb8406c72	-4.5877365e-05
223	0xb8c503bc	-9.3943876e-05
224	0x37bbcab8	2.2386535e-05
225	0xb883a299	-6.276853e-05
226	0xb8c503bc	-9.3943876e-05
227	0x38af0ef0	8.3474326e-05
228	0x378637f8	1.6000107e-05
229	0xb81aab3a	-3.687593e-05
230	0xb5ddb1fa	-1.6517581e-06
231	0xb7ceaf0e	-2.463863e-05
232	0xb81aab3a	-3.687593e-05
233	0x38096e8c	3.27663e-05
234	0xb9986a47	-0.00029070882
235	0xb8407a73	-4.5890407e-05
236	0x381007a8	3.4339406e-05
237	0xb8009ab4	-3.0661657e-05
238	0xb8407a73	-4.5890407e-05
239	0x382b073e	4.0776322e-05
240	0x35fca35d	1.8823008e-06
241	0x35d7aef4	1.6069666e-06
242	0xb57a64de	-9.327904e-07
243	0x35901bd4	1.0736935e-06
244	0x35d7aef4	1.6069666e-06
245	0xb5bfa584	-1.427878e-06
246	0x38a44fb8	7.834978e-05
247	0xb9a9ca0c	-0.0003238473
248	0x38c52320	9.4002346e-05
249	0xb962e39b	-0.00021637829
250	0xb9a9ca0c	-0.0003238473
251	0x3996ddfc	0.0002877562
252	0xb8be187b	-9.064466e-05
253	0xb9d74a51	-0.00041063366
254	0x39133cda	0.00014041681
255	0xb98fd894	-0.0002743645

exp_avg_sq f4 [128, 6]
0	0x356ae9db	8.75121e-07
1	0x36a32a4f	4.862704e-06
2	0x3481155e	2.404367e-07
3	0x3611ae89	2.1708277e-06
4	0x36a32a4f	4.862704e-06
5	0x3680d2f8	3.8392573e-06
6	0x35887dc1	1.0169389e-06
7	0x37151275	8.885389e-06
8	0x34ac824b	3.2132297e-07
9	0x36851935	3.9666434e-06
10	0x37151275	8.885389e-06
11	0x36eb64d3	7.0152832e-06
12	0x309e83de	1.1533492e-09
13	0x326bbc05	1.3721551e-08
14	0x2f90dc80	2.6350122e-10
15	0x31d27986	6.12562e-09
16	0x326bbc05	1.3721551e-08
17	0x323a1e9d	1.0833586e-08
18	0x338b9082	6.498978e-08
19	0x33edd0b8	1.1074138e-07
20	0x32b20fb2	2.0729065e-08
21	0x3354552c	4.943756e-08
22	0x33edd0b8	1.1074138e-07
23	0x33bbc32f	8.74337e-08
24	0x3470d28e	2.2428341e-07
25	0x35f1a37e	1.8003482e-06
26	0x33635020	5.292543e-08
27	0x3557bf21	8.037187e-07
28	0x35f1a37e	1.8003482e-06
29	0x35bec800	1.4214311e-06
30	0x33bb7c7c	8.73051e-08
31	0x35e58ba5	1.7102471e-06
32	0x32a79fdb	1.9514053e-08
33	0x354cf2df	7.6349346e-07
34	0x35e58ba5	1.7102471e-06
35	0x35b53ba3	1.3502907e-06
36	0x344ee1c9	1.9267385e-07
37	0x358bf72f	1.0428247e-06
38	0x335cb71a	5.138927e-08
39	0x34f9ef8a	4.6554152e-07
40	0x358bf72f	1.0428247e-06
41	0x355d03ab	8.2334253e-07
42	0x33a1dd42	7.537393e-08
43	0x35203348	5.967927e-07
44	0x327605b6	1.4320383e-08
45	0x348f08d5	2.6642252e-07
46	0x35203348	5.967927e-07
47	0x34fcf760	4.7118647e-07
48	0x3495d058	2.7905003e-07
49	0x357b1ba8	9.354503e-07
50	0x33d029df	9.693371e-08
51	0x34e0336c	4.1760666e-07
52	0x357b1ba8	9.354503e-07
53	0x354641e6	7.385664e-07
54	0x34feaa2c	4.7435003e-07
55	0x36c9adc7	6.010497e-06
56	0x348351cc	2.4460167e-07
57	0x36341175	2.6832251e-06
58	0x36c9adc7	6.010497e-06
59	0x369f3b4b	4.745472e-06
60	0x3346f2cb	4.6321286e-08
61	0x34e96d9c	4.3479383e-07
62	0x31e777f7	6.7366233e-09
63	0x34506a60	1.9410209e-07
64	0x34e96d9c	4.3479383e-07
65	0x34b84c74	3.4328298e-07
66	0x359b9d5f	1.1594201e-06
67	0x3780f687	1.5373587e-05
68	0x34c866cf	3.7327706e-07
69	0x36e649c5	6.863122e-06
70	0x3780f687	1.5373587e-05
71	0x374ba3f1	1.21379135e-05
72	0x3083058e	9.533083e-10
73	0x320a4df8	8.050385e-09
74	0x2fc0f45d	3.5098227e-10
75	0x3176f83c	3.5938816e-09
76	0x320a4df8	8.050385e-09
77	0x31da6426	6.3560206e-09
78	0x348cb696	2.620988e-07
79	0x356b51c5	8.766331e-07
80	0x338c61e5	6.537065e-08
81	0x34d21aac	3.9134954e-07
82	0x356b51c5	8.766331e-07
83	0x3539caba	6.9212876e-07
84	0x3603d5ba	1.9644926e-06
85	0x37a8b70c	2.0112398e-05
86	0x35607303	8.3613867e-07
87	0x3716a2fc	8.9786445e-06
88	0x37a8b70c	2.0112398e-05
89	0x378534ab	1.5879361e-05
90	0x320ef977	8.32221e-09
91	0x33922540	6.8054305e-08
92	0x3180bee9	3.7469943e-09
93	0x33027c4e	3.0381038e-08
94	0x33922540	6.8054305e-08
95	0x3366c5cd	5.3730947e-08
96	0x2f697520	2.1232838e-10
97	0x30eac5e6	1.7081987e-09
98	0x2ebef889	8.6843484e-11
99	0x30519dc5	7.625796e-10
100	0x30eac5e6	1.7081987e-09
101	0x30b95c42	1.3486743e-09
102	0x352e60d2	6.4960943e-07
103	0x36a8e596	5.0335175e-06
104	0x3444eb6f	1.8339573e-07
105	0x3616cc90	2.2470813e-06
106	0x36a8e596	5.0335175e-06
107	0x3685596d	3.9741194e-06
108	0x35ca9d38	1.509593e-06
109	0x36f33588	7.248196e-06
110	0x34ea384c	4.3626858e-07
111	0x3659260c	3.2357666e-06
112	0x36f33588	7.248196e-06
113	0x36c00565	5.722674e-06
114	0x304e8638	7.51331e-10
115	0x31ab3129	4.982344e-09
116	0x2f2b97ea	1.560633e-10
117	0x3118d91d	2.2242326e-09
118	0x31ab3129	4.982344e-09
119	0x3187293e	3.933706e-09
120	0x33cccff4	9.537317e-08
121	0x36078d28	2.0198731e-06
122	0x32ca97b8	2.3584889e-08
123	0x35720d89	9.017172e-07
124	0x36078d28	2.0198731e-06
125	0x35d60b32	1.5947501e-06
126	0x360f1761	2.1322269e-06
127	0x37af3be3	2.0889513e-05
128	0x353df609	7.0766015e-07
129	0x371c74f6	9.325557e-06
130	0x37af3be3	2.0889513e-05
131	0x378a5a36	1.649289e-05
132	0x2b2aa3cd	6.062345e-13
133	0x2c4525c3	2.8016346e-12
134	0x2a598485	1.9319449e-13
135	0x2bb005c0	1.2507148e-12
136	0x2c4525c3	2.8016346e-12
137	0x2c1ba76f	2.211977e-12
138	0x34e7bc5e	4.3164158e-07
139	0x362ed471	2.6051678e-06
140	0x33f9a50e	1.1624989e-07
141	0x359c18a8	1.1630082e-06
142	0x362ed471	2.6051678e-06
143	0x360a088f	2.0568584e-06
144	0x342d554c	1.6142911e-07
145	0x3523fc84	6.108969e-07
146	0x334752e2	4.640868e-08
147	0x34926a29	2.727186e-07
148	0x3523fc84	6.108969e-07
149	0x350178de	4.823213e-07
150	0x34f99f4b	4.6495765e-07
151	0x362d50f6	2.5826134e-06
152	0x3402bfa3	1.217691e-07
153	0x359abeac	1.1529387e-06
154	0x362d50f6	2.5826134e-06
155	0x3608d6a0	2.0390507e-06
156	0x360b62a2	2.0770026e-06
157	0x372c914d	1.0285829e-05
158	0x351160c7	5.415754e-07
159	0x369a1394	4.591837e-06
160	0x372c914d	1.0285829e-05
161	0x37083f4d	8.12097e-06
162	0x3638e9ad	2.7554154e-06
163	0x373b054f	1.1147305e-05
164	0x3548362f	7.4584653e-07
165	0x36a6fb1a	4.9764176e-06
166	0x373b054f	1.1147305e-05
167	0x3713a89e	8.801142e-06
168	0x31880283	3.9584065e-09
169	0x32e5a96e	2.6736156e-08
170	0x30566749	7.7999524e-10
171	0x324d0d96	1.193566e-08
172	0x32e5a96e	2.6736156e-08
173	0x32b5532c	2.1108995e-08
174	0x36be9f93	5.681018e-06
175	0x37ef6c8b	2.8541564e-05
176	0x35d11892	1.5578864e-06
177	0x3755c4e3	1.2741631e-05
178	0x37ef6c8b	2.8541564e-05
179	0x37bd084e	2.2534423e-05
180	0x343c52b9	1.7538959e-07
181	0x361676fe	2.2421004e-06
182	0x334181a6	4.505423e-08
183	0x35865794	1.0009267e-06
184	0x361676fe	2.2421004e-06
185	0x35ed97cc	1.7702055e-06
186	0x34e2cce8	4.224487e-07
187	0x364dd637	3.067207e-06
188	0x342d24f4	1.6125324e-07
189	0x35b7c7e9	1.3692744e-06
190	0x364dd637	3.067207e-06
191	0x362283ae	2.4216529e-06
192	0x32bee800	2.2224413e-08
193	0x33e2701b	1.0544337e-07
194	0x31cb8aaf	5.923844e-09
195	0x334a2cb1	4.7072437e-08
196	0x33e2701b	1.0544337e-07
197	0x33b2c797	8.325076e-08
198	0x31292ed3	2.4619353e-09
199	0x32ac8d71	2.0087755e-08
200	0x302c7683	6.274165e-10
201	0x321a101a	8.967641e-09
202	0x32ac8d71	2.0087755e-08
203	0x32883c39	1.585987e-08
204	0x35b421d9	1.3420896e-06
205	0x375e5f0d	1.3254362e-05
206	0x352cdf0f	6.4399586e-07
207	0x36c68b21	5.9170566e-06
208	0x375e5f0d	1.3254362e-05
209	0x372f91a0	1.0464719e-05
210	0x2a15af11	1.3294597e-13
211	0x2b8d0742	1.0020667e-12
212	0x294e38af	4.5790354e-14
213	0x2afbd55d	4.4734607e-13
214	0x2b8d0742	1.0020667e-12
215	0x2b5eb141	7.9116233e-13
216	0x34ea2f7e	4.3620452e-07
217	0x36883b96	4.0600526e-06
218	0x3442cdb3	1.8142491e-07
219	0x35f34518	1.812502e-06
220	0x36883b96	4.0600526e-06
221	0x36571ea8	3.205534e-06
222	0x32cf5de2	2.4140665e-08
223	0x33831e2a	6.10565e-08
224	0x31ca5732	5.8888867e-09
225	0x32ea22ec	2.7257066e-08
226	0x33831e2a	6.10565e-08
227	0x334f0b03	4.820596e-08
228	0x30d40c97	1.5428608e-09
229	0x330b3bba	3.241778e-08
230	0x2fd4d568	3.871421e-10
231	0x3278a0ca	1.4472059e-08
232	0x330b3bba	3.241778e-08
233	0x32dbdb9b	2.559482e-08
234	0x34816371	2.4100476e-07
235	0x35f1718c	1.7988946e-06
236	0x33ae9501	8.12961e-08
237	0x3557926a	8.03068e-07
238	0x35f1718c	1.7988946e-06
239	0x35bea086	1.4202822e-06
240	0x2e27081a	3.79786e-11
241	0x300b0462	5.0574134e-10
242	0x2cf942ca	7.0844207e-12
243	0x2f783dc9	2.2577419e-10
244	0x300b0462	5.0574134e-10
245	0x2fdb8425	3.9929762e-10
246	0x31cc1697	5.9397496e-09
247	0x332d8e32	4.0409027e-08
248	0x3123fc52	2.386305e-09
249	0x329af55b	1.8039534e-08
250	0x332d8e32	4.0409027e-08
251	0x330906fb	3.1904147e-08
252	0x351d039d	5.8492316e-07
253	0x3651cba2	3.1261957e-06
254	0x343f642b	1.7824702e-07
255	0x35bb50b2	1.3956071e-06

exp_avg f4 [128]
0	0x387eaa0f	6.07167e-05
1	0x38eb20f7	0.000112118134
2	0x361b27e6	2.3120024e-06
3	0x36ca68db	6.032276e-06
4	0x3691ab89	4.341306e-06
5	0xb80013da	-3.0536066e-05
6	0xb684b92b	-3.955463e-06
7	0xb74b8cad	-1.21324965e-05
8	0xb85b54b4	-5.2292555e-05
9	0xb93a894b	-0.00017789488
10	0x378cef66	1.680078e-05
11	0xb8c20ea1	-9.253366e-05
12	0xb6b61e15	-5.4275247e-06
13	0xb6877a21	-4.037531e-06
14	0xb9735e77	-0.00023209477
15	0x37b21669	2.1229689e-05
16	0x363bad73	2.7966132e-06
17	0x383eb7dc	4.5470762e-05
18	0xb872b68c	-5.7867306e-05
19	0xb481e415	-2.4194074e-07
20	0xb73bc74b	-1.119247e-05
21	0xb8d8ca14	-0.000103373226
22	0xb27778e4	-1.440478e-08
23	0x36bdbe10	5.654765e-06
24	0xb76d083c	-1.4128218e-05
25	0x36907104	4.304691e-06
26	0x37e023a1	2.6719472e-05
27	0x38877a13	6.46004e-05
28	0xb5654028	-8.540251e-07
29	0xb9007e8c	-0.00012254174
30	0x38a3bf91	7.808128e-05
31	0x390c8478	0.00013400789
32	0x360ff9ec	2.1454134e-06
33	0x3671e964	3.604765e-06
34	0x398acce4	0.00026474067
35	0x33075cda	3.1516585e-08
36	0xb8fb9991	-0.00011997217
37	0xb75a7b46	-1.3022514e-05
38	0xb6ab859b	-5.111751e-06
39	0xb6d57395	-6.36135e-06
40	0x346f2f42	2.2275802e-07
41	0xb83c4a2c	-4.489177e-05
42	0xb86ebfa3	-5.6922097e-05
43	0xb8aa7539	-8.128066e-05
44	0x3721a841	9.6355225e-06
45	0x36a14714	4.8064485e-06
46	0x360cf49c	2.1004007e-06
47	0xb4bf9688	-3.5686048e-07
48	0x3807309d	3.2231783e-05
49	0x37eff37a	2.8604398e-05
50	0xb7d8067c	-2.5752226e-05
51	0xb8922a6a	-6.969723e-05
52	0xb91d0737	-0.00014975375
53	0xb66d04af	-3.5318478e-06
54	0x380447db	3.1538173e-05
55	0xb8f2555b	-0.00011555358
56	0xb883538a	-6.262127e-05
57	0xb0febefc	-1.8535213e-09
58	0xb3eca58a	-1.1019718e-07
59	0x360d0dc2	2.1018645e-06
60	0xb9037731	-0.00012537536
61	0x33569140	4.9957862e-08
62	0xb78c5691	-1.6729611e-05
63	0x3716caf4	8.98795e-06
64	0xb6a0f4e2	-4.7968797e-06
65	0xb927e520	-0.00016011717
66	0x380a085a	3.2909542e-05
67	0x3669a8a6	3.4817872e-06
68	0xb6159b62	-2.2293175e-06
69	0x35f6b3dd	1.8380775e-06
70	0x367d3b7d	3.7734565e-06
71	0xb603d8c1	-1.9646689e-06
72	0xb98e5efc	-0.0002715512
73	0xb606bb5e	-2.0076618e-06
74	0x32a5172e	1.9219069e-08
75	0xb7173728	-9.013143e-06
76	0x33fa670d	1.1660277e-07
77	0x38180a0c	3.624898e-05
78	0xb4f9d6f3	-4.653626e-07
79	0x37e076bb	2.6758169e-05
80	0xb8d4d634	-0.00010148846
81	0x380320cd	3.1263382e-05
82	0xb81205eb	-3.4814624e-05
83	0x37e8b843	2.7742359e-05
84	0xb7497463	-1.2007632e-05
85	0xb612b221	-2.185938e-06
86	0x38cab949	9.666623e-05
87	0x397f01e7	0.00024319404
88	0x3723ccde	9.7632565e-06
89	0x3604f29d	1.9810752e-06
90	0x38e2be38	0.00010811951
91	0x36d5f158	6.375991e-06
92	0xb933797f	-0.00017116031
93	0xb8a5867e	-7.892864e-05
94	0xb65351f6	-3.1489158e-06
95	0xb8b90c59	-8.823787e-05
96	0xb2214c24	-9.388746e-09
97	0x375c10e6	1.3116956e-05
98	0xb6e51459	-6.8271006e-06
99	0x38a42700	7.827394e-05
100	0xb7b6272e	-2.1714335e-05
101	0xb7a9a958	-2.0225227e-05
102	0x34c7fb83	3.7249637e-07
103	0x38fb1fa1	0.00011974504
104	0xb8ae2a37	-8.30483e-05
105	0x383863c7	4.3961943e-05
106	0xb7b1a37b	-2.117617e-05
107	0x2e340fea	4.0941396e-11
108	0xb85f81ec	-5.3288342e-05
109	0x37c8393c	2.386851e-05
110	0x383b0a7f	4.459405e-05
111	0x375ef527	1.328931e-05
112	0xb51423ae	-5.518622e-07
113	0xb899481a	-7.3090385e-05
114	0x38699b6e	5.5696284e-05
115	0x34d3d793	3.9458664e-07
116	0x360b2dbc	2.0739235e-06
117	0xb35ceb75	-5.143689e-08
118	0x34dee41f	4.1516702e-07
119	0xb88124ed	-6.158077e-05
120	0xb72bd638	-1.0242271e-05
121	0x35f30daa	1.8108888e-06
122	0x3884a2a5	6.3245454e-05
123	0x38300602	4.1967265e-05
124	0xb5f75ab8	-1.8429337e-06
125	0x37c036ee	2.2913762e-05
126	0xb88ef7e3	-6.81726e-05
127	0x392432ed	0.0001565923

exp_avg_sq f4 [128]
0	0x33c8a8fc	9.343964e-08
1	0x343753fd	1.7073758e-07
2	0x2f90f3d9	2.6366712e-10
3	0x31123b6d	2.1279576e-09
4	0x3314954d	3.4594724e-08
5	0x330d2594	3.2863298e-08
6	0x32ac210e	2.0038467e-08
7	0x32450395	1.1467724e-08
8	0x329a67d9	1.7975184e-08
9	0x33f8060e	1.1549501e-07
10	0x320f88c8	8.354796e-09
11	0x349e9922	2.9541212e-07
12	0x2f2a1618	1.5469259e-10
13	0x3290b287	1.6844991e-08
14	0x34cf7c37	3.8647133e-07
15	0x30b3baa1	1.3077007e-09
16	0x2e105c82	3.2823973e-11
17	0x33cfb565	9.672184e-08
18	0x34158c7d	1.3927816e-07
19	0x2ed287ec	9.573839e-11
20	0x3326b349	3.8812946e-08
21	0x34d78076	4.0140338e-07
22	0x29727376	5.383494e-14
23	0x33570147	5.005975e-08
24	0x3249ab67	1.1738712e-08
25	0x335524b3	4.9626305e-08
26	0x3454390a	1.9764789e-07
27	0x3465ff46	2.1420155e-07
28	0x300d37df	5.13749e-10
29	0x351338a7	5.484421e-07
30	0x33390a77	4.3083187e-08
31	0x337d2322	5.8938106e-08
32	0x310b3c75	2.0261528e-09
33	0x2fd43440	3.85997e-10
34	0x3488bc50	2.546899e-07
35	0x28ad6f9b	1.925526e-14
36	0x33a789d3	7.8016136e-08
37	0x30a13f87	1.1732347e-09
38	0x302b3a7e	6.229256e-10
39	0x33147683	3.456672e-08
40	0x2d2af64f	9.718073e-12
41	0x3055700b	7.764817e-10
42	0x338100b8	6.007161e-08
43	0x3333d780	4.187268e-08
44	0x300f2c9f	5.208651e-10
45	0x2fbe0b11	3.4568662e-10
46	0x30f7c415	1.8027345e-09
47	0x2d94fac7	1.693702e-11
48	0x32904d09	1.6798838e-08
49	0x310ec5aa	2.0776079e-09
50	0x335ca5b6	5.1373455e-08
51	0x343de30f	1.76846e-07
52	0x34a21592	3.0190546e-07
53	0x2e59c15c	4.9511825e-11
54	0x32ba15fc	2.1663247e-08
55	0x33e31ab0	1.0575366e-07
56	0x33216de7	3.758569e-08
57	0x297ca4c1	5.609814e-14
58	0x2a962185	2.6668611e-13
59	0x30a82bc6	1.223605e-09
60	0x33eca435	1.10194755e-07
61	0x2a5b77bb	1.9492647e-13
62	0x33c31e4e	9.0859075e-08
63	0x3486a372	2.5078367e-07
64	0x3014c5c3	5.412312e-10
65	0x3424bc30	1.5342152e-07
66	0x32d88da8	2.5210127e-08
67	0x30f3e38e	1.7745252e-09
68	0x2ccf5feb	5.893943e-12
69	0x2e99ffca	7.003072e-11
70	0x2f11ddf3	1.3266525e-10
71	0x2ede6572	1.01134115e-10
72	0x349836c4	2.8352054e-07
73	0x2faee985	3.181634e-10
74	0x29bd3e9d	8.404148e-14
75	0x340b6841	1.2983311e-07
76	0x2ee28d03	1.0302339e-10
77	0x333fa234	4.4618176e-08
78	0x2e5dc142	5.042123e-11
79	0x32ce063c	2.3984391e-08
80	0x33da5862	1.0167493e-07
81	0x3398e4fa	7.119702e-08
82	0x3305a268	3.1114183e-08
83	0x33b40840	8.383404e-08
84	0x304c498c	7.4319284e-10
85	0x2ecfa4ef	9.442568e-11
86	0x348afbf9	2.5887837e-07
87	0x3481ec72	2.420016e-07
88	0x340fe909	1.340269e-07
89	0x32e80aa1	2.7013188e-08
90	0x349e211d	2.9453886e-07
91	0x31fa2409	7.2800543e-09
92	0x340fd9c3	1.3397134e-07
93	0x339c823a	7.288004e-08
94	0x2f595abb	1.9768269e-10
95	0x32accf99	2.011784e-08
96	0x25e3d9cc	3.9525808e-16
97	0x32d11330	2.4339528e-08
98	0x2ee27ce8	1.0299478e-10
99	0x34127edb	1.364346e-07
100	0x32fbeecc	2.9328838e-08
101	0x31b2ff9a	5.2095404e-09
102	0x2faecd92	3.1796482e-10
103	0x3416b55a	1.4035814e-07
104	0x330cc0d2	3.277166e-08
105	0x33bbd8cc	8.747301e-08
106	0x342e6c6c	1.6244456e-07
107	0x231e527b	8.582663e-18
108	0x31f3b655	7.0929596e-09
109	0x311b0d8b	2.2563167e-09
110	0x32b61b27	2.1199936e-08
111	0x342bd6f5	1.6003817e-07
112	0x2d1ddc61	8.973351e-12
113	0x347bf675	2.3465857e-07
114	0x33a49650	7.664187e-08
115	0x2f91efbf	2.6545696e-10
116	0x3123b30e	2.3821403e-09
117	0x27c6e96b	5.520911e-15
118	0x2da05a30	1.8229945e-11
119	0x32980379	1.7696708e-08
120	0x3343610d	4.5490243e-08
121	0x2fd9a339	3.9588047e-10
122	0x344bf8f6	1.899642e-07
123	0x33a3f1b2	7.634243e-08
124	0x300075d0	4.673355e-10
125	0x3402853a	1.2155661e-07
126	0x338bdbca	6.512671e-08
127	0x34496480	1.8756145e-07
