results/MoveToGoal8/MoveToGoal/MoveToGoal-18049.pt (torch, 16255 bytes, 24 tensors)

network_body._body_endoder.seq_layers.0.weight f4 [20, 6]
0	0xbd99b45c	-0.07505104
1	0x3eb5cd56	0.3550822
2	0x3f774d20	0.9660206
3	0xbf48b6e4	-0.7840407
4	0xbf1928bd	-0.59827787
5	0xbf0c09b5	-0.5470231
6	0x3dee1283	0.116246246
7	0xbd3a0966	-0.04541912
8	0x3ee9c6a9	0.45659378
9	0xbf6f0dc5	-0.93380386
10	0xbdf02ab3	-0.11726894
11	0x3ea6a2ca	0.32546073
12	0xbd0c6147	-0.03427246
13	0x3f08f61c	0.53500533
14	0x3d7de4d6	0.061985813
15	0x3f2b9578	0.67024946
16	0xbfa842b1	-1.3145353
17	0x3ec4f4cf	0.38468024
18	0x3ecaec13	0.39633235
19	0x3ec55c8d	0.38547173
20	0x3e109654	0.14119846
21	0x3eea741d	0.45791712
22	0xbd8c8193	-0.06860652
23	0xbeee0d46	-0.46494502
24	0xbd510d38	-0.051037997
25	0x3e965883	0.29364404
26	0x3e93f39e	0.28896803
27	0xbe9bd2ce	-0.3043427
28	0x3f3a5802	0.7279054
29	0xbf1e3855	-0.61804706
30	0xbdbd7ec2	-0.09252693
31	0xbe9ac0be	-0.30225176
32	0xbe6ba016	-0.23010287
33	0xbe6060d0	-0.21911931
34	0xbde2839b	-0.11060258
35	0xbf572156	-0.8403524
36	0xbee6cd13	-0.45078334
37	0x3cd9e761	0.026599588
38	0x3f009e95	0.50241977
39	0x3ee34d5e	0.44394964
40	0xbd269f40	-0.040679216
41	0xbca4dd70	-0.02012512
42	0x3e944ee8	0.2896645
43	0xbee3fd44	-0.44529164
44	0xbd9a138d	-0.0752326
45	0x3ef4dc48	0.4782431
46	0x3f16807d	0.5878981
47	0xbf0053ca	-0.5012785
48	0x3cefd5b7	0.029276712
49	0xbc778098	-0.015106343
50	0xbee37ae8	-0.44429708
51	0xbed8344a	-0.42227393
52	0xbd7b39e0	-0.06133449
53	0x3ed8444a	0.422396
54	0x3e9b7c61	0.3036833
55	0xbf2d3969	-0.67665726
56	0xbf427bef	-0.7597036
57	0x3f7bd71b	0.983751
58	0xbf021926	-0.50819623
59	0x3e6e657d	0.23280902
60	0xbdf1097e	-0.117693886
61	0x3daa7550	0.08323157
62	0x3d8fb857	0.07017582
63	0x3eb6bcc8	0.35690904
64	0xbf0105c6	-0.50399435
65	0xbc9d681c	-0.019214682
66	0x3e13f439	0.14448632
67	0x3e588f4a	0.2114841
68	0xbea79573	-0.32731208
69	0xbe9e1009	-0.3087161
70	0x3eb435bc	0.35197246
71	0xbda378e1	-0.0798204
72	0xbf1cbfe3	-0.61230296
73	0x3eda4c80	0.4263649
74	0x3e6e9ab0	0.23301196
75	0xbeb26f3d	-0.34850493
76	0xbcbcc46f	-0.023042886
77	0xbe5b11d2	-0.21393517
78	0xbe80b4e2	-0.25138003
79	0x3ba086b8	0.004898872
80	0xbef0e758	-0.470515
81	0x3e9ff670	0.31242704
82	0x3e8647fc	0.26226795
83	0x3ed469c3	0.4148694
84	0xbdf462ba	-0.11932893
85	0x3eafc3a6	0.34328955
86	0x3ede3028	0.43396115
87	0xbf194811	-0.5987559
88	0xbd8d372c	-0.06895289
89	0xbeeaa8ee	-0.45832008
90	0x3f40dfd5	0.7534154
91	0xbeb97d2a	-0.36228305
92	0xbf861170	-1.0474072
93	0x3e1d1701	0.15340807
94	0xbc924ee8	-0.017859891
95	0xbf1e4b6b	-0.6183383
96	0x3b176b3a	0.0023104683
97	0x3e97d8e6	0.29657668
98	0xbd9bbd55	-0.076044716
99	0xbeb71043	-0.35754594
100	0x3d3d09bd	0.046151865
101	0xbec19678	-0.3781011
102	0xbe9f4503	-0.3110734
103	0x3dfac30d	0.12244234
104	0x3f06558e	0.52474296
105	0x3ee98f78	0.4561727
106	0x3e740105	0.23828514
107	0x3eb0ff84	0.34569943
108	0x3f0148dd	0.50501806
109	0x3e61cff9	0.22051992
110	0xbd5a76a7	-0.053335812
111	0xbeaaf5ea	-0.33390743
112	0x3d9e0e45	0.077175654
113	0xbe0486c2	-0.12942031
114	0xbf2fd8ec	-0.6869037
115	0x3ec440f5	0.38330808
116	0xbd911f02	-0.070859924
117	0xbe81dcce	-0.25363773
118	0xbed9250c	-0.42411077
119	0xbeac155a	-0.3361004

network_body._body_endoder.seq_layers.0.bias f4 [20]
0	0x3cac1f82	0.021011118
1	0x3d0c35d5	0.034231026
2	0xbc82b571	-0.015955659
3	0x3c1c33e3	0.009533855
4	0xbc8f6729	-0.017505245
5	0xbc22e694	-0.009942669
6	0x3cd1c3f0	0.025606126
7	0x3d03ce8c	0.0321794
8	0xbd304cc5	-0.043041963
9	0x3dfd35c4	0.123637706
10	0xbd629d6c	-0.05532591
11	0x3cf041bb	0.029328218
12	0xbccf1712	-0.025279555
13	0xbb6ad1ea	-0.0035830685
14	0x3cdeccd0	0.027197272
15	0x3e4da041	0.20080663
16	0xbcb73d2a	-0.022368032
17	0xbc659c8a	-0.014014373
18	0x3caadabe	0.020856258
19	0xbc97a0e7	-0.018509341

action_model._continuous_distribution.log_sigma f4 [1, 2]
0	0xbd646d8e	-0.055768542
1	0xbdd17834	-0.10228005

action_model._continuous_distribution.mu.weight f4 [2, 20]
0	0x3c82cd6e	0.015967097
1	0xbcfcefd5	-0.03087608
2	0xbd705825	-0.05867781
3	0xbdb8bbd6	-0.09020202
4	0x3d05a2c0	0.032625914
5	0x3d8309a9	0.06398327
6	0x3d5eb2ad	0.054369617
7	0xbd5f69cf	-0.054544266
8	0x3cb1cedb	0.021705082
9	0x3e186fcd	0.14886399
10	0xbc7bfdba	-0.015380317
11	0xbd51cf44	-0.051223055
12	0x3db37e50	0.087643266
13	0x3d975ca3	0.07390716
14	0x3d43e6e9	0.047827635
15	0xbe7c45e2	-0.24636033
16	0xbc2c70bf	-0.010524928
17	0x3d058bcc	0.032604024
18	0xbd046e4e	-0.032331757
19	0x3db922e0	0.09039855
20	0x3dcab5c2	0.09897949
21	0x3d9c995c	0.076464385
22	0xbc7ec882	-0.0155507345
23	0xbb49c122	-0.0030785282
24	0x3ba43b57	0.0050119567
25	0x3e0c40a7	0.13696538
26	0xbda8644d	-0.08222256
27	0xbc3c78b3	-0.011503386
28	0xbd24fb2d	-0.040278602
29	0xbde00f86	-0.10940461
30	0x3d1445f2	0.036199518
31	0xbbe672f6	-0.0070327474
32	0xbc3a9524	-0.011388097
33	0x3d7b528f	0.06135803
34	0xbe0dca82	-0.13846782
35	0x3e1db03b	0.15399258
36	0x3cb2462e	0.02176198
37	0xbd5c3ad2	-0.053767033
38	0xbc425121	-0.011860163
39	0x3d20d878	0.03926894

action_model._continuous_distribution.mu.bias f4 [2]
0	0xbc594e70	-0.01326333
1	0xbcad4ce1	-0.021154823

exp_avg f4 [20, 6]
0	0x38dca628	0.000105213665
1	0xba82da53	-0.0009983279
2	0x38d8bdf0	0.00010335061
3	0xb9a058ed	-0.00030583833
4	0xba82da53	-0.0009983279
5	0x3a1dced3	0.0006019894
6	0x38443784	4.6781744e-05
7	0xb90da133	-0.00013506859
8	0x37b0ecb7	2.1091064e-05
9	0xb82d8da8	-4.1378342e-05
10	0xb90da133	-0.00013506859
11	0x38aace04	8.144605e-05
12	0x3897764e	7.222277e-05
13	0xb88321d9	-6.2528714e-05
14	0x3834abf2	4.307548e-05
15	0xb7a0b094	-1.9155712e-05
16	0xb88321d9	-6.2528714e-05
17	0x381e2512	3.770466e-05
18	0xbc14a34e	-0.009072138
19	0x3c1c40fe	0.00953698
20	0xbbb151c0	-0.0054113567
21	0x3b3f7950	0.0029216595
22	0x3c1c40fe	0.00953698
23	0xbbbc710a	-0.00575078
24	0x3b3f8aac	0.0029226942
25	0xbb2b0c47	-0.0026099847
26	0x3add8607	0.0016900905
27	0xba519a42	-0.00079957035
28	0xbb2b0c47	-0.0026099847
29	0x3ace4875	0.0015738147
30	0x3c07da18	0.008291744
31	0xbb8d1685	-0.004305663
32	0x3bf2c6a2	0.007408933
33	0xbaace3b6	-0.0013190422
34	0xbb8d1685	-0.004305663
35	0x3b2a26ba	0.0025963024
36	0x3b8565f4	0.0040709917
37	0xbc21ebb9	-0.009882861
38	0x3ac2a4d2	0.0014850146
39	0xbb466b0b	-0.0030276205
40	0xbc21ebb9	-0.009882861
41	0x3bc34698	0.005959343
42	0xbbbbc49e	-0.0057302257
43	0x3bb3b880	0.0054846406
44	0xbb6c0b1d	-0.0036017366
45	0x3adc3aed	0.0016802229
46	0x3bb3b880	0.0054846406
47	0xbb58be09	-0.0033072254
48	0xb940fca1	-0.00018404658
49	0x39df5f2a	0.00042604777
50	0xb881431b	-6.163699e-05
51	0x3908dc30	0.00013051997
52	0x39df5f2a	0.00042604777
53	0xb986b152	-0.00025690586
54	0xb8d5da61	-0.00010197308
55	0x38b73cb1	8.737425e-05
56	0xb8143223	-3.5332643e-05
57	0x37e08a0d	2.6767166e-05
58	0x38b73cb1	8.737425e-05
59	0xb85cfbb0	-5.268649e-05
60	0x387c7c0e	6.0197017e-05
61	0xb9661ed6	-0.00021945997
62	0xb7ff31c3	-3.0421541e-05
63	0xb88cfebf	-6.7231704e-05
64	0xb9661ed6	-0.00021945997
65	0x390ac31a	0.00013233387
66	0xbbac1374	-0.0052513424
67	0x3ba88734	0.0051430706
68	0xbb53b553	-0.0032304123
69	0x3ace83c7	0.0015755825
70	0x3ba88734	0.0051430706
71	0xbb4b3e84	-0.0031012604
72	0x3c00991b	0.007849003
73	0xbc03f8d4	-0.008054931
74	0x3b867ab2	0.004103982
75	0xbb21b7fc	-0.0024676314
76	0xbc03f8d4	-0.008054931
77	0x3b9f2858	0.0048571043
78	0x3c022e74	0.007945646
79	0xbb8c170d	-0.004275209
80	0x3bb28d52	0.0054489756
81	0xbaabaaa4	-0.001309712
82	0xbb8c170d	-0.004275209
83	0x3b28f2af	0.0025779416
84	0x3b3125ea	0.0027030655
85	0xbc33378a	-0.0109385345
86	0xba60bb52	-0.0008572835
87	0xbb5b9ce0	-0.0033510253
88	0xbc33378a	-0.0109385345
89	0x3bd8227d	0.006595908
90	0xbc548661	-0.012971492
91	0x3c2b040d	0.0104379775
92	0xbb99de36	-0.004695679
93	0x3b519027	0.003197679
94	0x3c2b040d	0.0104379775
95	0xbbce3e8a	-0.0062940763
96	0xba62d9d3	-0.0008653674
97	0x3b119ffd	0.0022220605
98	0xb947d2e0	-0.00019056676
99	0x3a3272fe	0.00068072963
100	0x3b119ffd	0.0022220605
101	0xbaaf9f81	-0.0013398976
102	0x3b1e8958	0.002419075
103	0xbbbe6788	-0.0058106817
104	0x3a08b6ae	0.00052152097
105	0xbae9526a	-0.001780105
106	0xbbbe6788	-0.0058106817
107	0x3b65a077	0.0035038271
108	0xbaf2819f	-0.0018501765
109	0xb9383acd	-0.00017569512
110	0xba63be87	-0.00086877536
111	0xb861c14e	-5.382421e-05
112	0xb9383acd	-0.00017569512
113	0x38de2e01	0.00010594354
114	0x3c18fc0a	0.009337435
115	0xbbf2adfc	-0.0074059945
116	0x3bc38934	0.0059672836
117	0xbb14b0a4	-0.0022688294
118	0xbbf2adfc	-0.0074059945
119	0x3b9255cf	0.0044657956

exp_avg_sq f4 [20, 6]
0	0x360577eb	1.9888346e-06
1	0x3763d33b	1.3579435e-05
2	0x353b3835	6.974472e-07
3	0x35ab0d62	1.2744388e-06
4	0x3763d33b	1.3579435e-05
5	0x36a5ad59	4.9375635e-06
6	0x35c84384	1.4920811e-06
7	0x3675c4ca	3.6622391e-06
8	0x33958ddc	6.964157e-08
9	0x34b88630	3.4370305e-07
10	0x3675c4ca	3.6622391e-06
11	0x35b2b9dd	1.3316127e-06
12	0x34a3b88e	3.0495397e-07
13	0x354d928a	7.6581694e-07
14	0x331d5e7a	3.6640337e-08
15	0x339a585d	7.187257e-08
16	0x354d928a	7.6581694e-07
17	0x34957ebc	2.7845624e-07
18	0x39ea0df3	0.0004464235
19	0x3b1f4974	0.0024305256
20	0x3999a20d	0.0002930317
21	0x396f2fed	0.0002281067
22	0x3b1f4974	0.0024305256
23	0x3a67abc0	0.00088375434
24	0x39a2e812	0.00031071954
25	0x3a79a9a4	0.00095238746
26	0x38856d06	6.3622414e-05
27	0x38bb728b	8.93819e-05
28	0x3a79a9a4	0.00095238746
29	0x39b58eb8	0.00034629344
30	0x39f157cc	0.00046032516
31	0x3b50e596	0.0031875125
32	0x3a084a67	0.0005199075
33	0x399cd742	0.00029915018
34	0x3b50e596	0.0031875125
35	0x3a97e98c	0.0011589988
36	0x38d9ec43	0.000103913735
37	0x3a486666	0.0007644653
38	0x388dde34	6.7647925e-05
39	0x38967623	7.174562e-05
40	0x3a486666	0.0007644653
41	0x3991bbc1	0.00027796443
42	0x3917c3d4	0.00014473434
43	0x3a5e9260	0.00084904395
44	0x38f53c51	0.00011693745
45	0x38a71ba5	7.96833e-05
46	0x3a5e9260	0.00084904395
47	0x39a1db6a	0.0003087179
48	0x355f9907	8.329666e-07
49	0x369df8bd	4.7079216e-06
50	0x34d62a7c	3.9891518e-07
51	0x34ed364e	4.4184202e-07
52	0x369df8bd	4.7079216e-06
53	0x35e5c207	1.7118299e-06
54	0x33db2ff4	1.0206705e-07
55	0x352eafdb	6.5075955e-07
56	0x3430c4df	1.6462899e-07
57	0x338327e3	6.107418e-08
58	0x352eafdb	6.5075955e-07
59	0x347e11a2	2.3662008e-07
60	0x358fa641	1.0702717e-06
61	0x36b0613c	5.2565283e-06
62	0x34f1c2d6	4.503151e-07
63	0x35046d46	4.9332846e-07
64	0x36b0613c	5.2565283e-06
65	0x36004400	1.9113068e-06
66	0x3928da80	0.00016103126
67	0x3a725fb0	0.0009245826
68	0x38f6758f	0.00011752091
69	0x38b5f9b7	8.6772656e-05
70	0x3a725fb0	0.0009245826
71	0x39b041dc	0.00033618405
72	0x3a09b39e	0.00052529003
73	0x3b22846a	0.0024798163
74	0x398803ae	0.00025942683
75	0x397409a6	0.00023273248
76	0x3b22846a	0.0024798163
77	0x3a6c5e8c	0.0009016774
78	0x39cea524	0.0003941442
79	0x3b1285d3	0.0022357597
80	0x399f2fe6	0.0003036253
81	0x395c051e	0.00020982741
82	0x3b1285d3	0.0022357597
83	0x3a551b34	0.0008129359
84	0x3ae961a4	0.0017805588
85	0x3c1f1e36	0.009711793
86	0x3a4e0f9d	0.0007860603
87	0x3a6eeee3	0.00091145764
88	0x3c1f1e36	0.009711793
89	0x3b676cca	0.0035312646
90	0x3b13c430	0.0022547357
91	0x3c459e6a	0.012061695
92	0x3aeab73d	0.0017907392
93	0x3a945f95	0.001131999
94	0x3c459e6a	0.012061695
95	0x3b8fb5fb	0.0043857074
96	0x390e3761	0.00013562806
97	0x3a00fce7	0.0004920498
98	0x37ff8f26	3.0465028e-05
99	0x3841b07d	4.6179153e-05
100	0x3a00fce7	0.0004920498
101	0x393b9a5f	0.00017891217
102	0x38e79e79	0.00011044456
103	0x3a3e07a4	0.00072490633
104	0x389316f6	7.013783e-05
105	0x388eace8	6.803294e-05
106	0x3a3e07a4	0.00072490633
107	0x398a312a	0.0002635804
108	0x38a9b529	8.092292e-05
109	0x39873156	0.00025785965
110	0x37937f25	1.7582972e-05
111	0x37cb01b2	2.4200275e-05
112	0x39873156	0.00025785965
113	0x38c4a0b0	9.375939e-05
114	0x398c0bf3	0.00026711784
115	0x3aea4db9	0.0017875946
116	0x39923516	0.00027886842
117	0x392feaa2	0.00016776708
118	0x3aea4db9	0.0017875946
119	0x3a2a6379	0.0006499808

exp_avg f4 [20]
0	0xb9111c59	-0.00013838838
1	0xb79d0fd5	-1.872323e-05
2	0xb7116ba8	-8.667739e-06
3	0x3aad478e	0.0013220177
4	0xb9bdaf86	-0.00036179664
5	0xba1c7605	-0.0005968514
6	0xbab3905f	-0.0013699642
7	0x3a474da6	0.0007602818
8	0x3877b5e9	5.9058806e-05
9	0x374b33ef	1.2111835e-05
10	0xb7ff31d9	-3.0421581e-05
11	0x3a3ae427	0.0007129334
12	0xba925a0c	-0.0011165752
13	0xba1b5abc	-0.0005926301
14	0xbac6be9f	-0.0015163011
15	0x3abda65f	0.0014469138
16	0x39a17e13	0.00030802246
17	0xba5326ae	-0.0008054775
18	0xb7cc4dc8	-2.4354915e-05
19	0xba868fa3	-0.0010266196

exp_avg_sq f4 [20]
0	0x348c16cf	2.6093628e-07
1	0x33971f63	7.037195e-08
2	0x327ccfec	1.47156065e-08
3	0x3843e3ec	4.670389e-05
4	0x37998453	1.830064e-05
5	0x38807342	6.124984e-05
6	0x37767374	1.4689624e-05
7	0x3788dbe5	1.631486e-05
8	0x33c245e4	9.046542e-08
9	0x3256d444	1.2504703e-08
10	0x33d8e937	1.0100705e-07
11	0x37950907	1.7766388e-05
12	0x3847dcfc	4.7651105e-05
13	0x38343163	4.296134e-05
14	0x3943aea5	0.0001866171
15	0x397307d9	0.0002317721
16	0x371ea0ea	9.455e-06
17	0x3769b29b	1.3929467e-05
18	0x36a64250	4.9549053e-06
19	0x381012a9	3.4349654e-05

exp_avg f4 [1, 2]
0	0x3d53a6d4	0.05167277
1	0x3dac08b5	0.08400098

exp_avg_sq f4 [1, 2]
0	0x3cc24c5d	0.023718053
1	0x3c84e3a2	0.016221825

exp_avg f4 [2, 20]
0	0x3a455e8f	0.0007529044
1	0x37818aad	1.5442574e-05
2	0x395fbf5a	0.00021338221
3	0xbcc5f06b	-0.024162492
4	0xbde261d3	-0.11053815
5	0xbc8de94e	-0.017323162
6	0xbcbb6e58	-0.022879764
7	0xbd04dbdc	-0.032436237
8	0x3b5c03af	0.0033571532
9	0x39621f04	0.00021564594
10	0x3b670d14	0.0035255598
11	0xbd58e4e8	-0.052952677
12	0xbdaae7c5	-0.08344988
13	0xbd694c4d	-0.05695753
14	0xbca33e6b	-0.019927224
15	0x3bcbe938	0.00622287
16	0xbd3a00ca	-0.04541091
17	0xbccf62b9	-0.02531563
18	0x3c8b45a2	0.017000977
19	0xbd980d5f	-0.07424425
20	0xbb4104ec	-0.0029452397
21	0xb99acdd0	-0.0002952651
22	0xb8d8b9da	-0.000103343
23	0x3d12e217	0.035860147
24	0x3d5a284d	0.05326109
25	0xbbb15765	-0.0054120296
26	0x3c065078	0.008197896
27	0x3cb8fb70	0.022580832
28	0x39f601a9	0.00046922013
29	0x3950ee3b	0.00019925174
30	0xba83f025	-0.0010066075
31	0x3c301477	0.010747067
32	0x3c3693cb	0.011143635
33	0xbc648c75	-0.013949503
34	0x3cb15f0c	0.021651767
35	0xbc5e6a90	-0.013575211
36	0x3c64cffd	0.013965604
37	0x3c8ec336	0.017427068
38	0x3c4f61d5	0.012657602
39	0xbc371f48	-0.011176892

exp_avg_sq f4 [2, 20]
0	0x393baaa1	0.00017897274
1	0x37771893	1.4728069e-05
2	0x3666e912	3.4408336e-06
3	0x3e30ee3b	0.17278378
4	0x3f2e0245	0.67972213
5	0x3ad74763	0.0016424473
6	0x3ab3b15c	0.0013709473
7	0x3df1e36c	0.118109554
8	0x39abab0c	0.00032743101
9	0x3544f244	7.336823e-07
10	0x39f65911	0.00046987136
11	0x3df65657	0.12028187
12	0x3de3c8b6	0.11122267
13	0x3d0b15db	0.03395639
14	0x3d039248	0.032121927
15	0x3bcda4a3	0.0062757297
16	0x3dc6a63d	0.09699676
17	0x3c901522	0.017588202
18	0x3d136158	0.035981506
19	0x3d066f1a	0.0328208
20	0x39988dcd	0.0002909735
21	0x37d0ba46	2.4882273e-05
22	0x369f98d5	4.7563612e-06
23	0x3e74b0ed	0.23895617
24	0x3f6033cc	0.87579036
25	0x3ad1cee7	0.0016007096
26	0x3af46184	0.0018644785
27	0x3e1bbce5	0.15208776
28	0x39c20b14	0.00037010817
29	0x355768ab	8.0246053e-07
30	0x3a154ebb	0.00056956307
31	0x3e12bef7	0.1433066
32	0x3de61b59	0.11235685
33	0x3d0e6055	0.034759838
34	0x3d2ad940	0.041711092
35	0x3c022806	0.007944113
36	0x3dfb3e28	0.12267715
37	0x3ca3d858	0.020000622
38	0x3d5cee69	0.053938303
39	0x3cd49e99	0.025954532

exp_avg f4 [2]
0	0xbc54cab4	-0.012987781
1	0x3ba161d3	0.0049249916

exp_avg_sq f4 [2]
0	0x3c021188	0.00793875
1	0x3c236725	0.009973322

exp_avg f4 [20, 6]
0	0x3aa8ca03	0.0012877587
1	0xba7f79f4	-0.00097456505
2	0x3a954359	0.0011387869
3	0xb99c87d9	-0.00029855853
4	0xba7f79f4	-0.00097456505
5	0x3a1a0d39	0.0005876604
6	0xbab7e371	-0.0014029575
7	0x3a852aa3	0.0010159801
8	0xbaa240aa	-0.001237889
9	0x39a32ebb	0.000311246
10	0x3a852aa3	0.0010159801
11	0xba209926	-0.00061263365
12	0x3acea27b	0.0015764976
13	0xba98d454	-0.0011659958
14	0x3ab5cf73	0.0013871029
15	0xb9bb470e	-0.0003572036
16	0xba98d454	-0.0011659958
17	0x3a384fc1	0.0007030927
18	0x399678ca	0.00028700224
19	0xb956a63d	-0.00020470559
20	0x3985e861	0.00025540873
21	0xb8838417	-6.2711704e-05
22	0xb956a63d	-0.00020470559
23	0x39016ee2	0.00012343706
24	0x3b07e73b	0.002073719
25	0xbaaf7aa8	-0.0013387995
26	0x3aeb3a46	0.0017946444
27	0xb9d70859	-0.00041014215
28	0xbaaf7aa8	-0.0013387995
29	0x3a53a08a	0.00080729334
30	0xba94ca1a	-0.0011351735
31	0x3b114ec8	0.0022172201
32	0xbaa584c8	-0.0012628073
33	0x3a320f78	0.0006792466
34	0x3b114ec8	0.0022172201
35	0xbaaf3d8d	-0.0013369784
36	0xba6c1401	-0.00090056664
37	0x3a2c077b	0.0006562394
38	0xba530f88	-0.00080513256
39	0x3952ce19	0.00020103938
40	0x3a2c077b	0.0006562394
41	0xb9cf776d	-0.00039571096
42	0xb70ea6ce	-8.502697e-06
43	0xb78ab57f	-1.6535398e-05
44	0x3470c7f4	2.2424484e-07
45	0xb6a9f967	-5.0656267e-06
46	0xb78ab57f	-1.6535398e-05
47	0x37274844	9.970801e-06
48	0xbab1cc22	-0.0013564865
49	0x3a824706	0.000993938
50	0xba9cec96	-0.0011972364
51	0x399fa46a	0.0003044934
52	0x3a824706	0.000993938
53	0xba1d1d2c	-0.00059934217
54	0xb9098ae2	-0.00013117076
55	0x38b183d2	8.464571e-05
56	0xb8ef437d	-0.00011408979
57	0x37d986ee	2.5931247e-05
58	0x38b183d2	8.464571e-05
59	0xb8561504	-5.104115e-05
60	0xb9e5be26	-0.00043819955
61	0x3a6f2393	0.00091224274
62	0xb9ee24eb	-0.00045422403
63	0x3992854c	0.00027946604
64	0x3a6f2393	0.00091224274
65	0xba103341	-0.00055008015
66	0xba2af23b	-0.00065210805
67	0xba1e95df	-0.0006049554
68	0xba4f7f81	-0.0007915423
69	0xb94254ba	-0.00018532845
70	0xba1e95df	-0.0006049554
71	0x39bf40e2	0.000364787
72	0xba0a6c80	-0.000528045
73	0x3a681a5a	0.00088540243
74	0xba0e9378	-0.00054388447
75	0x398e35b2	0.00027124357
76	0x3a681a5a	0.00088540243
77	0xba0bf522	-0.0005338957
78	0xba836fab	-0.0010027786
79	0x3a455987	0.0007528294
80	0xba69d993	-0.0008920666
81	0x3971d52d	0.00023062965
82	0x3a455987	0.0007528294
83	0xb9ee00bc	-0.00045395445
84	0xbab12b76	-0.0013516981
85	0x3b29b74f	0.0025896614
86	0xbac6c749	-0.0015165593
87	0x3a4ff86f	0.0007933443
88	0x3b29b74f	0.0025896614
89	0xbaccad43	-0.0015615601
90	0x3b16b6e6	0.00229972
91	0xbad5de3b	-0.001631684
92	0x3b0455a9	0.002019266
93	0xba03098b	-0.00049986754
94	0xbad5de3b	-0.001631684
95	0x3a80f644	0.0009839018
96	0x3aa62c6a	0.0012678031
97	0xba6fffc9	-0.00091552414
98	0x3a946c1f	0.0011323727
99	0xb9930c3e	-0.00028047146
100	0xba6fffc9	-0.00091552414
101	0x3a10b80c	0.0005520589
102	0xbae8c4ae	-0.001775881
103	0x3aa77307	0.001277537
104	0xbaccc610	-0.0015622992
105	0x39cd3157	0.00039137408
106	0x3aa77307	0.001277537
107	0xba49f16f	-0.0007703518
108	0xb859e451	-5.1949468e-05
109	0xb8925fa8	-6.97964e-05
110	0xb7bd04be	-2.2532764e-05
111	0xb7b35dd4	-2.1382155e-05
112	0xb8925fa8	-6.97964e-05
113	0x383086a8	4.208708e-05
114	0xb925345c	-0.00015755132
115	0x39aac9dd	0.00032575327
116	0xb935e780	-0.00017347746
117	0x38d148dd	9.9794685e-05
118	0x39aac9dd	0.00032575327
119	0xb94df85e	-0.00019642847

exp_avg_sq f4 [20, 6]
0	0x3bf9de17	0.007625352
1	0x3c92fc88	0.017942682
2	0x3a59ddd7	0.000831095
3	0x3adcb750	0.0016839299
4	0x3c92fc88	0.017942682
5	0x3bd5c7d8	0.0065240674
6	0x3bae54ac	0.0053201523
7	0x3c933e62	0.017974082
8	0x3a72b530	0.00092585664
9	0x3add1a57	0.0016868812
10	0x3c933e62	0.017974082
11	0x3bd627a3	0.006535487
12	0x3c2dfef0	0.010619864
13	0x3cc6f7c6	0.02428807
14	0x3a949930	0.0011337157
15	0x3b1562f1	0.002279457
16	0x3cc6f7c6	0.02428807
17	0x3c10b13d	0.008831319
18	0x3911fbb6	0.00013922047
19	0x39e01497	0.0004273995
20	0x37a8a4b5	2.0103858e-05
21	0x38283d83	4.011161e-05
22	0x39e01497	0.0004273995
23	0x3922f445	0.00015540521
24	0x3b6cf5b1	0.0036157186
25	0x3ba5c77a	0.00505918
26	0x39926c12	0.0002792781
27	0x39f8efa3	0.0004748079
28	0x3ba5c77a	0.00505918
29	0x3af11d0f	0.0018395501
30	0x38ae2ad2	8.3049425e-05
31	0x39909f44	0.00027584482
32	0x374b5eeb	1.2121843e-05
33	0x37d92a8e	2.5888232e-05
34	0x39909f44	0.00027584482
35	0x38d2578a	0.00010029886
36	0x3b092e3a	0.0020932094
37	0x3b443e02	0.0029944186
38	0x391da668	0.00015034678
39	0x399356f7	0.0002810282
40	0x3b443e02	0.0029944186
41	0x3a8eb5ca	0.0010887918
42	0x3661a2a9	3.3622293e-06
43	0x36bdcb8f	5.6563363e-06
44	0x344cc569	1.9070798e-07
45	0x350e7fcd	5.3085097e-07
46	0x36bdcb8f	5.6563363e-06
47	0x360a055f	2.0566729e-06
48	0x3bd3a00b	0.0064582876
49	0x3c48758d	0.012235058
50	0x3a16dad1	0.0005754652
51	0x3a968173	0.0011482671
52	0x3c48758d	0.012235058
53	0x3b91c6b7	0.0044487375
54	0x38ed0cfa	0.00011303458
55	0x3a95b27d	0.0011420992
56	0x386eec74	5.6963836e-05
57	0x38e0c9aa	0.00010718715
58	0x3a95b27d	0.0011420992
59	0x39d9b947	0.00041527508
60	0x3616f2c5	2.2493052e-06
61	0x37d09d1c	2.4868692e-05
62	0x3583523f	9.784197e-07
63	0x361ca0bc	2.3339371e-06
64	0x37d09d1c	2.4868692e-05
65	0x3717b4a2	9.042358e-06
66	0x3bebd9d0	0.007197596
67	0x3c2c69a2	0.010523232
68	0x399036b4	0.00027506577
69	0x3a8172d0	0.0009876136
70	0x3c2c69a2	0.010523232
71	0x3b7ac2f0	0.0038263164
72	0x385dc127	5.2870393e-05
73	0x39bfd92a	0.0003659216
74	0x378128d4	1.539701e-05
75	0x38100a65	3.4341956e-05
76	0x39bfd92a	0.0003659216
77	0x390b839c	0.00013305101
78	0x3b50922e	0.003182541
79	0x3bdc5886	0.00672442
80	0x39c575ba	0.0003766248
81	0x3a256fb4	0.00063108956
82	0x3bdc5886	0.00672442
83	0x3b203d0d	0.0024450452
84	0x387c1332	6.009936e-05
85	0x39340a83	0.00017170054
86	0x370d3507	8.416601e-06
87	0x37872cf6	1.611419e-05
88	0x39340a83	0.00017170054
89	0x3882ed9a	6.24314e-05
90	0x3cb98855	0.022648016
91	0x3d40bf61	0.047057513
92	0x3b0bfd80	0.0021360815
93	0x3b90b73a	0.0044163736
94	0x3d40bf61	0.047057513
95	0x3c8c2b2e	0.017110433
96	0x3b868f06	0.004106405
97	0x3c30e8e8	0.010797717
98	0x3a0f775a	0.0005472802
99	0x3a84d32e	0.0010133737
100	0x3c30e8e8	0.010797717
101	0x3b80a695	0.003926108
102	0x3c58843e	0.013215123
103	0x3cd96aa4	0.026540108
104	0x3a9e5d30	0.0012082215
105	0x3b233cc2	0.002490804
106	0x3cd96aa4	0.026540108
107	0x3c1e1bac	0.009650152
108	0x37971bf7	1.8013625e-05
109	0x38b7c8b9	8.7635075e-05
110	0x3658f8d3	3.2331343e-06
111	0x3709fc6c	8.224608e-06
112	0x38b7c8b9	8.7635075e-05
113	0x3805a66b	3.186466e-05
114	0x345c8714	2.0538238e-07
115	0x354d186a	7.640398e-07
116	0x338ce543	6.5609605e-08
117	0x3399fc86	7.1705514e-08
118	0x354d186a	7.640398e-07
119	0x349525ed	2.7781007e-07

exp_avg f4 [20]
0	0xb90da81e	-0.00013509436
1	0x3913ad31	0.00014083531
2	0xb9297b60	-0.00016163057
3	0xb7ee09b5	-2.8376331e-05
4	0xb942997f	-0.00018558463
5	0x39a12402	0.0003073514
6	0x38bec617	9.096803e-05
7	0xb619d2a5	-2.2921388e-06
8	0x391078fc	0.0001377798
9	0x3744db68	1.1733595e-05
10	0x39049910	0.00012645521
11	0xb8afdd69	-8.385891e-05
12	0x3900b253	0.00012273462
13	0x38dada6a	0.00010435733
14	0x39bc3565	0.00035897936
15	0xb96d2be8	-0.00022618438
16	0xb905132e	-0.00012691013
17	0x3939b1db	0.00017709231
18	0xb7225297	-9.675182e-06
19	0x383d65db	4.515597e-05

exp_avg_sq f4 [20]
0	0x39b4c359	0.0003447782
1	0x39b51461	0.00034538194
2	0x39f4b09e	0.00046670897
3	0x3709c93a	8.212688e-06
4	0x38cbdfee	9.7215045e-05
5	0x36b1daef	5.3004983e-06
6	0x38715699	5.7539528e-05
7	0x33e96896	1.0868932e-07
8	0x397685e6	0.00023510269
9	0x37b818e6	2.1946104e-05
10	0x35004698	4.7786443e-07
11	0x3954085a	0.00020221007
12	0x36ebeeff	7.0313686e-06
13	0x39077d77	0.00012921343
14	0x365d69c7	3.2993137e-06
15	0x3a6d0a52	0.00090423704
16	0x39599023	0.00020748428
17	0x3a05b067	0.00050998334
18	0x35e20477	1.6839612e-06
19	0x327c39af	1.4681446e-08

exp_avg f4 [1, 20]
0	0xb9836593	-0.00025061946
1	0xbbd2a045	-0.006427797
2	0xbb1112ed	-0.0022136525
3	0xbb1ce461	-0.0023939835
4	0xbb807d28	-0.00392117
5	0xb8b49da2	-8.61243e-05
6	0xba799ab3	-0.0009521648
7	0xb7ad23d0	-2.0639884e-05
8	0xbbc7c5a2	-0.0060965577
9	0xbb923c03	-0.0044627204
10	0x38957211	7.12612e-05
11	0x39e693ae	0.00043979048
12	0xb98ebd37	-0.00027225327
13	0xbad69035	-0.0016369881
14	0xb9a6eabf	-0.00031836887
15	0xbb7d9cc6	-0.003869818
16	0xba947448	-0.0011326158
17	0xbb471601	-0.0030378106
18	0x3aa30acb	0.001243913
19	0x381cee7a	3.7415397e-05

exp_avg_sq f4 [1, 20]
0	0x3f00db61	0.50334746
1	0x3dad8777	0.084731035
2	0x3e24d299	0.16095962
3	0x3d432f30	0.047652423
4	0x3a888284	0.0010414873
5	0x38ce9449	9.850466e-05
6	0x3b87aaf7	0.0041402536
7	0x37be9a94	2.2721746e-05
8	0x3ef976e5	0.48723522
9	0x3c4ad2aa	0.012379328
10	0x38d08105	9.942245e-05
11	0x3d41d502	0.04732228
12	0x3969d4b9	0.00022299857
13	0x3b13a202	0.0022526984
14	0x38ab8758	8.179125e-05
15	0x3d6f6cb3	0.058453273
16	0x3d85b514	0.065286785
17	0x3d195650	0.03743583
18	0x3d3bb295	0.045824606
19	0x381d34b9	3.748082e-05

network_body._body_endoder.seq_layers.0.weight f4 [20, 6]
0	0x3f518300	0.81840515
1	0x3e77dc44	0.24205118
2	0x3c58c681	0.013230921
3	0x3e9db3ca	0.3080123
4	0x3f34cdcb	0.70626515
5	0xbe95a875	-0.29230085
6	0xbf3f0550	-0.7461748
7	0x3dbebd1b	0.09313413
8	0xbd769071	-0.060196344
9	0xbf182cf7	-0.5944361
10	0x3efc167c	0.49235904
11	0xbede4f3a	-0.4341982
12	0x3e9dfe6e	0.30858177
13	0x3f44db05	0.768967
14	0xbe799b06	-0.24375543
15	0xbf341cb6	-0.7035631
16	0xbe237c92	-0.15965489
17	0xbf16519b	-0.5871827
18	0xbeebd1ae	-0.4605841
19	0xbe885f63	-0.26635274
20	0x3eb04186	0.3442499
21	0xbe5fa02d	-0.21838446
22	0x3f78c396	0.9717344
23	0x3e9e5903	0.30927286
24	0xbd8d5b3f	-0.069021694
25	0x3e966dfe	0.29380792
26	0xbf314fcd	-0.6926239
27	0x3e1c62ff	0.15272139
28	0xbcb2be33	-0.02181921
29	0x3eb038a8	0.34418225
30	0xbe4f6f84	-0.20257384
31	0xbf57a292	-0.8423244
32	0xbecbea62	-0.39827257
33	0x3dad9f86	0.08477692
34	0x3f37021b	0.7148759
35	0x3efab44b	0.48965678
36	0x3e09bbf8	0.1345061
37	0x3ea09667	0.31364748
38	0xbe5294f8	-0.2056464
39	0x3f469e7f	0.77585596
40	0xbe86f2dd	-0.26357165
41	0x3de50568	0.11182672
42	0x3d6298e7	0.0553216
43	0xbf1da680	-0.61582184
44	0x3f079250	0.5295763
45	0x3dafac0f	0.085777394
46	0x3e8b5d69	0.27219704
47	0x3e4326d3	0.19057779
48	0x3c02f76f	0.007993563
49	0x3ede3998	0.43403316
50	0xbc4c01fe	-0.012451647
51	0xbf2a775a	-0.66588366
52	0x3f93604f	1.1513766
53	0xbeed5203	-0.46351632
54	0xbef38ba9	-0.4756749
55	0xbea22862	-0.31671435
56	0xbea88990	-0.32917452
57	0x3f428c48	0.759953
58	0x3ee554a3	0.44791135
59	0x3eb87ae6	0.36031264
60	0xbf182f11	-0.5944682
61	0xbe7cd4de	-0.24690577
62	0xbe14ca69	-0.14530338
63	0xbe875b51	-0.26436856
64	0xbe59d92e	-0.21274254
65	0xbd9be1db	-0.07611438
66	0x3f4eb33b	0.80742234
67	0xbe84f601	-0.25968936
68	0xbf1080ed	-0.56446725
69	0xbd958443	-0.073006175
70	0x3f0ae8c4	0.5426142
71	0x3e0e0721	0.13869907
72	0xbe818449	-0.25296238
73	0xbeae7ea8	-0.34081006
74	0xbe57ebc9	-0.21086039
75	0x3dbd54e8	0.0924471
76	0xbef0bab4	-0.47017443
77	0xbf57bbca	-0.8427092
78	0xbd176dcf	-0.036969956
79	0x3ee5948f	0.44839904
80	0xbe410a80	-0.18851662
81	0x3f01b0f5	0.5066064
82	0xbd19b746	-0.0375283
83	0x3f231132	0.6369811
84	0xbe26cb1b	-0.16288416
85	0x3e14ccb2	0.1453121
86	0xbf0b814b	-0.5449416
87	0xbd233117	-0.039841738
88	0xbe97e3a6	-0.2966587
89	0x3edab47b	0.4271582
90	0xbe367c9b	-0.1782097
91	0xbd868fb6	-0.065703794
92	0xbe7fbfeb	-0.24975555
93	0x3edeb638	0.43498397
94	0x3e81fd53	0.25388584
95	0xbea85228	-0.3287518
96	0xbef65275	-0.48109785
97	0x3ec243ec	0.37942445
98	0x3f2bea67	0.67154545
99	0x3e453730	0.19259334
100	0x3e92b239	0.28651598
101	0x3ebe6d62	0.37192827
102	0xbd937808	-0.072006285
103	0x3f5bb036	0.8581575
104	0xbe0d70d8	-0.13812578
105	0xbdfab551	-0.122416146
106	0xbdcf081f	-0.10108971
107	0x3e860c9e	0.261815
108	0x3d6650c2	0.05622936
109	0x3e9fecb0	0.31235266
110	0x3f23232a	0.6372553
111	0x3dc127dc	0.09431431
112	0xbc0fe43a	-0.008782441
113	0xbe2c361c	-0.16817516
114	0xbea3fa94	-0.32027113
115	0x3da933b0	0.08261812
116	0xbeac0538	-0.33597732
117	0xbe0e2a60	-0.13883352
118	0xbf0c991a	-0.54921114
119	0xbda88251	-0.08227981

network_body._body_endoder.seq_layers.0.bias f4 [20]
0	0xbd2def43	-0.042464506
1	0x3ce53d35	0.027983287
2	0xbd2dfd6a	-0.042478003
3	0xbcf9b979	-0.030483948
4	0x3db9c2a2	0.090703264
5	0xbd14caf3	-0.03632636
6	0x3d40d38e	0.047076754
7	0x3dc56a34	0.09639397
8	0x3d41cd81	0.047315124
9	0xbb5323f4	-0.0032217475
10	0xbc9e63dd	-0.019334728
11	0x3d9c1b58	0.07622403
12	0xbd41432d	-0.047183204
13	0x3cf0ce9c	0.029395394
14	0xbd069bfc	-0.032863602
15	0xbd415360	-0.047198653
16	0xbd0f672a	-0.035010494
17	0x3d459538	0.04823801
18	0xbc31ad55	-0.010844548
19	0x3c97e191	0.018540176

value_heads.value_heads.extrinsic.weight f4 [1, 20]
0	0x3e80ba3e	0.25142092
1	0xbe908de2	-0.28233248
2	0x3e9d8e74	0.30772746
3	0x3d608bd3	0.054820847
4	0x3ed0fabe	0.408163
5	0xbef03a2c	-0.46919382
6	0xbe2bdc62	-0.16783288
7	0x3e1c08be	0.1523771
8	0xbe8b8284	-0.27248013
9	0xbcd5534e	-0.0260407
10	0xbe5cb0cf	-0.21551822
11	0xbeb6729b	-0.35634312
12	0xbe28805d	-0.16455217
13	0xbe3ad3f5	-0.18244918
14	0xbec85fda	-0.3913563
15	0x3eea01bd	0.4570445
16	0x3e713948	0.23557007
17	0xbeb2952e	-0.3487944
18	0xbce49707	-0.027904047
19	0xbda71056	-0.08157413
