results/MoveToGoal3/MoveToGoal/checkpoint.pt (torch, 439199 bytes, 36 tensors)

network_body._body_endoder.seq_layers.0.weight f4 [128, 6]
00000000: f906 6abd a742 6e3e b38c 31bf 3e1d dc3d
00000010: 21c9 67be 6090 b63e 60dd 69be 2252 2c3e
00000020: 342f a2be b127 0d3f 8a06 00bf 6241 193f
00000030: 00cf 8ebe fbe6 4d3c b913 bd3e 54c9 38bf
00000040: 3904 873d ea87 eebe e888 463e 89e9 efbe
00000050: 0341 83be e2bc a93e d8d6 63bf aa58 7bbe
00000060: 26f8 86bd 332e fa3c a889 17bf b8ea c93e
00000070: e30d 2c3f 83bf 44be 3a32 51bd 310d 9dbe
00000080: 102d 2e3f 95a3 0a3e 0810 d23e ff95 08bf
00000090: 2b29 dabd fd4f 3cbe fbd0 89be f52a 28be
000000a0: 8ecb 493d 354d 27bf 8ccc 06bc 4a74 debe
000000b0: a455 51bd afd7 13bf 2001 1a3f babf 28bf
000000c0: c669 d83e 68c6 7e3e a275 bebb a816 35bd
000000d0: 7cb0 6abe 8c2c e8be 5dee 593d 8510 0c3f
000000e0: 8aa6 dfbd a857 013e 055e febe b812 67bf
000000f0: cfbd 7ebe 856b 1d3d 0193 fe3d 3fa4 163f
00000100: 62cc dd3e b60e aa3e 1ac8 bd3d 3c5b 95be
00000110: b4fb 4fbf 4dab 6d3e 69c8 07bf a144 cabe
00000120: 506b 2d3f f0ba 50bf 8802 253e 6ea2 38be
00000130: df27 41bf c926 ff3d 956c 3dbf d8bf a53e
00000140: 04cb f8be b22d 4d3f bd46 b9be 1fa8 91be
00000150: 8e2e a0be 60b3 db3e 1903 bc3d 60a9 433f
00000160: e935 5d3e 2c2b 33bf 7859 d23e 6a9b 0e3f
00000170: 928c b0be ee89 2dbf a2c5 bebe 119c 253f
00000180: 8fbb a5ba 469d 293f 5376 00bf 4370 e9bd
00000190: b074 503d e510 4e3e 8bc1 6e3e 9c1d d9be
000001a0: 2663 de3e 5f5b cdbe 8f9d cb3d c583 03bf
000001b0: f476 97be ebe2 ad3e 3610 90be 1f50 17bf
000001c0: f057 4a3e ecf5 16be 5493 1abe f223 2a3e
000001d0: 7b2c 4b3e 6c64 373d 3986 113f 8cca 833d
000001e0: 4e7d 003f e48d 44bd 06a7 3a3e 5389 01be
000001f0: 326a ddbd bf01 013f 7f33 a7bd 9ac7 dc3e
00000200: 742b 8b3d d5c6 7d3f 1473 91be 0a12 bebe
00000210: 0433 343e 89f1 f0bd d4b8 7ebe 00b6 873c
00000220: 0734 17bf 5189 08bf f2b9 573e 8c74 9cbe
00000230: 8698 1ebf 8b51 75be 3735 073f 548a 403f
00000240: ab7f b43d de9c 163f cc12 31be 333b 813d
00000250: f961 3b3d 3cd2 86be aa03 fabc 73a7 113f
00000260: d0c6 6fbd 3180 01bd 3c95 953d 4161 6c3f
00000270: 530e c43e 2400 223f 3488 f5be c058 ca3c
00000280: 10fd 23bf 5ad7 d63e 795a 213f 35aa 063e
00000290: 6830 763e d480 1abf 4d2d 9a3d cedf 96be
000002a0: 490e 773d 3ea5 c23e 370f 2bbf fd49 5f3e
000002b0: ceee d6be 60fe 533e 2980 8fbe 2780 8c3d
000002c0: fd2e 353f 18fe c73d 35dc 943e 46ca a7be
000002d0: 4c13 533e ad16 96bd 3c08 a83e 9aee 1b3e
000002e0: 17f3 7bbe 2947 643e 080e e3be c330 2b3f
000002f0: a5e6 eb3e 2687 ff3e d4d2 183d 2456 d33d
00000300: 9e5b 403d 95a0 753e 9712 a4bf 6d28 293f
00000310: 117b 0abf 6701 ce3d cd96 d23d 3f6e d7be
00000320: e75e 0abf 6e76 54be fa7e 06bf 937d 983c
00000330: 53e4 c1be 0afc 01be 1fcc 0f3e 3b04 d6be
00000340: 6a28 97be 6234 be3d c60d 813e ce32 80bd
00000350: 689d ed3e eaee e93d 01c8 143e 68cd d33e
00000360: aa49 fd3c 7369 0ebf 2a2b e5bd 7d43 b73e
00000370: 842c aebd eb3c 14bf 8f00 1bbf 2e00 17bf
00000380: 39dc a0be c81c 683f 3a93 d83e d251 393e
00000390: 78e6 4abe c20d d73e 0210 98be 884a 863e
000003a0: 0b2b cfbe e420 aa3e 8369 b5be 286f 6a3e
000003b0: 0576 ab3e ad54 3d3e 2936 5e3f 3a3e 6d3d
000003c0: 6794 06bf ac8a ee3e afc8 1b3e dabc 313d
000003d0: 067e a2bc ec85 88be d16e 9dbe 3820 22bc
000003e0: 948e 85be 7cb5 d03e 7ee7 0bbf 609f 3fbe
000003f0: 0bdf ad3e 3d35 abbe 09db 563e 7362 6bbe
-0.057135556 0.23267613 -0.69355315 0.10747765 -0.22635318 0.35657024 -0.22838354 0.16828206
-0.31676638 0.5513869 -0.5000998 0.5986539 -0.27892303 0.012567277 0.3692911 -0.721822
0.06592602 -0.4658807 0.19388163 -0.4685786 -0.25635538 0.3315192 -0.889997 -0.24545541
-0.06590299 0.030539608 -0.5919442 0.3943689 0.6720869 -0.19213681 -0.05107329 -0.30674127
0.6803751 0.13538964 0.41027856 -0.53353876 -0.106523834 -0.18389888 -0.26917252 -0.16422637
0.04926639 -0.65352184 -0.008227479 -0.43448097 -0.051107064 -0.5775098 0.60157967 -0.6591755
0.422682 0.24880373 -0.005812363 -0.04421106 -0.22918886 -0.45346487 0.053205837 0.54712707
-0.10920437 0.12631094 -0.49681106 -0.9026294 -0.24877094 0.038432617 0.124303825 0.5884437
0.43319994 0.3321435 0.09266682 -0.2917117 -0.81243443 0.23209877 -0.53040177 -0.39505485
0.6774187 -0.81535244 0.16114247 -0.18030712 -0.75451463 0.124585696 -0.7399381 0.32372928
-0.4859239 0.8014785 -0.36186782 -0.2844858 -0.31285518 0.4291029 0.09180278 0.7643032
0.21602596 -0.6998775 0.41083884 0.55705893 -0.34482247 -0.6778859 -0.37260157 0.64691263
-0.0012644398 0.66255605 -0.5018055 -0.11398365 0.050892532 0.20123632 0.23316018 -0.42405403
0.4343502 -0.40108773 0.09942161 -0.5137294 -0.29582942 0.33962187 -0.28137368 -0.5910663
0.19760108 -0.14742249 -0.15095264 0.16615275 0.19841187 0.044773504 0.5684543 0.06435117
0.501912 -0.04798688 0.18227777 -0.12650041 -0.10811271 0.5039329 -0.08164119 0.43121034
0.067953974 0.9913152 -0.2840811 -0.37123138 0.17597586 -0.11764819 -0.24875194 0.016566277
-0.5906376 -0.5333453 0.21067026 -0.30557668 -0.6195148 -0.23956887 0.52815574 0.7521107
0.08813413 0.5883311 -0.17292327 0.063101195 0.04574773 -0.2633227 -0.030519325 0.5689613
-0.05853921 -0.031616393 0.07303855 0.923359 0.3829218 0.63281465 -0.47955477 0.024700522
-0.6405802 0.41961175 0.63028675 0.13150866 0.24041903 -0.60352826 0.07528172 -0.29467624
0.060316358 0.38016695 -0.6682009 0.21805568 -0.4197907 0.20702505 -0.28027466 0.068603806
0.70774823 0.097652614 0.29074255 -0.3277151 0.2061283 -0.07328544 0.32818782 0.15227738
-0.2460445 0.2229277 -0.44346642 0.6687128 0.46074405 0.49907798 0.037310436 0.103191644
0.046962373 0.23987038 -1.2818173 0.6607731 -0.54094034 0.10058861 0.10282669 -0.420763
-0.5405106 -0.20748302 -0.525375 0.018614566 -0.3786951 -0.12693802 0.1404271 -0.41800103
-0.2952302 0.09287335 0.2520582 -0.0625969 0.46409154 0.11422522 0.1452942 0.4136765
0.030918915 -0.5562965 -0.111898735 0.35793677 -0.085045844 -0.57905453 -0.6054773 -0.5898465
-0.31418017 0.90668917 0.42299825 0.18097618 -0.1981448 0.42002684 -0.29699713 0.26228738
-0.40462527 0.3322822 -0.35432062 0.22893965 0.3348848 0.18489332 0.8680139 0.057920672
-0.52570194 0.46590173 0.15213273 0.043392994 -0.019835483 -0.26664674 -0.3074861 -0.009895377
-0.2608534 0.40763462 -0.54650104 -0.1871314 0.3395923 -0.33439055 0.20981993 -0.22986774

network_body._body_endoder.seq_layers.0.bias f4 [128]
00000000: 383e 66bc eb30 b6bb 94ff f539 f419 1a3b
00000010: a71b 93bb 24c2 ae38 2fb5 05bc 9338 b4ba
00000020: 5e6b a5ba 415f ccba 91b3 56bb facc a5bb
00000030: 5eee a8bb b42d 07ba ce73 31bb 6e12 d4bb
00000040: 339d 96bb 80ba 853c af6f 0abb 2f6c 89b9
00000050: b8f7 a4bb 6f43 35ba a766 dabb ba52 07bb
00000060: aa3d 3e3a d504 2dba 080b f0ba fd19 32bb
00000070: 54d2 c53c 418c 0f38 26d1 5b3b 01ad 933a
00000080: 2b3b 863c 997f 833b f84c 52ba 7d44 99bc
00000090: 3241 01bb e875 8ebb e057 55bc 208b 3fba
000000a0: eaed d3ba 95d1 8cbb b955 443c 1795 393b
000000b0: 14b1 863b a9e5 4dbb 6d36 203b 45f6 703b
000000c0: 1288 f83b 7fed 03bb 1b62 75bb 96a8 6dba
000000d0: fecc 1fbb 9e63 663a ab06 b5ba 0b82 be3b
000000e0: b086 b7bb 59af c83a 239e 4fba 9566 00bb
000000f0: 3c56 173b 14f2 efba e291 38ba 0325 27bb
00000100: cfa5 98bb 10fe f4bb 26c1 4eba 96db 36bb
00000110: 307a 923c 8b60 2bbb 0f89 133b 2ee7 8cba
00000120: 38a3 fb3a c3a8 baba d322 93bb 71b9 f7ba
00000130: 18ad eb3a 7b6c d237 f985 27bc b5c7 b5ba
00000140: 8714 55bb 0d3c 073c ea7d a2bb 6d25 7cba
00000150: af1e 3abc b938 bcbb ffec a33c d6d2 56bc
00000160: a218 0a3c 68b0 58ba 935d db39 7d24 633a
00000170: d313 103c 48f7 7aba 5e22 b439 4c66 a2b9
00000180: cdf1 88ba f76c 69bb fab4 fd3b 736c e43c
00000190: a60f aebb 05b0 9139 e11e 393b 9aec 283b
000001a0: b273 aa3c 88cb 4f3b 50f3 1fbb 27eb 7c3c
000001b0: 9b0c 283c 1acb 2abb 85d1 c1ba bffd debb
000001c0: 65b2 bdba da70 b4b9 3316 923c 3f58 8abb
000001d0: 144d 1e3c 7b4f 373b 9216 e7ba 957c 693a
000001e0: 7b35 1cbb 572e a7ba a7ff d0ba bd0a f4ba
000001f0: 877d 51ba f2a5 21ba 5419 223b c5dc 24bb
-0.01405292 -0.0055600307 0.00046920462 0.0023514004 -0.0044893804 8.333128e-05 -0.008160873 -0.0013749771
-0.0012620499 -0.0015592353 -0.0032760839 -0.0050598355 -0.0051553687 -0.00051566516 -0.0027077082 -0.0064719236
-0.0045963763 0.016324282 -0.0021123698 -0.0002621128 -0.005034413 -0.00069146504 -0.006665069 -0.0020648674
0.00072571135 -0.00066001463 -0.0018313834 -0.0027176135 0.024148144 3.422448e-05 0.003354141 0.0011266769
0.016385635 0.0040130136 -0.00080223335 -0.018709416 -0.0019722697 -0.0043475516 -0.013021439 -0.0007306803
-0.0016168926 -0.004297445 0.0119833285 0.0028317624 0.004110465 -0.0031417406 0.0024446503 0.0036767882
0.00758458 -0.0020130572 -0.0037442509 -0.0009065954 -0.002438366 0.0008788648 -0.0013811191 0.005813842
-0.005600773 0.0015311047 -0.00079199875 -0.0019592394 0.0023092171 -0.0018306398 -0.0007040781 -0.0025504238
-0.004658438 -0.0074765757 -0.0007887058 -0.002790188 0.01788053 -0.0026150073 0.0022512113 -0.0010750049
0.0019198423 -0.0014240969 -0.0044902354 -0.001889987 0.0017980663 2.5084466e-05 -0.010224813 -0.0013868721
-0.0032513456 0.008254063 -0.004958858 -0.0009618614 -0.011359855 -0.0057440666 0.02001047 -0.013111791
0.0084287245 -0.00082660327 0.00041840653 0.00086648 0.008793789 -0.0009573591 0.0003435788 -0.00030975265
-0.0010448039 -0.0035617927 0.0077425214 0.027883744 -0.005311924 0.000277877 0.0028247165 0.002577579
0.020807121 0.0031707007 -0.00244065 0.015436924 0.010256912 -0.0026061 -0.0014787173 -0.0068051512
-0.0014472721 -0.00034416356 0.017832851 -0.0042219455 0.009661932 0.0027970958 -0.0017630628 0.0008906809
-0.0023835588 -0.0012754899 -0.0015945331 -0.0018618923 -0.00079914223 -0.00061663904 0.0024734335 -0.0025156003

network_body._body_endoder.seq_layers.2.weight f4 [128, 128]
00000000: 4206 0c3d 574e 09bc 5b15 373d e7b7 70bd
00000010: 8c40 98bd 3eeb 1d3c 6d03 d43c 4ed6 99bb
00000020: 6d5b 3c3d 2951 683d 19aa 203e aa50 5e3d
00000030: be2d 5ebc 2772 c6ba d234 9fbd f5e4 a83d
00000040: 8b3f b8bd 4706 fd3c 9236 0ebe 5fab dc3c
00000050: 7344 2d3e 900b b93a 8b2b d8bd a434 043d
00000060: d0b0 babd a6da 84bd 4949 f83d 7787 fe3d
00000070: d150 93bd 7933 14be 7558 0dbe 7245 8e3c
00000080: e851 07be 6d7b 313d 9bf7 ddbd 6c85 023e
00000090: 66de 263d 6cd0 003e f3f2 db3c 3141 2e3d
000000a0: 25f5 5d3d 5154 9a3d dcb1 ee3d 5fdc 8a3c
000000b0: 0d50 223d d7c6 2d3d 26e2 d83c ee2c 8dbc
000000c0: 44e1 a53d f472 27bd 1ad2 343b 3765 d83c
000000d0: d81c 2ebc 632e fbbd 9ea2 5b3c af25 c2bd
000000e0: d180 5fbc 471c c93d 6e8e 38bd 64c3 843b
000000f0: b928 403d c0f3 69bb a4bd d43d 06d2 e1bd
00000100: b70b 113d ef8b d8bd 4097 203c ab0a 91bc
00000110: e696 30bd ddc4 8dbd 9240 f33d 4fad 00bd
00000120: bdcb f8bd 84a5 913d e7a4 843b 1f20 84bc
00000130: 9101 283d 0375 27bd d5a2 36bd b4c0 303e
00000140: b39a 123e 2ac2 fdbd 1d4a 9c3d cc0f 45bd
00000150: a1fa dbbc 8c04 9cbd 7a0c cf3d a333 a53d
00000160: 9154 a73c 51f7 e13c 1d21 193d 6573 873d
00000170: 5177 f5bb 976d b3bd 02df 883c a30f deba
00000180: 9bc7 81bc f74b 89bd c6a2 6dbd cfb5 2abd
00000190: 8193 a1bd 74e9 013e 4cf8 ae3d 89e8 a6bd
000001a0: 94ae 31bd 56d6 15bd 18a9 e23c 38d8 343e
000001b0: 611c 303d cba1 a13d b8d9 c53c 3915 c03d
000001c0: dc7f 18bd fa99 2ebd 1f92 ca3d 883d b2bd
000001d0: c0de cc3d 76f0 27bd 0382 6bbd b96c 973d
000001e0: 7f7c 933d c4c2 b6bd addb eabd 3622 e6bb
000001f0: 543f 57bc a93d f3bd 1e69 e6bc c686 843d
00000200: 8431 b33d 8dd5 ca3d 9f95 4e3b 0f2d 7a3d
00000210: c8d4 93be 98b3 063d 86e3 98bc fac2 fe3d
00000220: 3f77 1dbe d951 dabd eda5 af3c e7dd 503d
00000230: bd23 273e 9a62 ea3b 6a4c 05bd 9813 773d
00000240: 33fd 513d d558 353d e30a c53d 9fc7 0c3c
00000250: 2e7d 47bd 3da6 533d e24c 013d f079 f7bd
00000260: 99fc 35bd b8f4 a73d 35a9 723e c0a2 d7bc
00000270: 637e cf3c a4c7 d9bd 1c40 4fbd bb57 073c
00000280: c866 89bd c02c e9bd 912a 903d a256 e03d
00000290: f82b e23d 2b80 db3c e4a0 953d 44ba f83c
000002a0: 935f 8bbc bee7 6d3c 3eb5 5a3d f8e0 c73c
000002b0: 7a0f 9b39 4c0a 7fbd 0500 123e 69a1 9c3d
000002c0: 8b03 28be e23e d13c ce6f 6e3d 54fe 38be
000002d0: 4cf6 3c3c d1c0 9b3d af3b 813d 4338 f3bc
000002e0: 7b53 c23c 748f b03c 5ebf b2bc d50d e0bd
000002f0: cf0b 493d ba8a c13d efc3 8abd 75a2 3cba
00000300: 241a 123d ccef 6dbd 73e0 07bd 8eb4 babd
00000310: ba08 153e fa8a 2fbe fc82 af3d 6ac0 b93d
00000320: 9ef2 8cbd ef31 893d ecf8 fdba 6d2d 5ebc
00000330: 4e24 b6bd 7a31 23be 50f8 4cbc 2063 9c3d
00000340: 21a1 253d 1fce 6c3d cb08 9fbc 6897 1b3d
00000350: 200b 1e3e 3038 ecbc fef7 0d3d 2db9 90bc
00000360: ebf6 0c3d 611e d6bd 4503 923d 39c2 5fbd
00000370: 3f6f 41bd 309e 8b3d c29c 9b3d 2e1b 56bc
00000380: 6a0c d5bd b27c a53b 27ce a9bd 1752 a3bd
00000390: 2683 1bbe 6d71 8cbc 40e9 013e 4a26 253b
000003a0: 157b 043e 7cc6 6ebb 609a 433e 4a25 65bd
000003b0: cccb 183d 342b 493d 0470 5a3c 0711 3ebd
000003c0: e315 3abd 7065 4a3c 6ce2 2dbd 0bb8 183d
000003d0: bf72 313d 2c57 e5bd a8d2 57bc 6af6 acbd
000003e0: bc7b 56bb f0d4 febd f817 16bd a2ee 9cbd
000003f0: 44ba dabc 1172 5bbd 0973 163e 7f56 603d
0.034185655 -0.008380494 0.0446981 -0.058769133 -0.07434186 0.009638606 0.02588054 -0.0046947366
0.045985628 0.056718025 0.15689887 0.054276146 -0.0135607105 -0.0015140221 -0.077737466 0.08246795
-0.08996495 0.030886782 -0.13888004 0.026937185 0.16920643 0.0014117826 -0.1055518 0.032276765
-0.091157556 -0.064870164 0.12123353 0.124281816 -0.07193149 -0.1447276 -0.13803275 0.017367098
-0.13214839 0.0433306 -0.108382426 0.12746209 0.04073944 0.12579507 0.026849246 0.04254264
0.054188866 0.07535613 0.11655018 0.016950784 0.039627124 0.042425957 0.026475023 -0.017233338
0.08099607 -0.040881112 0.002759105 0.02641545 -0.010626994 -0.12264707 0.01340547 -0.09479844
-0.013641552 0.098198466 -0.045057707 0.0040516127 0.046913836 -0.0035698265 0.103877336 -0.11026387
0.035411563 -0.10573565 0.009801686 -0.017705282 -0.043112658 -0.06922314 0.1187755 -0.03141528
-0.12148235 0.07111648 0.004047978 -0.016128598 0.04101712 -0.040883075 -0.044588882 0.1726101
0.14316826 -0.123905495 0.076313235 -0.04811077 -0.026852908 -0.07618055 0.101098016 0.080664895
0.020426067 0.02758375 0.037385095 0.06613807 -0.0074910303 -0.08761137 0.0167079 -0.0016941916
-0.01584225 -0.06703942 -0.05801656 -0.041677292 -0.07889462 0.12686712 0.085434526 -0.08149821
-0.04337938 -0.03658136 0.02766852 0.17660606 0.042995814 0.07892188 0.024151668 0.09379048
-0.03723131 -0.042627312 0.09891152 -0.087031424 0.10003424 -0.041000806 -0.057497036 0.07393784
0.0720148 -0.08923867 -0.11467681 -0.007023121 -0.013137657 -0.11876995 -0.028126296 0.064710185
0.08749679 0.09904013 0.0031522287 0.061078127 -0.28873277 0.032886118 -0.01866318 0.124395326
-0.1537752 -0.106601425 0.021441424 0.050992873 0.16322227 0.0071528675 -0.032543577 0.06032142
0.05126686 0.04427417 0.09621217 0.008592515 -0.048703365 0.05167221 0.03156746 -0.120838046
-0.04443035 0.08200973 0.2369736 -0.026322722 0.02532882 -0.106337816 -0.05059825 0.008260663
-0.06709057 -0.113854885 0.07039369 0.10954024 0.110435426 0.026794514 0.07306078 0.030362256
-0.017013347 0.014520584 0.053395502 0.024399266 0.00029575435 -0.06226568 0.1425782 0.07647974
-0.16407602 0.02554268 0.058212094 -0.18065768 0.011533331 0.07605136 0.06310212 -0.029689914
0.023721447 0.021552779 -0.021819767 -0.10940138 0.049083527 0.09450288 -0.067756526 -0.0007195839
0.03566946 -0.058090016 -0.033173036 -0.09116469 0.1455411 -0.17142859 0.08569905 0.09069903
-0.06882213 0.06698977 -0.0019376553 -0.013560635 -0.08893643 -0.15936843 -0.012510374 0.07636094
0.040436868 0.05781376 -0.019413373 0.03798619 0.15433931 -0.028835386 0.034660332 -0.017666424
0.034415167 -0.10455013 0.0712953 -0.054628585 -0.047225233 0.06817281 0.075982586 -0.013068004
-0.104027584 0.005050265 -0.082912736 -0.07974642 -0.15186748 -0.01714393 0.12686634 0.0025199824
0.12937577 -0.0036434224 0.19101858 -0.055943765 0.03730373 0.049113467 0.013332371 -0.046402957
-0.04543103 0.012353286 -0.04245226 0.037284892 0.04332232 -0.11198267 -0.013172783 -0.08445437
-0.003272756 -0.12442958 -0.036643952 -0.07662703 -0.026700146 -0.05357558 0.1469232 0.05476999

network_body._body_endoder.seq_layers.2.bias f4 [128]
00000000: 90a4 6d3a d971 5abb 9e58 ccba 15f9 df3a
00000010: 65a0 e2ba 0d65 c2ba a122 96b9 0430 5a3a
00000020: 98d2 253a a8bf 343a cbb0 54ba 89d3 4eba
00000030: 41cc b6ba 899e 1ebb 060b 73ba a48d 0abb
00000040: 578c 3e3a 1edf f1b9 d462 feba 73f1 88bb
00000050: 57d0 91ba d9de c3bb b8f6 7dbb 126f b53a
00000060: 8a47 b53a 26d3 5cba 86eb b939 1ee7 b3ba
00000070: e4e7 fbba a7dd 1abb 03af 58bb 207c deba
00000080: c85e 3ebb 2815 003a 3359 8f35 0ea3 16b8
00000090: 29ee 01bb 85f1 3dba 1713 a0ba f7d8 daba
000000a0: b5eb 39ba b976 7139 b7b3 adbb 935a daba
000000b0: 33db a1ba 0b54 8a39 3799 a739 bdeb 8e3a
000000c0: 65bf c5b8 5f4e b5b9 00fc ea3a 0177 203c
000000d0: fcc3 8eba bf86 dbba 57f5 453b 4c41 2cba
000000e0: 2810 ddba 7590 c33a f8d6 cb37 dcf5 e1ba
000000f0: 37c6 cdba 65d4 b9ba f16e c5ba a576 22bb
00000100: 7f7c 69b9 d701 53b9 3ee4 483a a47e d1ba
00000110: 9e38 9cba 38e8 eab7 56ed c1ba 3fe6 dabb
00000120: 88e0 03bb d89d d9ba fd77 8838 6e81 81ba
00000130: 69b2 e2ba e425 dcba 934a d6ba 6c8c 22bb
00000140: 7f35 92ba de29 35bb 4174 b7b9 6bc3 49bb
00000150: ffc7 20bb ed57 07bb 1cee c9ba dd78 2ebb
00000160: 48f8 adba e5cc b8b9 75c2 4dba 31b7 2fba
00000170: 3ccb 7a3a 0a50 b8ba 3b0d 05bb 00dc 42bb
00000180: 6b68 89ba 818f dcba c25a 2cbb 6b57 1c3c
00000190: 1a33 0d3c c3ba 39bb f8dd 7ebb ae07 03bb
000001a0: 1086 1e39 44dd 0dbb a9d7 72b9 9276 88bb
000001b0: b218 39bb b7fa 6339 49d2 d83b b2c3 8dba
000001c0: 82fd 42ba 6107 1fba 1dfd e1ba c871 323a
000001d0: dba4 07bb 8e06 b1ba 5aeb 8539 3b73 48ba
000001e0: 8e6e 11ba 63b4 48ba 2dca 09bb c3c8 acba
000001f0: 3df7 f4ba 4f86 39bb eefc c33a 0f1f 6fbb
0.0009065354 -0.0033332019 -0.0015590375 0.0017087782 -0.0017290233 -0.0014831141 -0.0002863603 0.0008323195
0.00063256314 0.0006895014 -0.00081135024 -0.00078897976 -0.001394637 -0.002420338 -0.0009271357 -0.0021141553
0.0007268837 -0.00046133337 -0.0019408115 -0.0041791736 -0.0011124712 -0.0059774932 -0.0038751792 0.0013842306
0.0013830524 -0.00084237976 0.00035461428 -0.0013725495 -0.0019218889 -0.002363065 -0.00330633 -0.0016974248
-0.0029048193 0.0004885965 1.0680291e-06 -3.5914643e-05 -0.0019825792 -0.0007245767 -0.001221272 -0.0016696741
-0.0007092313 0.00023027779 -0.0053009647 -0.0016659073 -0.0012348652 0.00026384028 0.00031966876 0.0010903996
-9.429342e-05 -0.000345814 0.0017927885 0.009793998 -0.0010892148 -0.0016748531 0.0030206048 -0.0006571009
-0.0016865777 0.0014920371 2.4299588e-05 -0.001723941 -0.0015699331 -0.0014177678 -0.001506297 -0.0024789956
-0.0002226699 -0.00020123213 0.0007663405 -0.0015983176 -0.0011918729 -2.8003109e-05 -0.0014795463 -0.0066802795
-0.0020122845 -0.0016602827 6.507335e-05 -0.0009880492 -0.0017295602 -0.001679596 -0.0016349129 -0.0024802936
-0.0011154859 -0.0027643363 -0.00034991096 -0.0030786644 -0.002453327 -0.0020651773 -0.0015406045 -0.0026622333
-0.0013272846 -0.00035247873 -0.0007849106 -0.0006703018 0.00095670274 -0.001406194 -0.0020302075 -0.002973318
-0.001048339 -0.0016827435 -0.0026299213 0.009542326 0.008618141 -0.0028340078 -0.0038889628 -0.001999359
0.00015117996 -0.0021646777 -0.00023159258 -0.0041645253 -0.002824348 0.00021741806 0.006616865 -0.0010815768
-0.00074382883 -0.0006066468 -0.0017241571 0.0006807116 -0.0020697627 -0.0013505982 0.00025543087 -0.0007646565
-0.0005547785 -0.0007656274 -0.0021025047 -0.001318239 -0.0018689405 -0.0028308814 0.0014952698 -0.0036487018

action_model._continuous_distribution.log_sigma f4 [1, 2]
00000000: 775d a9bc 285b ab3a
-0.02067445 0.0013073431

action_model._continuous_distribution.mu.weight f4 [2, 128]
00000000: 72a1 08bd 0d82 4437 f46f 88bc 10ac 0ebc
00000010: ce5c ae3c e9ec f63b 5f0b 113c c525 e0bc
00000020: 0813 3b3b d0b0 9f3c 7c94 273d 702a 4cbc
00000030: 7aea 103d cf7c 32bd 6e69 4d3c f757 d139
00000040: 069d 15bc 0529 f5bc c926 013c 8bd6 91bc
00000050: fd24 18bc a283 09bc 7f57 2cba 3736 8a3c
00000060: 5310 1dbc 0518 b5bc d48b 5a3c 98af 373c
00000070: 2027 b23c 2fdf 0d3c a41d d9bb c379 5439
00000080: 1e4d 9abc 398d 22bc 2af0 033d 2dae c2bb
00000090: 3a7e 5ebb 431f adbc e0e7 dfbc d2bf 673c
000000a0: 070d 5b3c 4480 bf3c d6f1 28bc c72a 49ba
000000b0: 2fe9 8a3c 93a7 10bc c914 e5bc 692a 0c3c
000000c0: de48 9fbc 5cd7 3e3c 56a5 1eba 20f6 e73c
000000d0: cf7e d43c 2e80 6bbb 0567 d73b d7be c53c
000000e0: 854c 013d c412 d23b 3e82 4abb f585 43bc
000000f0: 4842 173c fe89 58bb fb29 b23b 6377 1d3a
00000100: c35d 05bd 338b c43c 534d acbc ee87 6bba
00000110: 6251 32bc 507d e2bb 999b 89bb 68d9 57b9
00000120: f14e 173c c4c5 4c3c bc7b cbbc 5434 2b3c
00000130: c81b 503c 2f4e a33c 6e5c 5e3c 562b 56bc
00000140: 5f08 883c 7e2e 90bc ae82 21bc 11df 333b
00000150: fc2c 5dba a51e e43b 81b8 a43c 0f1f d13b
00000160: ba8c b9bb 2a3d 9e3c e7a1 983c 1fbc e93c
00000170: 182c bc3b 3708 a4bb 8a3e 8a3c c482 a8bc
00000180: bf57 833c 0488 953c ffea 3cbc de91 1dbb
00000190: b85f ab3c c94f a9bc 91e9 aa3b 6f77 9cbc
000001a0: 27c3 1d3c 9e48 11bc a247 d6bc e426 a7bc
000001b0: ce6d 163d 719c 143c 8017 dfbb be24 ce3c
000001c0: 6fdd 57bc fcb4 d9b9 a279 823c becd 373b
000001d0: 2b60 fcbb 81dc b9bb 5c24 1d3c b31d 153d
000001e0: 6376 9639 f12f 053d 2780 1a3b a4ee 23bc
000001f0: 4a66 b7ba 9647 27bb ad07 1ebc 2378 57bc
00000200: 63aa 0ebd 458b 74bc aab4 57bc d973 303c
00000210: cfc3 17bd ab4d 13bd fa2a 0abd 8a67 663c
00000220: 1078 babc 5baf 79bb 2145 d13a 7c6b 4c3a
00000230: 8d3c d23c 6551 97bc dc59 293c 24f5 183c
00000240: d49d 12bd 3ab7 ef3b 564c 503c e91a 00bb
00000250: c118 883b 3a0e 1ebd c626 7839 ea6d 2cbc
00000260: 8a06 b33c 8d9c 9e3b c1a3 c7bc f417 ffbb
00000270: 15db 703c 37e5 b23c 011b 6d3c 8240 983c
00000280: 7585 bcbc dc91 64bc be1a fb3b 7746 1cbc
00000290: f40c 1b3c 0290 273d 4eec 993c 194d b837
000002a0: 5979 a43c 8888 c7bb 36de 4dbc e2de b23c
000002b0: 2e90 f7bc e17f a5bc 6c5d 20bc 5ca9 19bd
000002c0: 992b 3b3c ab45 853c 0200 f23c e811 3fbd
000002d0: ff52 09bc 6c3d c33b 81f5 54bc 0d6d 8e3c
000002e0: 66bd 863b d5fc 8a3c 4f3d a23c 1002 9eba
000002f0: 46e5 983b 6d10 e23c e058 1a3d c768 a4bb
00000300: 4d2f 8d3c fda6 13bd 9e2e d4bc 7260 893c
00000310: c338 7e3c b6a3 fdbb 5c1b 783c a9a9 8ab8
00000320: 9743 1f3c 242e 153a 8897 49ba a07b 553c
00000330: 94da e13c a385 bc3c b94a 823b 49a0 e73c
00000340: ca88 59bc e501 8bba ab3e 16bd bc05 773b
00000350: f2ec 833a 8bbc 99bb 0542 0b3c 4136 5a3c
00000360: 97b4 0f3d 94a5 37bc 5788 82bc a702 b9bb
00000370: 7395 883c 7d41 0e3d 12a3 043d 2116 61bc
00000380: 3139 3dbc e001 713c 7169 e2bb 99d8 89bc
00000390: ff98 55bc 9cf2 5cbc d0dd f4ba 8148 cf3b
000003a0: 7db1 df3c 3838 1bbb 8b07 173b b8b8 453c
000003b0: a1ac 00bd 44ba c8bc 2e14 ecbc 82d5 063b
000003c0: 02fe 973b 66d1 e83b 748c 003c 5953 09bd
000003d0: 674c 93bc a91b d63c 05dd debc d44b 8d3a
000003e0: 265f 683b 5e55 f03b 6164 223c f3c8 063c
000003f0: 7735 cebc 65e5 35bb be46 cbbc 9428 c33c
-0.03335709 1.171279e-05 -0.016654946 -0.008708015 0.021284487 0.007535566 0.008852809 -0.02736176
0.002854528 0.01949349 0.04091309 -0.01246129 0.035379864 -0.043576058 0.012537343 0.00039929125
-0.009131676 -0.029926786 0.007882782 -0.017802497 -0.009286162 -0.0083932 -0.0006574317 0.016871555
-0.0095864115 -0.02210618 0.013339002 0.011211298 0.021747172 0.008659168 -0.006625848 0.00020263255
-0.0188356 -0.009921365 0.03221146 -0.0059411735 -0.0033949749 -0.02113307 -0.027332246 0.014144855
0.013369805 0.023376592 -0.010311564 -0.0007673916 0.016956894 -0.008829015 -0.027964013 0.008555033
-0.019443925 0.011648025 -0.00060518587 0.028315604 0.025939373 -0.0035934555 0.00657356 0.024138851
0.031567115 0.0064109284 -0.0030900384 -0.011933793 0.009232111 -0.0033041234 0.0054371334 0.0006006865
-0.03256012 0.023992157 -0.021032965 -0.00089847937 -0.010883661 -0.006911911 -0.004199457 -0.00020584988
0.00923513 0.012498323 -0.024839275 0.010449488 0.012701936 0.019934742 0.013571842 -0.0130718555
0.016605554 -0.017600294 -0.009857817 0.002744619 -0.0008437184 0.006961661 0.02010751 0.0063818763
-0.005662528 0.019316275 0.018631889 0.028532086 0.005742561 -0.005005862 0.016875524 -0.020570166
0.016033052 0.018253334 -0.011530637 -0.0024043242 0.020919666 -0.020667927 0.0052158316 -0.01909992
0.0096290475 -0.008867411 -0.026157204 -0.020404287 0.03672581 0.009070502 -0.0068082213 0.025164004
-0.0131753525 -0.0004152431 0.01592714 0.0028046216 -0.007701894 -0.005672038 0.009591188 0.036405277
0.00028698434 0.032516424 0.002357492 -0.010005627 -0.0013992277 -0.0025524846 -0.009645385 -0.013151201
-0.034830462 -0.014925783 -0.013165632 0.010769808 -0.037051972 -0.03596274 -0.033732392 0.014062772
-0.022762328 -0.0038098905 0.0015966037 0.0007797999 0.025663638 -0.01847143 0.010336366 0.00933579
-0.035795048 0.0073155435 0.012713512 -0.001954729 0.0041533415 -0.038587786 0.00023665567 -0.010524252
0.021853704 0.0048404397 -0.024370076 -0.007784838 0.014700671 0.021837814 0.01447177 0.018585447
-0.023012856 -0.013950791 0.0076631 -0.0095382845 0.0094635375 0.04090882 0.018789437 2.197041e-05
0.020077394 -0.006089274 -0.012565186 0.021834794 -0.030220117 -0.020202579 -0.0097878985 -0.03751503
0.011423969 0.016268572 0.02954102 -0.046647936 -0.008381604 0.00595825 -0.012997986 0.017385984
0.0041119335 0.016966263 0.019804625 -0.0012055058 0.0046660034 0.027595723 0.037682414 -0.0050173732
0.017234469 -0.036047924 -0.025901135 0.016769622 0.015516463 -0.007740463 0.015143242 -6.6119544e-05
0.0097207045 0.00056907744 -0.00076901214 0.013029963 0.027570046 0.023012942 0.003976193 0.028274672
-0.013277242 -0.0010605423 -0.03668086 0.0037692627 0.0010065122 -0.0046916655 0.008499627 0.013318599
0.035084333 -0.0112089105 -0.015934153 -0.005646068 0.016672825 0.034730423 0.03238208 -0.013738186
-0.01154928 0.01470992 -0.0069095423 -0.016826915 -0.013036965 -0.013485577 -0.0018681828 0.006325782
0.027306313 -0.0023684632 0.0023045267 0.012067966 -0.03141463 -0.02450288 -0.028818216 0.0020574038
0.0046384344 0.0071050404 0.007845987 -0.033526752 -0.017980767 0.026136236 -0.027205 0.0010780045
0.0035457104 0.0073343953 0.0099116275 0.008226621 -0.025171978 -0.0027755138 -0.024814006 0.02382306

action_model._continuous_distribution.mu.bias f4 [2]
00000000: 0bf7 e3b9 1ed3 95ba
-0.00043480875 -0.0011430716

exp_avg f4 [128, 6]
00000000: 821f 1f37 32a4 8838 5c2a 9137 d4b1 0238
00000010: 32a4 8838 5e45 84b8 709f 0b36 69d9 6037
00000020: 38b2 7bb6 4a10 d736 69d9 6037 56a8 59b7
00000030: 4a47 ad38 e325 7cb8 cd52 69b9 802c f1b7
00000040: e325 7cb8 2615 7438 cd0e 64b5 7f40 20b5
00000050: 21c5 2235 0647 99b4 7f40 20b5 6920 1b35
00000060: cd8d 4bb9 2017 4dba 6fce 8438 242a c4b9
00000070: 2017 4dba d787 463a 4a2c 2e39 519c 83b8
00000080: a8be 83b9 2fc4 fbb7 519c 83b8 dccd 7e38
00000090: 3da3 e9b8 f0be 82b9 eadc ec37 841c fab8
000000a0: f0be 82b9 c220 7d39 a154 92b8 566f 84ba
000000b0: 9cd3 4cb9 ad57 fdb9 566f 84ba f532 803a
000000c0: b5b6 0339 cf20 8c3a 4fc9 d838 9a07 063a
000000d0: cf20 8c3a 71a5 87ba 4dd7 dc37 717b 9cb9
000000e0: 9b69 85b8 00ac 15b9 717b 9cb9 257a 9739
000000f0: c9d4 42b8 0a92 47b9 362d 4237 91e2 beb8
00000100: 0a92 47b9 f52f 4139 3461 31b6 b569 8b37
00000110: 5980 4537 7a58 0537 b569 8b37 35f4 86b7
00000120: fe03 d7b2 45ea afb2 9239 6330 5b42 28b2
00000130: 45ea afb2 dd49 aa32 93b4 8339 73fb fd39
00000140: 34ba 49b9 b9ed 7239 73fb fd39 d0db f5b9
00000150: d921 5eb9 28d5 47ba 8d47 4138 c322 bfb9
00000160: 28d5 47ba f170 413a e35d d5b5 f05a a3b4
00000170: 69be 0a35 e73e 1cb4 f05a a3b4 4f21 9e34
00000180: 0c6f 54b9 5935 f3b8 d5e4 0038 a19f 68b8
00000190: 5935 f3b8 f96d eb38 ebde 6439 c82e 93b8
000001a0: a0bb 81b9 f3c6 0cb8 c82e 93b8 8d79 8e38
000001b0: a35e 84b9 a481 73ba b631 d138 a6e8 e8b9
000001c0: a481 73ba cdb7 6b3a 7469 6939 dcd2 2d3a
000001d0: a24b b2b9 3342 a639 dcd2 2d3a 9243 28ba
000001e0: 5461 a9b6 58c2 16b5 0cf7 8036 ab32 90b4
000001f0: 58c2 16b5 d1ef 1135 22e0 8238 9bdb 05b9
00000200: ed5a 09b9 4508 80b8 9bdb 05b9 9893 0139
00000210: f45d 20b6 f09c be37 376f 05b6 4151 3637
00000220: f09c be37 3484 b8b7 d186 8137 4242 8638
00000230: 6026 90b6 6d6a 0038 4242 8638 f0f6 81b8
00000240: 28d9 5639 b5fb 5d3a 11aa 30b9 8752 d439
00000250: b5fb 5d3a 1ee2 56ba 0235 b737 f77c 2639
00000260: fe91 7336 0f3e 9f38 f77c 2639 c129 21b9
00000270: 5f25 7db7 e192 a7b8 48b7 dd36 e047 20b8
00000280: e192 a7b8 c636 a238 1e61 c239 2246 9d3a
00000290: d560 30b8 e46d 163a 2246 9d3a 5f3e 98ba
000002a0: b329 04b8 2b46 feb8 e5ce ec33 3735 73b8
000002b0: 2b46 feb8 2e24 f638 186d 46b9 b022 aeba
000002c0: 2734 85b8 968e 26ba b022 aeba da90 a83a
000002d0: 07ea ab37 c593 3438 d539 73b7 e5b7 ac37
000002e0: c593 3438 35cd 2eb8 db63 6438 7081 8939
000002f0: 8100 0fb8 7185 0339 7081 8939 8a1b 85b9
00000300: b68a 86b9 64ab 27b8 b452 e1b8 495f a0b7
00000310: 64ab 27b8 b94e 2238 f8ea 9eb5 11b4 42b6
00000320: 5087 df34 d03a bab5 11b4 42b6 d579 3c36
00000330: 8de1 4c35 238f a437 b2ff 4936 bc65 1d37
00000340: 238f a437 bb4b 9fb7 3eca 1136 7bff b438
00000350: 0f11 9934 e81e 2d38 7bff b438 7435 afb8
00000360: 46d2 a1b8 cb6c 46ba 515b fcb7 14ca bdb9
00000370: cb6c 46ba 1314 403a 3a6a c0b6 5101 5739
00000380: b1b4 09b8 e2a5 cd38 5101 5739 dc20 50b9
00000390: 35aa 9236 e453 aa37 3d3a 2237 35ea 2237
000003a0: e453 aa37 3ae1 a4b7 bfe5 6f39 f76e 9d3a
000003b0: dcab 0d37 f394 163a f76e 9d3a e465 98ba
000003c0: 9b18 bb38 9696 ebb9 aa13 15b9 d255 61b9
000003d0: 9696 ebb9 930d e439 e03b a537 c049 36b6
000003e0: c20f 3e36 b95a aeb5 c049 36b6 0075 3036
000003f0: e314 1439 823f 9c38 3c2e d9b8 9a72 1538
9.4844745e-06 6.515569e-05 1.7305072e-05 3.116003e-05 6.515569e-05 -6.307171e-05 2.080542e-06 1.340206e-05
-3.7505652e-06 6.4093956e-06 1.340206e-05 -1.2973402e-05 8.2625615e-05 -6.0116767e-05 -0.00022251457 -2.875016e-05
-6.0116767e-05 5.819383e-05 -8.4958157e-07 -5.96985e-07 6.0636563e-07 -2.8550147e-07 -5.96985e-07 5.778916e-07
-0.00019412414 -0.0007823575 6.332702e-05 -0.0003741543 -0.0007823575 0.00075733423 0.00016610432 -6.275683e-05
-0.00025128317 -3.0012887e-05 -6.275683e-05 6.075004e-05 -0.00011140711 -0.00024937792 2.8236263e-05 -0.000119262404
-0.00024937792 0.00024140163 -6.977586e-05 -0.0010103981 -0.00019533787 -0.00048321244 -0.0010103981 0.0009780811
0.00012561197 0.001069093 0.00010337179 0.0005112827 0.001069093 -0.0010348988 2.6326301e-05 -0.0002984661
-6.361605e-05 -0.00014273822 -0.0002984661 0.0002889197 -4.6451376e-05 -0.00019032523 1.1573828e-05 -9.102107e-05
-0.00019032523 0.0001842378 -2.6431635e-06 1.6619315e-05 1.1771998e-05 7.948018e-06 1.6619315e-05 -1.6087763e-05
-2.503111e-08 -2.0479215e-08 8.266393e-10 -9.7939745e-09 -2.0479215e-08 1.9824194e-08 0.00025120805 0.00048443265
-0.0001923822 0.00023167477 0.00048443265 -0.00046893815 -0.00021184179 -0.00076230103 4.6081423e-05 -0.00036456258
-0.00076230103 0.00073791953 -1.5897061e-06 -3.0427282e-07 5.168609e-07 -1.4551516e-07 -3.0427282e-07 2.9454029e-07
-0.00020259264 -0.0001159708 3.0730695e-05 -5.5461776e-05 -0.0001159708 0.00011226157 0.00021826818 -7.01822e-05
-0.0002474459 -3.3563887e-05 -7.01822e-05 6.793728e-05 -0.00025247512 -0.00092890323 9.975156e-05 -0.00044423825
-0.00092890323 0.0008991927 0.00022259896 0.0006630847 -0.00034007157 0.0003171131 0.0006630847 -0.000641876
-5.047923e-06 -5.616216e-07 3.8434573e-06 -2.6858956e-07 -5.616216e-07 5.436569e-07 6.240631e-05 -0.00012765678
-0.0001309921 -6.105056e-05 -0.00012765678 0.00012357382 -2.3896546e-06 2.2722845e-05 -1.988328e-06 1.0866964e-05
2.2722845e-05 -2.1996071e-05 1.5440777e-05 6.4019594e-05 -4.296002e-06 3.0616695e-05 6.4019594e-05 -6.197195e-05
0.00020489527 0.0008467988 -0.00016848023 0.0004049728 0.0008467988 -0.0008197146 2.1839984e-05 0.00015877547
3.62948e-06 7.59327e-05 0.00015877547 -0.00015369711 -1.5088676e-05 -7.990539e-05 6.60765e-06 -3.821391e-05
-7.990539e-05 7.734964e-05 0.0003707492 0.0011999051 -4.205185e-05 0.0005738421 0.0011999051 -0.0011615268
-3.1510088e-05 -0.000121247336 1.102724e-07 -5.7985275e-05 -0.000121247336 0.00011736933 -0.00018923392 -0.0013285484
-6.351648e-05 -0.00063536444 -0.0013285484 0.0012860552 2.0493766e-05 4.3052965e-05 -1.4497394e-05 2.058963e-05
4.3052965e-05 -4.1675947e-05 5.4452434e-05 0.00026227115 -3.4094326e-05 0.00012542844 0.00026227115 -0.00025388255
-0.0002566182 -3.9975523e-05 -0.00010744241 -1.9117857e-05 -3.9975523e-05 3.8697126e-05 -1.1840302e-06 -2.9013065e-06
4.163544e-07 -1.3875197e-06 -2.9013065e-06 2.8085099e-06 7.632414e-07 1.9616977e-05 3.0100168e-06 9.381616e-06
1.9616977e-05 -1.8989542e-05 2.1724404e-06 8.630656e-05 2.8510883e-07 4.1275198e-05 8.630656e-05 -8.354607e-05
-7.716245e-05 -0.0007569312 -3.0083263e-05 -0.0003619945 -0.0007569312 0.000732721 -5.7344123e-06 0.00020504488
-3.2831627e-05 9.80606e-05 0.00020504488 -0.00019848667 4.370954e-06 2.0304644e-05 9.669512e-06 9.710483e-06
2.0304644e-05 -1.9655203e-05 0.00022878403 0.001201122 8.444269e-06 0.0005744241 0.001201122 -0.0011627045
8.921438e-05 -0.00044934888 -0.00014217073 -0.00021489643 -0.00044934888 0.00043497662 1.9697414e-05 -2.7163042e-06
2.8321379e-06 -1.2990414e-06 -2.7163042e-06 2.6294147e-06 0.00014122161 7.450489e-05 -0.00010355978 3.56311e-05

exp_avg_sq f4 [128, 6]
00000000: c9ac 4930 73fd ae32 c828 d32f 0b17 a031
00000010: 73fd ae32 9ef9 a332 917e 0c2e 7e48 e131
00000020: 9ae2 3c2e d619 ce30 7e48 e131 4b1a d331
00000030: 85aa 5734 139e 3e37 c529 5d33 0a63 2e36
00000040: 139e 3e37 6c9e 3237 b18c f52b fc29 b12e
00000050: 7ce7 fd2a 2f14 a22d fc29 b12e 2203 a62e
00000060: d0d0 e033 9e14 8a36 3fe6 8d32 90a5 7c35
00000070: 9e14 8a36 9263 8136 f511 9b34 0bdb 7b37
00000080: dfe1 a333 2869 6636 0bdb 7b37 9a00 6c37
00000090: 6ed7 e332 f33a 4835 1010 4131 632e 3734
000000a0: f33a 4835 67a0 3b35 4fec 2934 9d70 2537
000000b0: 99b5 9233 525a 1736 9d70 2537 a606 1b37
000000c0: 957f 9d33 1a13 9d36 c91f 0533 2fb3 8f35
000000d0: 1a13 9d36 f32f 9336 6efb b332 7a8b 8d35
000000e0: fcf4 0432 1e7e 8134 7a8b 8d35 9ea2 8435
000000f0: b558 f831 f16c da34 4f9a 2e31 bfd3 c733
00000100: f16c da34 32ad cc34 2022 4230 1fcf 0c33
00000110: dc4f 222f cfd1 0032 1fcf 0c33 19f2 0333
00000120: 8077 3226 4d1a a127 e98d 1c24 9762 9326
00000130: 4d1a a127 3cf6 9627 2ba2 b334 9154 9537
00000140: ef5b c133 7d9d 8836 9154 9537 41ee 8b37
00000150: 91f5 3634 6547 ba36 504c ad32 f36a aa35
00000160: 6547 ba36 aa8d ae36 abe0 032d 4103 fb2e
00000170: a9ca 5b2b b4a3 e52d 4103 fb2e 6136 eb2e
00000180: 8c4c 9c33 cf68 6135 debc 5032 6337 4e34
00000190: cf68 6135 7e38 5335 cd6b b134 8f34 a236
000001a0: de83 1f33 d864 9435 8f34 a236 c3fe 9736
000001b0: 8140 6234 bfb9 1a37 7197 fe32 158d 0d36
000001c0: bfb9 1a37 7cfc 1037 3699 0435 33d7 0838
000001d0: e4b5 0534 b960 fa36 33d7 0838 1f3a 0038
000001e0: 7e24 892f 42d9 b131 c7ab 262e 80b4 a230
000001f0: 42d9 b131 59a7 a631 fd4e c733 1c71 e436
00000200: 181d 2a33 9cfd d035 1c71 e436 f00f d636
00000210: 291b a82f b27e 7132 9fe9 112f a0ee 5c31
00000220: b27e 7132 3c4b 6232 73d5 932f 9f16 3432
00000230: 38d9 052e 17c1 2431 9f16 3432 a9c0 2832
00000240: e561 2034 1396 f736 3389 a132 4281 e235
00000250: 1396 f736 7200 e836 a144 c630 e15e b433
00000260: 5139 be2f 3303 a532 e15e b433 4f04 a933
00000270: 7433 3630 0066 6e33 1271 422f 7019 5a32
00000280: 0066 6e33 6b64 5f33 14be 6c34 fa25 a536
00000290: 5816 9c32 1816 9735 fa25 a536 c1c0 9a36
000002a0: 9ef7 812f ce6e 0e32 e21f 952f 174e 0231
000002b0: ce6e 0e32 9f77 0532 4b94 2d34 a0d8 1a37
000002c0: f364 2b33 58a9 0d36 a0d8 1a37 6919 1137
000002d0: f0b4 0231 86ba 7e33 1d06 872f fc09 6932
000002e0: 86ba 7e33 cbb1 6e33 3e2d f732 3081 ca35
000002f0: b5e5 1532 0d43 b934 3081 ca35 07c2 bd35
00000300: bf90 4332 581d 0136 c0a2 2933 d63d ec34
00000310: 581d 0136 80f9 f135 76e5 ae2b 9815 452e
00000320: 271b 0d2a 964d 342d 9815 452e b9ad 382e
00000330: 583f 362e 7caf 8d31 95a3 e92d 0a9f 8130
00000340: 7caf 8d31 57c4 8431 d3c6 7a31 b12f 8c32
00000350: 28f6 4f30 f73f 8031 b12f 8c32 b55c 8332
00000360: 899d 1033 3412 2f36 cae0 8132 0e2a 2035
00000370: 3412 2f36 190d 2436 db1a c431 e6fe 0036
00000380: cb9e 8532 2706 ec34 e6fe 0036 7dc0 f135
00000390: c509 ac2f 785b 4b32 924c b32f c40a 3a31
000003a0: 785b 4b32 8a8e 3e32 b088 da33 31cc 8336
000003b0: ac72 7832 9126 7135 31cc 8336 c700 7736
000003c0: 4dc6 ba33 3294 4c36 4947 cf32 da28 3b35
000003d0: 3294 4c36 96b3 3f36 c076 a030 85aa 1f32
000003e0: 26a0 0830 2d12 1231 85aa 1f32 a49d 1532
000003f0: 219b b833 8de8 8835 ece9 1732 8180 7a34
7.3368916e-10 2.0371521e-08 3.8409653e-10 4.6592326e-09 2.0371521e-08 1.908921e-08 3.1944728e-11 6.5566033e-09
4.2947514e-11 1.4995816e-09 6.5566033e-09 6.1438974e-09 2.008547e-07 1.1361687e-05 5.149356e-08 2.5985669e-06
1.1361687e-05 1.0646512e-05 1.7447347e-12 8.056486e-11 4.5102453e-13 1.8426231e-11 8.056486e-11 7.5493625e-11
1.04687956e-07 4.1151206e-06 1.6519264e-08 9.411824e-07 4.1151206e-06 3.856091e-06 2.8884065e-07 1.5011766e-05
7.631365e-08 3.433388e-06 1.5011766e-05 1.4066836e-05 2.6524244e-08 7.459159e-07 2.8094327e-09 1.7060079e-07
7.459159e-07 6.9896345e-07 1.582532e-07 9.860986e-06 6.831687e-08 2.2553327e-06 9.860986e-06 9.240268e-06
7.334089e-08 4.6811883e-06 3.0995384e-08 1.070648e-06 4.6811883e-06 4.3865234e-06 2.095268e-08 1.0545912e-06
7.739114e-09 2.4119885e-07 1.0545912e-06 9.882094e-07 7.2278348e-09 4.068493e-07 2.5408047e-09 9.305176e-08
4.068493e-07 3.8123977e-07 7.0625283e-10 3.2784666e-08 1.4762186e-10 7.4982855e-09 3.2784666e-08 3.0721e-08
6.191811e-16 4.471499e-15 3.394731e-17 1.0226897e-15 4.471499e-15 4.190033e-15 3.345934e-07 1.7801563e-05
9.0039855e-08 4.07145e-06 1.7801563e-05 1.6681037e-05 1.7039407e-07 5.5515434e-06 2.0174554e-08 1.2697113e-06
5.5515434e-06 5.202096e-06 7.496374e-12 1.14147365e-10 7.8085677e-13 2.6106985e-11 1.14147365e-10 1.06962224e-10
7.27824e-08 8.397155e-07 1.2150137e-08 1.9205395e-07 8.397155e-07 7.868583e-07 3.3047255e-07 4.834095e-06
3.7140005e-08 1.1056209e-06 4.834095e-06 4.529809e-06 2.1071357e-07 9.222363e-06 2.963836e-08 2.1092758e-06
9.222363e-06 8.641855e-06 4.9396783e-07 3.2625347e-05 1.2452762e-07 7.4618406e-06 3.2625347e-05 3.0571708e-05
2.4946084e-10 5.1760773e-09 3.78966e-11 1.1838353e-09 5.1760773e-09 4.850261e-09 9.2810275e-08 6.808097e-06
3.960767e-08 1.5571018e-06 6.808097e-06 6.3795524e-06 3.057832e-10 1.40568535e-08 1.3270672e-10 3.2149856e-09
1.40568535e-08 1.3172038e-08 2.689081e-10 1.0482522e-08 3.0433628e-11 2.39749e-09 1.0482522e-08 9.822693e-09
1.4936775e-07 7.3786446e-06 1.8805258e-08 1.6875931e-06 7.3786446e-06 6.9141906e-06 1.4425902e-09 8.3991615e-08
3.4601524e-10 1.9209983e-08 8.3991615e-08 7.8704595e-08 6.6284334e-10 5.550646e-08 1.7684368e-10 1.2695054e-08
5.550646e-08 5.2012563e-08 2.2048363e-07 4.9218042e-06 1.8170951e-08 1.1256807e-06 4.9218042e-06 4.611997e-06
2.3640906e-10 8.290682e-09 2.7125596e-10 1.8961879e-09 8.290682e-09 7.768818e-09 1.6165829e-07 9.229552e-06
3.9905853e-08 2.1109208e-06 9.229552e-06 8.64859e-06 1.902034e-09 5.9308626e-08 2.45607e-10 1.3564655e-08
5.9308626e-08 5.5575395e-08 2.8775158e-08 1.5087771e-06 8.725171e-09 3.450772e-07 1.5087771e-06 1.4138067e-06
1.1383405e-08 1.9239578e-06 3.94964e-08 4.4003417e-07 1.9239578e-06 1.8028513e-06 1.2427132e-12 4.4811793e-11
1.2532736e-13 1.0249043e-11 4.4811793e-11 4.1991053e-11 4.143827e-11 4.1235904e-09 2.6561678e-11 9.431187e-10
4.1235904e-09 3.864027e-09 3.6492807e-09 1.6319833e-08 7.565597e-10 3.7325623e-09 1.6319833e-08 1.5292565e-08
3.367089e-08 2.6087628e-06 1.5119799e-08 5.966584e-07 2.6087628e-06 2.4445528e-06 5.707404e-09 1.9221857e-06
1.5555448e-08 4.3962902e-07 1.9221857e-06 1.8011921e-06 3.129356e-10 1.1836953e-08 3.2614317e-10 2.7072682e-09
1.1836953e-08 1.1091865e-08 1.01762794e-07 3.9278752e-06 1.4461573e-08 8.983562e-07 3.9278752e-06 3.680632e-06
8.697371e-08 3.048463e-06 2.4130388e-08 6.9722375e-07 3.048463e-06 2.856575e-06 1.1675283e-09 9.29379e-09
4.9704096e-10 2.1256128e-09 9.29379e-09 8.708785e-09 8.5963855e-08 1.0200471e-06 8.8425445e-09 2.3329814e-07

exp_avg f4 [128]
00000000: af87 1737 6359 f935 b1cf 0bb7 a0b6 b1b3
00000010: f06f e3b8 61f3 11b7 fafd 10b8 80dd 12b9
00000020: 8f65 1b39 5b88 2db8 e150 ddb7 769a 1a36
00000030: 4315 43b1 08d4 8c38 519b ddb8 7527 35b3
00000040: b6da 86b7 1b38 23b7 0305 07b9 87c3 c038
00000050: 3f30 a7b3 7171 94b7 eb61 5336 48e3 1437
00000060: bc2b f638 00a1 b837 32d5 39b7 2769 2e39
00000070: 76fd 8cb7 0b1c 41b9 ce40 c836 077d 1838
00000080: 70f0 b9b6 28eb d7b4 5e7d 3636 3db8 4837
00000090: ae0b dcb8 b26e ee37 06e3 3c36 7096 2e39
000000a0: 0ea1 82b8 5b26 cab4 d245 2d37 da4d df33
000000b0: 3125 a8b8 e2c1 4338 3b50 9336 a767 01b5
000000c0: 13a3 ec38 9c34 ddb0 7bc1 adb6 c4cf 07b6
000000d0: 4104 dbb8 646a 88b7 3383 77b6 b034 3936
000000e0: c264 ac37 3488 5c39 3bdc 97b7 388f c4b8
000000f0: 28a5 1fb8 ce15 9537 f3ba b838 c7af 5036
00000100: 8097 6935 674a d9b7 558c cfb8 9b4f 0db5
00000110: 3a72 93b7 2aa1 8836 630f 2238 fd8b ef38
00000120: 85f7 9237 aa4c f6b8 30c3 d735 858e c133
00000130: 4afc b035 5b27 b635 b106 0637 42ce 50b8
00000140: 301c 92b8 c660 5936 4d4b efb4 74f5 66b9
00000150: 5da5 a237 660c 4636 f6ac 61b9 d06a f137
00000160: 6395 acb6 e750 9138 513f e938 9f36 8537
00000170: 2630 4bb6 2d14 ab38 091f c338 b1a3 6bb8
00000180: 69d8 12b5 e862 1e37 b40d 2cb4 66a1 53b7
00000190: 4149 6eb8 e66b 5f39 7d35 d4b8 ccdd 9635
000001a0: 0f40 9737 c22b 4038 6574 2135 c59f a6b3
000001b0: 6d72 2536 09f7 be38 0384 1cb9 b6ff 92b4
000001c0: 3690 8638 f0b0 79b5 fa41 5c38 8c7b e434
000001d0: 75f1 ce37 d5ed ea35 f901 d236 6f9b 0538
000001e0: c02a 9a38 7dec 00b9 d032 0b36 7fdd c3b7
000001f0: fb84 2637 c47e f0b8 881a 2b37 bd4f 20b6
9.031893e-06 1.8577961e-06 -8.333403e-06 -8.275424e-08 -0.000108450535 -8.69934e-06 -3.456881e-05 -0.0001400616
0.00014819785 -4.1373405e-05 -2.6382915e-05 2.3037696e-06 -2.838832e-09 6.715214e-05 -0.00010567031 -4.2178232e-08
-1.607589e-05 -9.72862e-06 -0.0001287647 9.191693e-05 -7.7853194e-08 -1.76958e-05 3.1498446e-06 8.8744055e-06
0.0001173834 2.200948e-05 -1.1076498e-05 0.00016633105 -1.6807327e-05 -0.00018416361 5.9680087e-06 3.6356065e-05
-5.5414203e-06 -4.021797e-07 2.7193087e-06 1.1963825e-05 -0.00010492593 2.8423357e-05 2.8146328e-06 0.00016649975
-6.228882e-05 -3.765334e-07 1.032786e-05 1.0398408e-07 -8.017792e-05 4.667219e-05 4.3902814e-06 -4.820708e-07
0.00011283732 -1.6094819e-09 -5.178326e-06 -2.0237503e-06 -0.00010443526 -1.6262005e-05 -3.6882236e-06 2.7597816e-06
2.0550917e-05 0.00021031575 -1.8103156e-05 -9.372685e-05 -3.8062368e-05 1.7772338e-05 8.808626e-05 3.1096731e-06
8.7019725e-07 -2.5903062e-05 -9.896668e-05 -5.2642434e-07 -1.7576956e-05 4.071878e-06 3.863814e-05 0.00011422483
1.7519817e-05 -0.00011744474 1.6075555e-06 9.013187e-08 1.3186448e-06 1.3571511e-06 7.98858e-06 -4.9783157e-05
-6.967073e-05 3.239185e-06 -4.4572008e-07 -0.00022025948 1.9388908e-05 2.9511516e-06 -0.00021522105 2.8779177e-05
-5.1433904e-06 6.929208e-05 0.000111220994 1.588027e-05 -3.0277383e-06 8.1576734e-05 9.304105e-05 -5.6180816e-05
-5.4704157e-07 9.440562e-06 -1.6023733e-07 -1.2614159e-05 -5.6811845e-05 0.00021307133 -0.00010118911 1.1240422e-06
1.8030432e-05 4.581712e-05 6.014655e-07 -7.759039e-08 2.465352e-06 9.10592e-05 -0.00014926498 -2.7380673e-07
6.416479e-05 -9.3017206e-07 5.2513533e-05 4.2558202e-07 2.466955e-05 1.7503577e-06 6.2587173e-06 3.185443e-05
7.351255e-05 -0.0001229513 2.074219e-06 -2.3348954e-05 9.925333e-06 -0.00011467704 1.01985715e-05 -2.3888272e-06

exp_avg_sq f4 [128]
00000000: aa33 d72f b286 0a2f a26b 6a34 18e0 d92b
00000010: 99cf a933 8bdd 9a34 f93d 7632 0575 4b34
00000020: 602b c133 3512 ae32 334f 0632 932a 2d30
00000030: 8b1f c624 4da5 b734 bf15 e533 db58 1a2c
00000040: 899a 8a32 b47a c733 e447 3e34 3349 2835
00000050: 99b7 da2e e677 0c34 a47e 942f c878 5d2f
00000060: 7e3d 1834 9bd1 dd30 3797 9230 3e19 cb33
00000070: c929 2f2f e06d 3e34 cca1 9c30 120a f932
00000080: dbc8 1e33 965f 722b 7e3e ae2e 8466 ac2f
00000090: 414d 5733 69a3 1e33 7916 7a2f 8315 a233
000000a0: 1a97 7b33 525b 442f 895e a832 98d3 3c29
000000b0: 2238 4b33 50f1 7433 72c7 7f2e 0bf4 252f
000000c0: e72a 7c34 a185 9a25 c207 0a2f 5d78 1731
000000d0: fce4 e334 4804 0a31 ed30 282f dbd3 bd30
000000e0: 29b7 0732 67ff d434 e4ca b532 6d74 3f35
000000f0: c348 0f34 a097 3434 1f11 9233 2e11 b930
00000100: 979f 1f2c ae83 2533 3930 5634 eb82 ae2b
00000110: 13b8 d632 ce04 0d34 7bef 3733 00d3 6134
00000120: 2508 0e33 5793 ce33 3a12 ac2d d12c e328
00000130: b34b b42d 996d 3e2f b0ae 3e30 4936 4333
00000140: 0fb9 1833 e173 e12f 059b b52c 5d72 8934
00000150: 1f18 0830 23f8 4b30 2719 4934 b81a e731
00000160: 424d e92e f590 1533 98e4 9b33 0349 f030
00000170: 167a 0a30 a36f d634 e6a2 b333 00fe ca33
00000180: 0101 1c2c f477 6630 6b22 dc29 6c75 7030
00000190: 5e1b 1334 9cad e334 03ba 1133 b026 ce2e
000001a0: 6092 8b33 7ea7 0533 2219 c533 6d7c fc28
000001b0: 7666 8232 02ea f532 1411 5135 8d85 de2b
000001c0: 49b6 ef34 9656 a32f 1f38 5032 ed57 ac2b
000001d0: cbe1 8e30 e577 322e 523d 3e2f 83dc 7832
000001e0: ca21 1233 5c9f 1735 e2bf d932 79c7 3e34
000001f0: 41e3 1530 f6fa 1235 4288 3930 a801 fd2e
3.9144982e-10 1.259888e-10 2.1832105e-07 1.5480976e-12 7.9074375e-08 2.884593e-07 1.43331755e-08 1.894842e-07
8.995153e-08 2.0264546e-08 7.817834e-09 6.2997535e-10 8.592225e-17 3.4206678e-07 1.0667599e-07 2.193404e-12
1.6135589e-08 9.288979e-08 1.7721283e-07 6.2691396e-07 9.946106e-11 1.3082135e-07 2.7011027e-10 2.0142743e-10
1.4178474e-07 1.613944e-09 1.0665876e-09 9.457516e-08 1.5931002e-10 1.7735101e-07 1.1396479e-09 2.8991995e-08
3.696992e-08 8.6108323e-13 7.923705e-11 3.135946e-10 5.012885e-08 3.6935862e-08 2.2745351e-10 7.547626e-08
5.8577918e-08 1.785854e-10 1.9600764e-08 4.1927914e-14 4.7315673e-08 5.703015e-08 5.815743e-11 1.5093364e-10
2.3484937e-07 2.6805292e-16 1.2553783e-10 2.204181e-09 4.2448653e-07 2.0084077e-09 1.5296893e-10 1.3811773e-09
7.89968e-09 3.9673907e-07 2.1163437e-08 7.1322467e-07 1.3344383e-07 1.6818967e-07 6.801769e-08 1.3465404e-09
2.268385e-12 3.8536818e-08 1.9947846e-07 1.2399781e-12 2.4996586e-08 1.3133396e-07 4.2825814e-08 2.1031519e-07
3.306936e-08 9.6194235e-08 1.956223e-11 2.5221499e-14 2.0497248e-11 1.7319336e-10 6.9369843e-10 4.5451348e-08
3.5558568e-08 4.1009598e-10 5.16154e-12 2.560145e-07 4.951079e-10 7.4203593e-10 1.8728734e-07 6.7260224e-09
1.0609337e-10 3.4823604e-08 7.259331e-08 1.748305e-09 5.03776e-10 3.9941833e-07 8.364968e-08 9.45256e-08
2.216949e-12 8.3843976e-10 9.775933e-14 8.747836e-10 1.3700398e-07 4.2408362e-07 3.392962e-08 9.374668e-11
6.499317e-08 3.111881e-08 9.178099e-08 2.8031581e-14 1.5180586e-08 2.8628168e-08 7.788342e-07 1.5811117e-12
4.464985e-07 2.971105e-10 1.2119954e-08 1.2245739e-12 1.0396034e-09 4.0579002e-11 1.7302185e-10 1.44856385e-08
3.4024005e-08 5.648378e-07 2.5349383e-08 1.7767697e-07 5.452883e-10 5.4754435e-07 6.749624e-10 1.1505402e-10
