results/MoveToGoal3/MoveToGoal/MoveToGoal-100209.onnx (onnx, 72639 bytes, 7 tensors)

action_model._continuous_distribution.log_sigma f4 [1, 2]
000000 77 5d a9 bc 28 5b ab 3a
       -0.02067445 0.0013073431

action_model._continuous_distribution.mu.bias f4 [2]
000000 0b f7 e3 b9 1e d3 95 ba
       -0.00043480875 -0.0011430716

action_model._continuous_distribution.mu.weight f4 [2, 128]
000000 72 a1 08 bd 0d 82 44 37 f4 6f 88 bc 10 ac 0e bc
       -0.03335709 1.171279e-05 -0.016654946 -0.008708015
000010 ce 5c ae 3c e9 ec f6 3b 5f 0b 11 3c c5 25 e0 bc
       0.021284487 0.007535566 0.008852809 -0.02736176
000020 08 13 3b 3b d0 b0 9f 3c 7c 94 27 3d 70 2a 4c bc
       0.002854528 0.01949349 0.04091309 -0.01246129
000030 7a ea 10 3d cf 7c 32 bd 6e 69 4d 3c f7 57 d1 39
       0.035379864 -0.043576058 0.012537343 0.00039929125
000040 06 9d 15 bc 05 29 f5 bc c9 26 01 3c 8b d6 91 bc
       -0.009131676 -0.029926786 0.007882782 -0.017802497
000050 fd 24 18 bc a2 83 09 bc 7f 57 2c ba 37 36 8a 3c
       -0.009286162 -0.0083932 -0.0006574317 0.016871555
000060 53 10 1d bc 05 18 b5 bc d4 8b 5a 3c 98 af 37 3c
       -0.0095864115 -0.02210618 0.013339002 0.011211298
000070 20 27 b2 3c 2f df 0d 3c a4 1d d9 bb c3 79 54 39
       0.021747172 0.008659168 -0.006625848 0.00020263255
000080 1e 4d 9a bc 39 8d 22 bc 2a f0 03 3d 2d ae c2 bb
       -0.0188356 -0.009921365 0.03221146 -0.0059411735
000090 3a 7e 5e bb 43 1f ad bc e0 e7 df bc d2 bf 67 3c
       -0.0033949749 -0.02113307 -0.027332246 0.014144855
0000a0 07 0d 5b 3c 44 80 bf 3c d6 f1 28 bc c7 2a 49 ba
       0.013369805 0.023376592 -0.010311564 -0.0007673916
0000b0 2f e9 8a 3c 93 a7 10 bc c9 14 e5 bc 69 2a 0c 3c
       0.016956894 -0.008829015 -0.027964013 0.008555033
0000c0 de 48 9f bc 5c d7 3e 3c 56 a5 1e ba 20 f6 e7 3c
       -0.019443925 0.011648025 -0.00060518587 0.028315604
0000d0 cf 7e d4 3c 2e 80 6b bb 05 67 d7 3b d7 be c5 3c
       0.025939373 -0.0035934555 0.00657356 0.024138851
0000e0 85 4c 01 3d c4 12 d2 3b 3e 82 4a bb f5 85 43 bc
       0.031567115 0.0064109284 -0.0030900384 -0.011933793
0000f0 48 42 17 3c fe 89 58 bb fb 29 b2 3b 63 77 1d 3a
       0.009232111 -0.0033041234 0.0054371334 0.0006006865
000100 c3 5d 05 bd 33 8b c4 3c 53 4d ac bc ee 87 6b ba
       -0.03256012 0.023992157 -0.021032965 -0.00089847937
000110 62 51 32 bc 50 7d e2 bb 99 9b 89 bb 68 d9 57 b9
       -0.010883661 -0.006911911 -0.004199457 -0.00020584988
000120 f1 4e 17 3c c4 c5 4c 3c bc 7b cb bc 54 34 2b 3c
       0.00923513 0.012498323 -0.024839275 0.010449488
000130 c8 1b 50 3c 2f 4e a3 3c 6e 5c 5e 3c 56 2b 56 bc
       0.012701936 0.019934742 0.013571842 -0.0130718555
000140 5f 08 88 3c 7e 2e 90 bc ae 82 21 bc 11 df 33 3b
       0.016605554 -0.017600294 -0.009857817 0.002744619
000150 fc 2c 5d ba a5 1e e4 3b 81 b8 a4 3c 0f 1f d1 3b
       -0.0008437184 0.006961661 0.02010751 0.0063818763
000160 ba 8c b9 bb 2a 3d 9e 3c e7 a1 98 3c 1f bc e9 3c
       -0.005662528 0.019316275 0.018631889 0.028532086
000170 18 2c bc 3b 37 08 a4 bb 8a 3e 8a 3c c4 82 a8 bc
       0.005742561 -0.005005862 0.016875524 -0.020570166
000180 bf 57 83 3c 04 88 95 3c ff ea 3c bc de 91 1d bb
       0.016033052 0.018253334 -0.011530637 -0.0024043242
000190 b8 5f ab 3c c9 4f a9 bc 91 e9 aa 3b 6f 77 9c bc
       0.020919666 -0.020667927 0.0052158316 -0.01909992
0001a0 27 c3 1d 3c 9e 48 11 bc a2 47 d6 bc e4 26 a7 bc
       0.0096290475 -0.008867411 -0.026157204 -0.020404287
0001b0 ce 6d 16 3d 71 9c 14 3c 80 17 df bb be 24 ce 3c
       0.03672581 0.009070502 -0.0068082213 0.025164004
0001c0 6f dd 57 bc fc b4 d9 b9 a2 79 82 3c be cd 37 3b
       -0.0131753525 -0.0004152431 0.01592714 0.0028046216
0001d0 2b 60 fc bb 81 dc b9 bb 5c 24 1d 3c b3 1d 15 3d
       -0.007701894 -0.005672038 0.009591188 0.036405277
0001e0 63 76 96 39 f1 2f 05 3d 27 80 1a 3b a4 ee 23 bc
       0.00028698434 0.032516424 0.002357492 -0.010005627
0001f0 4a 66 b7 ba 96 47 27 bb ad 07 1e bc 23 78 57 bc
       -0.0013992277 -0.0025524846 -0.009645385 -0.013151201
000200 63 aa 0e bd 45 8b 74 bc aa b4 57 bc d9 73 30 3c
       -0.034830462 -0.014925783 -0.013165632 0.010769808
000210 cf c3 17 bd ab 4d 13 bd fa 2a 0a bd 8a 67 66 3c
       -0.037051972 -0.03596274 -0.033732392 0.014062772
000220 10 78 ba bc 5b af 79 bb 21 45 d1 3a 7c 6b 4c 3a
       -0.022762328 -0.0038098905 0.0015966037 0.0007797999
000230 8d 3c d2 3c 65 51 97 bc dc 59 29 3c 24 f5 18 3c
       0.025663638 -0.01847143 0.010336366 0.00933579
000240 d4 9d 12 bd 3a b7 ef 3b 56 4c 50 3c e9 1a 00 bb
       -0.035795048 0.0073155435 0.012713512 -0.001954729
000250 c1 18 88 3b 3a 0e 1e bd c6 26 78 39 ea 6d 2c bc
       0.0041533415 -0.038587786 0.00023665567 -0.010524252
000260 8a 06 b3 3c 8d 9c 9e 3b c1 a3 c7 bc f4 17 ff bb
       0.021853704 0.0048404397 -0.024370076 -0.007784838
000270 15 db 70 3c 37 e5 b2 3c 01 1b 6d 3c 82 40 98 3c
       0.014700671 0.021837814 0.01447177 0.018585447
000280 75 85 bc bc dc 91 64 bc be 1a fb 3b 77 46 1c bc
       -0.023012856 -0.013950791 0.0076631 -0.0095382845
000290 f4 0c 1b 3c 02 90 27 3d 4e ec 99 3c 19 4d b8 37
       0.0094635375 0.04090882 0.018789437 2.197041e-05
0002a0 59 79 a4 3c 88 88 c7 bb 36 de 4d bc e2 de b2 3c
       0.020077394 -0.006089274 -0.012565186 0.021834794
0002b0 2e 90 f7 bc e1 7f a5 bc 6c 5d 20 bc 5c a9 19 bd
       -0.030220117 -0.020202579 -0.0097878985 -0.03751503
0002c0 99 2b 3b 3c ab 45 85 3c 02 00 f2 3c e8 11 3f bd
       0.011423969 0.016268572 0.02954102 -0.046647936
0002d0 ff 52 09 bc 6c 3d c3 3b 81 f5 54 bc 0d 6d 8e 3c
       -0.008381604 0.00595825 -0.012997986 0.017385984
0002e0 66 bd 86 3b d5 fc 8a 3c 4f 3d a2 3c 10 02 9e ba
       0.0041119335 0.016966263 0.019804625 -0.0012055058
0002f0 46 e5 98 3b 6d 10 e2 3c e0 58 1a 3d c7 68 a4 bb
       0.0046660034 0.027595723 0.037682414 -0.0050173732
000300 4d 2f 8d 3c fd a6 13 bd 9e 2e d4 bc 72 60 89 3c
       0.017234469 -0.036047924 -0.025901135 0.016769622
000310 c3 38 7e 3c b6 a3 fd bb 5c 1b 78 3c a9 a9 8a b8
       0.015516463 -0.007740463 0.015143242 -6.6119544e-05
000320 97 43 1f 3c 24 2e 15 3a 88 97 49 ba a0 7b 55 3c
       0.0097207045 0.00056907744 -0.00076901214 0.013029963
000330 94 da e1 3c a3 85 bc 3c b9 4a 82 3b 49 a0 e7 3c
       0.027570046 0.023012942 0.003976193 0.028274672
000340 ca 88 59 bc e5 01 8b ba ab 3e 16 bd bc 05 77 3b
       -0.013277242 -0.0010605423 -0.03668086 0.0037692627
000350 f2 ec 83 3a 8b bc 99 bb 05 42 0b 3c 41 36 5a 3c
       0.0010065122 -0.0046916655 0.008499627 0.013318599
000360 97 b4 0f 3d 94 a5 37 bc 57 88 82 bc a7 02 b9 bb
       0.035084333 -0.0112089105 -0.015934153 -0.005646068
000370 73 95 88 3c 7d 41 0e 3d 12 a3 04 3d 21 16 61 bc
       0.016672825 0.034730423 0.03238208 -0.013738186
000380 31 39 3d bc e0 01 71 3c 71 69 e2 bb 99 d8 89 bc
       -0.01154928 0.01470992 -0.0069095423 -0.016826915
000390 ff 98 55 bc 9c f2 5c bc d0 dd f4 ba 81 48 cf 3b
       -0.013036965 -0.013485577 -0.0018681828 0.006325782
0003a0 7d b1 df 3c 38 38 1b bb 8b 07 17 3b b8 b8 45 3c
       0.027306313 -0.0023684632 0.0023045267 0.012067966
0003b0 a1 ac 00 bd 44 ba c8 bc 2e 14 ec bc 82 d5 06 3b
       -0.03141463 -0.02450288 -0.028818216 0.0020574038
0003c0 02 fe 97 3b 66 d1 e8 3b 74 8c 00 3c 59 53 09 bd
       0.0046384344 0.0071050404 0.007845987 -0.033526752
0003d0 67 4c 93 bc a9 1b d6 3c 05 dd de bc d4 4b 8d 3a
       -0.017980767 0.026136236 -0.027205 0.0010780045
0003e0 26 5f 68 3b 5e 55 f0 3b 61 64 22 3c f3 c8 06 3c
       0.0035457104 0.0073343953 0.0099116275 0.008226621
0003f0 77 35 ce bc 65 e5 35 bb be 46 cb bc 94 28 c3 3c
       -0.025171978 -0.0027755138 -0.024814006 0.02382306

network_body._body_endoder.seq_layers.0.bias f4 [128]
000000 38 3e 66 bc eb 30 b6 bb 94 ff f5 39 f4 19 1a 3b
       -0.01405292 -0.0055600307 0.00046920462 0.0023514004
000010 a7 1b 93 bb 24 c2 ae 38 2f b5 05 bc 93 38 b4 ba
       -0.0044893804 8.333128e-05 -0.008160873 -0.0013749771
000020 5e 6b a5 ba 41 5f cc ba 91 b3 56 bb fa cc a5 bb
       -0.0012620499 -0.0015592353 -0.0032760839 -0.0050598355
000030 5e ee a8 bb b4 2d 07 ba ce 73 31 bb 6e 12 d4 bb
       -0.0051553687 -0.00051566516 -0.0027077082 -0.0064719236
000040 33 9d 96 bb 80 ba 85 3c af 6f 0a bb 2f 6c 89 b9
       -0.0045963763 0.016324282 -0.0021123698 -0.0002621128
000050 b8 f7 a4 bb 6f 43 35 ba a7 66 da bb ba 52 07 bb
       -0.005034413 -0.00069146504 -0.006665069 -0.0020648674
000060 aa 3d 3e 3a d5 04 2d ba 08 0b f0 ba fd 19 32 bb
       0.00072571135 -0.00066001463 -0.0018313834 -0.0027176135
000070 54 d2 c5 3c 41 8c 0f 38 26 d1 5b 3b 01 ad 93 3a
       0.024148144 3.422448e-05 0.003354141 0.0011266769
000080 2b 3b 86 3c 99 7f 83 3b f8 4c 52 ba 7d 44 99 bc
       0.016385635 0.0040130136 -0.00080223335 -0.018709416
000090 32 41 01 bb e8 75 8e bb e0 57 55 bc 20 8b 3f ba
       -0.0019722697 -0.0043475516 -0.013021439 -0.0007306803
0000a0 ea ed d3 ba 95 d1 8c bb b9 55 44 3c 17 95 39 3b
       -0.0016168926 -0.004297445 0.0119833285 0.0028317624
0000b0 14 b1 86 3b a9 e5 4d bb 6d 36 20 3b 45 f6 70 3b
       0.004110465 -0.0031417406 0.0024446503 0.0036767882
0000c0 12 88 f8 3b 7f ed 03 bb 1b 62 75 bb 96 a8 6d ba
       0.00758458 -0.0020130572 -0.0037442509 -0.0009065954
0000d0 fe cc 1f bb 9e 63 66 3a ab 06 b5 ba 0b 82 be 3b
       -0.002438366 0.0008788648 -0.0013811191 0.005813842
0000e0 b0 86 b7 bb 59 af c8 3a 23 9e 4f ba 95 66 00 bb
       -0.005600773 0.0015311047 -0.00079199875 -0.0019592394
0000f0 3c 56 17 3b 14 f2 ef ba e2 91 38 ba 03 25 27 bb
       0.0023092171 -0.0018306398 -0.0007040781 -0.0025504238
000100 cf a5 98 bb 10 fe f4 bb 26 c1 4e ba 96 db 36 bb
       -0.004658438 -0.0074765757 -0.0007887058 -0.002790188
000110 30 7a 92 3c 8b 60 2b bb 0f 89 13 3b 2e e7 8c ba
       0.01788053 -0.0026150073 0.0022512113 -0.0010750049
000120 38 a3 fb 3a c3 a8 ba ba d3 22 93 bb 71 b9 f7 ba
       0.0019198423 -0.0014240969 -0.0044902354 -0.001889987
000130 18 ad eb 3a 7b 6c d2 37 f9 85 27 bc b5 c7 b5 ba
       0.0017980663 2.5084466e-05 -0.010224813 -0.0013868721
000140 87 14 55 bb 0d 3c 07 3c ea 7d a2 bb 6d 25 7c ba
       -0.0032513456 0.008254063 -0.004958858 -0.0009618614
000150 af 1e 3a bc b9 38 bc bb ff ec a3 3c d6 d2 56 bc
       -0.011359855 -0.0057440666 0.02001047 -0.013111791
000160 a2 18 0a 3c 68 b0 58 ba 93 5d db 39 7d 24 63 3a
       0.0084287245 -0.00082660327 0.00041840653 0.00086648
000170 d3 13 10 3c 48 f7 7a ba 5e 22 b4 39 4c 66 a2 b9
       0.008793789 -0.0009573591 0.0003435788 -0.00030975265
000180 cd f1 88 ba f7 6c 69 bb fa b4 fd 3b 73 6c e4 3c
       -0.0010448039 -0.0035617927 0.0077425214 0.027883744
000190 a6 0f ae bb 05 b0 91 39 e1 1e 39 3b 9a ec 28 3b
       -0.005311924 0.000277877 0.0028247165 0.002577579
0001a0 b2 73 aa 3c 88 cb 4f 3b 50 f3 1f bb 27 eb 7c 3c
       0.020807121 0.0031707007 -0.00244065 0.015436924
0001b0 9b 0c 28 3c 1a cb 2a bb 85 d1 c1 ba bf fd de bb
       0.010256912 -0.0026061 -0.0014787173 -0.0068051512
0001c0 65 b2 bd ba da 70 b4 b9 33 16 92 3c 3f 58 8a bb
       -0.0014472721 -0.00034416356 0.017832851 -0.0042219455
0001d0 14 4d 1e 3c 7b 4f 37 3b 92 16 e7 ba 95 7c 69 3a
       0.009661932 0.0027970958 -0.0017630628 0.0008906809
0001e0 7b 35 1c bb 57 2e a7 ba a7 ff d0 ba bd 0a f4 ba
       -0.0023835588 -0.0012754899 -0.0015945331 -0.0018618923
0001f0 87 7d 51 ba f2 a5 21 ba 54 19 22 3b c5 dc 24 bb
       -0.00079914223 -0.00061663904 0.0024734335 -0.0025156003

network_body._body_endoder.seq_layers.0.weight f4 [128, 6]
000000 f9 06 6a bd a7 42 6e 3e b3 8c 31 bf 3e 1d dc 3d
       -0.057135556 0.23267613 -0.69355315 0.10747765
000010 21 c9 67 be 60 90 b6 3e 60 dd 69 be 22 52 2c 3e
       -0.22635318 0.35657024 -0.22838354 0.16828206
000020 34 2f a2 be b1 27 0d 3f 8a 06 00 bf 62 41 19 3f
       -0.31676638 0.5513869 -0.5000998 0.5986539
000030 00 cf 8e be fb e6 4d 3c b9 13 bd 3e 54 c9 38 bf
       -0.27892303 0.012567277 0.3692911 -0.721822
000040 39 04 87 3d ea 87 ee be e8 88 46 3e 89 e9 ef be
       0.06592602 -0.4658807 0.19388163 -0.4685786
000050 03 41 83 be e2 bc a9 3e d8 d6 63 bf aa 58 7b be
       -0.25635538 0.3315192 -0.889997 -0.24545541
000060 26 f8 86 bd 33 2e fa 3c a8 89 17 bf b8 ea c9 3e
       -0.06590299 0.030539608 -0.5919442 0.3943689
000070 e3 0d 2c 3f 83 bf 44 be 3a 32 51 bd 31 0d 9d be
       0.6720869 -0.19213681 -0.05107329 -0.30674127
000080 10 2d 2e 3f 95 a3 0a 3e 08 10 d2 3e ff 95 08 bf
       0.6803751 0.13538964 0.41027856 -0.53353876
000090 2b 29 da bd fd 4f 3c be fb d0 89 be f5 2a 28 be
       -0.106523834 -0.18389888 -0.26917252 -0.16422637
0000a0 8e cb 49 3d 35 4d 27 bf 8c cc 06 bc 4a 74 de be
       0.04926639 -0.65352184 -0.008227479 -0.43448097
0000b0 a4 55 51 bd af d7 13 bf 20 01 1a 3f ba bf 28 bf
       -0.051107064 -0.5775098 0.60157967 -0.6591755
0000c0 c6 69 d8 3e 68 c6 7e 3e a2 75 be bb a8 16 35 bd
       0.422682 0.24880373 -0.005812363 -0.04421106
0000d0 7c b0 6a be 8c 2c e8 be 5d ee 59 3d 85 10 0c 3f
       -0.22918886 -0.45346487 0.053205837 0.54712707
0000e0 8a a6 df bd a8 57 01 3e 05 5e fe be b8 12 67 bf
       -0.10920437 0.12631094 -0.49681106 -0.9026294
0000f0 cf bd 7e be 85 6b 1d 3d 01 93 fe 3d 3f a4 16 3f
       -0.24877094 0.038432617 0.124303825 0.5884437
000100 62 cc dd 3e b6 0e aa 3e 1a c8 bd 3d 3c 5b 95 be
       0.43319994 0.3321435 0.09266682 -0.2917117
000110 b4 fb 4f bf 4d ab 6d 3e 69 c8 07 bf a1 44 ca be
       -0.81243443 0.23209877 -0.53040177 -0.39505485
000120 50 6b 2d 3f f0 ba 50 bf 88 02 25 3e 6e a2 38 be
       0.6774187 -0.81535244 0.16114247 -0.18030712
000130 df 27 41 bf c9 26 ff 3d 95 6c 3d bf d8 bf a5 3e
       -0.75451463 0.124585696 -0.7399381 0.32372928
000140 04 cb f8 be b2 2d 4d 3f bd 46 b9 be 1f a8 91 be
       -0.4859239 0.8014785 -0.36186782 -0.2844858
000150 8e 2e a0 be 60 b3 db 3e 19 03 bc 3d 60 a9 43 3f
       -0.31285518 0.4291029 0.09180278 0.7643032
000160 e9 35 5d 3e 2c 2b 33 bf 78 59 d2 3e 6a 9b 0e 3f
       0.21602596 -0.6998775 0.41083884 0.55705893
000170 92 8c b0 be ee 89 2d bf a2 c5 be be 11 9c 25 3f
       -0.34482247 -0.6778859 -0.37260157 0.64691263
000180 8f bb a5 ba 46 9d 29 3f 53 76 00 bf 43 70 e9 bd
       -0.0012644398 0.66255605 -0.5018055 -0.11398365
000190 b0 74 50 3d e5 10 4e 3e 8b c1 6e 3e 9c 1d d9 be
       0.050892532 0.20123632 0.23316018 -0.42405403
0001a0 26 63 de 3e 5f 5b cd be 8f 9d cb 3d c5 83 03 bf
       0.4343502 -0.40108773 0.09942161 -0.5137294
0001b0 f4 76 97 be eb e2 ad 3e 36 10 90 be 1f 50 17 bf
       -0.29582942 0.33962187 -0.28137368 -0.5910663
0001c0 f0 57 4a 3e ec f5 16 be 54 93 1a be f2 23 2a 3e
       0.19760108 -0.14742249 -0.15095264 0.16615275
0001d0 7b 2c 4b 3e 6c 64 37 3d 39 86 11 3f 8c ca 83 3d
       0.19841187 0.044773504 0.5684543 0.06435117
0001e0 4e 7d 00 3f e4 8d 44 bd 06 a7 3a 3e 53 89 01 be
       0.501912 -0.04798688 0.18227777 -0.12650041
0001f0 32 6a dd bd bf 01 01 3f 7f 33 a7 bd 9a c7 dc 3e
       -0.10811271 0.5039329 -0.08164119 0.43121034
000200 74 2b 8b 3d d5 c6 7d 3f 14 73 91 be 0a 12 be be
       0.067953974 0.9913152 -0.2840811 -0.37123138
000210 04 33 34 3e 89 f1 f0 bd d4 b8 7e be 00 b6 87 3c
       0.17597586 -0.11764819 -0.24875194 0.016566277
000220 07 34 17 bf 51 89 08 bf f2 b9 57 3e 8c 74 9c be
       -0.5906376 -0.5333453 0.21067026 -0.30557668
000230 86 98 1e bf 8b 51 75 be 37 35 07 3f 54 8a 40 3f
       -0.6195148 -0.23956887 0.52815574 0.7521107
000240 ab 7f b4 3d de 9c 16 3f cc 12 31 be 33 3b 81 3d
       0.08813413 0.5883311 -0.17292327 0.063101195
000250 f9 61 3b 3d 3c d2 86 be aa 03 fa bc 73 a7 11 3f
       0.04574773 -0.2633227 -0.030519325 0.5689613
000260 d0 c6 6f bd 31 80 01 bd 3c 95 95 3d 41 61 6c 3f
       -0.05853921 -0.031616393 0.07303855 0.923359
000270 53 0e c4 3e 24 00 22 3f 34 88 f5 be c0 58 ca 3c
       0.3829218 0.63281465 -0.47955477 0.024700522
000280 10 fd 23 bf 5a d7 d6 3e 79 5a 21 3f 35 aa 06 3e
       -0.6405802 0.41961175 0.63028675 0.13150866
000290 68 30 76 3e d4 80 1a bf 4d 2d 9a 3d ce df 96 be
       0.24041903 -0.60352826 0.07528172 -0.29467624
0002a0 49 0e 77 3d 3e a5 c2 3e 37 0f 2b bf fd 49 5f 3e
       0.060316358 0.38016695 -0.6682009 0.21805568
0002b0 ce ee d6 be 60 fe 53 3e 29 80 8f be 27 80 8c 3d
       -0.4197907 0.20702505 -0.28027466 0.068603806
0002c0 fd 2e 35 3f 18 fe c7 3d 35 dc 94 3e 46 ca a7 be
       0.70774823 0.097652614 0.29074255 -0.3277151
0002d0 4c 13 53 3e ad 16 96 bd 3c 08 a8 3e 9a ee 1b 3e
       0.2061283 -0.07328544 0.32818782 0.15227738
0002e0 17 f3 7b be 29 47 64 3e 08 0e e3 be c3 30 2b 3f
       -0.2460445 0.2229277 -0.44346642 0.6687128
0002f0 a5 e6 eb 3e 26 87 ff 3e d4 d2 18 3d 24 56 d3 3d
       0.46074405 0.49907798 0.037310436 0.103191644
000300 9e 5b 40 3d 95 a0 75 3e 97 12 a4 bf 6d 28 29 3f
       0.046962373 0.23987038 -1.2818173 0.6607731
000310 11 7b 0a bf 67 01 ce 3d cd 96 d2 3d 3f 6e d7 be
       -0.54094034 0.10058861 0.10282669 -0.420763
000320 e7 5e 0a bf 6e 76 54 be fa 7e 06 bf 93 7d 98 3c
       -0.5405106 -0.20748302 -0.525375 0.018614566
000330 53 e4 c1 be 0a fc 01 be 1f cc 0f 3e 3b 04 d6 be
       -0.3786951 -0.12693802 0.1404271 -0.41800103
000340 6a 28 97 be 62 34 be 3d c6 0d 81 3e ce 32 80 bd
       -0.2952302 0.09287335 0.2520582 -0.0625969
000350 68 9d ed 3e ea ee e9 3d 01 c8 14 3e 68 cd d3 3e
       0.46409154 0.11422522 0.1452942 0.4136765
000360 aa 49 fd 3c 73 69 0e bf 2a 2b e5 bd 7d 43 b7 3e
       0.030918915 -0.5562965 -0.111898735 0.35793677
000370 84 2c ae bd eb 3c 14 bf 8f 00 1b bf 2e 00 17 bf
       -0.085045844 -0.57905453 -0.6054773 -0.5898465
000380 39 dc a0 be c8 1c 68 3f 3a 93 d8 3e d2 51 39 3e
       -0.31418017 0.90668917 0.42299825 0.18097618
000390 78 e6 4a be c2 0d d7 3e 02 10 98 be 88 4a 86 3e
       -0.1981448 0.42002684 -0.29699713 0.26228738
0003a0 0b 2b cf be e4 20 aa 3e 83 69 b5 be 28 6f 6a 3e
       -0.40462527 0.3322822 -0.35432062 0.22893965
0003b0 05 76 ab 3e ad 54 3d 3e 29 36 5e 3f 3a 3e 6d 3d
       0.3348848 0.18489332 0.8680139 0.057920672
0003c0 67 94 06 bf ac 8a ee 3e af c8 1b 3e da bc 31 3d
       -0.52570194 0.46590173 0.15213273 0.043392994
0003d0 06 7e a2 bc ec 85 88 be d1 6e 9d be 38 20 22 bc
       -0.019835483 -0.26664674 -0.3074861 -0.009895377
0003e0 94 8e 85 be 7c b5 d0 3e 7e e7 0b bf 60 9f 3f be
       -0.2608534 0.40763462 -0.54650104 -0.1871314
0003f0 0b df ad 3e 3d 35 ab be 09 db 56 3e 73 62 6b be
       0.3395923 -0.33439055 0.20981993 -0.22986774

network_body._body_endoder.seq_layers.2.bias f4 [128]
000000 90 a4 6d 3a d9 71 5a bb 9e 58 cc ba 15 f9 df 3a
       0.0009065354 -0.0033332019 -0.0015590375 0.0017087782
000010 65 a0 e2 ba 0d 65 c2 ba a1 22 96 b9 04 30 5a 3a
       -0.0017290233 -0.0014831141 -0.0002863603 0.0008323195
000020 98 d2 25 3a a8 bf 34 3a cb b0 54 ba 89 d3 4e ba
       0.00063256314 0.0006895014 -0.00081135024 -0.00078897976
000030 41 cc b6 ba 89 9e 1e bb 06 0b 73 ba a4 8d 0a bb
       -0.001394637 -0.002420338 -0.0009271357 -0.0021141553
000040 57 8c 3e 3a 1e df f1 b9 d4 62 fe ba 73 f1 88 bb
       0.0007268837 -0.00046133337 -0.0019408115 -0.0041791736
000050 57 d0 91 ba d9 de c3 bb b8 f6 7d bb 12 6f b5 3a
       -0.0011124712 -0.0059774932 -0.0038751792 0.0013842306
000060 8a 47 b5 3a 26 d3 5c ba 86 eb b9 39 1e e7 b3 ba
       0.0013830524 -0.00084237976 0.00035461428 -0.0013725495
000070 e4 e7 fb ba a7 dd 1a bb 03 af 58 bb 20 7c de ba
       -0.0019218889 -0.002363065 -0.00330633 -0.0016974248
000080 c8 5e 3e bb 28 15 00 3a 33 59 8f 35 0e a3 16 b8
       -0.0029048193 0.0004885965 1.0680291e-06 -3.5914643e-05
000090 29 ee 01 bb 85 f1 3d ba 17 13 a0 ba f7 d8 da ba
       -0.0019825792 -0.0007245767 -0.001221272 -0.0016696741
0000a0 b5 eb 39 ba b9 76 71 39 b7 b3 ad bb 93 5a da ba
       -0.0007092313 0.00023027779 -0.0053009647 -0.0016659073
0000b0 33 db a1 ba 0b 54 8a 39 37 99 a7 39 bd eb 8e 3a
       -0.0012348652 0.00026384028 0.00031966876 0.0010903996
0000c0 65 bf c5 b8 5f 4e b5 b9 00 fc ea 3a 01 77 20 3c
       -9.429342e-05 -0.000345814 0.0017927885 0.009793998
0000d0 fc c3 8e ba bf 86 db ba 57 f5 45 3b 4c 41 2c ba
       -0.0010892148 -0.0016748531 0.0030206048 -0.0006571009
0000e0 28 10 dd ba 75 90 c3 3a f8 d6 cb 37 dc f5 e1 ba
       -0.0016865777 0.0014920371 2.4299588e-05 -0.001723941
0000f0 37 c6 cd ba 65 d4 b9 ba f1 6e c5 ba a5 76 22 bb
       -0.0015699331 -0.0014177678 -0.001506297 -0.0024789956
000100 7f 7c 69 b9 d7 01 53 b9 3e e4 48 3a a4 7e d1 ba
       -0.0002226699 -0.00020123213 0.0007663405 -0.0015983176
000110 9e 38 9c ba 38 e8 ea b7 56 ed c1 ba 3f e6 da bb
       -0.0011918729 -2.8003109e-05 -0.0014795463 -0.0066802795
000120 88 e0 03 bb d8 9d d9 ba fd 77 88 38 6e 81 81 ba
       -0.0020122845 -0.0016602827 6.507335e-05 -0.0009880492
000130 69 b2 e2 ba e4 25 dc ba 93 4a d6 ba 6c 8c 22 bb
       -0.0017295602 -0.001679596 -0.0016349129 -0.0024802936
000140 7f 35 92 ba de 29 35 bb 41 74 b7 b9 6b c3 49 bb
       -0.0011154859 -0.0027643363 -0.00034991096 -0.0030786644
000150 ff c7 20 bb ed 57 07 bb 1c ee c9 ba dd 78 2e bb
       -0.002453327 -0.0020651773 -0.0015406045 -0.0026622333
000160 48 f8 ad ba e5 cc b8 b9 75 c2 4d ba 31 b7 2f ba
       -0.0013272846 -0.00035247873 -0.0007849106 -0.0006703018
000170 3c cb 7a 3a 0a 50 b8 ba 3b 0d 05 bb 00 dc 42 bb
       0.00095670274 -0.001406194 -0.0020302075 -0.002973318
000180 6b 68 89 ba 81 8f dc ba c2 5a 2c bb 6b 57 1c 3c
       -0.001048339 -0.0016827435 -0.0026299213 0.009542326
000190 1a 33 0d 3c c3 ba 39 bb f8 dd 7e bb ae 07 03 bb
       0.008618141 -0.0028340078 -0.0038889628 -0.001999359
0001a0 10 86 1e 39 44 dd 0d bb a9 d7 72 b9 92 76 88 bb
       0.00015117996 -0.0021646777 -0.00023159258 -0.0041645253
0001b0 b2 18 39 bb b7 fa 63 39 49 d2 d8 3b b2 c3 8d ba
       -0.002824348 0.00021741806 0.006616865 -0.0010815768
0001c0 82 fd 42 ba 61 07 1f ba 1d fd e1 ba c8 71 32 3a
       -0.00074382883 -0.0006066468 -0.0017241571 0.0006807116
0001d0 db a4 07 bb 8e 06 b1 ba 5a eb 85 39 3b 73 48 ba
       -0.0020697627 -0.0013505982 0.00025543087 -0.0007646565
0001e0 8e 6e 11 ba 63 b4 48 ba 2d ca 09 bb c3 c8 ac ba
       -0.0005547785 -0.0007656274 -0.0021025047 -0.001318239
0001f0 3d f7 f4 ba 4f 86 39 bb ee fc c3 3a 0f 1f 6f bb
       -0.0018689405 -0.0028308814 0.0014952698 -0.0036487018

network_body._body_endoder.seq_layers.2.weight f4 [128, 128]
000000 42 06 0c 3d 57 4e 09 bc 5b 15 37 3d e7 b7 70 bd
       0.034185655 -0.008380494 0.0446981 -0.058769133
000010 8c 40 98 bd 3e eb 1d 3c 6d 03 d4 3c 4e d6 99 bb
       -0.07434186 0.009638606 0.02588054 -0.0046947366
000020 6d 5b 3c 3d 29 51 68 3d 19 aa 20 3e aa 50 5e 3d
       0.045985628 0.056718025 0.15689887 0.054276146
000030 be 2d 5e bc 27 72 c6 ba d2 34 9f bd f5 e4 a8 3d
       -0.0135607105 -0.0015140221 -0.077737466 0.08246795
000040 8b 3f b8 bd 47 06 fd 3c 92 36 0e be 5f ab dc 3c
       -0.08996495 0.030886782 -0.13888004 0.026937185
000050 73 44 2d 3e 90 0b b9 3a 8b 2b d8 bd a4 34 04 3d
       0.16920643 0.0014117826 -0.1055518 0.032276765
000060 d0 b0 ba bd a6 da 84 bd 49 49 f8 3d 77 87 fe 3d
       -0.091157556 -0.064870164 0.12123353 0.124281816
000070 d1 50 93 bd 79 33 14 be 75 58 0d be 72 45 8e 3c
       -0.07193149 -0.1447276 -0.13803275 0.017367098
000080 e8 51 07 be 6d 7b 31 3d 9b f7 dd bd 6c 85 02 3e
       -0.13214839 0.0433306 -0.108382426 0.12746209
000090 66 de 26 3d 6c d0 00 3e f3 f2 db 3c 31 41 2e 3d
       0.04073944 0.12579507 0.026849246 0.04254264
0000a0 25 f5 5d 3d 51 54 9a 3d dc b1 ee 3d 5f dc 8a 3c
       0.054188866 0.07535613 0.11655018 0.016950784
0000b0 0d 50 22 3d d7 c6 2d 3d 26 e2 d8 3c ee 2c 8d bc
       0.039627124 0.042425957 0.026475023 -0.017233338
0000c0 44 e1 a5 3d f4 72 27 bd 1a d2 34 3b 37 65 d8 3c
       0.08099607 -0.040881112 0.002759105 0.02641545
0000d0 d8 1c 2e bc 63 2e fb bd 9e a2 5b 3c af 25 c2 bd
       -0.010626994 -0.12264707 0.01340547 -0.09479844
0000e0 d1 80 5f bc 47 1c c9 3d 6e 8e 38 bd 64 c3 84 3b
       -0.013641552 0.098198466 -0.045057707 0.0040516127
0000f0 b9 28 40 3d c0 f3 69 bb a4 bd d4 3d 06 d2 e1 bd
       0.046913836 -0.0035698265 0.103877336 -0.11026387
000100 b7 0b 11 3d ef 8b d8 bd 40 97 20 3c ab 0a 91 bc
       0.035411563 -0.10573565 0.009801686 -0.017705282
000110 e6 96 30 bd dd c4 8d bd 92 40 f3 3d 4f ad 00 bd
       -0.043112658 -0.06922314 0.1187755 -0.03141528
000120 bd cb f8 bd 84 a5 91 3d e7 a4 84 3b 1f 20 84 bc
       -0.12148235 0.07111648 0.004047978 -0.016128598
000130 91 01 28 3d 03 75 27 bd d5 a2 36 bd b4 c0 30 3e
       0.04101712 -0.040883075 -0.044588882 0.1726101
000140 b3 9a 12 3e 2a c2 fd bd 1d 4a 9c 3d cc 0f 45 bd
       0.14316826 -0.123905495 0.076313235 -0.04811077
000150 a1 fa db bc 8c 04 9c bd 7a 0c cf 3d a3 33 a5 3d
       -0.026852908 -0.07618055 0.101098016 0.080664895
000160 91 54 a7 3c 51 f7 e1 3c 1d 21 19 3d 65 73 87 3d
       0.020426067 0.02758375 0.037385095 0.06613807
000170 51 77 f5 bb 97 6d b3 bd 02 df 88 3c a3 0f de ba
       -0.0074910303 -0.08761137 0.0167079 -0.0016941916
000180 9b c7 81 bc f7 4b 89 bd c6 a2 6d bd cf b5 2a bd
       -0.01584225 -0.06703942 -0.05801656 -0.041677292
000190 81 93 a1 bd 74 e9 01 3e 4c f8 ae 3d 89 e8 a6 bd
       -0.07889462 0.12686712 0.085434526 -0.08149821
0001a0 94 ae 31 bd 56 d6 15 bd 18 a9 e2 3c 38 d8 34 3e
       -0.04337938 -0.03658136 0.02766852 0.17660606
0001b0 61 1c 30 3d cb a1 a1 3d b8 d9 c5 3c 39 15 c0 3d
       0.042995814 0.07892188 0.024151668 0.09379048
0001c0 dc 7f 18 bd fa 99 2e bd 1f 92 ca 3d 88 3d b2 bd
       -0.03723131 -0.042627312 0.09891152 -0.087031424
0001d0 c0 de cc 3d 76 f0 27 bd 03 82 6b bd b9 6c 97 3d
       0.10003424 -0.041000806 -0.057497036 0.07393784
0001e0 7f 7c 93 3d c4 c2 b6 bd ad db ea bd 36 22 e6 bb
       0.0720148 -0.08923867 -0.11467681 -0.007023121
0001f0 54 3f 57 bc a9 3d f3 bd 1e 69 e6 bc c6 86 84 3d
       -0.013137657 -0.11876995 -0.028126296 0.064710185
000200 84 31 b3 3d 8d d5 ca 3d 9f 95 4e 3b 0f 2d 7a 3d
       0.08749679 0.09904013 0.0031522287 0.061078127
000210 c8 d4 93 be 98 b3 06 3d 86 e3 98 bc fa c2 fe 3d
       -0.28873277 0.032886118 -0.01866318 0.124395326
000220 3f 77 1d be d9 51 da bd ed a5 af 3c e7 dd 50 3d
       -0.1537752 -0.106601425 0.021441424 0.050992873
000230 bd 23 27 3e 9a 62 ea 3b 6a 4c 05 bd 98 13 77 3d
       0.16322227 0.0071528675 -0.032543577 0.06032142
000240 33 fd 51 3d d5 58 35 3d e3 0a c5 3d 9f c7 0c 3c
       0.05126686 0.04427417 0.09621217 0.008592515
000250 2e 7d 47 bd 3d a6 53 3d e2 4c 01 3d f0 79 f7 bd
       -0.048703365 0.05167221 0.03156746 -0.120838046
000260 99 fc 35 bd b8 f4 a7 3d 35 a9 72 3e c0 a2 d7 bc
       -0.04443035 0.08200973 0.2369736 -0.026322722
000270 63 7e cf 3c a4 c7 d9 bd 1c 40 4f bd bb 57 07 3c
       0.02532882 -0.106337816 -0.05059825 0.008260663
000280 c8 66 89 bd c0 2c e9 bd 91 2a 90 3d a2 56 e0 3d
       -0.06709057 -0.113854885 0.07039369 0.10954024
000290 f8 2b e2 3d 2b 80 db 3c e4 a0 95 3d 44 ba f8 3c
       0.110435426 0.026794514 0.07306078 0.030362256
0002a0 93 5f 8b bc be e7 6d 3c 3e b5 5a 3d f8 e0 c7 3c
       -0.017013347 0.014520584 0.053395502 0.024399266
0002b0 7a 0f 9b 39 4c 0a 7f bd 05 00 12 3e 69 a1 9c 3d
       0.00029575435 -0.06226568 0.1425782 0.07647974
0002c0 8b 03 28 be e2 3e d1 3c ce 6f 6e 3d 54 fe 38 be
       -0.16407602 0.02554268 0.058212094 -0.18065768
0002d0 4c f6 3c 3c d1 c0 9b 3d af 3b 81 3d 43 38 f3 bc
       0.011533331 0.07605136 0.06310212 -0.029689914
0002e0 7b 53 c2 3c 74 8f b0 3c 5e bf b2 bc d5 0d e0 bd
       0.023721447 0.021552779 -0.021819767 -0.10940138
0002f0 cf 0b 49 3d ba 8a c1 3d ef c3 8a bd 75 a2 3c ba
       0.049083527 0.09450288 -0.067756526 -0.0007195839
000300 24 1a 12 3d cc ef 6d bd 73 e0 07 bd 8e b4 ba bd
       0.03566946 -0.058090016 -0.033173036 -0.09116469
000310 ba 08 15 3e fa 8a 2f be fc 82 af 3d 6a c0 b9 3d
       0.1455411 -0.17142859 0.08569905 0.09069903
000320 9e f2 8c bd ef 31 89 3d ec f8 fd ba 6d 2d 5e bc
       -0.06882213 0.06698977 -0.0019376553 -0.013560635
000330 4e 24 b6 bd 7a 31 23 be 50 f8 4c bc 20 63 9c 3d
       -0.08893643 -0.15936843 -0.012510374 0.07636094
000340 21 a1 25 3d 1f ce 6c 3d cb 08 9f bc 68 97 1b 3d
       0.040436868 0.05781376 -0.019413373 0.03798619
000350 20 0b 1e 3e 30 38 ec bc fe f7 0d 3d 2d b9 90 bc
       0.15433931 -0.028835386 0.034660332 -0.017666424
000360 eb f6 0c 3d 61 1e d6 bd 45 03 92 3d 39 c2 5f bd
       0.034415167 -0.10455013 0.0712953 -0.054628585
000370 3f 6f 41 bd 30 9e 8b 3d c2 9c 9b 3d 2e 1b 56 bc
       -0.047225233 0.06817281 0.075982586 -0.013068004
000380 6a 0c d5 bd b2 7c a5 3b 27 ce a9 bd 17 52 a3 bd
       -0.104027584 0.005050265 -0.082912736 -0.07974642
000390 26 83 1b be 6d 71 8c bc 40 e9 01 3e 4a 26 25 3b
       -0.15186748 -0.01714393 0.12686634 0.0025199824
0003a0 15 7b 04 3e 7c c6 6e bb 60 9a 43 3e 4a 25 65 bd
       0.12937577 -0.0036434224 0.19101858 -0.055943765
0003b0 cc cb 18 3d 34 2b 49 3d 04 70 5a 3c 07 11 3e bd
       0.03730373 0.049113467 0.013332371 -0.046402957
0003c0 e3 15 3a bd 70 65 4a 3c 6c e2 2d bd 0b b8 18 3d
       -0.04543103 0.012353286 -0.04245226 0.037284892
0003d0 bf 72 31 3d 2c 57 e5 bd a8 d2 57 bc 6a f6 ac bd
       0.04332232 -0.11198267 -0.013172783 -0.08445437
0003e0 bc 7b 56 bb f0 d4 fe bd f8 17 16 bd a2 ee 9c bd
       -0.003272756 -0.12442958 -0.036643952 -0.07662703
0003f0 44 ba da bc 11 72 5b bd 09 73 16 3e 7f 56 60 3d
       -0.026700146 -0.05357558 0.1469232 0.05476999
