results/MoveToGoal11/MoveToGoal/checkpoint.pt (torch, 16255 bytes, 24 tensors)

network_body._body_endoder.seq_layers.0.weight f4 [20, 6]
0.514155 0.018461222 -0.1362198 0.6491678 -0.2783785 -0.3739648 -0.100816414 -0.5105738
-0.27094805 -0.106928095 -0.10426431 0.17930077 -0.19085725 0.45261058 -0.16134048 -0.11189872
-0.2347063 -0.1430768 -0.55954766 -0.64168406 -0.56606835 0.08453305 -0.25813448 0.079386875
0.0074428506 0.92831844 0.10629083 0.11739506 -0.043948732 0.474322 0.5196253 0.26508576
-0.84655166 -0.22111015 -0.45609975 0.8184229 0.19934523 -0.47882238 -0.9315068 -0.09963716
-0.38747326 0.25337926 -0.07285114 -0.26701567 0.45996463 0.4132862 -0.29397896 -0.06822573
-0.6155963 -0.3228683 0.47325602 0.55338544 -0.31902152 0.49579227 -0.3861863 0.24600637
0.80597454 0.42130125 -0.29593733 0.07054547 0.058771744 -0.69228375 -0.45855236 -0.5991227
0.123328485 -0.5825228 -0.10892777 -0.12811494 -0.5596755 0.22631134 0.07630492 0.7381585
0.018463634 0.5537219 -0.13132256 -0.24357773 0.07058709 0.028068736 -0.45655063 0.14103292
0.63242614 0.7126599 0.78736603 -0.13059284 -0.34996575 -0.06739991 -0.38956192 -0.4543204
-0.2681441 0.11606591 -0.5385124 0.81012833 -0.18409333 0.17068687 -0.372581 0.21671487
0.12637328 -0.013765531 -0.6397905 -0.32347527 0.090634674 0.5888382 -0.31004795 -0.16601078
-0.59688413 -0.32721904 -0.052217215 0.020887593 -0.5205884 -0.020088667 -0.19007215 0.77878743
0.03584957 0.17221677 0.7765355 0.06562612 -0.7901575 -0.8352802 -0.7948307 0.3512977
00000000: a99f 033f fd3b 973c 347d 0bbe dc2f 263f
00000010: a087 8ebe 5078 bfbe d678 cebd f7b4 02bf
00000020: b4b9 8abe 1efd dabd 8788 d5bd 9f9a 373e
00000030: 1570 43be 93bc e73e 7036 25be 282b e5bd
00000040: d956 70be ba82 12be 843e 0fbf 6845 24bf
00000050: dbe9 10bf aa1f ad3d 342a 84be 9695 a23d
00000060: 28e3 f33b 47a6 6d3f 02af d93d d26c f03d
00000070: 9603 34bd 55da f23e 2a06 053f 52b9 873e
00000080: 9cb7 58bf b36a 62be e885 e9be 2a84 513f
00000090: 2821 4c3e 3528 f5be 3b77 6ebf 910e ccbd
000000a0: e562 c6be edba 813e fa32 95bd 47b6 88be
000000b0: 7c80 eb3e 409a d33e 6984 96be eeb9 8bbd
000000c0: b897 1dbf fe4e a5be 9d4e f23e abaa 0d3f
000000d0: ca56 a3be 7cd8 fd3e 36ba c5be 18e9 7b3e
000000e0: 5954 4e3f ccb4 d73e 1985 97be 257a 903d
000000f0: a4ba 703d 8239 31bf 60c7 eabe 1b60 19bf
00000100: a593 fc3d 3720 15bf 8615 dfbd 9030 03be
00000110: e546 0fbf 29be 673e c145 9c3d f5f7 3c3f
00000120: 0c41 973c b8c0 0d3f 6c79 06be 716c 79be
00000130: f78f 903d 68f0 e53c 01c1 e9be ef6a 103e
00000140: aee6 213f e170 363f d290 493f 21ba 05be
00000150: b62e b3be f708 8abd a974 c7be af9c e8be
00000160: 2f4a 89be f7b3 ed3d f3db 09bf 9264 4f3f
00000170: f682 3cbe 8ac8 2e3e f0c2 bebe 81ea 5d3e
00000180: ff67 013e d288 61bc 4fc9 23bf 8d9e a5be
00000190: ac9e b93d 1abe 163f 9bbe 9ebe bbfe 29be
000001a0: 66cd 18bf 4189 a7be b8e1 55bd 751c ab3c
000001b0: 4845 05bf fd90 a4bc 46a2 42be 9d5e 473f
000001c0: 00d7 123d 9859 303e 08cb 463f fd66 863d
000001d0: c347 4abf ecd4 55bf 067a 4bbf 4bdd b33e

network_body._body_endoder.seq_layers.0.bias f4 [20]
-0.0058682603 0.0018091575 0.005662606 -0.0046497397 -0.004395756 0.0056791487 -0.0043304577 -0.005754977
-0.0056798877 0.0022841126 0.006024304 -0.003504955 0.0057070944 -0.0028428598 -0.0045270124 -0.0055444436
0.005720416 0.0057934616 -0.0055296137 0.0051514423
00000000: 894a c0bb 4121 ed3a 628d b93b d85c 98bb
00000010: 460a 90bb 2718 ba3b 83e6 8dbb 3f94 bcbb
00000020: 5a1e babb 0db1 153b 8667 c53b 63b3 65bb
00000030: 9402 bb3b 464f 3abb 5557 94bb 2aae b5bb
00000040: 5472 bb3b 14d7 bd3b c331 b5bb 6ecd a83b

action_model._continuous_distribution.log_sigma f4 [1, 2]
-0.0006346418 0.00017119132
00000000: 175e 26ba d281 3339

action_model._continuous_distribution.mu.weight f4 [2, 20]
0.04159376 0.023342503 -0.06382284 0.021897463 -0.021934701 0.043855477 0.01949412 -0.061142936
-0.03057834 0.02456334 0.045515787 -0.075296305 -0.025017938 -0.021040374 0.008699403 0.088139236
0.0188216 -0.011241248 0.0024879074 0.011459185 -0.030751346 0.011236971 -0.004450432 0.08176038
-0.07395912 -0.08473565 0.051251978 0.0015968988 0.051384117 0.042552345 -0.011023943 0.007874316
0.05841211 -0.028635189 0.03206408 0.017936658 -0.027636813 0.019728776 -0.005495178 -0.08477265
00000000: 385e 2a3d c738 bf3c 8db5 82bd 4f62 b33c
00000010: 67b0 b3bc cda1 333d 22b2 9f3c 0471 7abd
00000020: 6d7f fabc 0f39 c93c c36e 3a3d f334 9abd
00000030: 6bf2 ccbc dd5c acbc f187 0e3c 5882 b43d
00000040: c22f 9a3c 362d 38bc 290c 233b 4ebf 3b3c
00000050: 3fea fbbc 461b 383c eed4 91bb fc71 a73d
00000060: e177 97bd e289 adbd 98ed 513d 084f d13a
00000070: 2778 523d 5e4b 2e3d c59d 34bc 4603 013c
00000080: 8941 6f3d 5894 eabc a055 033d e6ef 923c
00000090: 9966 e2bc 3e9e a13c e510 b4bb 489d adbd

action_model._continuous_distribution.mu.bias f4 [2]
-0.005804345 0.005114501
00000000: 6032 bebb 8b97 a73b

exp_avg f4 [20, 6]
-0.002851964 0.007011559 -0.0024045864 0.0021479952 0.007011559 -0.004227953 -1.1772854e-05 2.0627604e-05
-1.2113097e-05 6.319279e-06 2.0627604e-05 -1.2438401e-05 0.0031519826 -0.007966219 0.0024188475 -0.0024404558
-0.007966219 0.0048036096 -0.0005494181 0.0012244664 -0.0004604129 0.00037511595 0.0012244664 -0.0007383502
-0.0062907273 0.014238476 -0.0055016386 0.004361965 0.014238476 -0.00858577 0.0002807895 -0.0006926828
0.00026237807 -0.00021220378 -0.0006926828 0.00041768618 -6.7111e-05 0.00016811912 -6.804704e-05 5.1503386e-05
0.00016811912 -0.00010137546 -0.0003012626 0.00074509275 -0.00023040414 0.00022825964 0.00074509275 -0.00044928925
-0.00023975014 0.00053818565 -0.00018495547 0.00016487346 0.00053818565 -0.00032452462 0.00067206554 -0.0011153283
0.00046589857 -0.00034168144 -0.0011153283 0.0006725404 0.00028577173 -0.0007187029 0.00023860685 -0.00022017513
-0.0007187029 0.0004333764 -1.50186315e-05 0.00016618881 -1.7394012e-05 5.0912036e-05 0.00016618881 -0.000100211524
0.006608684 -0.01544149 0.0056494526 -0.0047305087 -0.01544149 0.0093111815 -0.0019339523 0.0042431816
-0.0017205478 0.001299901 0.0042431816 -0.0025586286 -0.0002053801 0.000473036 -0.00018241047 0.00014491483
0.000473036 -0.00028523963 -0.0044333395 0.011185557 -0.0032540835 0.0034267008 0.011185557 -0.006744862
0.000112725065 -0.00024419912 6.995438e-05 -7.481051e-05 -0.00024419912 0.00014725147 0.0014087461 -0.0032373671
0.001187324 -0.0009917693 -0.0032373671 0.0019521244 -0.0013327659 0.0031202587 -0.0010641144 0.00095589284
0.0031202587 -0.0018815087 8.343861e-06 -2.2327464e-05 9.0967205e-06 -6.8400313e-06 -2.2327464e-05 1.3463407e-05
00000000: 04e8 3abb 38c1 e53b 4496 1dbb 61c5 0c3b
00000010: 38c1 e53b a48a 8abb 0684 45b7 7109 ad37
00000020: 5b39 4bb7 310a d436 7109 ad37 87ae 50b7
00000030: 7e91 4e3b bf84 02bc 8785 1e3b 0ef0 1fbb
00000040: bf84 02bc 9967 9d3b d306 10ba 467e a03a
00000050: 9363 f1b9 36ab c439 467e a03a d88d 41ba
00000060: 7222 cebb 7f48 693c 1747 b4bb d1ee 8e3b
00000070: 7f48 693c 54ab 0cbc ee36 9339 2895 35ba
00000080: ca8f 8939 0583 5eb9 2895 35ba e4fc da39
00000090: f2bd 8cb8 2249 3039 7ab4 8eb8 5705 5838
000000a0: 2249 3039 8999 d4b8 c8f2 9db9 5452 433a
000000b0: a498 71b9 fb58 6f39 5452 433a 958e ebb9
000000c0: 7065 7bb9 0715 0d3a 9bf0 41b9 e2e1 2c39
000000d0: 0715 0d3a f524 aab9 8e2d 303a 3530 92ba
000000e0: d943 f439 b523 b3b9 3530 92ba 6c4d 303a
000000f0: a2d3 9539 5667 3cba 8a32 7a39 d0de 66b9
00000100: 5667 3cba cc36 e339 88f8 7bb7 f842 2e39
00000110: 5be9 91b7 628a 5538 f842 2e39 a728 d2b8
00000120: a98d d83b 4efe 7cbc 0b1f b93b 6202 9bbb
00000130: 4efe 7cbc ed8d 183c ac7c fdba 630a 8b3b
00000140: 0184 e1ba 7161 aa3a 630a 8b3b aaae 27bb
00000150: 4d5b 57b9 d101 f839 7045 3fb9 47f4 1739
00000160: d101 f839 378c 95b9 8c45 91bb a043 373c
00000170: 7642 55bb 8092 603b a043 373c 0104 ddbb
00000180: cf66 ec38 da07 80b9 79b4 9238 96e3 9cb8
00000190: da07 80b9 8467 1a39 ada5 b83a 022a 54bb
000001a0: fb9f 9b3a 41fe 81ba 022a 54bb 6dde ff3a
000001b0: 34b0 aeba 417d 4c3b c179 8bba e294 7a3a
000001c0: 417d 4c3b f59c f6ba 9cfc 0b37 dd4b bbb7
000001d0: 1e9e 1837 6c83 e5b6 dd4b bbb7 e5e0 6137

exp_avg_sq f4 [20, 6]
3.922783e-06 2.3158054e-05 2.4957822e-06 2.1733988e-06 2.3158054e-05 8.420412e-06 1.0649557e-09 5.6543596e-09
5.5147686e-10 5.3066534e-10 5.6543596e-09 2.0559598e-09 1.3627229e-05 7.23478e-05 6.6201956e-06 6.7898886e-06
7.23478e-05 2.6306103e-05 9.7752825e-08 5.094929e-07 5.869566e-08 4.7816247e-08 5.094929e-07 1.8525476e-07
1.6609221e-05 9.107538e-05 9.836432e-06 8.547488e-06 9.107538e-05 3.311559e-05 2.5286075e-08 1.572086e-07
2.0214847e-08 1.4754128e-08 1.572086e-07 5.7162026e-08 1.4313722e-09 8.953622e-09 1.3062963e-09 8.4030316e-10
8.953622e-09 3.2555922e-09 8.641048e-08 4.5412855e-07 4.0238167e-08 4.2620265e-08 4.5412855e-07 1.6512398e-07
3.21537e-08 1.6097559e-07 1.4966899e-08 1.510767e-08 1.6097559e-07 5.8531725e-08 6.3821784e-07 2.9337966e-06
2.0914399e-07 2.7533878e-07 2.9337966e-06 1.0667466e-06 7.204928e-08 3.8220884e-07 3.479365e-08 3.5870556e-08
3.8220884e-07 1.3897353e-07 4.0363243e-08 2.178167e-07 2.2924873e-08 2.0442242e-08 2.178167e-07 7.9199495e-08
1.9070709e-05 0.00010389778 1.0863147e-05 9.750877e-06 0.00010389778 3.7777892e-05 2.1283165e-06 1.1606406e-05
1.2186979e-06 1.0892688e-06 1.1606406e-05 4.2201614e-06 2.1074262e-08 1.220566e-07 1.2067611e-08 1.14550955e-08
1.220566e-07 4.438052e-08 2.7969005e-05 0.00014837513 1.3569299e-05 1.3925109e-05 0.00014837513 5.3950134e-05
1.9498973e-08 9.780992e-08 8.495557e-09 9.179522e-09 9.780992e-08 3.5564284e-08 6.7101945e-07 3.550599e-06
4.2417517e-07 3.332261e-07 3.550599e-06 1.2910198e-06 8.4522145e-07 4.61309e-06 4.7491554e-07 4.329415e-07
4.61309e-06 1.677348e-06 1.9775943e-11 1.4543759e-10 2.1520032e-11 1.3649412e-11 1.4543759e-10 5.2882008e-11
00000000: 73a0 8336 8b43 c237 367d 2736 b5da 1136
00000010: 8b43 c237 6545 0d37 cc5d 9230 4648 c231
00000020: bc96 1730 41de 1130 4648 c231 d448 0d31
00000030: 81a0 6437 6eb9 9738 0c23 de36 b3d4 e336
00000040: 6eb9 9738 edab dc37 2fec d133 16c4 0835
00000050: 9018 7c33 855e 4d33 16c4 0835 71ea 4634
00000060: 0854 8b37 b9ff be38 2707 2537 2e67 0f37
00000070: b9ff be38 98e5 0a38 ab34 d932 2ccd 2834
00000080: eba4 ad32 5779 7d32 2ccd 2834 5082 7533
00000090: efb9 c430 72d2 1932 3789 b330 14fb 6630
000000a0: 72d2 1932 fcb8 5f31 aa90 b933 f4ce f334
000000b0: 55d2 2c33 7a0d 3733 f4ce f334 ef4c 3134
000000c0: 5e19 0a33 a2d8 2c34 8f90 8032 1ec6 8132
000000d0: a2d8 2c34 5064 7b33 ff51 2b35 3ee2 4436
000000e0: 1091 6034 46d2 9334 3ee2 4436 222d 8f35
000000f0: 83b9 9a33 6232 cd34 0670 1533 1810 1a33
00000100: 6232 cd34 c138 1534 db5b 2d33 00e1 6934
00000110: 54ec c432 f798 af32 00e1 6934 6214 aa33
00000120: 09fa 9f37 b2e3 d938 dc40 3637 b397 2337
00000130: b2e3 d938 b473 1e38 33d4 0e36 22b9 4237
00000140: 2492 a335 fe32 9235 22b9 4237 e99a 8d36
00000150: cb06 b532 aa0e 0334 ea51 4f32 0bcc 4432
00000160: aa0e 0334 e69c 3e33 fb9e ea37 2595 1b39
00000170: b2a7 6337 e39f 6937 2595 1b39 8448 6238
00000180: b27e a732 920b d233 dbf3 1132 f7b3 1d32
00000190: 920b d233 58bf 1833 1b20 3435 d446 6e36
000001a0: 31ba e334 3fe6 b234 d446 6e36 1a47 ad35
000001b0: 2de3 6235 24ca 9a36 e5f7 fe34 076f e834
000001c0: 24ca 9a36 3d21 e135 77f3 ad2d 0be9 1f2f
000001d0: ce4a bd2d 7d1f 702d 0be9 1f2f d993 682e

exp_avg f4 [20]
0.00097194326 2.8594018e-06 -0.0011042788 0.00016973572 0.00197374 -9.601983e-05 2.3304703e-05 0.00010328485
7.460336e-05 -0.00015460698 -9.9626755e-05 2.3037132e-05 -0.002140502 0.0005881905 6.557233e-05 0.001550543
-3.3850924e-05 -0.00044876427 0.00043253085 -3.0950362e-06
00000000: 02ca 7e3a 26e4 3f36 73bd 90ba 16fb 3139
00000010: dd59 013b 415e c9b8 787e c337 a29a d838
00000020: 6074 9c38 ff1d 22b9 b5ee d0b8 dd3f c137
00000030: aa47 0cbb cc30 1a3a e083 8938 973b cb3a
00000040: 27fb 0db8 1f48 ebb9 4fc5 e239 51b4 4fb6

exp_avg_sq f4 [20]
4.4499484e-07 1.0865165e-10 1.390203e-06 9.790191e-09 1.7500639e-06 3.0208498e-09 1.7204871e-10 8.726328e-09
3.0932337e-09 5.6374496e-08 7.344352e-09 4.1854666e-09 1.9964536e-06 2.2302348e-07 2.3453846e-09 2.85111e-06
1.879471e-09 6.822671e-08 8.864306e-08 2.7946625e-12
00000000: a0e7 ee34 71ed ee2e 0397 ba35 b731 2832
00000010: bde3 ea35 5a97 4f31 682b 3d2f ccea 1532
00000020: be90 5431 6a20 7233 9a59 fc31 c1cf 8f31
00000030: d0fa 0536 3a78 6f34 712c 2131 b255 3f36
00000040: 0128 0131 0884 9233 0a5c be33 2aa8 442c

exp_avg f4 [1, 2]
0.0030724832 0.00037792278
00000000: b75b 493b f023 c639

exp_avg_sq f4 [1, 2]
0.00019322395 0.00024249133
00000000: 299c 4a39 4545 7e39

exp_avg f4 [2, 20]
0.0011698594 -0.0009505594 0.053410716 -0.002018503 0.090699576 -0.0005787797 -0.0003162414 -0.0021050158
-0.0008742293 -0.0035588143 -0.0046361196 -0.00562392 0.08068642 0.18302098 -0.0050176755 0.097048916
-0.0054087224 -0.0017812167 0.06302046 -1.4592055e-05 -0.001299979 0.0015201409 -0.08045986 0.0034561555
-0.124584354 0.001235513 0.00062786584 0.0024875714 0.001197691 0.006173391 0.0071150116 0.008088077
-0.11660736 -0.25074336 0.00765077 -0.1407269 0.007740158 -0.0021487786 -0.09325751 4.1531483e-05
00000000: f855 993a f62e 79ba 32c5 5a3d dc48 04bb
00000010: b3c0 b93d 40b9 17ba 34cd a5b9 4ef4 09bb
00000020: 892c 65ba ff3a 69bb 97ea 97bb dc48 b8bb
00000030: ec3e a53d da69 3b3e 506b a4bb 95c1 c63d
00000040: a73b b1bb b777 e9ba df10 813d 66d0 74b7
00000050: 0f64 aaba 773f c73a 24c8 a4bd ab80 623b
00000060: 1526 ffbd f0f0 a13a 5d97 243a 8606 233b
00000070: d7fb 9c3a 284a ca3b 0b25 e93b db83 043c
00000080: d7cf eebd 6f61 80be 4fb3 fa3b b61a 10be
00000090: 27a1 fd3b 86d2 0cbb cbfd bebd 1732 2e38

exp_avg_sq f4 [2, 20]
2.33215e-06 8.1957705e-07 0.0026516148 3.6851038e-06 0.007201555 3.3915916e-07 9.165457e-08 4.0466903e-06
9.0231526e-07 6.262792e-06 1.8646919e-05 2.7859844e-05 0.005812669 0.030455349 2.2972205e-05 0.008551293
2.3881052e-05 4.554414e-06 0.003665095 3.352806e-10 3.984763e-06 8.2286726e-07 0.0025164033 3.9117185e-06
0.006715581 4.3635382e-07 1.17205374e-07 3.4501236e-06 7.605687e-07 7.3959463e-06 1.8498868e-05 2.6068903e-05
0.0055055916 0.027797619 2.2139993e-05 0.008054399 2.3089535e-05 3.4266461e-06 0.0034673582 4.9732224e-10
00000000: 0882 1c36 e800 5c35 b7c6 2d3b 9a4d 7736
00000010: 06fb eb3b ae15 b634 a2d3 c433 cec8 8736
00000020: a236 7235 f924 d236 f46b 9c37 8fb4 e937
00000030: 3478 be3b 7f7d f93c 6fb4 c037 b91a 0c3c
00000040: 2b54 c837 1ed2 9836 1732 703b 8d52 b82f
00000050: dbb4 8536 02e3 5c35 3eea 243b 6841 8336
00000060: 600e dc3b 0344 ea34 56b2 fb33 ac88 6736
00000070: e229 4c35 b22a f836 042e 9b37 8bae da37
00000080: 4068 b43b d5b7 e33c 46b9 b937 99f6 033c
00000090: 66b0 c137 55f5 6536 9e3c 633b f1b3 0830

exp_avg f4 [2]
0.02080938 -0.02920117
00000000: 6f78 aa3c 4b37 efbc

exp_avg_sq f4 [2]
0.00038226362 0.0003586573
00000000: 8e6a c839 2b0a bc39

exp_avg f4 [20, 6]
-3.2837324e-05 6.701644e-05 -1.524729e-05 2.053053e-05 6.701644e-05 -4.041076e-05 0.056947216 -0.112367965
0.023718186 -0.034424018 -0.112367965 0.067757666 -0.0059937043 0.012004361 -0.0026687693 0.0036775433
0.012004361 -0.0072386023 -0.00053074333 0.0013002784 -0.0004412484 0.00039834098 0.0013002784 -0.00078406476
-0.0013278307 0.002723737 -0.00064032234 0.00083441817 0.002723737 -0.0016424065 0.0027338893 -0.0051637823
0.0009361161 -0.0015819268 -0.0051637823 0.0031137478 0.018855786 -0.0369688 0.007686742 -0.011325411
-0.0369688 0.022292107 -0.003324933 0.006719974 -0.0015215332 0.0020586692 0.006719974 -0.0040521296
-0.023696544 0.047040578 -0.010105349 0.014410916 0.047040578 -0.028365366 -0.073664434 0.14511861
-0.030473309 0.04445718 0.14511861 -0.0875062 -0.07320447 0.1477562 -0.033121344 0.045265175
0.1477562 -0.08909661 -0.00047566404 0.00096575473 -0.0002218569 0.0002958596 0.00096575473 -0.0005823478
-0.023017958 0.044611998 -0.009005097 0.013666908 0.044611998 -0.026900932 0.0017461854 -0.0035106626
0.0007786737 -0.0010754933 -0.0035106626 0.0021169225 -0.07800024 0.15424582 -0.03274714 0.047253296
0.15424582 -0.09300986 0.008468434 -0.016486337 0.003328495 -0.0050505977 -0.016486337 0.009941225
0.00048904953 -0.00095493055 0.00019297437 -0.00029254353 -0.00095493055 0.00057582103 -0.01983172 0.039392825
-0.00847905 0.012068011 0.039392825 -0.023753786 0.03980268 -0.0786816 0.016556628 -0.024104157
-0.0786816 0.04744484 0.058533967 -0.115369655 0.024239482 -0.035343558 -0.115369655 0.06956765
00000000: cfba 09b8 2d8b 8c38 9dce 7fb7 fa38 ac37
00000010: 2d8b 8c38 b97e 29b8 7c41 693d 2d21 e6bd
00000020: a44c c23c 3300 0dbd 2d21 e6bd 88c4 8a3d
00000030: d666 c4bb f0ad 443c 85e6 2ebb f002 713b
00000040: f0ad 443c cc31 edbb 9521 0bba 1a6e aa3a
00000050: 5c57 e7b9 6cd8 d039 1a6e aa3a b289 4dba
00000060: 9b0a aeba b980 323b 4edb 27ba dbbc 5a3a
00000070: b980 323b 0446 d7ba 0d2b 333b f234 a9bb
00000080: b065 753a a858 cfba f234 a9bb 0510 4c3b
00000090: 7377 9a3c 996c 17bd 11e1 fb3b 378e 39bc
000000a0: 996c 17bd f09d b63c 1ee7 59bb 3a33 dc3b
000000b0: 2f6e c7ba bdea 063b 3a33 dc3b bac7 84bb
000000c0: 411f c2bc 9fad 403d e890 25bc c31b 6c3c
000000d0: 9fad 403d 7c5e e8bc 61dd 96bd f999 143e
000000e0: 29a3 f9bc bb18 363d f999 143e 7336 b3bd
000000f0: 3aec 95bd 674d 173e 3faa 07bd fa67 393d
00000100: 674d 173e 4978 b6bd 8c62 f9b9 b42a 7d3a
00000110: 42a2 68b9 9a1d 9b39 b42a 7d3a b3a8 18ba
00000120: 2890 bcbc 12bb 363d 1d8a 13bc 2beb 5f3c
00000130: 12bb 363d 585f dcbc 42e0 e43a 2513 66bb
00000140: e81f 4c3a 91f7 8cba 2513 66bb 11bc 0a3b
00000150: 97be 9fbd 9ef2 1d3e dd21 06bd ac8c 413d
00000160: 9ef2 1d3e f47b bebd 30bf 0a3c 5b0e 87bc
00000170: e122 5a3b 7c7f a5bb 5b0e 87bc 85e0 223c
00000180: 8f33 003a 4e54 7aba 2a59 4a39 8760 99b9
00000190: 4e54 7aba b2f2 163a 2276 a2bc 5f5a 213d
000001a0: b7eb 0abc e8b8 453c 5f5a 213d 4d97 c2bc
000001b0: 2308 233d d223 a1bd c4a1 873c 1576 c5bc
000001c0: d223 a1bd 8555 423d 50c1 6f3d ed46 ecbd
000001d0: e191 c63c 68c4 10bd ed46 ecbd 7c79 8e3d

exp_avg_sq f4 [20, 6]
9.664736e-10 5.1390074e-09 4.132777e-10 4.822991e-10 5.1390074e-09 1.8685742e-09 0.0035354763 0.018238941
0.001625514 0.0017117369 0.018238941 0.006631792 4.0205887e-05 0.00020695411 1.894268e-05 1.9422778e-05
0.00020695411 7.52498e-05 1.8687024e-07 9.653651e-07 8.756014e-08 9.060015e-08 9.653651e-07 3.510129e-07
1.5135748e-06 7.5886082e-06 6.813745e-07 7.121959e-07 7.5886082e-06 2.7592641e-06 9.287862e-06 4.7979574e-05
4.300273e-06 4.5029146e-06 4.7979574e-05 1.7445669e-05 0.0003659476 0.0019191164 0.00016289613 0.00018011034
0.0019191164 0.00069780234 1.0816762e-05 5.4779193e-05 4.981273e-06 5.1410643e-06 5.4779193e-05 1.9918049e-05
0.00060734956 0.003134483 0.00028048162 0.00029417334 0.003134483 0.001139718 0.006181761 0.031913914
0.002882124 0.0029951418 0.031913914 0.011604098 0.005196891 0.026630962 0.0023610038 0.002499334
0.026630962 0.009683184 2.3164174e-07 1.1885835e-06 1.0759211e-07 1.1154934e-07 1.1885835e-06 4.3217642e-07
0.0007590632 0.0038809488 0.00037687123 0.00036422964 0.0038809488 0.001411137 2.4899998e-06 1.2994968e-05
1.0459744e-06 1.2195865e-06 1.2994968e-05 4.725052e-06 0.006684851 0.03449676 0.003093001 0.0032375432
0.03449676 0.012543233 8.2238366e-05 0.00042459628 3.8056172e-05 3.9848655e-05 0.00042459628 0.00015438588
2.6511196e-07 1.3486437e-06 1.2279207e-07 1.265711e-07 1.3486437e-06 4.9037527e-07 0.00042692767 0.002202841
0.0001975355 0.0002067381 0.002202841 0.00080096687 0.0017415456 0.008991133 0.0008053356 0.00084382406
0.008991133 0.0032692326 0.003795154 0.01958591 0.0017554938 0.0018381511 0.01958591 0.0071215588
00000000: c4d4 8430 3093 b031 aa33 e32f c892 0430
00000010: 3093 b031 4e68 0031 73b3 673b d569 953c
00000020: 330f d53a 5c5c e03a d569 953c 814f d93b
00000030: bea2 2838 d201 5939 18e7 9e37 19ee a237
00000040: d201 5939 6ecf 9d38 80a6 4834 b191 8135
00000050: b208 bc33 f68f c233 b191 8135 d872 bc34
00000060: 0926 cb35 a6a1 fe36 b3e7 3635 bb2d 3f35
00000070: a6a1 fe36 cc2b 3936 10d3 1b37 ad3d 4938
00000080: 104b 9036 be17 9736 ad3d 4938 4a58 9237
00000090: a8dc bf39 dc8a fb3a 19cf 2a39 00dc 3c39
000000a0: dc8a fb3a b9ec 363a a479 3537 b6c2 6538
000000b0: cf24 a736 6881 ac36 b6c2 6538 af15 a737
000000c0: 8a36 1f3a e66b 4d3b 9b0d 9339 473b 9a39
000000d0: e66b 4d3b 9762 953a 5f90 ca3b 2ab8 023d
000000e0: 04e2 3c3b 244a 443b 2ab8 023d 1d1f 3e3c
000000f0: ae4a aa3b 2d29 da3c 12bb 1a3b decb 233b
00000100: 2d29 da3c 38a6 1e3c 32b9 7834 6b87 9f35
00000110: 630d e733 e68c ef33 6b87 9f35 e005 e834
00000120: defb 463a 8457 7e3b cd96 c539 13f6 be39
00000130: 8457 7e3b e7f5 b83a df19 2736 f604 5a37
00000140: 6863 8c35 acb0 a335 f604 5a37 e38b 9e36
00000150: 980c db3b 7a4c 0d3d f2b3 4a3b f62c 543b
00000160: 7a4c 0d3d 2282 4d3c 6377 ac38 599c de39
00000170: 819e 1f38 2b23 2738 599c de39 a5e2 2139
00000180: b654 8e34 0b03 b535 d4d8 0334 99e7 0734
00000190: 0b03 b535 55a2 0335 43d5 df39 8a5d 103b
000001a0: 8821 4f39 d6c7 5839 8a5d 103b faf7 513a
000001b0: 9344 e43a 8c4f 133c 281d 533a 1334 5d3a
000001c0: 8c4f 133c 9f40 563b 1eb8 783b a172 a03c
000001d0: 9918 e63a 1eee f03a a172 a03c f75b e93b

exp_avg f4 [20]
9.289831e-06 -0.015576473 0.0016640474 0.0001802448 0.00037756487 -0.0007158048 -0.00512462 0.0009315243
0.006520774 0.020116357 0.020481993 0.00013387312 0.006184121 -0.00048664876 0.02138158 -0.0022853385
-0.00013237263 0.005460639 -0.010906858 -0.015992561
00000000: 85db 1b37 7734 7fbc 2a1c da3a 1800 3d39
00000010: e6f3 c539 d9a4 3bba 6eec a7bb 8a31 743a
00000020: 38ac d53b 0fcb a43c dac9 a73c 4b60 0c39
00000030: 2ba4 ca3b e424 ffb9 6c28 af3c 9ec5 15bb
00000040: 82cd 0ab9 29ef b23b aeb2 32bc d502 83bc

exp_avg_sq f4 [20]
9.8748815e-11 0.00035047132 3.976738e-06 1.8550022e-08 1.4581929e-07 9.2195387e-07 3.6876874e-05 1.0526123e-06
6.0230825e-05 0.00061324326 0.0005117284 2.2839279e-08 7.457456e-05 2.4970547e-07 0.00066287414 8.158852e-06
2.5914927e-08 4.232879e-05 0.00017276965 0.0003763541
00000000: a426 d92e 77bf b739 eb6f 8536 ee57 9f32
00000010: 8092 1c34 307c 7735 3eac 1a38 7c47 8d35
00000020: 5ba0 7c38 0fc2 203a 8325 063a 1b30 c432
00000030: e964 9c38 420f 8634 bbc4 2d3a 01e2 0837
00000040: 879b de32 318a 3138 8029 3539 6451 c539

exp_avg f4 [1, 20]
-2.6549187e-05 0.101034395 0.03931833 0.07243409 -0.0063457442 0.335019 0.028493175 -0.004360386
0.15514353 0.19950716 0.08284603 -0.005675423 0.007278626 -0.0027459078 0.3506379 0.3053819
-0.0008848477 0.39327574 0.06614363 0.3122012
00000000: f2b5 deb7 1feb ce3d 420c 213d 5358 943d
00000010: f6ef cfbb 9c87 ab3e 856a e93c 92e1 8ebb
00000020: f2dd 1e3e 9b4b 4c3e 2eab a93d e6f8 b9bb
00000030: 8a81 ee3b b0f4 33bb d086 b33e 045b 9c3e
00000040: 20f5 67ba 705b c93e 5076 873d d6d8 9f3e

exp_avg_sq f4 [1, 20]
8.094018e-10 0.010779131 0.004016936 0.011043679 3.8817907e-05 0.16896576 0.0010926843 2.2590646e-05
0.036864482 0.038262673 0.005321864 4.3812317e-05 0.00053007656 7.653556e-06 0.17648797 0.13561511
1.1346194e-06 0.21999922 0.014806696 0.15546899
00000000: 977c 5e30 f49a 303c 80a0 833b 8cf0 343c
00000010: 69d0 2238 5c05 2d3e 6738 8f3a 0b81 bd37
00000020: 36ff 163d 52b9 1c3d 0863 ae3b 1ec3 3738
00000030: d6f4 0a3a c667 0037 43b9 343e b0de 0a3e
00000040: 3a49 9835 7a47 613e c997 723c 4333 1f3e

network_body._body_endoder.seq_layers.0.weight f4 [20, 6]
0.4467016 -0.25870177 0.58430284 -0.28145716 0.035198603 1.1642765 -0.09337852 0.30764496
0.5038721 0.78172916 0.44523755 0.9388796 -0.16295265 -0.05568451 -0.6437653 -0.018624915
0.47700793 0.81838393 0.6067793 0.20652777 -0.05688646 -0.1524338 0.37881705 -0.006511205
-0.7611082 -0.8164133 -0.014971183 -0.31136233 -0.27250165 -0.61114633 0.13704889 0.26188707
-0.0026908983 -0.2646954 0.70387584 -0.43468174 0.4640126 0.1375778 0.5088396 -0.08677362
0.3042877 -0.12546848 -0.39361098 -0.13876839 -0.09871378 0.12411174 -0.4496097 0.30163133
-0.07025433 -0.45886862 -0.2546908 0.061507273 0.65231216 -0.29426286 -0.20466259 0.5018371
1.0318289 0.63546836 -0.13172781 -0.26471496 -0.5789041 -0.07093953 0.28670993 0.09862473
0.13180137 0.08259142 -0.13675746 0.017231064 -0.08251422 -0.5991759 -0.16517784 0.35525608
-0.2309833 0.052925203 -0.7375192 0.1308032 -0.15035866 0.32314867 0.2129591 -0.1749644
0.71235585 0.3363596 0.07272635 0.4955745 -0.150349 0.18913604 -0.08322296 -0.011602065
0.6328829 -0.2809206 -0.39797282 0.49354023 -0.20325777 0.23961328 0.6176856 0.73716146
-0.2325735 0.4795234 -0.08632392 -1.0350683 -0.76278734 0.487192 0.026742436 0.9967431
0.12801152 -0.098454416 -0.03145556 -0.53252244 1.2238107 -0.025232006 -0.13124804 0.588818
0.6053263 -0.16178681 -0.052219354 0.7088608 -0.46890217 -0.11884848 0.5425057 0.5551802
00000000: 12b6 e43e 8f74 84be df94 153f 271b 90be
00000010: 692c 103d 0307 953f 3d3d bfbd a483 9d3e
00000020: c3fd 003f 671f 483f 2df6 e33e 6a5a 703f
00000030: 0fdd 26be 7115 64bd cdcd 24bf 4793 98bc
00000040: 623a f43e 9c81 513f e355 1b3f 047c 533e
00000050: c701 69bd 9b17 1cbe 4ff4 c13e f25b d5bb
00000060: fdd7 42bf 7600 51bf b149 75bc e26a 9fbe
00000070: 5685 8bbe 1674 1cbf 8b56 0c3e 1016 863e
00000080: c859 30bb 2886 87be 3531 343f 9b8e debe
00000090: 0f93 ed3e 32e1 0c3e 5043 023f 5eb6 b1bd
000000a0: 99cb 9b3e cf7a 00be 6187 c9be 4d19 0ebe
000000b0: 732a cabd 4c2e fe3d 3e33 e6be 6c6f 9a3e
000000c0: 81e1 8fbd d4f0 eabe d566 82be 0def 7b3d
000000d0: eefd 263f 9fa9 96be 1293 51be 6578 003f
000000e0: f812 843f 0eae 223f a8e3 06be b888 87be
000000f0: 0f33 14bf bf48 91bd a5cb 923e c3fb c93d
00000100: f0f6 063e b125 a93d 260a 0cbe 2928 8d3c
00000110: 37fd a8bd 9763 19bf 6124 29be 20e4 b53e
00000120: e386 6cbe 19c8 583d 0fce 3cbf 46f1 053e
00000130: 9ff7 19be be73 a53e f311 5a3e de29 33be
00000140: f45c 363f 5337 ac3e 8df1 943d f1bb fd3e
00000150: 17f5 19be e1ac 413e cd70 aabd 9616 3ebc
00000160: 9d04 223f d3d4 8fbe 18c3 cbbe 4eb1 fc3e
00000170: ce22 50be 2f5d 753e a520 1e3f 9db6 3c3f
00000180: bf27 6ebe 1784 f53e 98ca b0bd 1e7d 84bf
00000190: 0846 43bf 3b71 f93e f412 db3c 8e2a 7f3f
000001a0: 7415 033e 78a2 c9bd 8cd7 00bd 6453 08bf
000001b0: d4a5 9c3f 5ab3 cebc e365 06be c7bc 163f
000001c0: aaf6 1a3f 71ab 25be f6e3 55bd e777 353f
000001d0: f213 f0be d566 f3bd a7e1 0a3f 4a20 0e3f

network_body._body_endoder.seq_layers.0.bias f4 [20]
-0.0056430246 0.005669625 -0.0055621983 -0.004376313 -0.0056462167 0.0057814643 0.0057220208 -0.0056294817
-0.005644191 -0.0056458907 -0.0056680473 -0.005561609 -0.0055418382 0.0057949065 -0.0056526526 0.005699742
0.005727655 -0.0056383624 0.005670214 0.0056637493
00000000: 1fe9 b8bb 43c8 b93b 1a43 b6bb 2d67 8fbb
00000010: e603 b9bb 7072 bd3b ca7f bb3b 8477 b8bb
00000020: e8f2 b8bb 2a01 b9bb 07bb b9bb 283e b6bb
00000030: 4f98 b5bb 33e3 bd3b e339 b9bb e7c4 ba3b
00000040: 0daf bb3b 03c2 b8bb 34cd b93b f996 b93b

value_heads.value_heads.extrinsic.weight f4 [1, 20]
-0.38475534 -0.32654044 0.03246921 -0.0022501452 -0.089209184 -0.022323813 -0.13584352 -0.30234095
0.13282444 0.43428332 0.39962682 -0.03078184 0.20639025 0.24273935 0.47817254 -0.05772359
0.18893796 0.11773749 -0.23053573 -0.36745563
00000000: a7fe c4be 4f30 a7be 6ffe 043d 2c77 13bb
00000010: 4eb3 b6bd 6ee0 b6bc 901a 0bbe 6fcc 9abe
00000020: 2103 083e 625a de3e e39b cc3e 332a fcbc
00000030: f757 533e aa90 783e 08d3 f43e 926f 6cbd
00000040: f478 413e 5a20 f13d 8f11 6cbe 2523 bcbe
