results/MoveToGoal11/MoveToGoal/MoveToGoal-300.onnx (onnx, 2351 bytes, 5 tensors)

action_model._continuous_distribution.log_sigma f4 [1, 2]
00000000: 175e 26ba d281 3339
-0.0006346418 0.00017119132

action_model._continuous_distribution.mu.bias f4 [2]
00000000: 6032 bebb 8b97 a73b
-0.005804345 0.005114501

action_model._continuous_distribution.mu.weight f4 [2, 20]
00000000: 385e 2a3d c738 bf3c 8db5 82bd 4f62 b33c
00000010: 67b0 b3bc cda1 333d 22b2 9f3c 0471 7abd
00000020: 6d7f fabc 0f39 c93c c36e 3a3d f334 9abd
00000030: 6bf2 ccbc dd5c acbc f187 0e3c 5882 b43d
00000040: c22f 9a3c 362d 38bc 290c 233b 4ebf 3b3c
00000050: 3fea fbbc 461b 383c eed4 91bb fc71 a73d
00000060: e177 97bd e289 adbd 98ed 513d 084f d13a
00000070: 2778 523d 5e4b 2e3d c59d 34bc 4603 013c
00000080: 8941 6f3d 5894 eabc a055 033d e6ef 923c
00000090: 9966 e2bc 3e9e a13c e510 b4bb 489d adbd
0.04159376 0.023342503 -0.06382284 0.021897463 -0.021934701 0.043855477 0.01949412 -0.061142936
-0.03057834 0.02456334 0.045515787 -0.075296305 -0.025017938 -0.021040374 0.008699403 0.088139236
0.0188216 -0.011241248 0.0024879074 0.011459185 -0.030751346 0.011236971 -0.004450432 0.08176038
-0.07395912 -0.08473565 0.051251978 0.0015968988 0.051384117 0.042552345 -0.011023943 0.007874316
0.05841211 -0.028635189 0.03206408 0.017936658 -0.027636813 0.019728776 -0.005495178 -0.08477265

network_body._body_endoder.seq_layers.0.bias f4 [20]
00000000: 894a c0bb 4121 ed3a 628d b93b d85c 98bb
00000010: 460a 90bb 2718 ba3b 83e6 8dbb 3f94 bcbb
00000020: 5a1e babb 0db1 153b 8667 c53b 63b3 65bb
00000030: 9402 bb3b 464f 3abb 5557 94bb 2aae b5bb
00000040: 5472 bb3b 14d7 bd3b c331 b5bb 6ecd a83b
-0.0058682603 0.0018091575 0.005662606 -0.0046497397 -0.004395756 0.0056791487 -0.0043304577 -0.005754977
-0.0056798877 0.0022841126 0.006024304 -0.003504955 0.0057070944 -0.0028428598 -0.0045270124 -0.0055444436
0.005720416 0.0057934616 -0.0055296137 0.0051514423

network_body._body_endoder.seq_layers.0.weight f4 [20, 6]
00000000: a99f 033f fd3b 973c 347d 0bbe dc2f 263f
00000010: a087 8ebe 5078 bfbe d678 cebd f7b4 02bf
00000020: b4b9 8abe 1efd dabd 8788 d5bd 9f9a 373e
00000030: 1570 43be 93bc e73e 7036 25be 282b e5bd
00000040: d956 70be ba82 12be 843e 0fbf 6845 24bf
00000050: dbe9 10bf aa1f ad3d 342a 84be 9695 a23d
00000060: 28e3 f33b 47a6 6d3f 02af d93d d26c f03d
00000070: 9603 34bd 55da f23e 2a06 053f 52b9 873e
00000080: 9cb7 58bf b36a 62be e885 e9be 2a84 513f
00000090: 2821 4c3e 3528 f5be 3b77 6ebf 910e ccbd
000000a0: e562 c6be edba 813e fa32 95bd 47b6 88be
000000b0: 7c80 eb3e 409a d33e 6984 96be eeb9 8bbd
000000c0: b897 1dbf fe4e a5be 9d4e f23e abaa 0d3f
000000d0: ca56 a3be 7cd8 fd3e 36ba c5be 18e9 7b3e
000000e0: 5954 4e3f ccb4 d73e 1985 97be 257a 903d
000000f0: a4ba 703d 8239 31bf 60c7 eabe 1b60 19bf
00000100: a593 fc3d 3720 15bf 8615 dfbd 9030 03be
00000110: e546 0fbf 29be 673e c145 9c3d f5f7 3c3f
00000120: 0c41 973c b8c0 0d3f 6c79 06be 716c 79be
00000130: f78f 903d 68f0 e53c 01c1 e9be ef6a 103e
00000140: aee6 213f e170 363f d290 493f 21ba 05be
00000150: b62e b3be f708 8abd a974 c7be af9c e8be
00000160: 2f4a 89be f7b3 ed3d f3db 09bf 9264 4f3f
00000170: f682 3cbe 8ac8 2e3e f0c2 bebe 81ea 5d3e
00000180: ff67 013e d288 61bc 4fc9 23bf 8d9e a5be
00000190: ac9e b93d 1abe 163f 9bbe 9ebe bbfe 29be
000001a0: 66cd 18bf 4189 a7be b8e1 55bd 751c ab3c
000001b0: 4845 05bf fd90 a4bc 46a2 42be 9d5e 473f
000001c0: 00d7 123d 9859 303e 08cb 463f fd66 863d
000001d0: c347 4abf ecd4 55bf 067a 4bbf 4bdd b33e
0.514155 0.018461222 -0.1362198 0.6491678 -0.2783785 -0.3739648 -0.100816414 -0.5105738
-0.27094805 -0.106928095 -0.10426431 0.17930077 -0.19085725 0.45261058 -0.16134048 -0.11189872
-0.2347063 -0.1430768 -0.55954766 -0.64168406 -0.56606835 0.08453305 -0.25813448 0.079386875
0.0074428506 0.92831844 0.10629083 0.11739506 -0.043948732 0.474322 0.5196253 0.26508576
-0.84655166 -0.22111015 -0.45609975 0.8184229 0.19934523 -0.47882238 -0.9315068 -0.09963716
-0.38747326 0.25337926 -0.07285114 -0.26701567 0.45996463 0.4132862 -0.29397896 -0.06822573
-0.6155963 -0.3228683 0.47325602 0.55338544 -0.31902152 0.49579227 -0.3861863 0.24600637
0.80597454 0.42130125 -0.29593733 0.07054547 0.058771744 -0.69228375 -0.45855236 -0.5991227
0.123328485 -0.5825228 -0.10892777 -0.12811494 -0.5596755 0.22631134 0.07630492 0.7381585
0.018463634 0.5537219 -0.13132256 -0.24357773 0.07058709 0.028068736 -0.45655063 0.14103292
0.63242614 0.7126599 0.78736603 -0.13059284 -0.34996575 -0.06739991 -0.38956192 -0.4543204
-0.2681441 0.11606591 -0.5385124 0.81012833 -0.18409333 0.17068687 -0.372581 0.21671487
0.12637328 -0.013765531 -0.6397905 -0.32347527 0.090634674 0.5888382 -0.31004795 -0.16601078
-0.59688413 -0.32721904 -0.052217215 0.020887593 -0.5205884 -0.020088667 -0.19007215 0.77878743
0.03584957 0.17221677 0.7765355 0.06562612 -0.7901575 -0.8352802 -0.7948307 0.3512977
