results/Test2/MoveToGoal/checkpoint.pt (torch, 144911 bytes, 10 tensors)

network_body._body_endoder.seq_layers.0.weight f4 [128, 2]
0	0x3f8a8b0b	1.0823683
1	0x3f17a541	0.5923653
2	0xbf326142	-0.69679654
3	0x3f64ab36	0.8932375
4	0xbeaea383	-0.34109125
5	0x3e03bfde	0.1286616
6	0xbf04e94e	-0.51918495
7	0x3eef9880	0.46796036
8	0xbd182cc1	-0.037152056
9	0x3f2a1dec	0.6645191
10	0xbf564828	-0.8370385
11	0xbfc3555d	-1.5260426
12	0x3d9e2395	0.077216305
13	0x3f3d7e26	0.7402061
14	0xbf95af70	-1.1694164
15	0x3e1c8d65	0.15288313
16	0xbd50de0e	-0.050993018
17	0x3f4cdef9	0.8002773
18	0xbe28460a	-0.16432968
19	0xbf153e19	-0.5829788
20	0x3fbbc733	1.4670166
21	0xbf62db59	-0.8861595
22	0xbda81021	-0.08206201
23	0xbed5396d	-0.41645375
24	0x3e885c2f	0.2663283
25	0x3ef8102c	0.48449838
26	0x3eb17459	0.3465908
27	0xbdee5bfd	-0.11638639
28	0xbd9d5210	-0.07681668
29	0x3f8e235c	1.1104541
30	0x3eabe76b	0.33574995
31	0x3fa7c872	1.3108046
32	0x3f11c4b3	0.56940764
33	0xbf079c36	-0.52972734
34	0x3f833815	1.025149
35	0xbf27896a	-0.6544405
36	0x3f90fd58	1.1327314
37	0xbec5cc23	-0.38632306
38	0x3f3d25d9	0.73885876
39	0x3e38169c	0.17977375
40	0xbdd68467	-0.104744725
41	0x3ed4eadb	0.4158543
42	0x3f5b42a1	0.8564854
43	0x3ecbebfe	0.39828485
44	0xbf703b7b	-0.9384076
45	0x3ed5b197	0.41737053
46	0xbe8a4e24	-0.27012742
47	0x3f07eede	0.5309886
48	0xbf710f6c	-0.94164157
49	0xbfdb8c77	-1.7152241
50	0x3e528186	0.20557222
51	0x3f6def89	0.92943627
52	0xbfc56938	-1.5422735
53	0xbf04b4d4	-0.5183842
54	0xbe977b8b	-0.29586443
55	0xbf5c034b	-0.85942525
56	0xbeff5708	-0.49871087
57	0xbf3f7f9b	-0.74804085
58	0x3fcc0d00	1.5941467
59	0xbea1d0b0	-0.31604528
60	0x3f8de67f	1.1085967
61	0xbf4896fd	-0.7835539
62	0xbde42fc5	-0.11141924
63	0x3f7b9bbf	0.98284525
64	0xbe47dcb4	-0.19517785
65	0x3f4a2fa8	0.7897897
66	0xbd53b5bb	-0.051686984
67	0x3f8241e9	1.0176364
68	0xbe9bdbbb	-0.3044108
69	0x3f299d2b	0.66255444
70	0x3ef5177f	0.4786949
71	0xbea41f01	-0.32054904
72	0x3e7a02a0	0.24415064
73	0x3e96e0f2	0.29468495
74	0xbf809089	-1.0044109
75	0xbf6bf474	-0.9216988
76	0x3dcba87b	0.099442445
77	0x3f23098f	0.6368646
78	0xbfab24b7	-1.337058
79	0xbf425605	-0.75912505
80	0x3f5a60bf	0.8530387
81	0x3cd46549	0.025927203
82	0xbdbc17d8	-0.09184235
83	0x3ea44d18	0.32090068
84	0xbf46dd9f	-0.77681917
85	0x3e57c0b6	0.21069607
86	0xbf5d9071	-0.86548525
87	0xbf81bdbc	-1.0136027
88	0xbe6dc60f	-0.23220085
89	0xbeed9068	-0.46399236
90	0x3d4452e2	0.047930606
91	0xbe21f7b9	-0.15817155
92	0x3ebda1db	0.37037548
93	0x3f7f51c0	0.99734116
94	0xbe81d72c	-0.25359476
95	0x3e8dad8e	0.27671474
96	0xbeaea95d	-0.3411359
97	0x3e506ad6	0.20353255
98	0xbf36d0f6	-0.714126
99	0x3e274804	0.16336066
100	0x3f033c76	0.5126413
101	0xbefcd593	-0.49381694
102	0x3f212d71	0.62959963
103	0x3ed2dfb1	0.41186288
104	0xbea1692e	-0.31525558
105	0x3ecc51c2	0.39906126
106	0x3d31e10d	0.043427516
107	0xbecf1f67	-0.40453646
108	0xbe2c5941	-0.16830923
109	0x3f963109	1.1733714
110	0x3ebf07fc	0.3731078
111	0x3ea4360d	0.32072487
112	0x3f343f35	0.70408946
113	0xbf10ee66	-0.5661377
114	0xbf9b55f4	-1.2135606
115	0xbf64850f	-0.8926553
116	0x3e999651	0.29997495
117	0xbf63983c	-0.88904166
118	0x3f890313	1.0704063
119	0xbf711e2f	-0.9418668
120	0x3f974012	1.1816428
121	0xbec06dd9	-0.37583807
122	0xbf2343c8	-0.637753
123	0x3d902649	0.07038552
124	0xbf10efce	-0.5661591
125	0x3f8013e6	1.0006073
126	0x3e2df978	0.16989696
127	0xbf8877c9	-1.0661556
128	0xbe6e0510	-0.23244119
129	0x3d4d0614	0.050054625
130	0x3f3070e6	0.6892227
131	0x3e8e2c11	0.27767995
132	0xbecfa7d7	-0.4055774
133	0x3eb3b9b4	0.35102618
134	0x3edcff06	0.43163317
135	0xbfa47cbb	-1.2850565
136	0xbf7633b7	-0.9617266
137	0xbc1c730d	-0.009548915
138	0xbedc3188	-0.4300654
139	0xbf875f63	-1.0575985
140	0xbfa4d4c1	-1.2877427
141	0xbda29607	-0.07938772
142	0xbef6d259	-0.48207358
143	0x3f283f2f	0.6572141
144	0xbfbecf0d	-1.4906937
145	0xbf006417	-0.50152725
146	0x3faf7036	1.3706119
147	0x3e746141	0.23865224
148	0x3f90151f	1.1256446
149	0xbd377a79	-0.044794533
150	0x3f7ab948	0.97938967
151	0xbdd6c380	-0.104865074
152	0x3e721a0c	0.23642749
153	0x3e36c585	0.17848785
154	0xbf858292	-1.0430472
155	0xbf49a5d2	-0.78768647
156	0x3e452a11	0.19254328
157	0x3eef40e9	0.4672921
158	0xbfa3b556	-1.2789714
159	0x3ed60d70	0.41807127
160	0x3de6b04f	0.11264097
161	0xbf298598	-0.6621947
162	0x3f85d7da	1.0456498
163	0x3e7443ca	0.23853984
164	0x3f89d632	1.0768492
165	0xbe8e5244	-0.2779714
166	0xbf19e912	-0.6012126
167	0xbf8c7960	-1.0974541
168	0xbe39725d	-0.18110032
169	0x3e17f7c5	0.1484061
170	0x3f7a93ed	0.97881967
171	0x3e9c6a24	0.3054973
172	0xbe121b49	-0.14268221
173	0xbe11702f	-0.14202951
174	0xbf17996f	-0.59218496
175	0x3f3cc22d	0.7373379
176	0x3edfd82c	0.43719614
177	0x3f437668	0.7635255
178	0x3fb511db	1.4146074
179	0x3f86cee4	1.0531888
180	0xbef701b2	-0.4824348
181	0xbf3ff36b	-0.749808
182	0x3f016218	0.50540304
183	0x3f1333d7	0.57500976
184	0x3f6e9e41	0.93210226
185	0x3dce4530	0.1007179
186	0xbe4c1400	-0.19929504
187	0x3fa3211d	1.274448
188	0xbdb3fa69	-0.08787996
189	0x3e88fead	0.26756802
190	0xbf53f69e	-0.8279818
191	0xbebd1d12	-0.3693624
192	0x3f56a555	0.83846027
193	0x3ebffe21	0.37498572
194	0xbd274794	-0.040839747
195	0x3eae3a95	0.3402907
196	0xbed5491b	-0.41657338
197	0xbf82e627	-1.0226487
198	0x3f7d8efa	0.9904629
199	0x3ed0b9d1	0.40766767
200	0xbf053421	-0.5203267
201	0x3f74e486	0.956612
202	0x3f6aa30d	0.91655046
203	0xbf965609	-1.1745006
204	0x3f3923ed	0.72320443
205	0xbfcdd1ab	-1.607961
206	0x3e9e10aa	0.3087209
207	0xbe9bacc1	-0.30405238
208	0xbe4c7767	-0.19967423
209	0xbf7b1f93	-0.98095053
210	0xbf2638e4	-0.6493056
211	0x3f11ee9e	0.57004726
212	0xbfb226cf	-1.3918093
213	0x3d4b1db8	0.04958889
214	0xbf368f66	-0.7131256
215	0x3f1de111	0.6167155
216	0xbf8d3465	-1.1031615
217	0xbef647bf	-0.48101613
218	0xbe6d69a2	-0.23184827
219	0xbf06ffc7	-0.52734035
220	0x3f23bf52	0.63963807
221	0x3fb140e1	1.3847924
222	0x3f0b33d7	0.54375976
223	0xbe038d48	-0.12846863
224	0xbe7dc6a1	-0.24782802
225	0x3f431316	0.76201
226	0x3e8505c9	0.25980976
227	0x3f02e30a	0.51127684
228	0x3fb18fee	1.3872049
229	0xbd23b4ee	-0.03996747
230	0xbd820cdb	-0.06350108
231	0xbea6bfa8	-0.32568097
232	0x3fa168cc	1.2610106
233	0xbd27bcdf	-0.040951606
234	0x3ee00b97	0.43758842
235	0xbed53f96	-0.41650075
236	0xbf9d0b7d	-1.2269131
237	0x3eda4dc9	0.4263747
238	0x3f32ed95	0.6989377
239	0xbd802d2a	-0.06258614
240	0xbf4f7eea	-0.8105303
241	0x3e2b1597	0.16707455
242	0x3dea9cdc	0.114557
243	0xbf3cf08e	-0.7380456
244	0x3f5e2ac8	0.8678403
245	0xbdfad1a0	-0.12247014
246	0x3ebfa2ee	0.37428993
247	0x3ebac014	0.3647467
248	0x3efdde2d	0.4958357
249	0x3f846d8b	1.034593
250	0xbe1c7f6c	-0.15282983
251	0x3eb3266c	0.3499025
252	0x3e99df82	0.30053335
253	0x3e8e2bc3	0.27767763
254	0xbf56d99c	-0.83925796
255	0xbf8b50d8	-1.0884047

network_body._body_endoder.seq_layers.0.bias f4 [128]
0	0x00000000	0.0
1	0x00000000	0.0
2	0x00000000	0.0
3	0x00000000	0.0
4	0x00000000	0.0
5	0x00000000	0.0
6	0x00000000	0.0
7	0x00000000	0.0
8	0x00000000	0.0
9	0x00000000	0.0
10	0x00000000	0.0
11	0x00000000	0.0
12	0x00000000	0.0
13	0x00000000	0.0
14	0x00000000	0.0
15	0x00000000	0.0
16	0x00000000	0.0
17	0x00000000	0.0
18	0x00000000	0.0
19	0x00000000	0.0
20	0x00000000	0.0
21	0x00000000	0.0
22	0x00000000	0.0
23	0x00000000	0.0
24	0x00000000	0.0
25	0x00000000	0.0
26	0x00000000	0.0
27	0x00000000	0.0
28	0x00000000	0.0
29	0x00000000	0.0
30	0x00000000	0.0
31	0x00000000	0.0
32	0x00000000	0.0
33	0x00000000	0.0
34	0x00000000	0.0
35	0x00000000	0.0
36	0x00000000	0.0
37	0x00000000	0.0
38	0x00000000	0.0
39	0x00000000	0.0
40	0x00000000	0.0
41	0x00000000	0.0
42	0x00000000	0.0
43	0x00000000	0.0
44	0x00000000	0.0
45	0x00000000	0.0
46	0x00000000	0.0
47	0x00000000	0.0
48	0x00000000	0.0
49	0x00000000	0.0
50	0x00000000	0.0
51	0x00000000	0.0
52	0x00000000	0.0
53	0x00000000	0.0
54	0x00000000	0.0
55	0x00000000	0.0
56	0x00000000	0.0
57	0x00000000	0.0
58	0x00000000	0.0
59	0x00000000	0.0
60	0x00000000	0.0
61	0x00000000	0.0
62	0x00000000	0.0
63	0x00000000	0.0
64	0x00000000	0.0
65	0x00000000	0.0
66	0x00000000	0.0
67	0x00000000	0.0
68	0x00000000	0.0
69	0x00000000	0.0
70	0x00000000	0.0
71	0x00000000	0.0
72	0x00000000	0.0
73	0x00000000	0.0
74	0x00000000	0.0
75	0x00000000	0.0
76	0x00000000	0.0
77	0x00000000	0.0
78	0x00000000	0.0
79	0x00000000	0.0
80	0x00000000	0.0
81	0x00000000	0.0
82	0x00000000	0.0
83	0x00000000	0.0
84	0x00000000	0.0
85	0x00000000	0.0
86	0x00000000	0.0
87	0x00000000	0.0
88	0x00000000	0.0
89	0x00000000	0.0
90	0x00000000	0.0
91	0x00000000	0.0
92	0x00000000	0.0
93	0x00000000	0.0
94	0x00000000	0.0
95	0x00000000	0.0
96	0x00000000	0.0
97	0x00000000	0.0
98	0x00000000	0.0
99	0x00000000	0.0
100	0x00000000	0.0
101	0x00000000	0.0
102	0x00000000	0.0
103	0x00000000	0.0
104	0x00000000	0.0
105	0x00000000	0.0
106	0x00000000	0.0
107	0x00000000	0.0
108	0x00000000	0.0
109	0x00000000	0.0
110	0x00000000	0.0
111	0x00000000	0.0
112	0x00000000	0.0
113	0x00000000	0.0
114	0x00000000	0.0
115	0x00000000	0.0
116	0x00000000	0.0
117	0x00000000	0.0
118	0x00000000	0.0
119	0x00000000	0.0
120	0x00000000	0.0
121	0x00000000	0.0
122	0x00000000	0.0
123	0x00000000	0.0
124	0x00000000	0.0
125	0x00000000	0.0
126	0x00000000	0.0
127	0x00000000	0.0

network_body._body_endoder.seq_layers.2.weight f4 [128, 128]
0	0x3d8da927	0.06917029
1	0x3d39f70c	0.045401618
2	0x3d895cba	0.06707139
3	0xbd8d728e	-0.06906615
4	0x3d66161c	0.05617343
5	0x3c1aff32	0.009460257
6	0x3e0350f7	0.12823854
7	0x3d7a8cc8	0.061169416
8	0xbd45a91b	-0.048256975
9	0xbcc3ab40	-0.02388537
10	0x3d325a4a	0.043543138
11	0xbd64e93f	-0.055886503
12	0x3dc9fd59	0.09862775
13	0x3d9c358c	0.07627401
14	0x3d80edfc	0.06295392
15	0x3e442e01	0.19158174
16	0xbd8fb89c	-0.07017633
17	0xbd900e55	-0.070339836
18	0x3dc512ae	0.096227035
19	0xbd42c565	-0.04755153
20	0xbd743ee6	-0.059630297
21	0x3cfde808	0.03099443
22	0x3de5a4f6	0.112131044
23	0x381463b8	3.537882e-05
24	0xbdc444b5	-0.09583417
25	0x3e1e927f	0.15485571
26	0xbd990064	-0.07470778
27	0xbc558db7	-0.013034276
28	0x3d022082	0.031769283
29	0xbe251539	-0.16121377
30	0x3e4ade9a	0.19811478
31	0x3c864acf	0.016393093
32	0xbd655f77	-0.055999245
33	0xbd192874	-0.037392095
34	0x3d486511	0.04892451
35	0x3c6a4af2	0.014300095
36	0xbde0a423	-0.109688066
37	0x3dc6c85c	0.09706184
38	0x3d987841	0.074448116
39	0x3d85d527	0.06534796
40	0xbd9d3aee	-0.076772556
41	0x3d10d380	0.035357952
42	0x3db64b5a	0.08901091
43	0x3a2e62c6	0.00066522916
44	0x3d31accc	0.043377683
45	0xbdff32a1	-0.124608286
46	0x3afb7113	0.0019183479
47	0xbda884de	-0.082284674
48	0xbd3b4822	-0.045723088
49	0xbdf4eb2e	-0.119589195
50	0xbe071448	-0.1319133
51	0xbdce3a0d	-0.10069666
52	0x3dd30825	0.10304288
53	0x3da7d446	0.08194785
54	0x3e3d6bcb	0.18498151
55	0x3c01d8c2	0.007925214
56	0xbd9d7731	-0.076887496
57	0x3e26a5d1	0.16274191
58	0x3c9dc64d	0.019259596
59	0xbd105eeb	-0.03524677
60	0x3daf2c5d	0.085533835
61	0xbd3037fa	-0.043022133
62	0xbe2af4c5	-0.16694935
63	0x3e41b531	0.18916775
64	0x3c886322	0.016648833
65	0x3e00bbd2	0.12571648
66	0x3c980fba	0.018562187
67	0xbb3d965b	-0.002892873
68	0xbe1d8c5f	-0.15385579
69	0x3da7c5a0	0.08191991
70	0xbcd06503	-0.025438791
71	0xbdad20dc	-0.08453533
72	0xbd83dfa2	-0.06439139
73	0x3dd8cc65	0.1058586
74	0xbd203720	-0.03911507
75	0x3ce3b027	0.027793957
76	0x3d1ed82c	0.038780376
77	0xbe54d8c1	-0.2078581
78	0x3e02f6cd	0.1278946
79	0x3d5697dd	0.05239092
80	0x3c847282	0.016167883
81	0x3d1211b8	0.03566143
82	0xbd508252	-0.050905533
83	0x3c01668f	0.007897987
84	0xbc1131ab	-0.008861939
85	0x3df2e880	0.11860752
86	0x3d9d9ed4	0.0769631
87	0x3d8f60ff	0.070009224
88	0xbd8ccb6e	-0.06874739
89	0xbc50994b	-0.01273186
90	0xbd23d57c	-0.039998516
91	0xbb9d5c25	-0.0048022442
92	0xbcf3d807	-0.029766096
93	0xbd34fe14	-0.04418762
94	0x3e76350e	0.24043676
95	0x3cd65656	0.026164215
96	0xbd8a9210	-0.067661405
97	0x36a6ad1e	4.967339e-06
98	0xbd83ef83	-0.064421676
99	0xbdc4dfcf	-0.096130006
100	0xbded5fcb	-0.11590537
101	0xbd6667dd	-0.056251395
102	0x3c93bde2	0.01803488
103	0xbc8fe820	-0.01756674
104	0xbc67277c	-0.014108535
105	0x3a7e2424	0.00096947164
106	0xbe07d47a	-0.13264647
107	0xbdbd97ff	-0.092575066
108	0xbdcbda97	-0.09953802
109	0x3cd786a7	0.026309324
110	0x3d912656	0.0708739
111	0x3c271907	0.010198838
112	0x3dfe892e	0.12428509
113	0x3da8ae6a	0.08236392
114	0xbd0fe9df	-0.035135146
115	0x3d917e6c	0.07104191
116	0x3d8579c8	0.065173686
117	0xbe283eec	-0.16430253
118	0x3d03e37b	0.032199364
119	0xbcce3c4e	-0.02517524
120	0xbce99bac	-0.028516613
121	0xbce544eb	-0.027986964
122	0x3d6e6942	0.05820585
123	0x3cef8d52	0.029242191
124	0x3d66d4ef	0.056355413
125	0xbd86aed2	-0.06576313
126	0x3db09ee3	0.08624055
127	0x3da91c9b	0.08257409
128	0xbd9a2539	-0.07526631
129	0xbd3cf497	-0.046131697
130	0xbe3a970e	-0.18221685
131	0x3db0a342	0.08624889
132	0xbe3a74df	-0.18208645
133	0x3dd0ae6e	0.1018952
134	0xbd3c15e2	-0.045919307
135	0x3e04bf3b	0.12963574
136	0x3d34dc89	0.04415563
137	0xbd7ac940	-0.061227083
138	0xbdb77de5	-0.08959559
139	0xbdba959d	-0.09110568
140	0xbd9dfc9c	-0.07714197
141	0xbd846bc8	-0.0646587
142	0x3dbb1048	0.09133965
143	0xbd8db5d8	-0.069194496
144	0xbdf5d78c	-0.12004003
145	0xbcdfdcd9	-0.027326988
146	0x3db3b2d8	0.08774346
147	0xbbaf6c0d	-0.005353457
148	0xbcbc9981	-0.023022415
149	0xbc256b7b	-0.010096426
150	0xbd9c20a1	-0.07623411
151	0x3d2b8bcb	0.041881364
152	0x3d785b06	0.06063368
153	0xbd65eae0	-0.056132197
154	0x3df46d3f	0.119348995
155	0xbdac5674	-0.08414927
156	0x3e17e6d0	0.14834142
157	0x3cab514f	0.020912794
158	0xbbdbbcb0	-0.006705843
159	0x3e335e04	0.17516333
160	0x3d31c481	0.04340029
161	0x3d8f388b	0.069932066
162	0xbd98b375	-0.07456104
163	0x3d55c423	0.052189004
164	0xbcc5e246	-0.024155747
165	0x3e042c3b	0.12907498
166	0xbd3452cb	-0.04402427
167	0x3d5290c4	0.05140759
168	0x3cbd1cdc	0.02308505
169	0xbd8e5f89	-0.06951816
170	0x3d5958a5	0.053063054
171	0xbc9e9a9d	-0.019360835
172	0xbda33b8a	-0.079703405
173	0xbce9d0a5	-0.028541872
174	0xbe038670	-0.12844253
175	0x3d986e24	0.07442883
176	0xbd09e568	-0.033666044
177	0x3dbf750d	0.093484975
178	0x3d85dd0a	0.065363005
179	0xbe1120a3	-0.14172606
180	0xbcffa56c	-0.031206809
181	0x3dfa69ab	0.12227186
182	0xbdd0c60a	-0.10194023
183	0xbdd0774f	-0.10179006
184	0xbd83c1b6	-0.06433432
185	0xbe09c186	-0.1345273
186	0xbce63fe2	-0.028106634
187	0x3d89657e	0.06708811
188	0xbc4f6a2f	-0.0126595935
189	0x3e2b0fe3	0.16705279
190	0x3d1502f7	0.03637978
191	0xbb83e026	-0.0040245233
192	0x3da8c0be	0.08239888
193	0x3e011cc3	0.12608628
194	0xbdbe4ccd	-0.09291992
195	0x3df7317a	0.12069984
196	0x3e3accf9	0.18242253
197	0xbdddd6fb	-0.1083202
198	0x3e19742d	0.14985724
199	0xbe0d1f96	-0.1378158
200	0x3d512dc1	0.051069025
201	0x3dbb1a11	0.09135831
202	0x3d7d86de	0.061896197
203	0xbd0ee2bb	-0.034884196
204	0xbdaa42b9	-0.083135076
205	0x3b1e0024	0.002410897
206	0xbc08ceee	-0.008350117
207	0xbc648707	-0.013948209
208	0xbcc42536	-0.023943525
209	0x3e0c385f	0.13693379
210	0xbd580bcc	-0.052745625
211	0x3de0c5dd	0.109752394
212	0xbd0ef90a	-0.03490547
213	0x3db642e2	0.08899476
214	0x3b14d241	0.002270833
215	0x3be74e45	0.007058891
216	0x3dc1e32c	0.09467158
217	0xbd83be7a	-0.06432815
218	0x3d06e178	0.032929868
219	0x3dca5172	0.09878816
220	0x3d9ae123	0.07562473
221	0x3d61b328	0.055102497
222	0x3addfe7b	0.0016936803
223	0xbd8223a2	-0.06354453
224	0x3dc5b598	0.09653777
225	0xbd474254	-0.04864724
226	0x3cef1e1f	0.029189168
227	0x3e02339b	0.12714998
228	0x3d60cfa5	0.054885525
229	0x3cb95b65	0.022626588
230	0xbc97b173	-0.018517232
231	0x3e0850bc	0.13312048
232	0x3e0bd7f0	0.13656592
233	0x3ce35378	0.027749762
234	0x3e35a7ad	0.17739744
235	0xbe0d1e41	-0.13781072
236	0x3d3a9fa8	0.045562416
237	0xbd002dc4	-0.031293646
238	0x3e37d2e4	0.17951542
239	0x3ccb4c1a	0.024816561
240	0xbd985dbc	-0.074397534
241	0x3da0ca31	0.07851065
242	0xbd9097da	-0.070602134
243	0xbe186b25	-0.14884622
244	0x3cea7385	0.028619537
245	0x3e25e91a	0.16202202
246	0x3cb138dc	0.021633558
247	0xbce2312b	-0.027611336
248	0xbe7a7b56	-0.24461111
249	0xbdb9d7c3	-0.090743564
250	0xbd206868	-0.03916207
251	0xbd2dee4d	-0.04246359
252	0x3e243993	0.16037588
253	0x3d45b7c1	0.048270945
254	0x3e227515	0.15864976
255	0x3da4bd4a	0.080439165

network_body._body_endoder.seq_layers.2.bias f4 [128]
0	0x00000000	0.0
1	0x00000000	0.0
2	0x00000000	0.0
3	0x00000000	0.0
4	0x00000000	0.0
5	0x00000000	0.0
6	0x00000000	0.0
7	0x00000000	0.0
8	0x00000000	0.0
9	0x00000000	0.0
10	0x00000000	0.0
11	0x00000000	0.0
12	0x00000000	0.0
13	0x00000000	0.0
14	0x00000000	0.0
15	0x00000000	0.0
16	0x00000000	0.0
17	0x00000000	0.0
18	0x00000000	0.0
19	0x00000000	0.0
20	0x00000000	0.0
21	0x00000000	0.0
22	0x00000000	0.0
23	0x00000000	0.0
24	0x00000000	0.0
25	0x00000000	0.0
26	0x00000000	0.0
27	0x00000000	0.0
28	0x00000000	0.0
29	0x00000000	0.0
30	0x00000000	0.0
31	0x00000000	0.0
32	0x00000000	0.0
33	0x00000000	0.0
34	0x00000000	0.0
35	0x00000000	0.0
36	0x00000000	0.0
37	0x00000000	0.0
38	0x00000000	0.0
39	0x00000000	0.0
40	0x00000000	0.0
41	0x00000000	0.0
42	0x00000000	0.0
43	0x00000000	0.0
44	0x00000000	0.0
45	0x00000000	0.0
46	0x00000000	0.0
47	0x00000000	0.0
48	0x00000000	0.0
49	0x00000000	0.0
50	0x00000000	0.0
51	0x00000000	0.0
52	0x00000000	0.0
53	0x00000000	0.0
54	0x00000000	0.0
55	0x00000000	0.0
56	0x00000000	0.0
57	0x00000000	0.0
58	0x00000000	0.0
59	0x00000000	0.0
60	0x00000000	0.0
61	0x00000000	0.0
62	0x00000000	0.0
63	0x00000000	0.0
64	0x00000000	0.0
65	0x00000000	0.0
66	0x00000000	0.0
67	0x00000000	0.0
68	0x00000000	0.0
69	0x00000000	0.0
70	0x00000000	0.0
71	0x00000000	0.0
72	0x00000000	0.0
73	0x00000000	0.0
74	0x00000000	0.0
75	0x00000000	0.0
76	0x00000000	0.0
77	0x00000000	0.0
78	0x00000000	0.0
79	0x00000000	0.0
80	0x00000000	0.0
81	0x00000000	0.0
82	0x00000000	0.0
83	0x00000000	0.0
84	0x00000000	0.0
85	0x00000000	0.0
86	0x00000000	0.0
87	0x00000000	0.0
88	0x00000000	0.0
89	0x00000000	0.0
90	0x00000000	0.0
91	0x00000000	0.0
92	0x00000000	0.0
93	0x00000000	0.0
94	0x00000000	0.0
95	0x00000000	0.0
96	0x00000000	0.0
97	0x00000000	0.0
98	0x00000000	0.0
99	0x00000000	0.0
100	0x00000000	0.0
101	0x00000000	0.0
102	0x00000000	0.0
103	0x00000000	0.0
104	0x00000000	0.0
105	0x00000000	0.0
106	0x00000000	0.0
107	0x00000000	0.0
108	0x00000000	0.0
109	0x00000000	0.0
110	0x00000000	0.0
111	0x00000000	0.0
112	0x00000000	0.0
113	0x00000000	0.0
114	0x00000000	0.0
115	0x00000000	0.0
116	0x00000000	0.0
117	0x00000000	0.0
118	0x00000000	0.0
119	0x00000000	0.0
120	0x00000000	0.0
121	0x00000000	0.0
122	0x00000000	0.0
123	0x00000000	0.0
124	0x00000000	0.0
125	0x00000000	0.0
126	0x00000000	0.0
127	0x00000000	0.0

action_model._continuous_distribution.mu.weight f4 [1, 128]
0	0xbbc33043	-0.005956681
1	0x3cb3d7e2	0.021953527
2	0xbcb7a020	-0.02241522
3	0x3c9ca73f	0.019122718
4	0x3bd1874d	0.006394303
5	0xbc6e1cf0	-0.014533266
6	0xbd140800	-0.036140442
7	0x3c93df1f	0.018050728
8	0xbc4a663f	-0.012353479
9	0xbb37864d	-0.0028003633
10	0x3ce7a8f0	0.028278798
11	0xb91cd86c	-0.00014957943
12	0x3d5dd1bd	0.0541551
13	0xbc30a2b1	-0.010780976
14	0x3ca7bbc4	0.020475276
15	0x3cf0a1c7	0.029374016
16	0x3c10300a	0.008800516
17	0xbcc1bcee	-0.023649659
18	0x3b4d14da	0.0031292946
19	0x3c296fb6	0.010341575
20	0xbc16decf	-0.009208395
21	0x3c871bbd	0.016492719
22	0xbcc403eb	-0.02392765
23	0x3cbbcfad	0.022926176
24	0xbc16730b	-0.009182702
25	0x3bb45006	0.0055027036
26	0xbc7d6393	-0.015465635
27	0x3c11124a	0.008854458
28	0x3c807891	0.01568249
29	0x39c54c6d	0.0003763171
30	0x3cf8d63a	0.030375589
31	0xbc76d8c5	-0.01506633
32	0x3c028bc3	0.007967892
33	0xbc3a03d7	-0.011353455
34	0x3c704ef3	0.01466726
35	0x3cddae1a	0.027060557
36	0xbc3c569c	-0.011495259
37	0x3bef43dd	0.007301791
38	0x3b7118e2	0.0036788513
39	0x3c04ce57	0.008105836
40	0xbc9959f4	-0.01871965
41	0x3947dc33	0.0001906015
42	0xba69c492	-0.0008917536
43	0xbcc83cff	-0.024443148
44	0x3c335de7	0.010947681
45	0xbbcc8673	-0.0062416135
46	0xbb94867f	-0.0045326347
47	0xbcd30edd	-0.025763923
48	0x3c23d256	0.009998878
49	0xbc4f4ffa	-0.012653345
50	0x3c2432ff	0.010021924
51	0xbbcfa383	-0.006336631
52	0x3bfb64ed	0.0076719434
53	0xbc912a18	-0.017720267
54	0xbc2218ff	-0.009893655
55	0xbbf8d313	-0.0075935214
56	0x3c11298c	0.008860003
57	0xbae77dff	-0.0017661451
58	0xbc81899c	-0.015812688
59	0x3bb9fbe5	0.00567578
60	0xbb276b72	-0.002554622
61	0xbc8f7517	-0.017511887
62	0x3ad30f07	0.0016102501
63	0xbcb5eeef	-0.022208659
64	0x3c13e907	0.009027726
65	0xbc9bb536	-0.019007307
66	0xbd2d270e	-0.042273574
67	0xbc9274b8	-0.017877921
68	0xbd0b8f73	-0.03407235
69	0x3c7f04b5	0.015565087
70	0x3cf91983	0.030407673
71	0x3ad756e7	0.0016429097
72	0x3cfec558	0.03109996
73	0x3a926494	0.0011168891
74	0xbc174dfa	-0.0092349
75	0xbceb632d	-0.028733814
76	0xbd0af6b5	-0.033926684
77	0x3c8c47c0	0.017124057
78	0x39cccb6f	0.00039061482
79	0xbc328786	-0.010896569
80	0x3c34add3	0.011027771
81	0xbca5a80f	-0.020221738
82	0x3c97001a	0.018432666
83	0x3b836f43	0.004011066
84	0x3bcc752a	0.006239553
85	0x3a8d4779	0.0010778747
86	0xbc1e951b	-0.009679104
87	0xbc893353	-0.016748106
88	0xbbacd08b	-0.0052738837
89	0xbc6b60f8	-0.014366381
90	0x3cf583f8	0.029970154
91	0xbbc47030	-0.005994819
92	0xbd2a6aab	-0.041605633
93	0xbd01eff9	-0.031722996
94	0x3c225762	0.009908529
95	0xbc36c032	-0.011154221
96	0xbc23d8fb	-0.010000463
97	0x3bb2bd87	0.0054547223
98	0x3a13239f	0.0005612913
99	0x3cfc01ef	0.03076264
100	0xbbb6c51c	-0.0055776965
101	0xbc463ee0	-0.0120999515
102	0x3c8c7580	0.017145872
103	0x3c3f28a3	0.011667403
104	0xbc1bfc6a	-0.009520629
105	0xbc854162	-0.016266529
106	0x3abc79df	0.0014379582
107	0x3c33bb5c	0.010969963
108	0xbc4dbabb	-0.012556727
109	0xbc9be692	-0.019030843
110	0x3c6d3b92	0.014479535
111	0x3cb3d948	0.021954194
112	0xbc9d2270	-0.01918146
113	0x3d4eac6d	0.050457407
114	0x3c8943bd	0.016755933
115	0x3b668b7a	0.003517835
116	0xbd49c8ea	-0.049263872
117	0x3bb85664	0.005625533
118	0x3bf7671a	0.0075501325
119	0x3b414f31	0.0029496665
120	0x3c8a197f	0.01685786
121	0x3ac30b2f	0.0014880652
122	0x3c943bdd	0.018094951
123	0xbc3d4b2b	-0.011553566
124	0xbc35fec4	-0.011108104
125	0x39606bfa	0.00021402529
126	0xbbbbc5f1	-0.0057303836
127	0xbcb7182c	-0.022350393

network_body._body_endoder.seq_layers.0.weight f4 [128, 2]
0	0x3e856b7f	0.26058576
1	0x3ee4da04	0.44697583
2	0x3ee1a433	0.44070587
3	0xbf3b6599	-0.732019
4	0xbf2fac7a	-0.68622553
5	0xbe9dc3bb	-0.30813393
6	0xbe841497	-0.2579696
7	0xbf4d9e11	-0.80319315
8	0xbe92f972	-0.28705937
9	0xbf54cc75	-0.83124477
10	0xbf66b3ab	-0.901179
11	0x3e98a237	0.2981126
12	0x3d76c6eb	0.060248297
13	0x3f7f504a	0.99731886
14	0x3f1966d1	0.5992251
15	0x3f32062f	0.69540685
16	0x3cdec44a	0.027193207
17	0x3f1cad62	0.6120206
18	0x3f21ed24	0.6325247
19	0xbf3116cf	-0.6917543
20	0x3d485b69	0.0489153
21	0xbefe105e	-0.49621862
22	0x3f82686d	1.0188118
23	0x3f1e3cef	0.6181173
24	0xbeaf2b00	-0.34212494
25	0x3ebcea93	0.36897716
26	0x3e91a964	0.28449547
27	0xbe247403	-0.1605988
28	0x3f7864b0	0.97028637
29	0xbed3911c	-0.41321647
30	0xbf0c6b5e	-0.5485133
31	0xbf456a3e	-0.7711524
32	0x3e845b7f	0.25851056
33	0xbee63e56	-0.44969434
34	0xbf124a5e	-0.57144725
35	0x3ee80f73	0.45324287
36	0xbee67695	-0.45012346
37	0x3f4d3d2f	0.80171484
38	0xbf14a4c0	-0.5806389
39	0x3f1b5514	0.60676694
40	0x3f6112ce	0.8791932
41	0xbfce7930	-1.6130733
42	0x3e1d5749	0.15365328
43	0xbf7ed736	-0.99547136
44	0x3f1e6d2f	0.6188535
45	0x3e9bdc60	0.3044157
46	0xbf195433	-0.598941
47	0xbef426e1	-0.47685912
48	0x3ef85af7	0.485069
49	0xbf8b5568	-1.0885439
50	0xbe89ccbf	-0.2691402
51	0x3e9bd050	0.30432367
52	0xbf0ea9cc	-0.5572784
53	0x3fde3cf3	1.736235
54	0xbd3ff330	-0.04686278
55	0x3e9017b3	0.2814308
56	0x3f865538	1.0494757
57	0x3d89dd3b	0.067316495
58	0x3fb12620	1.383976
59	0x3e8eac61	0.2786589
60	0xbf65f4b4	-0.8982651
61	0x3e5dcc96	0.21660075
62	0x3e84d84b	0.25946268
63	0x3e978dc2	0.2960034
64	0x3f507759	0.8143211
65	0x3f25cadc	0.64762664
66	0x3f72c4cc	0.9483154
67	0x3dfb95eb	0.12284454
68	0xbf686a80	-0.90787506
69	0xbed26c06	-0.4109804
70	0xbf14466f	-0.57919973
71	0xbe2a89de	-0.16654155
72	0x3e108d06	0.14116296
73	0xbf06f18e	-0.52712333
74	0x3f62e732	0.88634026
75	0xbf164373	-0.5869667
76	0xbe8b0213	-0.2715002
77	0x3ed86294	0.4226271
78	0xc034492d	-2.8169663
79	0xbe7e5e82	-0.2484074
80	0x3df8fc85	0.12157539
81	0xbe44f266	-0.19233093
82	0xbe813d23	-0.25241956
83	0x3e9401f0	0.28907728
84	0x3f1152df	0.56767076
85	0x3f04d412	0.51886094
86	0xbe43169c	-0.19051594
87	0xbf5fe8f7	-0.8746485
88	0x3f161a3f	0.586338
89	0xbf9f1ffd	-1.2431637
90	0x3f4803e1	0.7813092
91	0x3e3a630c	0.18201846
92	0xbeeab8b6	-0.45844048
93	0xbcde937f	-0.027169941
94	0x3f061286	0.52372015
95	0x3f5250a8	0.8215432
96	0xbf7dd349	-0.9915052
97	0x3dadb281	0.084813125
98	0x3f5255ea	0.82162344
99	0x3f16fec0	0.5898247
100	0xbef76d3a	-0.4832552
101	0xbf514986	-0.8175281
102	0x3d8d39f8	0.06895822
103	0xbf89b62d	-1.0758721
104	0xbe6efc2e	-0.23338386
105	0x3f794394	0.9736874
106	0xbf0ca09b	-0.54932564
107	0x3fa6bdbe	1.3026655
108	0xbf5393e2	-0.82647526
109	0x3e30d0ae	0.17267105
110	0xbf181ce4	-0.59419084
111	0xbef77245	-0.48329368
112	0x3f0ca474	0.54938436
113	0xbf9dac92	-1.2318289
114	0x3c9492df	0.01813644
115	0xbf93c12e	-1.1543329
116	0xbfd54dee	-1.6664407
117	0xbde5b289	-0.112156935
118	0x3e513283	0.20429425
119	0xbd4b723d	-0.049669493
120	0xbf34c0ea	-0.70606863
121	0x3e6fa8e7	0.23404275
122	0xbf9a7407	-1.2066659
123	0x3e958390	0.29201937
124	0x3e41b463	0.18916468
125	0x3f4bb8fb	0.7957913
126	0x3e83327d	0.25624457
127	0x3f8776c1	1.0583116
128	0x3f8529af	1.0403346
129	0x3eb60527	0.35550806
130	0xbe9de1ae	-0.30836242
131	0x3e9a8766	0.30181426
132	0x3ebff357	0.3749034
133	0xbf4e2d5e	-0.80537975
134	0x3eb258ba	0.34833318
135	0x3e1984e5	0.14992101
136	0x3d4b55b6	0.049642287
137	0xbf1b8176	-0.60744417
138	0xbf3801ad	-0.7187756
139	0x3da4c03f	0.080444805
140	0x3ec03268	0.37538457
141	0xbf8ba840	-1.0910721
142	0x3f1618b0	0.5863142
143	0xbf317c1b	-0.69329995
144	0x3e5a5443	0.21321206
145	0x3df49663	0.119427465
146	0xbe206629	-0.15663971
147	0x3e87896d	0.26472035
148	0x3f198384	0.599663
149	0xbf57dac4	-0.84318185
150	0x3e18c42a	0.1491858
151	0x3f30d949	0.6908155
152	0x3f56c2e3	0.83891124
153	0xbf2d3ea6	-0.6767372
154	0xbed28912	-0.411202
155	0xbf05a39e	-0.52202785
156	0x3fa04059	1.2519637
157	0xbe8f6bd8	-0.28011966
158	0xbee03130	-0.43787527
159	0xbf0b2b51	-0.5436297
160	0x3f31692a	0.6930109
161	0x3ef2a060	0.4738798
162	0x3f96db2b	1.1785635
163	0xbf4873cf	-0.7830171
164	0x3e7f268c	0.24917048
165	0xbf8d33fb	-1.1031488
166	0x3dc82614	0.09772888
167	0x3ea19f8d	0.3156704
168	0xbf664126	-0.8994316
169	0xbd49cf3d	-0.049269903
170	0x3f20d3d8	0.6282325
171	0x3f6cecdd	0.92548925
172	0x3f7406cd	0.9532288
173	0xbf9c8c39	-1.2230293
174	0x3eb90deb	0.3614343
175	0x3e668e69	0.22515263
176	0x3a9dcf4b	0.0012039928
177	0xbd2e36dc	-0.042532787
178	0xbf8084d9	-1.0040542
179	0xbef517f4	-0.47869837
180	0xbf7eeb85	-0.99578124
181	0xbc90666e	-0.017626967
182	0xbd9813c8	-0.07425648
183	0x3e1db080	0.1539936
184	0xbf1d5eed	-0.6147297
185	0xbefd4441	-0.49466136
186	0x3d5775d2	0.052602597
187	0x3d3655b7	0.044515338
188	0x3fd11253	1.6333717
189	0xbf1569ae	-0.5836438
190	0x3f7e2274	0.9927132
191	0x3e96645b	0.2937344
192	0x3f0c3666	0.54770505
193	0x3f777e15	0.9667676
194	0xbdc81ad5	-0.09770743
195	0xbf38bdac	-0.72164416
196	0xbf2a5897	-0.6654143
197	0xbf8291f2	-1.0200789
198	0x3ed79f42	0.42113692
199	0x3f374ca8	0.71601343
200	0xbbb1e35e	-0.0054287156
201	0xbd67417f	-0.056458946
202	0x3f27c078	0.6552806
203	0xbe9b14dc	-0.30289352
204	0x3f3f13d1	0.7463961
205	0xbf05a1a7	-0.52199787
206	0xbea449a6	-0.3208744
207	0xbd1f4f03	-0.03889371
208	0x3de570ef	0.11203181
209	0x3f303c0d	0.6884163
210	0xbe410dcd	-0.18852921
211	0xbe93b3a7	-0.28848
212	0x3e782228	0.2423178
213	0x3fff4b1c	1.9944797
214	0x3f5d2488	0.8638387
215	0xbf6e3426	-0.9304832
216	0x3cb01534	0.021494485
217	0xbdf582df	-0.11987852
218	0xbeb21522	-0.34781748
219	0xbf5fb981	-0.8739243
220	0xbf1288f3	-0.5724022
221	0x3f1b3960	0.6063442
222	0xbf4ab6ee	-0.7918538
223	0xbdd23e22	-0.10265757
224	0xbe9f678f	-0.31133696
225	0x3fc33ed8	1.5253553
226	0xbe3ec9fc	-0.18631738
227	0x3dbe17b5	0.092818655
228	0xbf0a4200	-0.5400696
229	0xbf41f50e	-0.7576455
230	0x3f24a869	0.64319474
231	0xbf36bc35	-0.7138093
232	0xbe081f79	-0.13293256
233	0xbefbbb18	-0.4916618
234	0xbf1c881d	-0.6114519
235	0x3e29dea2	0.16588834
236	0xbf0002fb	-0.5000455
237	0xbfa04669	-1.2521487
238	0xbdd70c27	-0.10500365
239	0x3eb62b65	0.35579982
240	0xbfb95bea	-1.4481175
241	0xbf4fbef1	-0.8115073
242	0xbe8bf017	-0.27331612
243	0x3e994ae5	0.29939952
244	0xbdf4a6e8	-0.11945897
245	0x3f10ff71	0.5663977
246	0xbf0250fd	-0.5090483
247	0xbea94692	-0.33061653
248	0xbf335a65	-0.70059806
249	0xbff744ae	-1.9317834
250	0xbe9a2d78	-0.30112815
251	0xbd1552d6	-0.03645595
252	0xbf5121d9	-0.8169227
253	0x3f763bb1	0.9618483
254	0xbe0baa70	-0.13639235
255	0x3f49fdad	0.78902704

network_body._body_endoder.seq_layers.0.bias f4 [128]
0	0x00000000	0.0
1	0x00000000	0.0
2	0x00000000	0.0
3	0x00000000	0.0
4	0x00000000	0.0
5	0x00000000	0.0
6	0x00000000	0.0
7	0x00000000	0.0
8	0x00000000	0.0
9	0x00000000	0.0
10	0x00000000	0.0
11	0x00000000	0.0
12	0x00000000	0.0
13	0x00000000	0.0
14	0x00000000	0.0
15	0x00000000	0.0
16	0x00000000	0.0
17	0x00000000	0.0
18	0x00000000	0.0
19	0x00000000	0.0
20	0x00000000	0.0
21	0x00000000	0.0
22	0x00000000	0.0
23	0x00000000	0.0
24	0x00000000	0.0
25	0x00000000	0.0
26	0x00000000	0.0
27	0x00000000	0.0
28	0x00000000	0.0
29	0x00000000	0.0
30	0x00000000	0.0
31	0x00000000	0.0
32	0x00000000	0.0
33	0x00000000	0.0
34	0x00000000	0.0
35	0x00000000	0.0
36	0x00000000	0.0
37	0x00000000	0.0
38	0x00000000	0.0
39	0x00000000	0.0
40	0x00000000	0.0
41	0x00000000	0.0
42	0x00000000	0.0
43	0x00000000	0.0
44	0x00000000	0.0
45	0x00000000	0.0
46	0x00000000	0.0
47	0x00000000	0.0
48	0x00000000	0.0
49	0x00000000	0.0
50	0x00000000	0.0
51	0x00000000	0.0
52	0x00000000	0.0
53	0x00000000	0.0
54	0x00000000	0.0
55	0x00000000	0.0
56	0x00000000	0.0
57	0x00000000	0.0
58	0x00000000	0.0
59	0x00000000	0.0
60	0x00000000	0.0
61	0x00000000	0.0
62	0x00000000	0.0
63	0x00000000	0.0
64	0x00000000	0.0
65	0x00000000	0.0
66	0x00000000	0.0
67	0x00000000	0.0
68	0x00000000	0.0
69	0x00000000	0.0
70	0x00000000	0.0
71	0x00000000	0.0
72	0x00000000	0.0
73	0x00000000	0.0
74	0x00000000	0.0
75	0x00000000	0.0
76	0x00000000	0.0
77	0x00000000	0.0
78	0x00000000	0.0
79	0x00000000	0.0
80	0x00000000	0.0
81	0x00000000	0.0
82	0x00000000	0.0
83	0x00000000	0.0
84	0x00000000	0.0
85	0x00000000	0.0
86	0x00000000	0.0
87	0x00000000	0.0
88	0x00000000	0.0
89	0x00000000	0.0
90	0x00000000	0.0
91	0x00000000	0.0
92	0x00000000	0.0
93	0x00000000	0.0
94	0x00000000	0.0
95	0x00000000	0.0
96	0x00000000	0.0
97	0x00000000	0.0
98	0x00000000	0.0
99	0x00000000	0.0
100	0x00000000	0.0
101	0x00000000	0.0
102	0x00000000	0.0
103	0x00000000	0.0
104	0x00000000	0.0
105	0x00000000	0.0
106	0x00000000	0.0
107	0x00000000	0.0
108	0x00000000	0.0
109	0x00000000	0.0
110	0x00000000	0.0
111	0x00000000	0.0
112	0x00000000	0.0
113	0x00000000	0.0
114	0x00000000	0.0
115	0x00000000	0.0
116	0x00000000	0.0
117	0x00000000	0.0
118	0x00000000	0.0
119	0x00000000	0.0
120	0x00000000	0.0
121	0x00000000	0.0
122	0x00000000	0.0
123	0x00000000	0.0
124	0x00000000	0.0
125	0x00000000	0.0
126	0x00000000	0.0
127	0x00000000	0.0

network_body._body_endoder.seq_layers.2.weight f4 [128, 128]
0	0x3d894969	0.06703455
1	0xbe06609d	-0.13122793
2	0xbddf7891	-0.10911668
3	0x3d6333da	0.05546937
4	0x3cc98a99	0.024602221
5	0x3d65730b	0.056017917
6	0x3e216115	0.1575969
7	0x3e2189f4	0.15775281
8	0x3e3547dd	0.17703195
9	0x3e552d05	0.20817955
10	0x3c9f83fb	0.019472113
11	0x3be9e7da	0.0071382346
12	0x3dbecbcc	0.09316215
13	0xbd0f8c34	-0.035045817
14	0xbcd60b1d	-0.026128346
15	0xbe0b2367	-0.13587724
16	0xbca859aa	-0.020550568
17	0x3e0e82ef	0.13917135
18	0x3b47de28	0.0030497406
19	0x3d1b1324	0.03786005
20	0xbe1524fb	-0.14564888
21	0x3d5e800b	0.05432133
22	0xbcd2a5f5	-0.0257139
23	0x3e13d6ec	0.14437455
24	0x3d311b4d	0.043238927
25	0xbd6b6c12	-0.05747611
26	0x3cd2c1c3	0.025727158
27	0x3bce2d48	0.006292019
28	0x3d435e42	0.047697313
29	0xbd162caa	-0.03666369
30	0x3e41e91b	0.18936579
31	0xbc804c38	-0.015661344
32	0x3d064f42	0.03279043
33	0xbc14c03e	-0.009079037
34	0x3da66ec1	0.081265934
35	0xbce9646f	-0.028490273
36	0xbd9bc8aa	-0.07606633
37	0xbd3620ce	-0.04446488
38	0x3d2647ed	0.040595938
39	0xbdaaba79	-0.08336348
40	0xbd89bd4f	-0.06725561
41	0xbd6fcd90	-0.05854565
42	0xbe839c89	-0.25705364
43	0x3d5cfd5c	0.05395256
44	0xbd9f91a3	-0.0779145
45	0x3d7bd777	0.06148478
46	0xbda5e4ca	-0.08100279
47	0x3ca7376e	0.020412173
48	0xbc891783	-0.016734844
49	0x3ddf950d	0.10917101
50	0x3da44074	0.08020106
51	0x3d4332ce	0.047655873
52	0x3d297dfe	0.04137992
53	0x3d8a109a	0.06741448
54	0x3e408197	0.18799435
55	0xbd4f74c7	-0.050648477
56	0xbd4cf02c	-0.050033733
57	0xbd527cf9	-0.051388714
58	0x3e215561	0.15755226
59	0x3db4a808	0.08821112
60	0x3d69e793	0.057105612
61	0xbe2a225a	-0.16614667
62	0x3d895635	0.06705896
63	0xbda1f635	-0.079082884
64	0x3cbb52a2	0.02286655
65	0xbc169e4d	-0.009193015
66	0xbdcb18a3	-0.099168085
67	0xbd89ff7d	-0.06738184
68	0x3e677539	0.2260331
69	0x3d8f82d6	0.07007377
70	0x3d49c6c0	0.04926181
71	0x3d6f34a8	0.058399826
72	0xbcd40e65	-0.02588577
73	0xbcfa889f	-0.030582724
74	0x3d2e4c18	0.042553037
75	0x3da5ff78	0.081053674
76	0xbc9a05dd	-0.018801624
77	0xbdaeb660	-0.08530879
78	0xbc5faba2	-0.01365176
79	0xbe49d52d	-0.19710226
80	0xbdede39d	-0.116156794
81	0xbdc36e49	-0.095425196
82	0xbd6bca8e	-0.057566218
83	0x3d20d188	0.039262325
84	0x3de40062	0.111328855
85	0x3d65effd	0.056137074
86	0xbdcd5d00	-0.10027504
87	0xbdbf1863	-0.09330823
88	0x3daffee9	0.08593542
89	0xbca7fc77	-0.020506127
90	0x3d0ce190	0.0343948
91	0x3d558bde	0.05213534
92	0xbc01f67c	-0.007932302
93	0xbc012caf	-0.007884189
94	0xbd35c42b	-0.044376533
95	0x3d25e46a	0.040501036
96	0xbd1d93cf	-0.03847104
97	0x3d03cf00	0.032179832
98	0xbc20a5d1	-0.009805159
99	0xbaf7fec9	-0.0018920536
100	0x3bbbbb20	0.005729094
101	0xbbb7a9b7	-0.0056049484
102	0xbdfb1797	-0.12260359
103	0xbd86a16b	-0.06573757
104	0x3c56f326	0.013119495
105	0xbdaba25b	-0.08380576
106	0x3c274e87	0.0102115935
107	0xbbddec2b	-0.006772538
108	0xbb3ed000	-0.0029115677
109	0x3c9750d7	0.018471165
110	0x3d3a653d	0.045506705
111	0x3d902b72	0.070395365
112	0xbe09d3f5	-0.13459761
113	0x3d974a90	0.073872685
114	0x3d989bf3	0.0745162
115	0xbd06d8ba	-0.03292153
116	0xbdc38cb2	-0.0954832
117	0x3d34dee0	0.044157863
118	0x3cd20a9d	0.025639826
119	0x3e13d979	0.14438428
120	0x3d57506c	0.05256693
121	0x3c805df3	0.015669798
122	0xbcd0e1f3	-0.025498366
123	0xbe765840	-0.24057102
124	0xbd60351c	-0.05473815
125	0xbe0123c4	-0.126113
126	0x3e178f8d	0.14800854
127	0xbcf70f18	-0.030158564
128	0xbbd0bb3f	-0.0063699777
129	0xbd9639db	-0.07335254
130	0x3ce566b3	0.028003072
131	0x3e1969f1	0.1498182
132	0x3d1e6ddf	0.038679
133	0x3c00331e	0.007824687
134	0x3d6e43e7	0.058170225
135	0x3a78661f	0.00094756664
136	0xbe443b2b	-0.19163196
137	0x3dcfcb50	0.10146201
138	0x3db98eff	0.090604775
139	0x3de9c25c	0.11414024
140	0x3d179514	0.037007406
141	0x3d1d1a03	0.038354885
142	0xbc49ba2e	-0.012312455
143	0x3d6fbe84	0.0585313
144	0x3dc22ea5	0.09481553
145	0xbc556ac4	-0.013025943
146	0xbd8ab1a4	-0.067721635
147	0xbd5ed3f6	-0.05440136
148	0xbdb23011	-0.08700574
149	0xbc6eacd2	-0.014567571
150	0x3e11d92e	0.14243004
151	0x3c42ad1e	0.011882095
152	0x3da49785	0.080367126
153	0x3d8f81d1	0.070071824
154	0xbe0315bd	-0.12801261
155	0xbe07e9d5	-0.13272794
156	0x3deadb3a	0.114675954
157	0x3c8a6564	0.01689405
158	0xbcaee4ed	-0.021349395
159	0x3e117a8e	0.14206907
160	0xbda662f4	-0.081243426
161	0xbd3d63fc	-0.04623793
162	0x3d8bcce8	0.06826192
163	0xbd7b1e44	-0.06130816
164	0xbdfd50c9	-0.12368924
165	0x3cf71326	0.030160498
166	0x3d8f00fb	0.06982609
167	0xbd84a3e0	-0.06476569
168	0xbd9d1233	-0.07669487
169	0xbde46269	-0.11151583
170	0x3e0cdc7b	0.13755982
171	0xbd6a7529	-0.05724064
172	0x3d8ee37f	0.06976985
173	0xbcb9addb	-0.022665909
174	0xbd42a170	-0.04751724
175	0x3e2057e5	0.15658529
176	0x3dfeeb03	0.12447169
177	0xbd6d0cc4	-0.057873502
178	0xbd8c6cf8	-0.06856722
179	0xbd6cb7f2	-0.05779261
180	0x3dd2c0ee	0.10290705
181	0xbc453fa6	-0.012039101
182	0xbe24e8b9	-0.16104402
183	0xbe08be54	-0.13353854
184	0x3d8cf426	0.06882505
185	0x3e08fbf9	0.1337737
186	0xbcca3e79	-0.024687992
187	0x3e43d549	0.1912433
188	0xbd7a56cd	-0.061117936
189	0xbe25852b	-0.16164081
190	0x3cb92706	0.022601616
191	0xbe4cc5c3	-0.19997315
192	0xbde8cf79	-0.11367697
193	0x3d4464fb	0.047947865
194	0xbd8f5aff	-0.06999778
195	0x3b89f4df	0.004210099
196	0x3d4ece29	0.05048958
197	0x3d921185	0.07132248
198	0xbd620e12	-0.0551892
199	0x3dd0cb1d	0.10194991
200	0x3d361faa	0.04446379
201	0xbc63dd9a	-0.013907814
202	0x3dec6708	0.11543089
203	0x3dc5c2a0	0.096562624
204	0x3d4eecc3	0.050518762
205	0x3dbe70f6	0.09298889
206	0xbdc8e0d6	-0.09808509
207	0x3cfd30b6	0.030907016
208	0xbca7a2e5	-0.020463416
209	0xbca11244	-0.01966203
210	0xbd0f9252	-0.03505165
211	0xbdf62aad	-0.120198585
212	0xbdcee4f9	-0.10102267
213	0x3ba6d34b	0.005091106
214	0x3d9bf3c3	0.07614853
215	0x3d572115	0.052521784
216	0xbdb13fb5	-0.08654729
217	0xbbba13f9	-0.0056786505
218	0x3d9f12a3	0.077672265
219	0x3c244570	0.010026321
220	0xbe14c9f0	-0.14530158
221	0x3d90a4a3	0.07062652
222	0x3d942702	0.07234003
223	0xbdc56875	-0.09639064
224	0x3d3b1185	0.045671005
225	0xbd0f19b7	-0.034936633
226	0x3d707fd6	0.058715664
227	0x3dba23d1	0.09088863
228	0xbd918b81	-0.071066864
229	0x3d52bc30	0.051449
230	0x3e29eae8	0.16593516
231	0x3d28b248	0.041185647
232	0x3d5810c9	0.052750383
233	0xbe02f27f	-0.12787817
234	0x3d2ba9a8	0.041909844
235	0x3d97af17	0.074064426
236	0xbd40a10a	-0.04702858
237	0xbae05a9f	-0.0017116851
238	0xbe3fbbaf	-0.1872394
239	0x3bec4907	0.007210854
240	0x3d762696	0.060095392
241	0xbd73a2f2	-0.05948157
242	0xbcc37236	-0.023858171
243	0x3d495765	0.04915561
244	0xbd3d5f1c	-0.04623328
245	0xbc8f9c3c	-0.017530553
246	0xbd2676bc	-0.040640578
247	0xbda0c593	-0.07850184
248	0xbd713b75	-0.058894593
249	0x3d36483c	0.04450248
250	0xbd9b453b	-0.07581564
251	0xbd71312a	-0.058884777
252	0xbd8f0289	-0.069829054
253	0x3d6ed8df	0.058312293
254	0x3dc08b45	0.094015636
255	0x3dc3d034	0.09561196

network_body._body_endoder.seq_layers.2.bias f4 [128]
0	0x00000000	0.0
1	0x00000000	0.0
2	0x00000000	0.0
3	0x00000000	0.0
4	0x00000000	0.0
5	0x00000000	0.0
6	0x00000000	0.0
7	0x00000000	0.0
8	0x00000000	0.0
9	0x00000000	0.0
10	0x00000000	0.0
11	0x00000000	0.0
12	0x00000000	0.0
13	0x00000000	0.0
14	0x00000000	0.0
15	0x00000000	0.0
16	0x00000000	0.0
17	0x00000000	0.0
18	0x00000000	0.0
19	0x00000000	0.0
20	0x00000000	0.0
21	0x00000000	0.0
22	0x00000000	0.0
23	0x00000000	0.0
24	0x00000000	0.0
25	0x00000000	0.0
26	0x00000000	0.0
27	0x00000000	0.0
28	0x00000000	0.0
29	0x00000000	0.0
30	0x00000000	0.0
31	0x00000000	0.0
32	0x00000000	0.0
33	0x00000000	0.0
34	0x00000000	0.0
35	0x00000000	0.0
36	0x00000000	0.0
37	0x00000000	0.0
38	0x00000000	0.0
39	0x00000000	0.0
40	0x00000000	0.0
41	0x00000000	0.0
42	0x00000000	0.0
43	0x00000000	0.0
44	0x00000000	0.0
45	0x00000000	0.0
46	0x00000000	0.0
47	0x00000000	0.0
48	0x00000000	0.0
49	0x00000000	0.0
50	0x00000000	0.0
51	0x00000000	0.0
52	0x00000000	0.0
53	0x00000000	0.0
54	0x00000000	0.0
55	0x00000000	0.0
56	0x00000000	0.0
57	0x00000000	0.0
58	0x00000000	0.0
59	0x00000000	0.0
60	0x00000000	0.0
61	0x00000000	0.0
62	0x00000000	0.0
63	0x00000000	0.0
64	0x00000000	0.0
65	0x00000000	0.0
66	0x00000000	0.0
67	0x00000000	0.0
68	0x00000000	0.0
69	0x00000000	0.0
70	0x00000000	0.0
71	0x00000000	0.0
72	0x00000000	0.0
73	0x00000000	0.0
74	0x00000000	0.0
75	0x00000000	0.0
76	0x00000000	0.0
77	0x00000000	0.0
78	0x00000000	0.0
79	0x00000000	0.0
80	0x00000000	0.0
81	0x00000000	0.0
82	0x00000000	0.0
83	0x00000000	0.0
84	0x00000000	0.0
85	0x00000000	0.0
86	0x00000000	0.0
87	0x00000000	0.0
88	0x00000000	0.0
89	0x00000000	0.0
90	0x00000000	0.0
91	0x00000000	0.0
92	0x00000000	0.0
93	0x00000000	0.0
94	0x00000000	0.0
95	0x00000000	0.0
96	0x00000000	0.0
97	0x00000000	0.0
98	0x00000000	0.0
99	0x00000000	0.0
100	0x00000000	0.0
101	0x00000000	0.0
102	0x00000000	0.0
103	0x00000000	0.0
104	0x00000000	0.0
105	0x00000000	0.0
106	0x00000000	0.0
107	0x00000000	0.0
108	0x00000000	0.0
109	0x00000000	0.0
110	0x00000000	0.0
111	0x00000000	0.0
112	0x00000000	0.0
113	0x00000000	0.0
114	0x00000000	0.0
115	0x00000000	0.0
116	0x00000000	0.0
117	0x00000000	0.0
118	0x00000000	0.0
119	0x00000000	0.0
120	0x00000000	0.0
121	0x00000000	0.0
122	0x00000000	0.0
123	0x00000000	0.0
124	0x00000000	0.0
125	0x00000000	0.0
126	0x00000000	0.0
127	0x00000000	0.0

value_heads.value_heads.extrinsic.weight f4 [1, 128]
0	0x3e231fea	0.15930143
1	0xbe56d660	-0.20980215
2	0xbdbf2129	-0.09332497
3	0xbe496a24	-0.19669396
4	0xbdf6f633	-0.120586775
5	0x3ddc0fa1	0.107451685
6	0x3e2f2a25	0.1710592
7	0x3e182552	0.14857987
8	0x3e4941ad	0.1965396
9	0xbdc6096b	-0.09669765
10	0xbdd05e84	-0.101742774
11	0xbdbd60d9	-0.09246988
12	0x3e3c99f3	0.18418102
13	0x3dc26244	0.09491399
14	0x3e07c90e	0.1326029
15	0x3c10d104	0.008838896
16	0xbb1b531f	-0.0023700667
17	0x3e47c345	0.19508083
18	0xbe53c17d	-0.20679279
19	0x3c8f0a2d	0.017460907
20	0xbe407a60	-0.18796682
21	0x3d86b2dc	0.065770835
22	0x3ce522ed	0.027970755
23	0xbb9ed76a	-0.0048474567
24	0x3dc71775	0.09721271
25	0x3e18d211	0.14923884
26	0xbe2c7c59	-0.1684431
27	0x3cf41398	0.0297945
28	0xbdde7570	-0.10862243
29	0xbe42c598	-0.19020689
30	0xbc33404b	-0.010940622
31	0x3e0cfa85	0.1376744
32	0x3c2b7875	0.010465731
33	0xbd8c9832	-0.068649665
34	0xbdcf00a5	-0.10107545
35	0x3e43d931	0.1912582
36	0xbd9eb2a3	-0.07748916
37	0x3ca228d1	0.019794853
38	0xbe5692ef	-0.20954488
39	0xbd4cf370	-0.050036848
40	0x3e53c807	0.20681773
41	0x3d27e320	0.040988088
42	0x3dd98e06	0.10622792
43	0xbe326847	-0.17422591
44	0x3e0fb9bc	0.14035696
45	0xbe03f37c	-0.1288585
46	0x3e2aee0c	0.1669237
47	0x3e34dc5c	0.17662185
48	0xbda943a0	-0.082648516
49	0xbe004ea3	-0.12529998
50	0x3e5bcfc7	0.2146598
51	0x3dfcd019	0.12344379
52	0x3dec22b7	0.11530059
53	0xbe34b7ff	-0.17648314
54	0x3e2edccb	0.17076413
55	0xbd09a53b	-0.03360484
56	0xbe202c6e	-0.15641949
57	0xbdcbbc3c	-0.09948012
58	0xbc6e74ba	-0.014554197
59	0xbd78f319	-0.06077871
60	0xbdff52af	-0.124669425
61	0xbcfdd988	-0.030987516
62	0xbe079d3b	-0.13243572
63	0x3dfeef3d	0.12447975
64	0x3e507c96	0.20360026
65	0x3d854f29	0.06509239
66	0x3e0e5022	0.13897756
67	0x3d854bca	0.06508596
68	0x3d366d3e	0.044537775
69	0x3d01438f	0.03155857
70	0x3e248e4d	0.16069908
71	0x3db41cff	0.08794593
72	0x3dc82ac5	0.09773783
73	0xbd2ce19e	-0.042207353
74	0xbd5a9c52	-0.053371735
75	0x3c251c9d	0.010077623
76	0x3e46e3d9	0.19422854
77	0xbe11398d	-0.1418211
78	0xbdc7e957	-0.09761303
79	0x3e4a825a	0.19776288
80	0xbd9a2aa2	-0.07527663
81	0x3e3ca3db	0.18421881
82	0xbcba791c	-0.022762828
83	0xbdd42272	-0.103581324
84	0xbe15a3db	-0.14613287
85	0xbda06183	-0.07831099
86	0xbe4140d4	-0.18872386
87	0x3d8e9b00	0.06963158
88	0xbdaaab9a	-0.08333512
89	0x3d312f8f	0.043258246
90	0xbda84206	-0.08215718
91	0xbb72cad0	-0.0037047155
92	0x3b00033e	0.0019533182
93	0x3e2ebf1d	0.17065091
94	0xbe1e3319	-0.1544918
95	0xbd361fc7	-0.0444639
96	0xbd129594	-0.03578718
97	0xbd50fbe9	-0.05102149
98	0x3dcaff94	0.09912029
99	0xbdb3a9ad	-0.087725975
100	0x3d822254	0.06354204
101	0xbc665b89	-0.01405991
102	0xbe32980a	-0.17440811
103	0xbdfd610a	-0.12372024
104	0xbd8a9939	-0.06767506
105	0xbd804839	-0.062637754
106	0x3df3816a	0.11889918
107	0x3dccb8c0	0.09996176
108	0x3d51530a	0.051104583
109	0xbd575798	-0.05257377
110	0xbe0ffdb7	-0.14061628
111	0x3e2c4179	0.16821851
112	0x3e26558d	0.16243573
113	0xbe38d154	-0.18048602
114	0xbe4019a2	-0.18759778
115	0xbd653a31	-0.0559637
116	0x3d1acd76	0.0377936
117	0xb9eeee33	-0.0004557237
118	0xbdab6e0d	-0.083706
119	0x3c4558d7	0.012045107
120	0xbd1b779f	-0.037955876
121	0x3de3dc62	0.11126019
122	0xbe10acc0	-0.14128399
123	0x3cb6bcc5	0.02230681
124	0x3e15806a	0.14599767
125	0xbdf76bad	-0.120810844
126	0x3e0b8ae0	0.13627195
127	0x3e4035bc	0.18770498
