results/Test2/MoveToGoal/MoveToGoal-2304.onnx (onnx, 70071 bytes, 5 tensors)

action_model._continuous_distribution.mu.weight f4 [1, 128]
0	0xbbc33043	-0.005956681
1	0x3cb3d7e2	0.021953527
2	0xbcb7a020	-0.02241522
3	0x3c9ca73f	0.019122718
4	0x3bd1874d	0.006394303
5	0xbc6e1cf0	-0.014533266
6	0xbd140800	-0.036140442
7	0x3c93df1f	0.018050728
8	0xbc4a663f	-0.012353479
9	0xbb37864d	-0.0028003633
10	0x3ce7a8f0	0.028278798
11	0xb91cd86c	-0.00014957943
12	0x3d5dd1bd	0.0541551
13	0xbc30a2b1	-0.010780976
14	0x3ca7bbc4	0.020475276
15	0x3cf0a1c7	0.029374016
16	0x3c10300a	0.008800516
17	0xbcc1bcee	-0.023649659
18	0x3b4d14da	0.0031292946
19	0x3c296fb6	0.010341575
20	0xbc16decf	-0.009208395
21	0x3c871bbd	0.016492719
22	0xbcc403eb	-0.02392765
23	0x3cbbcfad	0.022926176
24	0xbc16730b	-0.009182702
25	0x3bb45006	0.0055027036
26	0xbc7d6393	-0.015465635
27	0x3c11124a	0.008854458
28	0x3c807891	0.01568249
29	0x39c54c6d	0.0003763171
30	0x3cf8d63a	0.030375589
31	0xbc76d8c5	-0.01506633
32	0x3c028bc3	0.007967892
33	0xbc3a03d7	-0.011353455
34	0x3c704ef3	0.01466726
35	0x3cddae1a	0.027060557
36	0xbc3c569c	-0.011495259
37	0x3bef43dd	0.007301791
38	0x3b7118e2	0.0036788513
39	0x3c04ce57	0.008105836
40	0xbc9959f4	-0.01871965
41	0x3947dc33	0.0001906015
42	0xba69c492	-0.0008917536
43	0xbcc83cff	-0.024443148
44	0x3c335de7	0.010947681
45	0xbbcc8673	-0.0062416135
46	0xbb94867f	-0.0045326347
47	0xbcd30edd	-0.025763923
48	0x3c23d256	0.009998878
49	0xbc4f4ffa	-0.012653345
50	0x3c2432ff	0.010021924
51	0xbbcfa383	-0.006336631
52	0x3bfb64ed	0.0076719434
53	0xbc912a18	-0.017720267
54	0xbc2218ff	-0.009893655
55	0xbbf8d313	-0.0075935214
56	0x3c11298c	0.008860003
57	0xbae77dff	-0.0017661451
58	0xbc81899c	-0.015812688
59	0x3bb9fbe5	0.00567578
60	0xbb276b72	-0.002554622
61	0xbc8f7517	-0.017511887
62	0x3ad30f07	0.0016102501
63	0xbcb5eeef	-0.022208659
64	0x3c13e907	0.009027726
65	0xbc9bb536	-0.019007307
66	0xbd2d270e	-0.042273574
67	0xbc9274b8	-0.017877921
68	0xbd0b8f73	-0.03407235
69	0x3c7f04b5	0.015565087
70	0x3cf91983	0.030407673
71	0x3ad756e7	0.0016429097
72	0x3cfec558	0.03109996
73	0x3a926494	0.0011168891
74	0xbc174dfa	-0.0092349
75	0xbceb632d	-0.028733814
76	0xbd0af6b5	-0.033926684
77	0x3c8c47c0	0.017124057
78	0x39cccb6f	0.00039061482
79	0xbc328786	-0.010896569
80	0x3c34add3	0.011027771
81	0xbca5a80f	-0.020221738
82	0x3c97001a	0.018432666
83	0x3b836f43	0.004011066
84	0x3bcc752a	0.006239553
85	0x3a8d4779	0.0010778747
86	0xbc1e951b	-0.009679104
87	0xbc893353	-0.016748106
88	0xbbacd08b	-0.0052738837
89	0xbc6b60f8	-0.014366381
90	0x3cf583f8	0.029970154
91	0xbbc47030	-0.005994819
92	0xbd2a6aab	-0.041605633
93	0xbd01eff9	-0.031722996
94	0x3c225762	0.009908529
95	0xbc36c032	-0.011154221
96	0xbc23d8fb	-0.010000463
97	0x3bb2bd87	0.0054547223
98	0x3a13239f	0.0005612913
99	0x3cfc01ef	0.03076264
100	0xbbb6c51c	-0.0055776965
101	0xbc463ee0	-0.0120999515
102	0x3c8c7580	0.017145872
103	0x3c3f28a3	0.011667403
104	0xbc1bfc6a	-0.009520629
105	0xbc854162	-0.016266529
106	0x3abc79df	0.0014379582
107	0x3c33bb5c	0.010969963
108	0xbc4dbabb	-0.012556727
109	0xbc9be692	-0.019030843
110	0x3c6d3b92	0.014479535
111	0x3cb3d948	0.021954194
112	0xbc9d2270	-0.01918146
113	0x3d4eac6d	0.050457407
114	0x3c8943bd	0.016755933
115	0x3b668b7a	0.003517835
116	0xbd49c8ea	-0.049263872
117	0x3bb85664	0.005625533
118	0x3bf7671a	0.0075501325
119	0x3b414f31	0.0029496665
120	0x3c8a197f	0.01685786
121	0x3ac30b2f	0.0014880652
122	0x3c943bdd	0.018094951
123	0xbc3d4b2b	-0.011553566
124	0xbc35fec4	-0.011108104
125	0x39606bfa	0.00021402529
126	0xbbbbc5f1	-0.0057303836
127	0xbcb7182c	-0.022350393

network_body._body_endoder.seq_layers.0.bias f4 [128]
0	0x00000000	0.0
1	0x00000000	0.0
2	0x00000000	0.0
3	0x00000000	0.0
4	0x00000000	0.0
5	0x00000000	0.0
6	0x00000000	0.0
7	0x00000000	0.0
8	0x00000000	0.0
9	0x00000000	0.0
10	0x00000000	0.0
11	0x00000000	0.0
12	0x00000000	0.0
13	0x00000000	0.0
14	0x00000000	0.0
15	0x00000000	0.0
16	0x00000000	0.0
17	0x00000000	0.0
18	0x00000000	0.0
19	0x00000000	0.0
20	0x00000000	0.0
21	0x00000000	0.0
22	0x00000000	0.0
23	0x00000000	0.0
24	0x00000000	0.0
25	0x00000000	0.0
26	0x00000000	0.0
27	0x00000000	0.0
28	0x00000000	0.0
29	0x00000000	0.0
30	0x00000000	0.0
31	0x00000000	0.0
32	0x00000000	0.0
33	0x00000000	0.0
34	0x00000000	0.0
35	0x00000000	0.0
36	0x00000000	0.0
37	0x00000000	0.0
38	0x00000000	0.0
39	0x00000000	0.0
40	0x00000000	0.0
41	0x00000000	0.0
42	0x00000000	0.0
43	0x00000000	0.0
44	0x00000000	0.0
45	0x00000000	0.0
46	0x00000000	0.0
47	0x00000000	0.0
48	0x00000000	0.0
49	0x00000000	0.0
50	0x00000000	0.0
51	0x00000000	0.0
52	0x00000000	0.0
53	0x00000000	0.0
54	0x00000000	0.0
55	0x00000000	0.0
56	0x00000000	0.0
57	0x00000000	0.0
58	0x00000000	0.0
59	0x00000000	0.0
60	0x00000000	0.0
61	0x00000000	0.0
62	0x00000000	0.0
63	0x00000000	0.0
64	0x00000000	0.0
65	0x00000000	0.0
66	0x00000000	0.0
67	0x00000000	0.0
68	0x00000000	0.0
69	0x00000000	0.0
70	0x00000000	0.0
71	0x00000000	0.0
72	0x00000000	0.0
73	0x00000000	0.0
74	0x00000000	0.0
75	0x00000000	0.0
76	0x00000000	0.0
77	0x00000000	0.0
78	0x00000000	0.0
79	0x00000000	0.0
80	0x00000000	0.0
81	0x00000000	0.0
82	0x00000000	0.0
83	0x00000000	0.0
84	0x00000000	0.0
85	0x00000000	0.0
86	0x00000000	0.0
87	0x00000000	0.0
88	0x00000000	0.0
89	0x00000000	0.0
90	0x00000000	0.0
91	0x00000000	0.0
92	0x00000000	0.0
93	0x00000000	0.0
94	0x00000000	0.0
95	0x00000000	0.0
96	0x00000000	0.0
97	0x00000000	0.0
98	0x00000000	0.0
99	0x00000000	0.0
100	0x00000000	0.0
101	0x00000000	0.0
102	0x00000000	0.0
103	0x00000000	0.0
104	0x00000000	0.0
105	0x00000000	0.0
106	0x00000000	0.0
107	0x00000000	0.0
108	0x00000000	0.0
109	0x00000000	0.0
110	0x00000000	0.0
111	0x00000000	0.0
112	0x00000000	0.0
113	0x00000000	0.0
114	0x00000000	0.0
115	0x00000000	0.0
116	0x00000000	0.0
117	0x00000000	0.0
118	0x00000000	0.0
119	0x00000000	0.0
120	0x00000000	0.0
121	0x00000000	0.0
122	0x00000000	0.0
123	0x00000000	0.0
124	0x00000000	0.0
125	0x00000000	0.0
126	0x00000000	0.0
127	0x00000000	0.0

network_body._body_endoder.seq_layers.0.weight f4 [128, 2]
0	0x3f8a8b0b	1.0823683
1	0x3f17a541	0.5923653
2	0xbf326142	-0.69679654
3	0x3f64ab36	0.8932375
4	0xbeaea383	-0.34109125
5	0x3e03bfde	0.1286616
6	0xbf04e94e	-0.51918495
7	0x3eef9880	0.46796036
8	0xbd182cc1	-0.037152056
9	0x3f2a1dec	0.6645191
10	0xbf564828	-0.8370385
11	0xbfc3555d	-1.5260426
12	0x3d9e2395	0.077216305
13	0x3f3d7e26	0.7402061
14	0xbf95af70	-1.1694164
15	0x3e1c8d65	0.15288313
16	0xbd50de0e	-0.050993018
17	0x3f4cdef9	0.8002773
18	0xbe28460a	-0.16432968
19	0xbf153e19	-0.5829788
20	0x3fbbc733	1.4670166
21	0xbf62db59	-0.8861595
22	0xbda81021	-0.08206201
23	0xbed5396d	-0.41645375
24	0x3e885c2f	0.2663283
25	0x3ef8102c	0.48449838
26	0x3eb17459	0.3465908
27	0xbdee5bfd	-0.11638639
28	0xbd9d5210	-0.07681668
29	0x3f8e235c	1.1104541
30	0x3eabe76b	0.33574995
31	0x3fa7c872	1.3108046
32	0x3f11c4b3	0.56940764
33	0xbf079c36	-0.52972734
34	0x3f833815	1.025149
35	0xbf27896a	-0.6544405
36	0x3f90fd58	1.1327314
37	0xbec5cc23	-0.38632306
38	0x3f3d25d9	0.73885876
39	0x3e38169c	0.17977375
40	0xbdd68467	-0.104744725
41	0x3ed4eadb	0.4158543
42	0x3f5b42a1	0.8564854
43	0x3ecbebfe	0.39828485
44	0xbf703b7b	-0.9384076
45	0x3ed5b197	0.41737053
46	0xbe8a4e24	-0.27012742
47	0x3f07eede	0.5309886
48	0xbf710f6c	-0.94164157
49	0xbfdb8c77	-1.7152241
50	0x3e528186	0.20557222
51	0x3f6def89	0.92943627
52	0xbfc56938	-1.5422735
53	0xbf04b4d4	-0.5183842
54	0xbe977b8b	-0.29586443
55	0xbf5c034b	-0.85942525
56	0xbeff5708	-0.49871087
57	0xbf3f7f9b	-0.74804085
58	0x3fcc0d00	1.5941467
59	0xbea1d0b0	-0.31604528
60	0x3f8de67f	1.1085967
61	0xbf4896fd	-0.7835539
62	0xbde42fc5	-0.11141924
63	0x3f7b9bbf	0.98284525
64	0xbe47dcb4	-0.19517785
65	0x3f4a2fa8	0.7897897
66	0xbd53b5bb	-0.051686984
67	0x3f8241e9	1.0176364
68	0xbe9bdbbb	-0.3044108
69	0x3f299d2b	0.66255444
70	0x3ef5177f	0.4786949
71	0xbea41f01	-0.32054904
72	0x3e7a02a0	0.24415064
73	0x3e96e0f2	0.29468495
74	0xbf809089	-1.0044109
75	0xbf6bf474	-0.9216988
76	0x3dcba87b	0.099442445
77	0x3f23098f	0.6368646
78	0xbfab24b7	-1.337058
79	0xbf425605	-0.75912505
80	0x3f5a60bf	0.8530387
81	0x3cd46549	0.025927203
82	0xbdbc17d8	-0.09184235
83	0x3ea44d18	0.32090068
84	0xbf46dd9f	-0.77681917
85	0x3e57c0b6	0.21069607
86	0xbf5d9071	-0.86548525
87	0xbf81bdbc	-1.0136027
88	0xbe6dc60f	-0.23220085
89	0xbeed9068	-0.46399236
90	0x3d4452e2	0.047930606
91	0xbe21f7b9	-0.15817155
92	0x3ebda1db	0.37037548
93	0x3f7f51c0	0.99734116
94	0xbe81d72c	-0.25359476
95	0x3e8dad8e	0.27671474
96	0xbeaea95d	-0.3411359
97	0x3e506ad6	0.20353255
98	0xbf36d0f6	-0.714126
99	0x3e274804	0.16336066
100	0x3f033c76	0.5126413
101	0xbefcd593	-0.49381694
102	0x3f212d71	0.62959963
103	0x3ed2dfb1	0.41186288
104	0xbea1692e	-0.31525558
105	0x3ecc51c2	0.39906126
106	0x3d31e10d	0.043427516
107	0xbecf1f67	-0.40453646
108	0xbe2c5941	-0.16830923
109	0x3f963109	1.1733714
110	0x3ebf07fc	0.3731078
111	0x3ea4360d	0.32072487
112	0x3f343f35	0.70408946
113	0xbf10ee66	-0.5661377
114	0xbf9b55f4	-1.2135606
115	0xbf64850f	-0.8926553
116	0x3e999651	0.29997495
117	0xbf63983c	-0.88904166
118	0x3f890313	1.0704063
119	0xbf711e2f	-0.9418668
120	0x3f974012	1.1816428
121	0xbec06dd9	-0.37583807
122	0xbf2343c8	-0.637753
123	0x3d902649	0.07038552
124	0xbf10efce	-0.5661591
125	0x3f8013e6	1.0006073
126	0x3e2df978	0.16989696
127	0xbf8877c9	-1.0661556
128	0xbe6e0510	-0.23244119
129	0x3d4d0614	0.050054625
130	0x3f3070e6	0.6892227
131	0x3e8e2c11	0.27767995
132	0xbecfa7d7	-0.4055774
133	0x3eb3b9b4	0.35102618
134	0x3edcff06	0.43163317
135	0xbfa47cbb	-1.2850565
136	0xbf7633b7	-0.9617266
137	0xbc1c730d	-0.009548915
138	0xbedc3188	-0.4300654
139	0xbf875f63	-1.0575985
140	0xbfa4d4c1	-1.2877427
141	0xbda29607	-0.07938772
142	0xbef6d259	-0.48207358
143	0x3f283f2f	0.6572141
144	0xbfbecf0d	-1.4906937
145	0xbf006417	-0.50152725
146	0x3faf7036	1.3706119
147	0x3e746141	0.23865224
148	0x3f90151f	1.1256446
149	0xbd377a79	-0.044794533
150	0x3f7ab948	0.97938967
151	0xbdd6c380	-0.104865074
152	0x3e721a0c	0.23642749
153	0x3e36c585	0.17848785
154	0xbf858292	-1.0430472
155	0xbf49a5d2	-0.78768647
156	0x3e452a11	0.19254328
157	0x3eef40e9	0.4672921
158	0xbfa3b556	-1.2789714
159	0x3ed60d70	0.41807127
160	0x3de6b04f	0.11264097
161	0xbf298598	-0.6621947
162	0x3f85d7da	1.0456498
163	0x3e7443ca	0.23853984
164	0x3f89d632	1.0768492
165	0xbe8e5244	-0.2779714
166	0xbf19e912	-0.6012126
167	0xbf8c7960	-1.0974541
168	0xbe39725d	-0.18110032
169	0x3e17f7c5	0.1484061
170	0x3f7a93ed	0.97881967
171	0x3e9c6a24	0.3054973
172	0xbe121b49	-0.14268221
173	0xbe11702f	-0.14202951
174	0xbf17996f	-0.59218496
175	0x3f3cc22d	0.7373379
176	0x3edfd82c	0.43719614
177	0x3f437668	0.7635255
178	0x3fb511db	1.4146074
179	0x3f86cee4	1.0531888
180	0xbef701b2	-0.4824348
181	0xbf3ff36b	-0.749808
182	0x3f016218	0.50540304
183	0x3f1333d7	0.57500976
184	0x3f6e9e41	0.93210226
185	0x3dce4530	0.1007179
186	0xbe4c1400	-0.19929504
187	0x3fa3211d	1.274448
188	0xbdb3fa69	-0.08787996
189	0x3e88fead	0.26756802
190	0xbf53f69e	-0.8279818
191	0xbebd1d12	-0.3693624
192	0x3f56a555	0.83846027
193	0x3ebffe21	0.37498572
194	0xbd274794	-0.040839747
195	0x3eae3a95	0.3402907
196	0xbed5491b	-0.41657338
197	0xbf82e627	-1.0226487
198	0x3f7d8efa	0.9904629
199	0x3ed0b9d1	0.40766767
200	0xbf053421	-0.5203267
201	0x3f74e486	0.956612
202	0x3f6aa30d	0.91655046
203	0xbf965609	-1.1745006
204	0x3f3923ed	0.72320443
205	0xbfcdd1ab	-1.607961
206	0x3e9e10aa	0.3087209
207	0xbe9bacc1	-0.30405238
208	0xbe4c7767	-0.19967423
209	0xbf7b1f93	-0.98095053
210	0xbf2638e4	-0.6493056
211	0x3f11ee9e	0.57004726
212	0xbfb226cf	-1.3918093
213	0x3d4b1db8	0.04958889
214	0xbf368f66	-0.7131256
215	0x3f1de111	0.6167155
216	0xbf8d3465	-1.1031615
217	0xbef647bf	-0.48101613
218	0xbe6d69a2	-0.23184827
219	0xbf06ffc7	-0.52734035
220	0x3f23bf52	0.63963807
221	0x3fb140e1	1.3847924
222	0x3f0b33d7	0.54375976
223	0xbe038d48	-0.12846863
224	0xbe7dc6a1	-0.24782802
225	0x3f431316	0.76201
226	0x3e8505c9	0.25980976
227	0x3f02e30a	0.51127684
228	0x3fb18fee	1.3872049
229	0xbd23b4ee	-0.03996747
230	0xbd820cdb	-0.06350108
231	0xbea6bfa8	-0.32568097
232	0x3fa168cc	1.2610106
233	0xbd27bcdf	-0.040951606
234	0x3ee00b97	0.43758842
235	0xbed53f96	-0.41650075
236	0xbf9d0b7d	-1.2269131
237	0x3eda4dc9	0.4263747
238	0x3f32ed95	0.6989377
239	0xbd802d2a	-0.06258614
240	0xbf4f7eea	-0.8105303
241	0x3e2b1597	0.16707455
242	0x3dea9cdc	0.114557
243	0xbf3cf08e	-0.7380456
244	0x3f5e2ac8	0.8678403
245	0xbdfad1a0	-0.12247014
246	0x3ebfa2ee	0.37428993
247	0x3ebac014	0.3647467
248	0x3efdde2d	0.4958357
249	0x3f846d8b	1.034593
250	0xbe1c7f6c	-0.15282983
251	0x3eb3266c	0.3499025
252	0x3e99df82	0.30053335
253	0x3e8e2bc3	0.27767763
254	0xbf56d99c	-0.83925796
255	0xbf8b50d8	-1.0884047

network_body._body_endoder.seq_layers.2.bias f4 [128]
0	0x00000000	0.0
1	0x00000000	0.0
2	0x00000000	0.0
3	0x00000000	0.0
4	0x00000000	0.0
5	0x00000000	0.0
6	0x00000000	0.0
7	0x00000000	0.0
8	0x00000000	0.0
9	0x00000000	0.0
10	0x00000000	0.0
11	0x00000000	0.0
12	0x00000000	0.0
13	0x00000000	0.0
14	0x00000000	0.0
15	0x00000000	0.0
16	0x00000000	0.0
17	0x00000000	0.0
18	0x00000000	0.0
19	0x00000000	0.0
20	0x00000000	0.0
21	0x00000000	0.0
22	0x00000000	0.0
23	0x00000000	0.0
24	0x00000000	0.0
25	0x00000000	0.0
26	0x00000000	0.0
27	0x00000000	0.0
28	0x00000000	0.0
29	0x00000000	0.0
30	0x00000000	0.0
31	0x00000000	0.0
32	0x00000000	0.0
33	0x00000000	0.0
34	0x00000000	0.0
35	0x00000000	0.0
36	0x00000000	0.0
37	0x00000000	0.0
38	0x00000000	0.0
39	0x00000000	0.0
40	0x00000000	0.0
41	0x00000000	0.0
42	0x00000000	0.0
43	0x00000000	0.0
44	0x00000000	0.0
45	0x00000000	0.0
46	0x00000000	0.0
47	0x00000000	0.0
48	0x00000000	0.0
49	0x00000000	0.0
50	0x00000000	0.0
51	0x00000000	0.0
52	0x00000000	0.0
53	0x00000000	0.0
54	0x00000000	0.0
55	0x00000000	0.0
56	0x00000000	0.0
57	0x00000000	0.0
58	0x00000000	0.0
59	0x00000000	0.0
60	0x00000000	0.0
61	0x00000000	0.0
62	0x00000000	0.0
63	0x00000000	0.0
64	0x00000000	0.0
65	0x00000000	0.0
66	0x00000000	0.0
67	0x00000000	0.0
68	0x00000000	0.0
69	0x00000000	0.0
70	0x00000000	0.0
71	0x00000000	0.0
72	0x00000000	0.0
73	0x00000000	0.0
74	0x00000000	0.0
75	0x00000000	0.0
76	0x00000000	0.0
77	0x00000000	0.0
78	0x00000000	0.0
79	0x00000000	0.0
80	0x00000000	0.0
81	0x00000000	0.0
82	0x00000000	0.0
83	0x00000000	0.0
84	0x00000000	0.0
85	0x00000000	0.0
86	0x00000000	0.0
87	0x00000000	0.0
88	0x00000000	0.0
89	0x00000000	0.0
90	0x00000000	0.0
91	0x00000000	0.0
92	0x00000000	0.0
93	0x00000000	0.0
94	0x00000000	0.0
95	0x00000000	0.0
96	0x00000000	0.0
97	0x00000000	0.0
98	0x00000000	0.0
99	0x00000000	0.0
100	0x00000000	0.0
101	0x00000000	0.0
102	0x00000000	0.0
103	0x00000000	0.0
104	0x00000000	0.0
105	0x00000000	0.0
106	0x00000000	0.0
107	0x00000000	0.0
108	0x00000000	0.0
109	0x00000000	0.0
110	0x00000000	0.0
111	0x00000000	0.0
112	0x00000000	0.0
113	0x00000000	0.0
114	0x00000000	0.0
115	0x00000000	0.0
116	0x00000000	0.0
117	0x00000000	0.0
118	0x00000000	0.0
119	0x00000000	0.0
120	0x00000000	0.0
121	0x00000000	0.0
122	0x00000000	0.0
123	0x00000000	0.0
124	0x00000000	0.0
125	0x00000000	0.0
126	0x00000000	0.0
127	0x00000000	0.0

network_body._body_endoder.seq_layers.2.weight f4 [128, 128]
0	0x3d8da927	0.06917029
1	0x3d39f70c	0.045401618
2	0x3d895cba	0.06707139
3	0xbd8d728e	-0.06906615
4	0x3d66161c	0.05617343
5	0x3c1aff32	0.009460257
6	0x3e0350f7	0.12823854
7	0x3d7a8cc8	0.061169416
8	0xbd45a91b	-0.048256975
9	0xbcc3ab40	-0.02388537
10	0x3d325a4a	0.043543138
11	0xbd64e93f	-0.055886503
12	0x3dc9fd59	0.09862775
13	0x3d9c358c	0.07627401
14	0x3d80edfc	0.06295392
15	0x3e442e01	0.19158174
16	0xbd8fb89c	-0.07017633
17	0xbd900e55	-0.070339836
18	0x3dc512ae	0.096227035
19	0xbd42c565	-0.04755153
20	0xbd743ee6	-0.059630297
21	0x3cfde808	0.03099443
22	0x3de5a4f6	0.112131044
23	0x381463b8	3.537882e-05
24	0xbdc444b5	-0.09583417
25	0x3e1e927f	0.15485571
26	0xbd990064	-0.07470778
27	0xbc558db7	-0.013034276
28	0x3d022082	0.031769283
29	0xbe251539	-0.16121377
30	0x3e4ade9a	0.19811478
31	0x3c864acf	0.016393093
32	0xbd655f77	-0.055999245
33	0xbd192874	-0.037392095
34	0x3d486511	0.04892451
35	0x3c6a4af2	0.014300095
36	0xbde0a423	-0.109688066
37	0x3dc6c85c	0.09706184
38	0x3d987841	0.074448116
39	0x3d85d527	0.06534796
40	0xbd9d3aee	-0.076772556
41	0x3d10d380	0.035357952
42	0x3db64b5a	0.08901091
43	0x3a2e62c6	0.00066522916
44	0x3d31accc	0.043377683
45	0xbdff32a1	-0.124608286
46	0x3afb7113	0.0019183479
47	0xbda884de	-0.082284674
48	0xbd3b4822	-0.045723088
49	0xbdf4eb2e	-0.119589195
50	0xbe071448	-0.1319133
51	0xbdce3a0d	-0.10069666
52	0x3dd30825	0.10304288
53	0x3da7d446	0.08194785
54	0x3e3d6bcb	0.18498151
55	0x3c01d8c2	0.007925214
56	0xbd9d7731	-0.076887496
57	0x3e26a5d1	0.16274191
58	0x3c9dc64d	0.019259596
59	0xbd105eeb	-0.03524677
60	0x3daf2c5d	0.085533835
61	0xbd3037fa	-0.043022133
62	0xbe2af4c5	-0.16694935
63	0x3e41b531	0.18916775
64	0x3c886322	0.016648833
65	0x3e00bbd2	0.12571648
66	0x3c980fba	0.018562187
67	0xbb3d965b	-0.002892873
68	0xbe1d8c5f	-0.15385579
69	0x3da7c5a0	0.08191991
70	0xbcd06503	-0.025438791
71	0xbdad20dc	-0.08453533
72	0xbd83dfa2	-0.06439139
73	0x3dd8cc65	0.1058586
74	0xbd203720	-0.03911507
75	0x3ce3b027	0.027793957
76	0x3d1ed82c	0.038780376
77	0xbe54d8c1	-0.2078581
78	0x3e02f6cd	0.1278946
79	0x3d5697dd	0.05239092
80	0x3c847282	0.016167883
81	0x3d1211b8	0.03566143
82	0xbd508252	-0.050905533
83	0x3c01668f	0.007897987
84	0xbc1131ab	-0.008861939
85	0x3df2e880	0.11860752
86	0x3d9d9ed4	0.0769631
87	0x3d8f60ff	0.070009224
88	0xbd8ccb6e	-0.06874739
89	0xbc50994b	-0.01273186
90	0xbd23d57c	-0.039998516
91	0xbb9d5c25	-0.0048022442
92	0xbcf3d807	-0.029766096
93	0xbd34fe14	-0.04418762
94	0x3e76350e	0.24043676
95	0x3cd65656	0.026164215
96	0xbd8a9210	-0.067661405
97	0x36a6ad1e	4.967339e-06
98	0xbd83ef83	-0.064421676
99	0xbdc4dfcf	-0.096130006
100	0xbded5fcb	-0.11590537
101	0xbd6667dd	-0.056251395
102	0x3c93bde2	0.01803488
103	0xbc8fe820	-0.01756674
104	0xbc67277c	-0.014108535
105	0x3a7e2424	0.00096947164
106	0xbe07d47a	-0.13264647
107	0xbdbd97ff	-0.092575066
108	0xbdcbda97	-0.09953802
109	0x3cd786a7	0.026309324
110	0x3d912656	0.0708739
111	0x3c271907	0.010198838
112	0x3dfe892e	0.12428509
113	0x3da8ae6a	0.08236392
114	0xbd0fe9df	-0.035135146
115	0x3d917e6c	0.07104191
116	0x3d8579c8	0.065173686
117	0xbe283eec	-0.16430253
118	0x3d03e37b	0.032199364
119	0xbcce3c4e	-0.02517524
120	0xbce99bac	-0.028516613
121	0xbce544eb	-0.027986964
122	0x3d6e6942	0.05820585
123	0x3cef8d52	0.029242191
124	0x3d66d4ef	0.056355413
125	0xbd86aed2	-0.06576313
126	0x3db09ee3	0.08624055
127	0x3da91c9b	0.08257409
128	0xbd9a2539	-0.07526631
129	0xbd3cf497	-0.046131697
130	0xbe3a970e	-0.18221685
131	0x3db0a342	0.08624889
132	0xbe3a74df	-0.18208645
133	0x3dd0ae6e	0.1018952
134	0xbd3c15e2	-0.045919307
135	0x3e04bf3b	0.12963574
136	0x3d34dc89	0.04415563
137	0xbd7ac940	-0.061227083
138	0xbdb77de5	-0.08959559
139	0xbdba959d	-0.09110568
140	0xbd9dfc9c	-0.07714197
141	0xbd846bc8	-0.0646587
142	0x3dbb1048	0.09133965
143	0xbd8db5d8	-0.069194496
144	0xbdf5d78c	-0.12004003
145	0xbcdfdcd9	-0.027326988
146	0x3db3b2d8	0.08774346
147	0xbbaf6c0d	-0.005353457
148	0xbcbc9981	-0.023022415
149	0xbc256b7b	-0.010096426
150	0xbd9c20a1	-0.07623411
151	0x3d2b8bcb	0.041881364
152	0x3d785b06	0.06063368
153	0xbd65eae0	-0.056132197
154	0x3df46d3f	0.119348995
155	0xbdac5674	-0.08414927
156	0x3e17e6d0	0.14834142
157	0x3cab514f	0.020912794
158	0xbbdbbcb0	-0.006705843
159	0x3e335e04	0.17516333
160	0x3d31c481	0.04340029
161	0x3d8f388b	0.069932066
162	0xbd98b375	-0.07456104
163	0x3d55c423	0.052189004
164	0xbcc5e246	-0.024155747
165	0x3e042c3b	0.12907498
166	0xbd3452cb	-0.04402427
167	0x3d5290c4	0.05140759
168	0x3cbd1cdc	0.02308505
169	0xbd8e5f89	-0.06951816
170	0x3d5958a5	0.053063054
171	0xbc9e9a9d	-0.019360835
172	0xbda33b8a	-0.079703405
173	0xbce9d0a5	-0.028541872
174	0xbe038670	-0.12844253
175	0x3d986e24	0.07442883
176	0xbd09e568	-0.033666044
177	0x3dbf750d	0.093484975
178	0x3d85dd0a	0.065363005
179	0xbe1120a3	-0.14172606
180	0xbcffa56c	-0.031206809
181	0x3dfa69ab	0.12227186
182	0xbdd0c60a	-0.10194023
183	0xbdd0774f	-0.10179006
184	0xbd83c1b6	-0.06433432
185	0xbe09c186	-0.1345273
186	0xbce63fe2	-0.028106634
187	0x3d89657e	0.06708811
188	0xbc4f6a2f	-0.0126595935
189	0x3e2b0fe3	0.16705279
190	0x3d1502f7	0.03637978
191	0xbb83e026	-0.0040245233
192	0x3da8c0be	0.08239888
193	0x3e011cc3	0.12608628
194	0xbdbe4ccd	-0.09291992
195	0x3df7317a	0.12069984
196	0x3e3accf9	0.18242253
197	0xbdddd6fb	-0.1083202
198	0x3e19742d	0.14985724
199	0xbe0d1f96	-0.1378158
200	0x3d512dc1	0.051069025
201	0x3dbb1a11	0.09135831
202	0x3d7d86de	0.061896197
203	0xbd0ee2bb	-0.034884196
204	0xbdaa42b9	-0.083135076
205	0x3b1e0024	0.002410897
206	0xbc08ceee	-0.008350117
207	0xbc648707	-0.013948209
208	0xbcc42536	-0.023943525
209	0x3e0c385f	0.13693379
210	0xbd580bcc	-0.052745625
211	0x3de0c5dd	0.109752394
212	0xbd0ef90a	-0.03490547
213	0x3db642e2	0.08899476
214	0x3b14d241	0.002270833
215	0x3be74e45	0.007058891
216	0x3dc1e32c	0.09467158
217	0xbd83be7a	-0.06432815
218	0x3d06e178	0.032929868
219	0x3dca5172	0.09878816
220	0x3d9ae123	0.07562473
221	0x3d61b328	0.055102497
222	0x3addfe7b	0.0016936803
223	0xbd8223a2	-0.06354453
224	0x3dc5b598	0.09653777
225	0xbd474254	-0.04864724
226	0x3cef1e1f	0.029189168
227	0x3e02339b	0.12714998
228	0x3d60cfa5	0.054885525
229	0x3cb95b65	0.022626588
230	0xbc97b173	-0.018517232
231	0x3e0850bc	0.13312048
232	0x3e0bd7f0	0.13656592
233	0x3ce35378	0.027749762
234	0x3e35a7ad	0.17739744
235	0xbe0d1e41	-0.13781072
236	0x3d3a9fa8	0.045562416
237	0xbd002dc4	-0.031293646
238	0x3e37d2e4	0.17951542
239	0x3ccb4c1a	0.024816561
240	0xbd985dbc	-0.074397534
241	0x3da0ca31	0.07851065
242	0xbd9097da	-0.070602134
243	0xbe186b25	-0.14884622
244	0x3cea7385	0.028619537
245	0x3e25e91a	0.16202202
246	0x3cb138dc	0.021633558
247	0xbce2312b	-0.027611336
248	0xbe7a7b56	-0.24461111
249	0xbdb9d7c3	-0.090743564
250	0xbd206868	-0.03916207
251	0xbd2dee4d	-0.04246359
252	0x3e243993	0.16037588
253	0x3d45b7c1	0.048270945
254	0x3e227515	0.15864976
255	0x3da4bd4a	0.080439165
