results/Test1/MoveToGoal/checkpoint.pt (torch, 146759 bytes, 11 tensors)

network_body._body_endoder.seq_layers.0.weight f4 [128, 2]
000000 a7 67 81 3e 58 1b cb 3f c2 49 83 bf 3f 56 bc 3e
       0.25274393 1.586772 -1.0256884 0.3678455
000010 a7 8c fd 3e 34 26 95 bd 0c 9b e4 be bb 45 a3 bf
       0.49521372 -0.07282677 -0.4464954 -1.2755655
000020 71 17 1c 3e 80 49 94 bf 14 30 75 3f 0e ee 13 3f
       0.15243317 -1.158493 0.95776486 0.5778512
000030 25 d2 93 3e 8f 6f 99 be a2 a8 f7 3d ef 17 c2 be
       0.28871265 -0.29967925 0.12092711 -0.37908885
000040 11 b5 7d bf 1a 2d 94 3e 46 24 cb bf fa 0f f3 bd
       -0.9910441 0.2894066 -1.5870445 -0.11868282
000050 6b 13 b2 3e 94 8d fb be 8d 4c e8 3e 5c bd e8 bd
       0.3478044 -0.49131453 0.45370904 -0.113642424
000060 0e 48 e9 be 23 dc 83 3f cd c8 84 be 68 6a 53 bc
       -0.45562786 1.0301555 -0.2593445 -0.012903787
000070 6f e7 e5 3d 36 f3 da be ff 5b 2b 3d 68 3f 61 bf
       0.11225783 -0.4276368 0.04183578 -0.87987375
000080 ca 63 8e bf 71 e5 b8 3e b2 74 a1 be 42 fb 90 bf
       -1.1124203 0.3611255 -0.31534344 -1.1326678
000090 80 27 7d 3e 76 31 ea 3c c2 d4 e7 3e 4d a0 53 3f
       0.247221 0.028588038 0.4527951 0.82666475
0000a0 85 32 ce bd 9c c5 a2 bf 5d 47 83 3f 04 3e c8 3f
       -0.100682296 -1.2716556 1.0256153 1.5643926
0000b0 ca 3d 88 3f 92 5a 0a bf d7 5b a7 bd 2a 65 c3 3e
       1.0643857 -0.5404445 -0.08171814 0.3816312
0000c0 37 7d a3 3e a8 e8 9a 3f 8a 95 27 3f dc 94 30 bf
       0.3193147 1.2102251 0.65462554 -0.6897714
0000d0 3a d4 bd be 81 83 90 3f 04 bb 93 3e bd 99 57 bf
       -0.3707598 1.1290132 0.2885362 -0.8421896
0000e0 ee 3b 93 be a3 d3 31 bf 5d 10 89 3f 7b e4 fb 3d
       -0.2875666 -0.69463557 1.0708119 0.122994386
0000f0 8b dc 1b 3f 3a e3 d8 3e a9 93 7e 3f b6 88 19 3f
       0.60883397 0.4236086 0.9944406 0.5997423
000100 30 ef 92 3f 13 3c 5a 3f 7d 33 27 bf 68 17 51 bb
       1.1479244 0.85247916 -0.6531294 -0.003190482
000110 9f 4b 48 be 34 db a9 be 6c 1f 5e 3d eb 86 85 3f
       -0.19560097 -0.3317505 0.054229185 1.0431799
000120 d7 52 09 3f 95 3e 80 be 27 ed 2d bf 42 74 6c be
       0.5364203 -0.25047746 -0.6793999 -0.23091224
000130 f4 85 90 bd dc 59 31 be bd 04 c9 bf a3 8b 20 bd
       -0.070567995 -0.17319435 -1.5704571 -0.039195668
000140 a2 49 ad be ef e3 50 3f 8f 33 f2 3f 81 a3 8c 3f
       -0.3384524 0.815978 1.8921984 1.0987397
000150 97 1d 2b 3e 46 85 aa bf b0 ca b4 be bf 16 11 bf
       0.16710506 -1.3321922 -0.35310888 -0.5667533
000160 cd 4d 12 bd 90 97 37 3d 28 7b 73 bf b3 c8 55 bd
       -0.035718728 0.044822276 -0.95109797 -0.052193355
000170 b3 b4 23 3f 48 b3 e5 be 80 f3 56 bf 61 e7 60 be
       0.639476 -0.44863343 -0.839653 -0.21963264
000180 63 77 aa bf 92 a3 a1 3e 3c c9 11 bf 51 77 8c 3e
       -1.3317684 0.31570107 -0.56947684 0.2743478
000190 9c 3f 44 3e a1 87 6a 3f 5b 50 37 bf 39 f0 bc be
       0.1916489 0.91613203 -0.7160699 -0.36902025
0001a0 ba 89 fa 3f 38 27 91 3f 94 1c 5d 3d a0 c1 89 bf
       1.9573281 1.1340094 0.053982332 -1.0762215
0001b0 66 d5 74 bd 28 52 ce 3e 72 ed 21 bf e3 a6 21 3f
       -0.059773825 0.40297055 -0.6325294 0.63145274
0001c0 40 f6 4b 3f b6 0f 11 bf b3 7a 4b bf 37 be 6f 3f
       0.7967262 -0.566646 -0.794841 0.9364962
0001d0 5e 82 26 3d 7b c5 ab bf 28 d7 94 bd ce 81 ab 3e
       0.04065167 -1.3419641 -0.072676 0.3349747
0001e0 20 90 1c 3d 0d 6c a2 3e c3 ac fc be 00 50 d3 3d
       0.038223386 0.3172306 -0.49350557 0.10317993
0001f0 6c ef 2d 3f 63 64 4c be fa aa 00 bf ee ef 25 3f
       0.67943454 -0.1996017 -0.5026089 0.6481923
000200 e1 99 4a bf a4 05 4a 3e f2 20 0c 3e 4c c2 69 3f
       -0.7914105 0.19728714 0.13684443 0.913121
000210 6d c1 76 3e 94 16 02 3c 4e 6c d2 3e 50 00 1e 3f
       0.24097224 0.007939953 0.41098255 0.61719227
000220 8e 65 54 bf 05 fe 4e 3f 9b 7c 83 be 80 16 3c bf
       -0.8296746 0.80856353 -0.25681004 -0.7347183
000230 33 6d 03 3d 1e 4e 20 bf 7b 2d ca 3d d7 64 8e be
       0.032086562 -0.626192 0.09871956 -0.2781131
000240 1c 88 6a 3f fb 18 1a bf 0c 4e cf bf 5f b1 f9 3e
       0.91613936 -0.6019437 -1.6195693 0.48768136
000250 47 56 cc be aa 88 92 3f d6 33 1a bf b7 66 56 be
       -0.39909574 1.1447957 -0.60235345 -0.2093762
000260 2e b5 b9 bf 4d d6 2f bf 97 d6 08 bf ea fa a8 bf
       -1.4508417 -0.6868637 -0.5345244 -1.3201573
000270 8f 9d 7d 3f 8a fe f0 3d 55 1a 55 3e 4b e6 3e be
       0.9906854 0.117672995 0.20810826 -0.18642537
000280 a3 53 ff 3e 49 92 d7 3f 4c 2a 78 3c 1c ee ba be
       0.49868497 1.6841518 0.015146803 -0.36509788
000290 d8 92 1d bf 84 6a 50 3e bc 7f 2a bd 2f d7 fc be
       -0.6155219 0.20353132 -0.041625723 -0.49382922
0002a0 8c 8e 90 bf de 17 06 3f 54 a4 de 3f 5c 8c 61 be
       -1.1293502 0.5238017 1.7393899 -0.22026199
0002b0 5b 7b a4 be 08 c2 83 bf de 3c bf 3e f2 5b 05 40
       -0.32125363 -1.0293589 0.37351125 2.083737
0002c0 02 8e 7c bf 12 4e 6a be e5 ac 23 3f b7 7d 24 bd
       -0.98654187 -0.22881344 0.6393569 -0.040158954
0002d0 cf f6 b5 bd 76 6c 66 3f c4 fb 53 3f 9e f5 6b 3d
       -0.08884966 0.9000925 0.8280604 0.057607286
0002e0 53 4d 8e bf cb a6 02 bf 90 d8 35 3f 33 5a ff 3d
       -1.1117347 -0.51035756 0.71033573 0.12468376
0002f0 58 df 3c 3f 65 46 85 3f fc 64 03 bf 26 57 8b bf
       0.73778296 1.0412108 -0.51325965 -1.088597
000300 bf 84 fb bd d2 78 dd 3e 24 4b d8 be 8f 36 b7 3c
       -0.12281179 0.4325624 -0.42244828 0.022364883
000310 37 80 8e 3f 2a 44 bd 3e 1d 08 07 bf 11 6d 54 3e
       1.1132878 0.36966068 -0.52746755 0.2074473
000320 d8 bc a4 be 25 ec 61 3e 17 c5 09 3f 53 84 97 3f
       -0.32175326 0.22062738 0.5381636 1.1837257
000330 35 20 e4 3d 22 af fe 3e 88 97 22 bf 89 eb 2d 3e
       0.111389555 0.4974299 -0.6351247 0.16984381
000340 cc bc b5 3f ae 1e e9 bd 8b 1a 5c 3e eb bb c4 3e
       1.4198241 -0.11382805 0.214945 0.3842462
000350 64 20 1a 3f b3 bf a3 bc 1a 6a 43 be 8a ea 11 3f
       0.60205674 -0.01998887 -0.19083443 0.56998503
000360 82 77 42 be 01 90 29 bf 00 10 63 bf e6 83 76 bf
       -0.18990901 -0.6623536 -0.8869629 -0.9629501
000370 db b7 1b be 93 a8 c9 be 8e d1 89 3e 56 b7 e6 3e
       -0.15206854 -0.39386424 0.2691769 0.4506175
000380 e1 91 c3 be c0 2a 6e bf dd 4b 00 bf b7 26 78 3d
       -0.38197234 -0.9303398 -0.5011576 0.060583796
000390 4f 04 76 bf ad b1 f4 be cd 93 99 bf 02 a4 fe be
       -0.96100324 -0.47791806 -1.199823 -0.49734503
0003a0 ea 34 a5 bd 76 7d 08 3f 11 12 b4 3f c2 d6 65 3e
       -0.08066733 0.5331644 1.4068013 0.22445205
0003b0 c2 d0 be 3e 16 c9 40 bf 62 da 13 3f 32 5a bb 3e
       0.37268645 -0.7530683 0.577551 0.3659225
0003c0 58 71 cf be 77 48 7b 3f 39 8c 86 bf 40 af 43 be
       -0.40516162 0.9815745 -1.0511543 -0.19109821
0003d0 94 f6 b1 3f 46 da 04 bf 81 f8 e7 3e 83 c2 07 3f
       1.3903375 -0.5189556 0.4530678 0.53031176
0003e0 b1 9b 01 bf 21 d6 27 3e f6 51 e6 3e 00 bf 58 3d
       -0.5062819 0.16390277 0.44984406 0.052916527
0003f0 fc 9e c0 3e aa a9 6e 3f 50 a8 62 3f a3 75 11 bf
       0.37621295 0.93227637 0.88538074 -0.56820124

network_body._body_endoder.seq_layers.0.bias f4 [128]
000000 00 00 00 00 00 00 00 00 00 00 00 00 00 00 00 00
       0.0 0.0 0.0 0.0
000010 00 00 00 00 00 00 00 00 00 00 00 00 00 00 00 00
       0.0 0.0 0.0 0.0
000020 00 00 00 00 00 00 00 00 00 00 00 00 00 00 00 00
       0.0 0.0 0.0 0.0
000030 00 00 00 00 00 00 00 00 00 00 00 00 00 00 00 00
       0.0 0.0 0.0 0.0
000040 00 00 00 00 00 00 00 00 00 00 00 00 00 00 00 00
       0.0 0.0 0.0 0.0
000050 00 00 00 00 00 00 00 00 00 00 00 00 00 00 00 00
       0.0 0.0 0.0 0.0
000060 00 00 00 00 00 00 00 00 00 00 00 00 00 00 00 00
       0.0 0.0 0.0 0.0
000070 00 00 00 00 00 00 00 00 00 00 00 00 00 00 00 00
       0.0 0.0 0.0 0.0
000080 00 00 00 00 00 00 00 00 00 00 00 00 00 00 00 00
       0.0 0.0 0.0 0.0
000090 00 00 00 00 00 00 00 00 00 00 00 00 00 00 00 00
       0.0 0.0 0.0 0.0
0000a0 00 00 00 00 00 00 00 00 00 00 00 00 00 00 00 00
       0.0 0.0 0.0 0.0
0000b0 00 00 00 00 00 00 00 00 00 00 00 00 00 00 00 00
       0.0 0.0 0.0 0.0
0000c0 00 00 00 00 00 00 00 00 00 00 00 00 00 00 00 00
       0.0 0.0 0.0 0.0
0000d0 00 00 00 00 00 00 00 00 00 00 00 00 00 00 00 00
       0.0 0.0 0.0 0.0
0000e0 00 00 00 00 00 00 00 00 00 00 00 00 00 00 00 00
       0.0 0.0 0.0 0.0
0000f0 00 00 00 00 00 00 00 00 00 00 00 00 00 00 00 00
       0.0 0.0 0.0 0.0
000100 00 00 00 00 00 00 00 00 00 00 00 00 00 00 00 00
       0.0 0.0 0.0 0.0
000110 00 00 00 00 00 00 00 00 00 00 00 00 00 00 00 00
       0.0 0.0 0.0 0.0
000120 00 00 00 00 00 00 00 00 00 00 00 00 00 00 00 00
       0.0 0.0 0.0 0.0
000130 00 00 00 00 00 00 00 00 00 00 00 00 00 00 00 00
       0.0 0.0 0.0 0.0
000140 00 00 00 00 00 00 00 00 00 00 00 00 00 00 00 00
       0.0 0.0 0.0 0.0
000150 00 00 00 00 00 00 00 00 00 00 00 00 00 00 00 00
       0.0 0.0 0.0 0.0
000160 00 00 00 00 00 00 00 00 00 00 00 00 00 00 00 00
       0.0 0.0 0.0 0.0
000170 00 00 00 00 00 00 00 00 00 00 00 00 00 00 00 00
       0.0 0.0 0.0 0.0
000180 00 00 00 00 00 00 00 00 00 00 00 00 00 00 00 00
       0.0 0.0 0.0 0.0
000190 00 00 00 00 00 00 00 00 00 00 00 00 00 00 00 00
       0.0 0.0 0.0 0.0
0001a0 00 00 00 00 00 00 00 00 00 00 00 00 00 00 00 00
       0.0 0.0 0.0 0.0
0001b0 00 00 00 00 00 00 00 00 00 00 00 00 00 00 00 00
       0.0 0.0 0.0 0.0
0001c0 00 00 00 00 00 00 00 00 00 00 00 00 00 00 00 00
       0.0 0.0 0.0 0.0
0001d0 00 00 00 00 00 00 00 00 00 00 00 00 00 00 00 00
       0.0 0.0 0.0 0.0
0001e0 00 00 00 00 00 00 00 00 00 00 00 00 00 00 00 00
       0.0 0.0 0.0 0.0
0001f0 00 00 00 00 00 00 00 00 00 00 00 00 00 00 00 00
       0.0 0.0 0.0 0.0

network_body._body_endoder.seq_layers.2.weight f4 [128, 128]
000000 1c 7b 7e bd d4 48 d4 3d 7f a9 14 3e f8 15 19 bd
       -0.062129125 0.10365453 0.14517783 -0.037374467
000010 3f 2b 7e bd e7 76 c9 3c 5f a2 e1 3d 02 7d d9 bd
       -0.06205296 0.02459283 0.11017298 -0.106195465
000020 36 ee ea 3d eb f2 a5 3d a8 8b ff bd 3a 57 9e bc
       0.114712164 0.081029736 -0.12477809 -0.019328702
000030 77 12 fa bd cc 7a 97 bd 86 9f ef 3b 6c 7a 04 be
       -0.12210553 -0.073964685 0.007312718 -0.12937325
000040 4f 7c 3b 3e 2b 82 cd 3d 55 bf 23 bd c1 80 89 bd
       0.18309139 0.10034593 -0.03997739 -0.06714011
000050 08 69 7d 3d b4 c1 ee 39 ff 16 7f bd 2c 7b 16 be
       0.061867744 0.00045539218 -0.06227779 -0.14695424
000060 9c c9 f6 3c a3 dc fa bb 87 7e b0 3d 7c 23 56 bd
       0.030125432 -0.0076556965 0.08617883 -0.052279934
000070 57 fe 78 bd 00 3e 07 bc 20 05 f5 3d 03 2a 61 3c
       -0.060789432 -0.008254528 0.11963868 0.0137429265
000080 a7 f1 17 3d 86 e9 bc bb 37 4e a9 3d e5 61 1b bd
       0.037095692 -0.005765143 0.082668714 -0.037935156
000090 7b 8e 8d 3d 02 ac 69 3d 04 86 3c bd 76 73 90 bd
       0.069119416 0.057048805 -0.046026245 -0.070532724
0000a0 d7 f1 19 bd 0a 11 91 3d 81 51 8d 3c 5f c3 33 bd
       -0.037584152 0.07083328 0.017250778 -0.043887492
0000b0 69 4f 10 3e c6 29 b0 3c 12 11 c8 bd 32 70 66 3e
       0.14092793 0.021504294 -0.09768881 0.22503737
0000c0 01 2d 8b 3c 66 e1 a8 3a f2 90 f7 bd 7f e0 26 3d
       0.016989233 0.0012884557 -0.12088193 0.04074144
0000d0 56 29 e7 3d 25 49 fd 3b 0e 53 08 3d 8c 1e 15 3d
       0.11287181 0.007729667 0.033282332 0.036406085
0000e0 c5 58 a2 3d b9 a6 b1 3d 5b bd 39 be f6 db 49 bd
       0.07927088 0.08674378 -0.1813864 -0.049282037
0000f0 42 31 c6 bc d8 df 94 bd 2d 48 d6 bc 9e b8 4a 3c
       -0.02419341 -0.07269257 -0.026157463 0.012373118
000100 7d 6d 8b 3c bf a1 a6 3b c1 88 5b 3d 6f 63 e5 3d
       0.017019982 0.0050851996 0.053597216 0.11200606
000110 cd 4c 64 3d 1e 5b 9d bd f0 20 94 bb 19 a4 42 be
       0.055737305 -0.07683395 -0.004520528 -0.19007911
000120 63 7d f6 bc 10 6b 81 3d ba 89 8b 3c 9b da 57 3d
       -0.030089086 0.06319249 0.017033447 0.052698713
000130 d9 7f eb bc ef de 06 be 92 d4 15 3e f6 93 ea 3b
       -0.028747486 -0.1317098 0.1463187 0.0071587516
000140 58 e4 1c be 7c b3 73 bd c9 6b ab bd b3 63 09 3e
       -0.15321481 -0.05949734 -0.08370168 0.13416938
000150 90 08 25 3e f1 88 3c 3e 35 cf 2a 3d f3 a2 47 3a
       0.16116548 0.18411614 0.041701514 0.0007615529
000160 22 85 34 3d 8e 23 f5 bc f0 d1 6e 3d 4f fd 70 bd
       0.044072278 -0.02992418 0.05830568 -0.058835324
000170 e0 0a 47 3d 78 1b fd bd 56 90 b5 3d cb 17 5b 3d
       0.048594356 -0.12358755 0.088654205 0.053489488
000180 96 b2 68 bd be 10 86 bd 6b cd aa 3d 76 39 27 bd
       -0.056810938 -0.06546162 0.083399616 -0.040826283
000190 0b 0f 0a 3d 11 1b 6f 3b cd d7 0e 3e 4e 0b 1c 3e
       0.033705752 0.0036484639 0.13949509 0.15238687
0001a0 41 c8 18 be 61 15 4c be 54 3a ff bd d5 c6 a5 3d
       -0.14920141 -0.1993003 -0.12462297 0.08094565
0001b0 c2 b1 7b be 15 1d 9c bc ca 4a a3 3c 26 fd dc 3c
       -0.24579528 -0.019056836 0.019933123 0.02697618
0001c0 24 44 29 bd 47 16 5a be 22 1b b5 bc e2 7b d2 bd
       -0.04132475 -0.2129756 -0.022107664 -0.10277535
0001d0 ec 66 2b 3c d9 b0 87 bd 22 e4 08 be 89 cc 8e bd
       0.01046155 -0.06625528 -0.13368276 -0.06972606
0001e0 54 94 f5 bc 99 0c d1 3d 63 bf a0 bd a8 a5 45 bd
       -0.029977955 0.10207481 -0.07849004 -0.048253685
0001f0 cc 88 a6 bc e4 42 23 bd 78 14 bc bd 70 35 73 3d
       -0.020328902 -0.039858714 -0.091835916 0.059377134
000200 8c 3a e8 bd be 06 a6 bc 8d 12 5c 3d 57 78 23 3e
       -0.11339292 -0.020266887 0.05372863 0.15963875
000210 c9 35 78 bc 32 6f d3 3c 6c 2d e5 bd a6 df 16 be
       -0.015149542 0.025809858 -0.11190304 -0.14733753
000220 5c 2b 11 bd 64 ae 7a bb e3 be 97 bd 0a cb 88 bd
       -0.03544174 -0.0038250918 -0.074094556 -0.06679352
000230 d0 30 08 be cb ad 58 3d 06 07 84 3d f0 73 1d 3b
       -0.1329987 0.052900117 0.06446652 0.0024025403
000240 2f 97 34 3e 0a de 39 be d8 8a 2d be 6b e0 9e bd
       0.17635797 -0.18151107 -0.16947496 -0.07757648
000250 a7 12 3a 3e 4b 8d b8 bd b7 75 c7 3d f4 7c ca ba
       0.18171178 -0.090113245 0.09739249 -0.0015448616
000260 00 74 73 3d 8d d9 a2 ba a9 59 bb 3d 85 4d 79 bd
       0.059436798 -0.0012424454 0.09147961 -0.060864944
000270 7d 49 af bd 59 6c b2 3c ab 1e d3 bd dd fe 35 3c
       -0.08558939 0.02178018 -0.10308584 0.011108127
000280 02 99 d6 bc 3e 51 22 3c d2 79 8b bd 56 c1 27 bd
       -0.026196007 0.009907065 -0.06810345 -0.040955864
000290 7b 5f f0 bc da a2 18 bd 32 50 b0 3d 51 9d 15 3e
       -0.029342404 -0.037264682 0.08609046 0.14610793
0002a0 76 1d 39 3c d0 ab 21 bc e8 0e 1d be 74 5f af bd
       0.011298528 -0.009867623 -0.15337718 -0.08563128
0002b0 7b c9 c7 bc b0 ac 0c bd 61 1a cb 3c 66 cf 63 3d
       -0.024388066 -0.034344375 0.024792852 0.055617712
0002c0 8b 17 70 3d b5 a1 b7 bd 4e 57 81 3d a6 60 5e 3d
       0.058616202 -0.0896639 0.0631548 0.05429139
0002d0 99 a0 61 bd b5 82 43 bc ac 12 1c 3d 4b b2 87 3c
       -0.0550848 -0.011933018 0.038103744 0.016564509
0002e0 9b e4 92 3d 85 d8 00 bb bb bf ae 3d 6e b4 34 bc
       0.07172509 -0.0019660306 0.085326634 -0.011029346
0002f0 ee e0 dc 3d 30 37 24 3e 12 d6 5e 3e 24 d9 25 3d
       0.107850894 0.16036677 0.21761349 0.040490285
000300 ca 71 4a 3d 1d 9c 12 3e 9f 3e 85 3d ba 42 0d bc
       0.049424924 0.14317365 0.06506085 -0.008621866
000310 93 75 41 3e 94 9f 17 3b ab 3f 69 bd 79 09 2d be
       0.18892507 0.0023135887 -0.056945484 -0.16898145
000320 2e 6b b3 bc 6f e2 8a 3c 6b c0 f5 bc 90 56 c7 3d
       -0.021901693 0.016953675 -0.029998979 0.09733307
000330 5b 9b e1 3b 12 6d f3 bd fe 1a b5 3d f2 19 4a bd
       0.006884975 -0.11886038 0.08843039 -0.04934115
000340 a4 00 cd 3c 73 af 92 3c a7 88 8c bc 86 91 20 3d
       0.02502472 0.017905926 -0.017155005 0.039201282
000350 b6 8f d5 3c 98 48 b6 bb 84 00 44 bc e1 25 2a bc
       0.026069503 -0.005562853 -0.011963014 -0.010385008
000360 78 f0 92 3d 64 a6 02 bd 5f 20 6c be 69 28 01 bd
       0.07174772 -0.031896964 -0.23059224 -0.03153268
000370 d7 4d 2e bc c2 ff 4c 3d 5c 35 e8 3b 3c 95 ae 3d
       -0.010638676 0.050048597 0.007086439 0.08524558
000380 27 c8 66 be e2 8e 8b 3c d1 49 fa bd f9 75 57 3b
       -0.2253729 0.017035905 -0.122211106 0.0032876714
000390 92 d9 fc bd 3f f5 33 bd d7 78 15 3e d6 3b ba 3d
       -0.12346186 -0.043935057 0.14596878 0.09093444
0003a0 ad 5a b9 bd 85 64 74 bd d8 30 2c 3e 57 e6 51 bd
       -0.09050498 -0.059666175 0.16815507 -0.05124506
0003b0 76 85 c5 bd 52 12 0d be 12 95 82 bc 87 e8 99 3d
       -0.09644596 -0.1377652 -0.015940223 0.07515054
0003c0 63 14 9e be 43 f6 36 be 59 c3 ab 3d 89 32 1b 3e
       -0.3087493 -0.17867379 0.08386869 0.15155996
0003d0 f6 9a 04 3e cf 67 6b 3c 22 fa ec 3c 28 14 42 bd
       0.12949738 0.014368012 0.028927866 -0.047382504
0003e0 3a 44 69 bd 33 75 f9 bd 93 2b c8 3d d8 52 ae bd
       -0.05694983 -0.12180557 0.09773936 -0.08511895
0003f0 17 10 2a 3d 20 8a f6 bd f1 16 61 3c ac db d8 3c
       0.04151925 -0.12038064 0.01373838 0.026471935

network_body._body_endoder.seq_layers.2.bias f4 [128]
000000 00 00 00 00 00 00 00 00 00 00 00 00 00 00 00 00
       0.0 0.0 0.0 0.0
000010 00 00 00 00 00 00 00 00 00 00 00 00 00 00 00 00
       0.0 0.0 0.0 0.0
000020 00 00 00 00 00 00 00 00 00 00 00 00 00 00 00 00
       0.0 0.0 0.0 0.0
000030 00 00 00 00 00 00 00 00 00 00 00 00 00 00 00 00
       0.0 0.0 0.0 0.0
000040 00 00 00 00 00 00 00 00 00 00 00 00 00 00 00 00
       0.0 0.0 0.0 0.0
000050 00 00 00 00 00 00 00 00 00 00 00 00 00 00 00 00
       0.0 0.0 0.0 0.0
000060 00 00 00 00 00 00 00 00 00 00 00 00 00 00 00 00
       0.0 0.0 0.0 0.0
000070 00 00 00 00 00 00 00 00 00 00 00 00 00 00 00 00
       0.0 0.0 0.0 0.0
000080 00 00 00 00 00 00 00 00 00 00 00 00 00 00 00 00
       0.0 0.0 0.0 0.0
000090 00 00 00 00 00 00 00 00 00 00 00 00 00 00 00 00
       0.0 0.0 0.0 0.0
0000a0 00 00 00 00 00 00 00 00 00 00 00 00 00 00 00 00
       0.0 0.0 0.0 0.0
0000b0 00 00 00 00 00 00 00 00 00 00 00 00 00 00 00 00
       0.0 0.0 0.0 0.0
0000c0 00 00 00 00 00 00 00 00 00 00 00 00 00 00 00 00
       0.0 0.0 0.0 0.0
0000d0 00 00 00 00 00 00 00 00 00 00 00 00 00 00 00 00
       0.0 0.0 0.0 0.0
0000e0 00 00 00 00 00 00 00 00 00 00 00 00 00 00 00 00
       0.0 0.0 0.0 0.0
0000f0 00 00 00 00 00 00 00 00 00 00 00 00 00 00 00 00
       0.0 0.0 0.0 0.0
000100 00 00 00 00 00 00 00 00 00 00 00 00 00 00 00 00
       0.0 0.0 0.0 0.0
000110 00 00 00 00 00 00 00 00 00 00 00 00 00 00 00 00
       0.0 0.0 0.0 0.0
000120 00 00 00 00 00 00 00 00 00 00 00 00 00 00 00 00
       0.0 0.0 0.0 0.0
000130 00 00 00 00 00 00 00 00 00 00 00 00 00 00 00 00
       0.0 0.0 0.0 0.0
000140 00 00 00 00 00 00 00 00 00 00 00 00 00 00 00 00
       0.0 0.0 0.0 0.0
000150 00 00 00 00 00 00 00 00 00 00 00 00 00 00 00 00
       0.0 0.0 0.0 0.0
000160 00 00 00 00 00 00 00 00 00 00 00 00 00 00 00 00
       0.0 0.0 0.0 0.0
000170 00 00 00 00 00 00 00 00 00 00 00 00 00 00 00 00
       0.0 0.0 0.0 0.0
000180 00 00 00 00 00 00 00 00 00 00 00 00 00 00 00 00
       0.0 0.0 0.0 0.0
000190 00 00 00 00 00 00 00 00 00 00 00 00 00 00 00 00
       0.0 0.0 0.0 0.0
0001a0 00 00 00 00 00 00 00 00 00 00 00 00 00 00 00 00
       0.0 0.0 0.0 0.0
0001b0 00 00 00 00 00 00 00 00 00 00 00 00 00 00 00 00
       0.0 0.0 0.0 0.0
0001c0 00 00 00 00 00 00 00 00 00 00 00 00 00 00 00 00
       0.0 0.0 0.0 0.0
0001d0 00 00 00 00 00 00 00 00 00 00 00 00 00 00 00 00
       0.0 0.0 0.0 0.0
0001e0 00 00 00 00 00 00 00 00 00 00 00 00 00 00 00 00
       0.0 0.0 0.0 0.0
0001f0 00 00 00 00 00 00 00 00 00 00 00 00 00 00 00 00
       0.0 0.0 0.0 0.0

action_model._discrete_distribution.branches.0.weight f4 [5, 128]
000000 03 dc 32 bc cb 92 0b bc c3 f2 45 bb 6c 33 b7 b9
       -0.010916713 -0.008518885 -0.0030204512 -0.00034942792
000010 d5 a3 0f bc 97 6b 17 3c f3 31 ad bb 8c 5d bc 3b
       -0.008767088 0.00924196 -0.0052854954 0.0057484563
000020 12 c4 65 bb 98 e1 2f 3c 1b 26 55 3c cb 71 3b 3b
       -0.0035059494 0.010734938 0.013009573 0.0028601761
000030 8c d3 b8 3b 42 67 12 bb 1d c9 20 bc 60 b5 4e 3b
       0.0056404527 -0.0022339378 -0.009813574 0.0031541213
000040 1f 1c a2 3b f0 44 e4 3b 41 2b 19 bc 35 99 dc bb
       0.0049472 0.006966226 -0.009348691 -0.006732131
000050 8b fd c7 bb d5 84 71 3b 4d 20 92 3b 6b ed c9 3a
       -0.0061032227 0.0036852856 0.004459417 0.0015405839
000060 c8 5a 6f bb 2d 1a a0 3a 7e b0 2a bc aa 5f 15 3c
       -0.0036522616 0.0012214832 -0.010418056 0.009117046
000070 85 61 06 3c fb cc b1 bc 0d 81 0a 3c 1b fe 76 3b
       0.008201961 -0.021704188 0.00845362 0.003768808
000080 e5 c5 d7 bb 7b fe 7a bc c3 da 75 bc 5b 17 f2 bb
       -0.00658487 -0.015319462 -0.01500577 -0.007388038
000090 4f f5 b2 ba 65 08 22 3c 90 d1 92 bb 21 8a 15 bb
       -0.001365343 0.009889697 -0.004480548 -0.0022817927
0000a0 16 2e 2d bb a9 24 95 bc f1 82 ad 3b 11 ca 43 3b
       -0.0026425174 -0.018205957 0.0052951504 0.002987508
0000b0 d0 47 e2 ba 63 c2 b6 bb 8b 60 44 bc 90 b8 78 3a
       -0.0017263833 -0.005577372 -0.011985908 0.0009487951
0000c0 c5 ce 38 bb 10 bf 96 3a 1b 6f 9d bb 38 66 66 3a
       -0.0028199416 0.0011501033 -0.0048045046 0.00087890355
0000d0 89 e2 b6 3b 49 63 26 35 7a 0a 55 3c 3e ae 28 3c
       0.0055812043 6.19843e-07 0.013002986 0.010295449
0000e0 a3 84 1d 3c da a8 84 3b 7f 26 f0 3b 56 cd 8f 3b
       0.009614143 0.004048449 0.007328808 0.0043884916
0000f0 6d 1e d1 bb e8 5a 87 3b 18 0f a2 3a 18 cd d2 3b
       -0.006381801 0.00413071 0.0012364117 0.0064331405
000100 a8 e2 4d bc 90 e0 4b 3c 3a 24 d6 3b 8f c0 82 bb
       -0.012566246 0.012443677 0.0065350803 -0.00399024
000110 1b 6e 5b 3a 91 5f 0e 3c db f9 7d 3b 81 14 a4 bb
       0.0008370594 0.008689777 0.0038753662 -0.005007327
000120 27 75 19 bc 73 34 5e bc 33 60 65 38 93 57 d6 bb
       -0.00936631 -0.01356231 5.4687447e-05 -0.0065412014
000130 a0 87 31 bc 38 bf e7 bb 4d 72 80 bb cf 28 f2 bb
       -0.010835558 -0.0070723556 -0.0039198757 -0.0073901187
000140 47 15 58 3c f3 5f 3f bc 80 f6 7b 3c 3d 4c ee 3b
       0.013188667 -0.011680591 0.015378594 0.007272272
000150 e7 e6 0c 3b 92 e2 cd bc 7d 7d 90 3c 87 4d 49 3b
       0.0021499933 -0.025132451 0.017637962 0.0030716376
000160 b3 aa 84 3c cd ed e8 3b 2f db dc bb b8 cb 08 bb
       0.016194677 0.007108426 -0.006739996 -0.002087338
000170 85 b8 6a bb 8f 91 28 3c 4d e5 9d 3b a2 83 a1 3a
       -0.0035815549 0.01028861 0.0048185945 0.0012322555
000180 a7 e7 64 bb 56 7a 33 3c 6c 2e 20 3c 8a b1 3d 3c
       -0.0034928115 0.01095446 0.009776693 0.011577973
000190 a7 5e 9c ba 50 34 6d bc 6b 42 48 bc 0d 25 55 bc
       -0.0011930064 -0.014477804 -0.0122228665 -0.013009322
0001a0 c7 7b 9f 3b dd 95 7b bb a5 6a 58 bb 0a 1d 3c 3c
       0.0048670503 -0.0038388886 -0.003302255 0.011481533
0001b0 11 9a 0b 3c 92 6f f7 bb 34 7c 87 3a 55 e5 ee 3a
       0.008520619 -0.007551142 0.0010336698 0.0018226305
0001c0 ea ea 1b 3b 31 a8 01 3a bd db 94 3b 37 a5 d6 b8
       0.0023791143 0.0004946022 0.0045427964 -0.00010235089
0001d0 6d cf c6 3b 83 8b e0 ba a4 b2 ab 3a ab eb 8a 39
       0.0060672075 -0.0017131421 0.0013099504 0.00026496997
0001e0 2a be 88 3c 20 15 9e 3b e7 30 bc 3b 37 23 86 bc
       0.01669224 0.0048242956 0.0057431343 -0.016374214
0001f0 f8 8d 2e b8 87 2c ec 3b de a3 23 bc bf 50 eb 3a
       -4.161705e-05 0.0072074565 -0.009987799 0.0017953141
000200 5d 95 1b 3b 8d 73 b3 3c db f5 81 3c 80 2d fb 3b
       0.002374015 0.021905685 0.015864303 0.007665336
000210 dd 7d bb b9 40 ca 7e 3c 80 f0 06 3c c0 dc b4 38
       -0.00035761195 0.01555115 0.008236051 8.624187e-05
000220 6f 12 33 3c 3c 22 3c bc 68 59 fd 3a a5 62 90 bb
       0.010929688 -0.0114827715 0.0019329013 -0.0044062906
000230 c3 05 a3 b9 16 5f 0c 3c 05 d5 63 3b 75 76 7f 3a
       -0.00031094076 0.008567592 0.003476442 0.00097451295
000240 2d 77 68 3b f5 d7 1f bc 03 8c 64 bc b2 e4 d1 39
       0.0035471425 -0.009756078 -0.013949397 0.00040033978
000250 90 b8 2a 3b 7e ea 23 3c 67 6b 83 3b 40 ba b1 3b
       0.002604995 0.010004638 0.004010606 0.005423814
000260 2f 73 de bb 30 3d 4a 3c 5b 69 c4 b9 7a 90 e2 3b
       -0.0067886333 0.01234369 -0.0003746253 0.0069141956
000270 ef 53 32 bc b5 46 ca bb b3 f9 4f 3b d7 ca 19 b8
       -0.010884269 -0.0061729797 0.0031734526 -3.6666952e-05
000280 6f ed a7 3b 2d 7d d7 bb 37 2c 39 3c b2 ac 28 bc
       0.00512474 -0.0065762014 0.011302046 -0.01029508
000290 f0 7f db 3b 31 a5 a7 3b 65 54 78 bc cd 87 9e bb
       0.006698601 0.005116128 -0.01515684 -0.004837966
0002a0 19 1f 80 3c 4c f8 9d bb 27 91 8c 3b e5 0a c6 3b
       0.015639829 -0.004820859 0.0042897644 0.006043779
0002b0 c2 a0 be ba a8 d2 00 3c c7 01 00 bc 98 87 d6 3b
       -0.0014543759 0.007862724 -0.007812924 0.0065469258
0002c0 f7 2e 36 bb c6 25 11 3a 93 d0 5f bc e3 b8 18 3c
       -0.002779899 0.000553694 -0.013660568 0.009321424
0002d0 d8 1d e2 3b 64 e6 07 3b 73 15 1d 3c 67 27 ec bb
       0.0069005303 0.0020736689 0.009587633 -0.0072068456
0002e0 1c 67 ca 3b e5 ff 69 3b 65 60 4d bc 53 25 1a 3c
       0.0061768424 0.0035705504 -0.012535189 0.009408313
0002f0 59 04 13 bb 4b 19 93 ba 8d 82 cd bb 0a c8 50 3b
       -0.0022433011 -0.0011222748 -0.0062716664 0.0031857514
000300 9f a0 95 bc 36 59 49 bc 73 a0 a0 bb b2 14 09 3c
       -0.018265067 -0.012289336 -0.0049019395 0.008366751
000310 b3 19 6e 3c 20 16 18 bb d9 50 3c 3c 8c 68 15 bc
       0.014532494 -0.0023206547 0.011493885 -0.009119164
000320 8d 03 d2 bb 73 29 a0 3a a7 e6 50 bb c1 aa 19 bc
       -0.0064091147 0.0012219384 -0.003187576 -0.00937909
000330 c8 95 6d bb ae 4e 06 3c 2f dd 7c ba c7 27 2d 3b
       -0.0036252607 0.00819747 -0.0009645996 0.0026421414
000340 51 ae 88 bc 21 38 94 bc 28 43 d9 3a c2 28 02 bc
       -0.016684683 -0.01809317 0.00165758 -0.007944288
000350 d5 94 0b 3c 0f 60 51 ba b4 7d 17 bc c2 8c 20 3c
       0.008519371 -0.0007987031 -0.009246279 0.009799184
000360 2d 3f 2a 3c 77 3c b8 3b 56 2c 2b 3c fd bc 38 3c
       0.010391039 0.0056224423 0.010447582 0.011275527
000370 99 66 2f 37 18 fb f2 bb 94 dd bc bb 3d b5 53 bc
       1.0454701e-05 -0.0074151866 -0.005763719 -0.012921629
000380 5b 61 e8 bb 7c 0c 21 3b 4b bb 1e bb 51 5c c0 39
       -0.007091684 0.0024574092 -0.0024220522 0.00036689875
000390 3f 74 71 3b 12 14 48 bc e0 32 e7 bb bf 75 85 3c
       0.003684297 -0.012211816 -0.0070556253 0.016291497
0003a0 08 9f ce 39 b9 42 ac 3b ab ee 9c bb 7f ce b4 3b
       0.0003940987 0.0052569774 -0.0047891936 0.0055177803
0003b0 bf 15 e5 ba 43 e1 fc 3b ea cf fb 3a a3 87 0c bc
       -0.0017477794 0.007717283 0.0019211743 -0.00857726
0003c0 53 d5 28 3c 3d 9a 09 bc 87 4b 1b bb 9d 3f 2f 3b
       0.010304767 -0.00839859 -0.002369614 0.0026740797
0003d0 4f d3 06 3c 5c 6f c6 3b a3 01 15 bc 17 2e 23 bc
       0.008229091 0.0060557555 -0.0090946285 -0.009959719
0003e0 b0 1c f5 3b ef d8 df bc f5 15 99 bb ef 0a c8 bb
       0.0074802265 -0.027325122 -0.004671807 -0.006104819
0003f0 78 61 74 bb 8c 66 a2 bb 38 f7 99 3a 47 da b7 3a
       -0.0037289541 -0.004956072 0.001174665 0.0014026844

action_model._discrete_distribution.branches.0.bias f4 [5]
000000 00 00 00 00 00 00 00 00 00 00 00 00 00 00 00 00
       0.0 0.0 0.0 0.0
000010 00 00 00 00
       0.0

network_body._body_endoder.seq_layers.0.weight f4 [128, 2]
000000 7e 6e 85 3e ae 59 4d bf 6e 29 0b bf 0e 7a 8e 3e
       0.2606086 -0.80214965 -0.5436009 0.27827495
000010 c2 00 97 bf 8e ad 6d 3e 8d 5b 11 bf 28 cb 2c bf
       -1.1797106 0.23210737 -0.5678032 -0.6749749
000020 0e f5 a8 bf 84 3f fa bf c6 63 11 3f 21 73 3d be
       -1.3199785 -1.9550633 0.5679287 -0.1850095
000030 e6 54 f5 be fc 4a 54 3f f8 3d 47 3f bf 5f 95 bf
       -0.47916335 0.8292692 0.7782893 -1.1669844
000040 20 c5 67 3f 39 9b d3 bd c3 ab 4f bf d9 8c e0 3e
       0.90535164 -0.10332341 -0.8112146 0.43857458
000050 a1 bd 88 3e e5 02 8d bd 0d 4f d7 3e d6 c9 63 be
       0.26707175 -0.06885318 0.42052498 -0.22244963
000060 da 14 d5 3e 23 e2 3a 3f e0 bc c7 3e 78 18 6c 3f
       0.4161747 0.7300131 0.39011288 0.92224836
000070 72 86 66 bf d9 bc 31 3f 32 36 0f 3f d9 7c f4 3e
       -0.900489 0.69428784 0.5594207 0.477515
000080 df 4a 77 3f 1d 48 90 3d 36 e7 73 3f 1d 22 84 3f
       0.9659862 0.070450045 0.95274675 1.032291
000090 fe 95 99 3d 12 44 08 3e c3 09 c6 3e b6 49 9e 3e
       0.07499312 0.13307217 0.38679323 0.30915612
0000a0 fc 23 0a bf 63 94 2f 3f 4a 23 06 3e 82 8b 48 3e
       -0.5396116 0.68585795 0.13099399 0.19584468
0000b0 e4 ce 82 be 7e c9 9a be 62 b5 4d 3f ee f0 78 3f
       -0.2554847 -0.3023185 0.80354893 0.9724263
0000c0 2a ee 90 3e 3f e6 75 3e 17 31 60 be cf d9 2c bf
       0.28306705 0.24013613 -0.21893726 -0.6751985
0000d0 b2 39 a9 be 39 16 af be ff 20 1d 3f a2 56 92 bf
       -0.3305183 -0.34196642 0.61378473 -1.1432688
0000e0 6c 0b 95 bf 22 46 1f be a5 3f 9a 3e ed 4c a9 be
       -1.1644111 -0.15554097 0.30126682 -0.33066502
0000f0 f1 ec 30 3f f7 ca 0f be 32 a8 44 bf ab 37 17 3e
       0.69111544 -0.14042269 -0.76819146 0.1476733
000100 31 a6 e1 3e de 8b 7e 3f 49 7d 76 3f 79 3a a2 3d
       0.44072106 0.9943217 0.9628492 0.07921309
000110 23 8c 53 bf e9 42 3e 3f 9f a6 ae 3e f9 e4 3d 3e
       -0.82635707 0.74320847 0.34111497 0.18544377
000120 38 47 e1 bf 60 b5 52 3e 95 05 f8 be 4a b6 60 3f
       -1.7599859 0.20577002 -0.4844176 0.8777815
000130 80 67 bd be 34 b3 9c be 75 b4 38 bf 77 02 85 3e
       -0.36993027 -0.3060547 -0.72150356 0.25978443
000140 8a 79 b2 3e 7e d4 83 bd bd de 4b bf 2b 16 d8 bf
       0.34858352 -0.06437014 -0.79636747 -1.6881765
000150 61 8f 81 3f ee b0 c9 3e 05 e7 7a be b0 21 37 be
       1.0121881 0.393928 -0.2450219 -0.17883945
000160 29 6d 38 bf 78 28 ed 3e cf 8d 05 bf 3e 47 53 bf
       -0.72041565 0.46319938 -0.5216951 -0.8253058
000170 d1 fa 14 bf d4 d2 a9 bf 55 bb f1 3e e4 8c 88 bf
       -0.58195215 -1.3267465 0.47213235 -1.0667996
000180 c9 4d 00 3f d1 8b fe 3d f4 85 23 bf c4 13 a7 3f
       0.5011869 0.124290116 -0.6387627 1.3052907
000190 f0 bd 95 3e 17 97 f3 be de 3f 79 bd 50 a6 cd 3e
       0.29246473 -0.4757621 -0.060851924 0.4016595
0001a0 7f 84 0a 3f 0a f5 24 3e 28 97 54 bf 70 c7 ce be
       0.54108423 0.161091 -0.83043146 -0.40386534
0001b0 99 a0 39 3f 3e 60 eb 3e 8c dd 66 bc fd 4a 2f bf
       0.7251068 0.45971864 -0.014090907 -0.684738
0001c0 ee b7 ae bd 20 b5 b7 3d 55 46 ec 3e 74 26 ed be
       -0.085311756 0.08970094 0.4614741 -0.463184
0001d0 df ed a5 3c 87 dc 01 be ef 0f f7 be 32 fe 37 3e
       0.020255027 -0.12681781 -0.48254344 0.17968062
0001e0 5a dd eb 3e fb ff 67 bf e0 6b 95 bf 83 91 f6 be
       0.46067315 -0.9062497 -1.1673546 -0.48157892
0001f0 25 4d b6 3e bf d5 17 3f 7f 08 b2 bf 2a 30 68 3f
       0.35605732 0.59310526 -1.3908843 0.9069849
000200 24 28 9e bf 1d 19 04 bf 3a 76 00 3f ed 03 df be
       -1.2356 -0.5160082 0.501804 -0.43557683
000210 c0 7f d5 3e 73 eb cb be 6f 41 de 3f 0a 3e 69 3f
       0.41699028 -0.3982807 1.7363719 0.9111029
000220 ff a3 a1 bf e6 53 07 bf 9f d6 0b bc 03 44 6f 3f
       -1.2628173 -0.52862394 -0.008535056 0.9346315
000230 51 d9 19 bd ca a1 82 be 3b e5 21 bf 56 bd 06 bf
       -0.037560765 -0.2551406 -0.632404 -0.52632654
000240 9e 31 35 3f 3d 87 b4 3e 99 06 e6 bd 6b 6a 5d 3d
       0.70778835 0.3525943 -0.11231727 0.054056566
000250 8c e8 26 3e 90 f9 05 c0 14 44 ed 3e dc 16 dd be
       0.16299647 -2.093357 0.46341002 -0.43181503
000260 3c 8f be bd 9c ef 8f 3f d4 c6 20 3f d2 92 18 bd
       -0.093046635 1.1244998 0.6280339 -0.037249394
000270 d8 b3 ae be 1d a3 52 3f c2 93 a0 be cd f5 5d bf
       -0.34121585 0.8228014 -0.3136273 -0.8670319
000280 cb 02 3c 3f 3a 85 fa 3d 50 5d 9c 3f 67 ca c8 be
       0.7344176 0.12232442 1.2215977 -0.3921692
000290 52 55 bd be f2 17 ea be af bc d7 3e 93 2a 20 bf
       -0.36979157 -0.45721394 0.42136142 -0.62564963
0002a0 8c ad 88 3f 3a 70 1a 3f f6 28 27 bf 87 e1 8f be
       1.0677962 0.60327494 -0.65296876 -0.2810175
0002b0 4a f4 3e 3f fc e3 17 bf eb b3 03 bd 98 cf cf be
       0.74591506 -0.5933225 -0.032154005 -0.4058807
0002c0 2a 41 28 bf 75 de b7 bf 06 c7 1f 3f e5 37 0e be
       -0.6572443 -1.4364763 0.6241306 -0.1388851
0002d0 ae a2 7c 3e 2a 91 1f bf 9a 89 96 3e f4 f8 99 bf
       0.24671432 -0.6233088 0.29401857 -1.20291
0002e0 07 c5 80 3f 96 f2 90 3e 4a 96 fa 3d 15 fa c6 3e
       1.0060128 0.28310078 0.122356966 0.38862672
0002f0 6f b3 bc be 24 2f 9e be 14 fc 9c be 1e 29 45 3f
       -0.36855647 -0.3089534 -0.3066107 0.77015865
000300 4e 99 99 3f 1f 5f 94 bf 2d ba 84 bf cc 8e c8 3d
       1.199991 -1.1591529 -1.0369316 0.09792861
000310 08 0a cd be 94 00 36 bf 01 b2 86 bd ec cc 6a be
       -0.40046716 -0.7109463 -0.0657692 -0.22929734
000320 92 eb 13 bf f6 91 15 3f ce d5 c5 bc 91 ec 1e 3f
       -0.57781327 0.58425844 -0.024149802 0.6207972
000330 bf 42 14 bd ec aa b6 be 75 c0 af 3e f0 61 1a bf
       -0.036196467 -0.35677278 0.3432652 -0.6030569
000340 00 90 4a bf 39 f0 3c 3f 51 b0 87 3e 0f a3 70 3d
       -0.79125977 0.7380405 0.26501706 0.058749255
000350 00 72 18 3e 78 b2 c3 bd 58 53 a5 bd 58 04 99 bc
       0.14887238 -0.095555246 -0.08072537 -0.01867883
000360 01 81 2a bf e0 5b fa be 92 40 3d bf 7e 41 79 3e
       -0.66603094 -0.4889822 -0.7392665 0.2434139
000370 75 c4 12 bf 65 86 07 bf 48 b8 1e 3f 6c 6f f1 3f
       -0.5733102 -0.52939445 0.6199994 1.8862128
000380 f5 f1 88 bd 11 b9 d2 bc 5a 06 8b 3e fa be a4 3f
       -0.06686775 -0.025723012 0.27153283 1.2870781
000390 45 86 8f 3f 67 53 c5 3e d7 fb df be c5 23 5d 3e
       1.1212851 0.38540193 -0.43746826 0.21595676
0003a0 28 f2 99 3f 9a c5 a6 3f 1c 7f 3b bf dd 2b d0 bf
       1.2027025 1.3029053 -0.7324083 -1.6263386
0003b0 e3 ba fb be 8b 48 49 bf 2a f1 b8 be 4a 40 c0 3f
       -0.4916602 -0.78626317 -0.36121494 1.501962
0003c0 8e 47 b5 be 3b 7b 1e be 09 70 24 3b cf e9 6e bf
       -0.35406154 -0.15476696 0.0025091192 -0.93325514
0003d0 6a b2 00 bf 8f 61 b8 3e 72 b2 8a bf cc 11 8b 3f
       -0.5027224 0.3601193 -1.0835707 1.0864806
0003e0 43 b2 ca bc 18 49 8c 3f a8 08 1d be 82 c1 58 3f
       -0.024743205 1.0959806 -0.15335333 0.8467027
0003f0 20 50 ea bf 2e 82 8b bf 22 53 1d 3e 12 e8 79 be
       -1.8305702 -1.0899103 0.15363744 -0.24404934

network_body._body_endoder.seq_layers.0.bias f4 [128]
000000 00 00 00 00 00 00 00 00 00 00 00 00 00 00 00 00
       0.0 0.0 0.0 0.0
000010 00 00 00 00 00 00 00 00 00 00 00 00 00 00 00 00
       0.0 0.0 0.0 0.0
000020 00 00 00 00 00 00 00 00 00 00 00 00 00 00 00 00
       0.0 0.0 0.0 0.0
000030 00 00 00 00 00 00 00 00 00 00 00 00 00 00 00 00
       0.0 0.0 0.0 0.0
000040 00 00 00 00 00 00 00 00 00 00 00 00 00 00 00 00
       0.0 0.0 0.0 0.0
000050 00 00 00 00 00 00 00 00 00 00 00 00 00 00 00 00
       0.0 0.0 0.0 0.0
000060 00 00 00 00 00 00 00 00 00 00 00 00 00 00 00 00
       0.0 0.0 0.0 0.0
000070 00 00 00 00 00 00 00 00 00 00 00 00 00 00 00 00
       0.0 0.0 0.0 0.0
000080 00 00 00 00 00 00 00 00 00 00 00 00 00 00 00 00
       0.0 0.0 0.0 0.0
000090 00 00 00 00 00 00 00 00 00 00 00 00 00 00 00 00
       0.0 0.0 0.0 0.0
0000a0 00 00 00 00 00 00 00 00 00 00 00 00 00 00 00 00
       0.0 0.0 0.0 0.0
0000b0 00 00 00 00 00 00 00 00 00 00 00 00 00 00 00 00
       0.0 0.0 0.0 0.0
0000c0 00 00 00 00 00 00 00 00 00 00 00 00 00 00 00 00
       0.0 0.0 0.0 0.0
0000d0 00 00 00 00 00 00 00 00 00 00 00 00 00 00 00 00
       0.0 0.0 0.0 0.0
0000e0 00 00 00 00 00 00 00 00 00 00 00 00 00 00 00 00
       0.0 0.0 0.0 0.0
0000f0 00 00 00 00 00 00 00 00 00 00 00 00 00 00 00 00
       0.0 0.0 0.0 0.0
000100 00 00 00 00 00 00 00 00 00 00 00 00 00 00 00 00
       0.0 0.0 0.0 0.0
000110 00 00 00 00 00 00 00 00 00 00 00 00 00 00 00 00
       0.0 0.0 0.0 0.0
000120 00 00 00 00 00 00 00 00 00 00 00 00 00 00 00 00
       0.0 0.0 0.0 0.0
000130 00 00 00 00 00 00 00 00 00 00 00 00 00 00 00 00
       0.0 0.0 0.0 0.0
000140 00 00 00 00 00 00 00 00 00 00 00 00 00 00 00 00
       0.0 0.0 0.0 0.0
000150 00 00 00 00 00 00 00 00 00 00 00 00 00 00 00 00
       0.0 0.0 0.0 0.0
000160 00 00 00 00 00 00 00 00 00 00 00 00 00 00 00 00
       0.0 0.0 0.0 0.0
000170 00 00 00 00 00 00 00 00 00 00 00 00 00 00 00 00
       0.0 0.0 0.0 0.0
000180 00 00 00 00 00 00 00 00 00 00 00 00 00 00 00 00
       0.0 0.0 0.0 0.0
000190 00 00 00 00 00 00 00 00 00 00 00 00 00 00 00 00
       0.0 0.0 0.0 0.0
0001a0 00 00 00 00 00 00 00 00 00 00 00 00 00 00 00 00
       0.0 0.0 0.0 0.0
0001b0 00 00 00 00 00 00 00 00 00 00 00 00 00 00 00 00
       0.0 0.0 0.0 0.0
0001c0 00 00 00 00 00 00 00 00 00 00 00 00 00 00 00 00
       0.0 0.0 0.0 0.0
0001d0 00 00 00 00 00 00 00 00 00 00 00 00 00 00 00 00
       0.0 0.0 0.0 0.0
0001e0 00 00 00 00 00 00 00 00 00 00 00 00 00 00 00 00
       0.0 0.0 0.0 0.0
0001f0 00 00 00 00 00 00 00 00 00 00 00 00 00 00 00 00
       0.0 0.0 0.0 0.0

network_body._body_endoder.seq_layers.2.weight f4 [128, 128]
000000 46 ec fa 3c 5c 1a 8e 3c 16 ba 51 3d 94 a0 82 bd
       0.030630242 0.017346554 0.051202856 -0.06378284
000010 b7 b5 48 bb 51 40 e6 bc 01 3d 72 3c d2 c5 d4 bc
       -0.0030625889 -0.02810684 0.014785052 -0.025973234
000020 36 cd 60 bd ba d4 2d 3d c6 20 f1 bc 61 53 66 3e
       -0.054883204 0.0424392 -0.029434573 0.22492744
000030 9b a3 58 bd c8 ee 89 be 06 14 9a bd d0 ae cf bd
       -0.0528904 -0.26939988 -0.075233504 -0.10140765
000040 1e f5 89 bd b9 df 94 3c 75 f0 ce bd e2 7b 20 be
       -0.067362055 0.018173086 -0.10104457 -0.15672258
000050 8e 74 6d bd b1 8c 98 3b a6 b0 ce bd 78 01 05 be
       -0.057972483 0.0046554436 -0.10092287 -0.12988842
000060 b9 f2 15 be 6d fe bb bd 02 04 21 3e 40 de c6 3d
       -0.14643373 -0.09179387 0.15724185 0.097103596
000070 54 27 05 be 83 ba a3 bd 2b 98 3a 3e 32 cd d3 3d
       -0.13003284 -0.07994559 0.1822211 0.10341872
000080 c1 a5 36 bd 9b 97 5d 3d 7f b6 e0 3c e4 67 8d bd
       -0.04459167 0.05409966 0.02743077 -0.06904581
000090 07 9e 76 bc 98 fe 95 bd 4d 59 93 bc a4 a6 8b bd
       -0.015052325 -0.073239505 -0.017986918 -0.068188936
0000a0 05 f6 fb bb 9f c5 75 3b d1 49 20 bd dd 0d bd bc
       -0.00768924 0.0037501825 -0.039132897 -0.0230779
0000b0 d6 55 09 3d ce ce 0b bd 80 da 84 bd 26 e3 06 be
       0.033529125 -0.03413277 -0.06486988 -0.13172588
0000c0 41 75 6a 3d 14 71 7b bd 41 ec ab 3d ec db f3 bd
       0.05724073 -0.061387137 0.08394671 -0.11907181
0000d0 7e f4 86 3d 79 13 de 3d 93 17 bf 3b 27 e5 8a bc
       0.06589602 0.10843558 0.0058316677 -0.016954971
0000e0 0f 4b db 3c 7e 71 f5 bc 84 db 31 be 75 2a 9e 3d
       0.02676919 -0.029961344 -0.17368895 0.07722942
0000f0 1f 76 ae 3d 7e 08 31 be 91 81 ef bd da dd f6 3d
       0.085186236 -0.17288396 -0.11694635 0.120540336
000100 d8 d3 1c 3d 31 23 8e bd 98 e3 00 3e 09 eb 0f be
       0.038287967 -0.06940306 0.1258682 -0.14054503
000110 74 d0 e4 ba ee 89 03 3d 03 19 83 3d a4 3a 72 bd
       -0.0017457143 0.032113962 0.06401255 -0.059137955
000120 f5 a2 99 bd dc e7 f5 3b 73 62 01 3d 16 20 4e 3d
       -0.07501785 0.0075044464 0.03158803 0.05032357
000130 5b 53 20 3d 8c 18 08 3d 75 04 2c bd a3 17 f2 3c
       0.039141994 0.033226535 -0.041996438 0.029552286
000140 8f 2e ab 3d 73 d8 9a 3d ca 44 53 be 2a d6 92 bd
       0.0835849 0.07560816 -0.2063171 -0.07169755
000150 03 bf ca 3b 65 61 0d be 9f 98 19 3d ca 8d f0 bd
       0.006187321 -0.13806684 0.037499066 -0.11745794
000160 41 71 e9 bd 91 ae 88 bd 9e 20 92 bd ee 68 63 bd
       -0.113985546 -0.06673921 -0.071351275 -0.05551999
000170 bb 58 04 3e 89 fc 7e 3e 1e cc 48 3e a6 c6 10 be
       0.12924473 0.24901022 0.19609115 -0.14138278
000180 70 64 3b 3e c9 11 52 be ef 4c 8a 3b be 5c 19 be
       0.18300033 -0.20514597 0.004220597 -0.14976785
000190 a8 af 12 3d a6 07 3f bd d5 0e a4 bc f0 3b d9 bc
       0.03581205 -0.046638153 -0.020026604 -0.026517838
0001a0 30 4d 03 3e a4 e0 fe bd bb 8c cf 3c 60 91 81 bc
       0.12822413 -0.124451905 0.02533566 -0.01581639
0001b0 68 8b 04 be b8 0c 3c 3e 67 0a 39 3e a9 7c 32 bc
       -0.12943804 0.18364227 0.18070374 -0.010893979
0001c0 44 cc 95 3d 20 15 0a 3e aa 75 14 3e b0 a9 03 bd
       0.07314351 0.13484621 0.1449801 -0.03214425
0001d0 b2 d6 b3 3d c6 fb ca 3c 96 ea 72 ba 9c ab b4 3d
       0.08781184 0.024778258 -0.00092665234 0.088217944
0001e0 86 74 0a 3d e8 99 71 bc 8a d8 14 3d f4 c8 13 3e
       0.03380253 -0.014746167 0.03633932 0.14432126
0001f0 73 cb 88 3d 49 28 30 3e df 36 fe 3d 55 99 bc bc
       0.0667943 0.17202868 0.124128096 -0.023022333
000200 03 22 8a 3d 8c d3 8b bd 62 76 2d 3d 93 26 33 bd
       0.067447685 -0.06827459 0.042349227 -0.04373796
000210 25 a6 06 3e fb 7e a5 bd 6c 64 1d 3e 38 cc 00 3a
       0.13149317 -0.0808086 0.15370339 0.00049132435
000220 be 45 fb 3d 19 f5 c3 b9 25 94 65 3d 26 70 9d bd
       0.12269162 -0.0003737591 0.056049485 -0.07687406
000230 09 53 01 bd f5 49 3e 3d db e9 1a bd cb 2f 88 3d
       -0.03157333 0.04645725 -0.03782068 0.06649741
000240 df 6d 34 3c 2c 1d ac bc b5 64 78 3d 14 8d 75 3b
       0.011012523 -0.021010004 0.060642917 0.0037468122
000250 79 d8 6a bd 02 b1 75 3d 7f 0d f1 3d ea 4d 91 bd
       -0.05733535 0.05998326 0.11770152 -0.07094939
000260 48 9a 48 bd c0 0d 2f 3d b8 dc 04 3e c4 af 29 bd
       -0.04897526 0.042737722 0.12974823 -0.04142739
000270 2b 5c ea bd c0 36 8e bd 0d 9f e6 bd a2 a2 8f bb
       -0.11443361 -0.069440365 -0.11260805 -0.004383401
000280 d6 d0 d5 bd c6 71 a4 3c 0a c1 16 3d 05 1f fc 3a
       -0.10440223 0.020073783 0.03680519 0.0019235319
000290 1c 90 70 bc 2d ed 3a 3c 94 db 63 3d fb fd 8e 3d
       -0.014682796 0.011409086 0.055629328 0.06982037
0002a0 41 be 8c 3c 30 05 85 bc fa 91 bc bd 97 ab 1a be
       0.017180564 -0.016237825 -0.0920753 -0.15104519
0002b0 1e bd a4 3c f2 b2 6f 3e 77 01 21 3d 6d 71 a0 bc
       0.02010971 0.23408106 0.039308038 -0.019585336
0002c0 f9 d6 7b bd 6d 90 ec 3c c7 33 13 be 2e 58 52 3d
       -0.06148431 0.028877461 -0.1437522 0.051353626
0002d0 12 1d 0e 3e 7e c7 49 bd 5c 87 5b ba 0e 52 f7 3d
       0.13878277 -0.049262516 -0.0008374357 0.120761976
0002e0 c8 c2 3e 3e 29 dc c1 bd 30 38 1e 3e b6 37 f1 bd
       0.1862899 -0.0946582 0.15451121 -0.11778204
0002f0 24 cb 55 bd bf 15 9f 3d 2b 40 db 3c af 2d c4 3b
       -0.052195683 0.077678196 0.026763996 0.005986891
000300 da 81 3e 3e e1 d0 b7 bc 4e a3 86 bc ba 3f 46 3e
       0.18604222 -0.022438468 -0.016435292 0.19360247
000310 fe 79 0a bd 42 38 56 3d 5e 13 84 3b 21 b1 54 3b
       -0.033807747 0.052299745 0.004030629 0.003245421
000320 f0 bb eb 3a 20 8e 00 3e 9e 8e c2 3c f1 fa 4b 3e
       0.0017985087 0.12554216 0.023749646 0.19919945
000330 39 95 67 bd 09 99 39 bb 3f 62 34 bd 41 a9 f2 bb
       -0.056538794 -0.0028319976 -0.044039007 -0.0074054305
000340 8d 85 c2 bd d0 a6 13 bd 0a 7e bf bd e8 86 42 3d
       -0.09498129 -0.036047757 -0.09350212 0.047491938
000350 3c 5b 50 3d 1f 8c 2f be 4d 94 8f bc c0 16 72 bc
       0.050868258 -0.17143296 -0.01752677 -0.014775932
000360 39 83 05 3e ef 9c 31 3d ec 43 a1 3d 26 9a 90 3d
       0.13038339 0.043362554 0.07874283 0.070606515
000370 e6 3c 60 3d 01 44 63 3d 62 d3 4f bd ad a8 02 3b
       0.054745577 0.055484775 -0.0507387 0.0019936964
000380 2d b9 76 3c d4 99 1e bc ad 62 7b bd 40 18 a4 3d
       0.015058798 -0.00968023 -0.0613734 0.08012438
000390 71 80 b1 3d 7c 16 00 3d 8a a2 ad 3d 2e 5f d9 3d
       0.086670764 0.031271443 0.084782675 0.10613857
0003a0 bd 30 79 3d 68 9b 90 3d 23 39 e2 3d dc ea 8d bd
       0.060837496 0.070608914 0.11046054 -0.069295615
0003b0 b6 f8 a0 3d 9d 72 50 bb 75 e6 b9 3c e5 76 87 3d
       0.07859938 -0.0031806596 0.022692898 0.06614474
0003c0 1c 94 c4 bd 31 82 aa 3c ec 84 fd 3b cd c6 7f bc
       -0.09598562 0.020814033 0.007736793 -0.015611363
0003d0 18 12 fd bb c6 58 60 3b 7a 8a 07 3d 49 0a 07 bd
       -0.007723104 0.00342326 0.033091046 -0.032968793
0003e0 bb e8 2e 3e b0 9c 55 bc 76 2f 41 bd 77 b1 79 be
       0.17080967 -0.0130378455 -0.047164403 -0.24384104
0003f0 d1 17 32 bd 8d 09 10 3e e7 33 62 3d 8c e9 32 bd
       -0.043479744 0.14066143 0.05522528 -0.04367976

network_body._body_endoder.seq_layers.2.bias f4 [128]
000000 00 00 00 00 00 00 00 00 00 00 00 00 00 00 00 00
       0.0 0.0 0.0 0.0
000010 00 00 00 00 00 00 00 00 00 00 00 00 00 00 00 00
       0.0 0.0 0.0 0.0
000020 00 00 00 00 00 00 00 00 00 00 00 00 00 00 00 00
       0.0 0.0 0.0 0.0
000030 00 00 00 00 00 00 00 00 00 00 00 00 00 00 00 00
       0.0 0.0 0.0 0.0
000040 00 00 00 00 00 00 00 00 00 00 00 00 00 00 00 00
       0.0 0.0 0.0 0.0
000050 00 00 00 00 00 00 00 00 00 00 00 00 00 00 00 00
       0.0 0.0 0.0 0.0
000060 00 00 00 00 00 00 00 00 00 00 00 00 00 00 00 00
       0.0 0.0 0.0 0.0
000070 00 00 00 00 00 00 00 00 00 00 00 00 00 00 00 00
       0.0 0.0 0.0 0.0
000080 00 00 00 00 00 00 00 00 00 00 00 00 00 00 00 00
       0.0 0.0 0.0 0.0
000090 00 00 00 00 00 00 00 00 00 00 00 00 00 00 00 00
       0.0 0.0 0.0 0.0
0000a0 00 00 00 00 00 00 00 00 00 00 00 00 00 00 00 00
       0.0 0.0 0.0 0.0
0000b0 00 00 00 00 00 00 00 00 00 00 00 00 00 00 00 00
       0.0 0.0 0.0 0.0
0000c0 00 00 00 00 00 00 00 00 00 00 00 00 00 00 00 00
       0.0 0.0 0.0 0.0
0000d0 00 00 00 00 00 00 00 00 00 00 00 00 00 00 00 00
       0.0 0.0 0.0 0.0
0000e0 00 00 00 00 00 00 00 00 00 00 00 00 00 00 00 00
       0.0 0.0 0.0 0.0
0000f0 00 00 00 00 00 00 00 00 00 00 00 00 00 00 00 00
       0.0 0.0 0.0 0.0
000100 00 00 00 00 00 00 00 00 00 00 00 00 00 00 00 00
       0.0 0.0 0.0 0.0
000110 00 00 00 00 00 00 00 00 00 00 00 00 00 00 00 00
       0.0 0.0 0.0 0.0
000120 00 00 00 00 00 00 00 00 00 00 00 00 00 00 00 00
       0.0 0.0 0.0 0.0
000130 00 00 00 00 00 00 00 00 00 00 00 00 00 00 00 00
       0.0 0.0 0.0 0.0
000140 00 00 00 00 00 00 00 00 00 00 00 00 00 00 00 00
       0.0 0.0 0.0 0.0
000150 00 00 00 00 00 00 00 00 00 00 00 00 00 00 00 00
       0.0 0.0 0.0 0.0
000160 00 00 00 00 00 00 00 00 00 00 00 00 00 00 00 00
       0.0 0.0 0.0 0.0
000170 00 00 00 00 00 00 00 00 00 00 00 00 00 00 00 00
       0.0 0.0 0.0 0.0
000180 00 00 00 00 00 00 00 00 00 00 00 00 00 00 00 00
       0.0 0.0 0.0 0.0
000190 00 00 00 00 00 00 00 00 00 00 00 00 00 00 00 00
       0.0 0.0 0.0 0.0
0001a0 00 00 00 00 00 00 00 00 00 00 00 00 00 00 00 00
       0.0 0.0 0.0 0.0
0001b0 00 00 00 00 00 00 00 00 00 00 00 00 00 00 00 00
       0.0 0.0 0.0 0.0
0001c0 00 00 00 00 00 00 00 00 00 00 00 00 00 00 00 00
       0.0 0.0 0.0 0.0
0001d0 00 00 00 00 00 00 00 00 00 00 00 00 00 00 00 00
       0.0 0.0 0.0 0.0
0001e0 00 00 00 00 00 00 00 00 00 00 00 00 00 00 00 00
       0.0 0.0 0.0 0.0
0001f0 00 00 00 00 00 00 00 00 00 00 00 00 00 00 00 00
       0.0 0.0 0.0 0.0

value_heads.value_heads.extrinsic.weight f4 [1, 128]
000000 75 c9 d3 bb 6c a7 8a 3d 06 07 54 3e 33 c1 5f bb
       -0.0064632245 0.067702144 0.20705804 -0.0034142255
000010 8f e2 6d bc 59 23 b9 3d df 63 b9 bd 9a 90 bb 3d
       -0.014519348 0.09039945 -0.09052252 0.0915844
000020 45 17 35 be d2 05 43 3c ca ad c2 bd 46 90 c1 3d
       -0.17684658 0.011903243 -0.09505804 0.09451346
000030 0e 86 6a bc 57 82 d6 bd b8 66 f1 3d d3 a4 78 3c
       -0.014314188 -0.10474079 0.1178717 0.015176016
000040 e5 4b 2c be 3c 9f 25 be 68 ae 4c 3e be 15 60 3d
       -0.16825826 -0.16174024 0.19988406 0.054708235
000050 ec 28 63 bb e3 20 15 be 53 25 b2 3d 26 f6 d4 bd
       -0.0034661843 -0.14563327 0.08698525 -0.103985116
000060 6d 84 e1 3d 34 88 c0 bb 66 62 56 be b9 34 ea bd
       0.11011586 -0.0058756117 -0.20935974 -0.11435837
000070 33 f5 46 3e 55 6f 32 be 49 94 4d 3e b1 bb ab 3d
       0.19429474 -0.17425282 0.20076098 0.08385409
000080 5a f6 83 3d 2f c3 4d 3e 7b 94 03 3c 2e 35 a9 bc
       0.06443472 0.20093988 0.008031006 -0.02065524
000090 84 58 9a bb bf 1f 8c 3d 96 2a 7a bc 02 dc 09 bd
       -0.004710259 0.068419926 -0.015268942 -0.03365708
0000a0 40 dd f3 bd d4 ad 17 3e f0 ed 02 be 1b 94 43 3e
       -0.119074345 0.14812404 -0.12786078 0.19099467
0000b0 ee 12 cc 3d 76 5c fc 3d 96 76 14 be da 6a 1c 3e
       0.09964548 0.12322323 -0.14498362 0.15275136
0000c0 d9 d6 1c bd 27 b8 5a be 23 02 46 bd cb ea d0 bd
       -0.038290832 -0.21359311 -0.04834188 -0.10201033
0000d0 c4 5e 7c 3d 8c a8 cf bd 1c 66 4d be c1 03 0c be
       0.061613813 -0.1013957 -0.20058483 -0.13673307
0000e0 52 44 84 bd dc 1d e5 bc 02 2d fb 3d bf a6 ab 3d
       -0.064583436 -0.02796834 0.12264444 0.08381414
0000f0 95 8b 3c bd 93 1c 1a be 30 e4 40 3d dc 5a f6 bc
       -0.046031553 -0.15049963 0.047092617 -0.030072622
000100 a7 26 21 be fb 8b 9a bd ec ce e7 bd 41 68 db bd
       -0.15737401 -0.075462304 -0.11318764 -0.10713244
000110 5c 63 41 3e 12 a3 07 bd 98 c9 92 3d d2 11 2a 3e
       0.18885559 -0.0331145 0.07167357 0.1660836
000120 60 d0 49 3e 40 c0 30 be 0b 2d 33 3b 9a af 50 be
       0.19708395 -0.17260838 0.002734008 -0.20379487
000130 b7 43 3d be 62 31 8d 3c f7 09 1d 3e 7d 55 57 3e
       -0.18482862 0.017235462 0.15335833 0.21028705
000140 2f 98 19 3e 27 b3 81 bd 8d 4f 25 3e 05 0f bc bc
       0.1499946 -0.06332999 0.16143627 -0.02295638
000150 18 30 03 3e 30 d2 94 bd 07 88 1a be 34 a8 25 3d
       0.12811315 -0.072666526 -0.15090953 0.040443614
000160 43 8f 16 3e 45 59 85 3a bc ba 29 be 83 54 92 bd
       0.14703088 0.0010173699 -0.1657514 -0.071450256
000170 d1 c7 f8 3d 3e be 92 bc cd a9 4f be c1 2b 12 be
       0.12147487 -0.01791298 -0.20279618 -0.14274503
000180 12 ee 84 3d 9a c3 00 3e ef 46 c5 bd f6 09 2e 3e
       0.06490721 0.12574616 -0.0963267 0.16995987
000190 16 bf 21 be 13 56 22 be 5f 70 36 3e 60 d4 f3 3d
       -0.1579555 -0.15853147 0.17816304 0.11905742
0001a0 e3 e2 03 3e f4 ad 19 be 5f a2 17 bd 9f ea 06 3e
       0.12879519 -0.15007764 -0.037020084 0.13175438
0001b0 88 d4 33 be 6a 15 01 be 27 78 3a 3e cb 41 f5 3c
       -0.17561543 -0.12605825 0.18209897 0.0299386
0001c0 5d 74 00 be 5c 01 4f 3e 31 83 82 3d 9b 1f b3 3d
       -0.12544389 0.20215362 0.06372679 0.08746263
0001d0 62 f5 3b 3e d5 c0 33 be 12 0f 4b be 9c 01 35 be
       0.18355325 -0.17554028 -0.19829968 -0.17676395
0001e0 68 3d 2f be 5e a0 e0 bd 4c f7 05 bc e7 47 18 be
       -0.17113268 -0.109680876 -0.008176636 -0.14871179
0001f0 02 98 52 bd c0 65 0e be db 66 7c bd 80 81 b9 3d
       -0.051414497 -0.13906002 -0.061621528 0.09057903
