results/MoveToGoal9/MoveToGoal/MoveToGoal-15229.pt (torch, 16255 bytes, 24 tensors)

network_body._body_endoder.seq_layers.0.weight f4 [20, 6]
00000000: e4a8 f2be 5660 1fbe 9cad 8abe 7a43 96bd
00000010: 0a99 acbe cff1 0dbf c6e6 c6bd 4514 6ebe
00000020: c0c4 e3be 72c3 8bbe 9ac9 c7be f7e3 95be
00000030: 91d1 e2bd 2416 a1be a526 dfbe 44f0 f03e
00000040: 68a8 b03e 82aa ddbe 4fa4 b53e 38a1 24be
00000050: 3fba 173f 5a89 933e 0c68 03be 2eb0 ac3e
00000060: e800 5a3b 6c19 24bf eb5e 0b3f 7cd6 2abe
00000070: c50e 813f cf5e 26be a105 7bbe 2c09 81bf
00000080: 1ab9 96be 9a5d 69bc f770 69be 08d1 99be
00000090: 2225 2dbe 78c9 4c3f cd27 fcbe 97e1 553e
000000a0: 7bc5 b13d 81d8 1fbe 04e4 82be 1b98 fe3e
000000b0: 4fb8 bfbd eaaf c63d 43b0 54bf 0eee 333e
000000c0: 6b9a c43e 1bb2 ed3e e823 2b3f e065 aabe
000000d0: b3a2 5abf e68e 3a3c ffad de3e 2750 12bd
000000e0: d26c 873d 53cf 703e f1e5 b5be 2106 9b3c
000000f0: 4b1f b43e 6e87 cd3e 043a 0cbf 7c8b 1dbf
00000100: 6cc9 d33e 9eee d6bb 14cd 133f f5c2 903d
00000110: 298a 233f 3604 ecbe fd2a 8c3e dac7 d7be
00000120: 7565 a83d ff39 48be 462d 8c3d 6a38 81be
00000130: d932 f93e a324 5dbe 5e8e e03e c68d 203d
00000140: 793e 29be 572b 08bf 96a2 e1be e615 9d3d
00000150: feff 43be cb7e a53e a6be 46be 96e1 e4be
00000160: f90b d2be 9d5b de3e 0749 b3be bd8f 3e3f
00000170: e1c2 013f 1858 ddbe f983 113f 8132 ff3e
00000180: 4450 083e 56d8 593f 0435 2bbe d9d9 f3bd
00000190: 4045 b2bf 9324 94be 8b75 233f 0b10 013f
000001a0: 2ba2 32be 9c1e fabe d5a0 a5be af22 ccbe
000001b0: 2b81 74bf 4a62 e0bd 03fb 3dbf d067 483e
000001c0: 0149 003c 928d 5bbd 2bc1 e2be 34f3 b53e
000001d0: ea0c 1d3f 9787 4cbe c2c7 823e 6b7f 44be
-0.47394478 -0.15564093 -0.27085578 -0.07337089 -0.3371051 -0.55447096 -0.09711985 -0.2324992
-0.44486046 -0.2729755 -0.39020997 -0.29275486 -0.11075128 -0.31462204 -0.4358417 0.47058308
0.34503484 -0.4329415 0.3547692 -0.16077125 0.59268564 0.28815728 -0.1283266 0.33728164
0.00332647 -0.6410129 0.5444171 -0.16683382 1.0082632 -0.16247104 -0.24513866 -1.0080924
-0.29438096 -0.014243508 -0.22796999 -0.3004229 -0.16908696 0.79994917 -0.49249116 0.20886837
0.086802445 -0.15609933 -0.25564587 0.49725422 -0.09361326 0.09701522 -0.83081454 0.1757128
0.38399062 0.46424946 0.66851664 -0.3328085 -0.8540451 0.011386609 0.43492123 -0.03572097
0.06612553 0.23516588 -0.35526994 0.01892382 0.35180125 0.40142387 -0.54776025 -0.6154096
0.4136461 -0.006559207 0.577348 0.07068435 0.6388269 -0.46096963 0.27376547 -0.42144662
0.082224764 -0.19553374 0.06844573 -0.25238353 0.48671606 -0.21596007 0.43858618 0.039197706
-0.16527738 -0.5319113 -0.44069356 0.076701924 -0.19140622 0.32323298 -0.19408664 -0.44703358
-0.4102476 0.4342927 -0.35016653 0.7443808 0.50687987 -0.43231273 0.56842 0.4984322
0.13311869 0.8509573 -0.16719443 -0.119067855 -1.3927383 -0.28934154 0.6385123 0.50415105
-0.17444675 -0.48851478 -0.32349268 -0.3987021 -0.95509595 -0.10956247 -0.7421114 0.19570851
0.0078299055 -0.05360181 -0.44288 0.35537112 0.6134783 -0.19973598 0.25543028 -0.19189231

network_body._body_endoder.seq_layers.0.bias f4 [20]
00000000: 73ab bc3c 6537 5abc 6e1c e33c 058e 8e3c
00000010: c710 3f3d f681 52bc 38f5 bdbc 9833 91bd
00000020: f24c c23c 7a97 5d3d 55ed 6cbc 1683 79bb
00000030: bf8d 603c 67d4 8a3c b80a 97bc 415f 74ba
00000040: f29b a3bd 62b7 163d cf9a 373d 995e 6f3c
0.023030972 -0.013318871 0.027723517 0.017401705 0.04664686 -0.012848368 -0.023188218 -0.07089919
0.023718331 0.054099537 -0.014460881 -0.0038072518 0.01370567 0.016946984 -0.018437728 -0.0009322055
-0.079887286 0.03679598 0.04482537 0.014609956

action_model._continuous_distribution.log_sigma f4 [1, 2]
00000000: 09be 35bd c697 50bd
-0.044370685 -0.050925992

action_model._continuous_distribution.mu.weight f4 [2, 20]
00000000: bbbe 883d accd f3bc 01ee 37bd 60b1 35bc
00000010: 83ca c5bd b5b3 eebc 7532 803c dd05 1c3b
00000020: a1bf 56bd 0f10 a03d 26f9 82bd c427 4a3d
00000030: e371 a93d 19a0 3a3c c4aa cb3c 12a0 3f3d
00000040: 5270 37bd 3a34 7dbd aafc 52bc f163 e73c
00000050: aba9 fe3d 72df 15bd c62c b8bd 83a3 393d
00000060: 17e0 f4bd 1352 693d f658 0f3d 5eb5 693b
00000070: 2a6b 883d dbfd 7b3d ef1b b93c 96f5 0abd
00000080: 27b2 cbbd 62ca 6b3d 9a57 62bd bcde cbbc
00000090: 280f 36bc d10a 0ebe 9ffe 473d 2e92 2fbd
0.06677004 -0.029761158 -0.044904713 -0.011089653 -0.09657767 -0.029138425 0.01564906 0.0023807206
-0.052428845 0.07815563 -0.063951775 0.04935433 0.08273675 0.011390709 0.0248617 0.046783514
-0.04478485 -0.061817385 -0.012877623 0.028245898 0.12434705 -0.036590047 -0.08992915 0.045321953
-0.11956804 0.056963038 0.03499695 0.0035661082 0.06661065 0.061521392 0.022596328 -0.033925615
-0.09946089 0.057566054 -0.055259325 -0.024886481 -0.011112012 -0.13871314 0.04882681 -0.042864017

action_model._continuous_distribution.mu.bias f4 [2]
00000000: 55c0 f6bb 3526 e2bc
-0.007530252 -0.02760611

exp_avg f4 [20, 6]
00000000: 8540 70bc a897 b93c 7661 fbbb e46c e33b
00000010: a897 b93c d7d2 5fbc 7495 a5b9 b9ae 053a
00000020: 89dd 2bb9 9ad0 2339 b9ae 053a 7338 a1b9
00000030: edec 263c f03b 82bc 37f1 ab3b d696 9fbb
00000040: f03b 82bc d00f 1d3c bacf cf38 a1b2 18b9
00000050: 85ac 4938 be1d 3bb8 a1b2 18b9 2027 b838
00000060: d1f4 253c c36a 88bc 52d8 ab3b 6f2a a7bb
00000070: c36a 88bc b184 243c 2439 3b39 5ea5 8cb9
00000080: 1f8e cc38 0f59 acb8 5ea5 8cb9 4e9e 2939
00000090: 4370 90bb 4da0 de3b 06f4 14bb 4067 083b
000000a0: 4da0 de3b 3b3e 86bb d773 ab36 9323 55b7
000000b0: 69b6 3d36 2d97 82b6 9323 55b7 b785 0037
000000c0: c4c4 a838 9fd4 e9b8 090c 1e38 ab44 0fb8
000000d0: 9fd4 e9b8 d2ff 8c38 6bb7 b738 9cd6 54b9
000000e0: 61ab 3538 0068 82b8 9cd6 54b9 4c57 0039
000000f0: daba 36bc 7db8 823c 18b4 c1bb 762f a03b
00000100: 7db8 823c 04a6 1dbc 790f 9139 797a db39
00000110: b264 8db9 8879 0639 797a db39 5258 84b9
00000120: 4773 de3c 5265 22bd d95d 693c 0a00 47bc
00000130: 5265 22bd 3cd9 c33c 17dd cb38 5094 0eb9
00000140: c8ac 2e38 91b7 2eb8 5094 0eb9 33f3 ab38
00000150: 3d6d 95ba 0881 db3a 6a14 1bba 887d 063a
00000160: 0881 db3a 445c 84ba 54f1 113c d8a9 51bc
00000170: 01f3 993b 0576 80bb d8a9 51bc 65da fc3b
00000180: 9b3c 6c39 4e2c 96b9 66d6 fc38 bd05 b8b8
00000190: 4e2c 96b9 a71b 3539 6887 873b aa71 bebb
000001a0: e45e af3a d95e e9ba aa71 bebb b4ac 653b
000001b0: 4997 22bc 34a0 703c e82b a9bb 856e 933b
000001c0: 34a0 703c c818 11bc bdf4 243c 2f5d 71bc
000001d0: ec6c ac3b 4de2 93bb 2f5d 71bc bc8a 113c
-0.01466382 0.022655323 -0.0076715304 0.006940471 0.022655323 -0.013661108 -0.00031582604 0.0005099583
-0.00016390359 0.00015622601 0.0005099583 -0.0003075037 0.010188323 -0.015897721 0.005247261 -0.004870276
-0.015897721 0.0095862895 9.909221e-05 -0.00014562394 4.8082806e-05 -4.4611974e-05 -0.00014562394 8.781091e-05
0.01012917 -0.01665247 0.0052442933 -0.005101494 -0.01665247 0.010041402 0.00017854996 -0.0002682609
9.75395e-05 -8.2181876e-05 -0.0002682609 0.00016176069 -0.004407914 0.0067940117 -0.0022728457 0.0020813495
0.0067940117 -0.004096774 5.1096827e-06 -1.2704072e-05 2.8269371e-06 -3.891901e-06 -1.2704072e-05 7.660527e-06
8.047515e-05 -0.000111499096 3.7681344e-05 -3.415781e-05 -0.000111499096 6.7233705e-05 8.760284e-05 -0.00020297844
4.3313372e-05 -6.2182546e-05 -0.00020297844 0.00012239552 -0.011152947 0.015957111 -0.0059113614 0.0048884703
0.015957111 -0.009622101 0.00027668083 0.00041862184 -0.0002696864 0.0001282451 0.00041862184 -0.00025242806
0.027154578 -0.039647408 0.014243566 -0.012146005 -0.039647408 0.023907296 9.7209755e-05 -0.00013597426
4.1645748e-05 -4.1655792e-05 -0.00013597426 8.199215e-05 -0.0011400353 0.0016746828 -0.00059158227 0.00051304
0.0016746828 -0.0010098298 0.008907635 -0.012796842 0.004698158 -0.003920319 -0.012796842 0.0077164643
0.00022529291 -0.0002864324 0.00012056231 -8.7748725e-05 -0.0002864324 0.00017271806 0.0041360147 -0.0058118897
0.001337972 -0.0017804756 -0.0058118897 0.0035045566 -0.0099237645 0.014686633 -0.0051627047 0.004499259
0.014686633 -0.008856006 0.010068116 -0.014731689 0.005262008 -0.004513061 -0.014731689 0.0088831745

exp_avg_sq f4 [20, 6]
00000000: 3ad2 8e3a 0cee 943b 44b1 a439 78a2 df39
00000010: 0cee 943b 749b d83a f4dc af35 fa2a 3137
00000020: a22e e434 bd04 8535 fa2a 3137 b8d6 8036
00000030: e31d 083a 9527 2c3b 8a13 4d39 3141 8139
00000040: 9527 2c3b cf62 7a3a c06e df33 cfd6 dc35
00000050: 7212 2d33 a3ce 2534 cfd6 dc35 c398 2035
00000060: b881 a03a c36e c03b db2e dd39 bd7a 103a
00000070: c36e c03b 80f0 0b3b 1fad 3f33 f4ce 2434
00000080: d624 e732 5b7a 7732 f4ce 2434 96b3 6f33
00000090: 8403 2139 503a d13a d0fc 5938 d716 1d39
000000a0: 503a d13a 1127 183a 2fe7 0434 de16 1536
000000b0: d5c1 5933 c0df 5f34 de16 1536 cdd6 5835
000000c0: 3ab2 5f34 1ddd 8f36 9211 c833 0d07 d834
000000d0: 1ddd 8f36 3a3d d135 38bc 5235 68a6 9d36
000000e0: 9a88 c734 99ba ec34 68a6 9d36 3e4a e535
000000f0: 5f54 de39 db9f 033b 81ed 3f39 1fa6 4539
00000100: db9f 033b 1a70 3f3a b613 dd38 d830 983a
00000110: f40b 1238 0c88 e438 d830 983a b159 dd39
00000120: fd06 da3a b4a5 023c 59a1 453a 672e 443a
00000130: b4a5 023c 3e04 3e3b d810 a233 280f 1735
00000140: d045 4733 0dd5 6233 280f 1735 44b4 5b34
00000150: c510 8136 2345 c837 755e be35 2e5d 1636
00000160: 2345 c837 9aa3 1137 9a4b 6f39 e72c be3a
00000170: 7fd2 ed38 ddc8 0e39 e72c be3a 3c4c 0a3a
00000180: 7149 9d35 747f e536 2559 0b35 ea4e 2c35
00000190: 747f e536 c8e4 2636 f4bf 9a39 6491 5b3b
000001a0: a252 3d39 4dda a439 6491 5b3b 22ac 9f3a
000001b0: 3b5e bf39 d605 f43a bfcb d938 b936 3739
000001c0: d605 f43a e274 313a 12ce 3439 87a8 693a
000001d0: ce69 b738 986e af38 87a8 693a 53eb a939
0.0010896393 0.004544979 0.0003141259 0.00042654923 0.004544979 0.0016525821 1.3102822e-06 1.0560028e-05
4.250224e-07 9.910651e-07 1.0560028e-05 3.839694e-06 0.0005192442 0.002626871 0.00019557602 0.0002465337
0.002626871 0.0009551467 1.0404392e-07 1.6453795e-06 4.0296477e-08 1.5441996e-07 1.6453795e-06 5.982694e-07
0.001224569 0.005872579 0.00042187315 0.00055114535 0.005872579 0.0021353066 4.4628106e-08 1.534898e-07
2.690869e-08 1.4405113e-08 1.534898e-07 5.5809856e-08 0.00015355466 0.0015962813 5.197228e-05 0.00014981195
0.0015962813 0.0005804161 1.2377562e-07 2.221604e-06 5.070054e-08 2.0849893e-07 2.221604e-06 8.0778847e-07
2.0833332e-07 4.287473e-06 9.316422e-08 4.0238265e-07 4.287473e-06 1.5589533e-06 7.850499e-07 4.698337e-06
3.716603e-07 4.4094193e-07 4.698337e-06 1.7083437e-06 0.00042406 0.0020084295 0.00018303657 0.00018849269
0.0020084295 0.0007302776 0.00010541773 0.0011611236 3.4820245e-05 0.00010897228 0.0011611236 0.0004221923
0.0016634163 0.007974077 0.0007538996 0.0007483721 0.007974077 0.0028994228 7.546777e-08 5.627394e-07
4.6396792e-08 5.2813494e-08 5.627394e-07 2.0461545e-07 3.846452e-06 2.3874052e-05 1.4183594e-06 2.240598e-06
2.3874052e-05 8.680765e-06 0.0002282098 0.0014509232 0.000113402486 0.00013617003 0.0014509232 0.0005275642
1.1718786e-06 6.8395693e-06 5.191126e-07 6.418983e-07 6.8395693e-06 2.4869096e-06 0.00029516185 0.0033503408
0.00018055228 0.00031443164 0.0033503408 0.0012182037 0.00036500566 0.0018617462 0.00010385317 0.00017472626
0.0018617462 0.0006769431 0.00017242905 0.0008913357 8.745828e-05 8.36525e-05 0.0008913357 0.00032409522

exp_avg f4 [20]
00000000: 98d0 4d3b ac3f 9438 b46c 10bb fe55 a9b7
00000010: 0048 17bb 8ff8 1bb8 43e2 763a e65c ecb5
00000020: 8ea7 81b7 8607 ecb7 d2f6 103b a464 7338
00000030: 3417 b4bb 6f1d 9eb7 e36b 7339 3582 e8ba
00000040: 4089 26b8 f031 53ba 1e6c 053b e7d4 05bb
0.003140485 7.06905e-05 -0.0022037448 -2.0186413e-05 -0.0023083687 -3.7186368e-05 0.0009417871 -1.7610407e-06
-1.5456022e-05 -2.8136896e-05 0.0022119773 5.8029444e-05 -0.00549593 -1.8848774e-05 0.00023214477 -0.0017739
-3.9705308e-05 -0.00080564525 0.0020358632 -0.002042109

exp_avg_sq f4 [20]
00000000: 3d27 b738 5ce1 5934 04b7 5338 1fcb 0733
00000010: 19a7 ec38 3aae 4a31 3da7 0038 5659 3733
00000020: 3aec b033 8ae0 c133 00df 2138 dc29 bb37
00000030: 5eab 2039 98c5 3932 974a f634 76e0 e937
00000040: 1c1e 0d34 fa02 8738 860c 1638 0bad 8f37
8.733429e-05 2.0291685e-07 5.0476767e-05 3.1616874e-08 0.00011284481 2.9493905e-09 3.067333e-05 4.268926e-08
8.238608e-08 9.028106e-08 3.8593076e-05 2.231163e-05 0.00015322628 1.0813345e-08 4.5875342e-07 2.7880287e-05
1.3142602e-07 6.437856e-05 3.577445e-05 1.7127508e-05

exp_avg f4 [1, 2]
00000000: 1533 e33b 550c 9e3c
0.0069335797 0.01929299

exp_avg_sq f4 [1, 2]
00000000: d264 793c e5ce 253c
0.015221791 0.010120128

exp_avg f4 [2, 20]
00000000: 26b2 0abd 9f47 993b 508b cbbd ca69 3c39
00000010: 4757 cabc c87d d139 1cf9 4abe 5b16 bc3b
00000020: 5b80 9038 5d6a 343a 4d4e aebd a20d 0c3c
00000030: d0ed 03bd 317c 5339 ae74 a13b 7899 0bbe
00000040: fe37 223b 5ea0 143c f449 12be 1b5b debd
00000050: 2aa5 4a3d 20ba f3bb ab32 273e 8f5a 01ba
00000060: c701 423d 1b0c 21ba fd40 a93e cab0 19bc
00000070: 902e 62b9 1cac c9ba 5eec 133e 9092 0ebc
00000080: 021c 693d 9b85 e2b9 231b 02bc 51d7 6d3e
00000090: 7032 8bbb cf4d 2dbc 35b5 633e 8a1d 3d3e
-0.0338613 0.0046777274 -0.09938681 0.00017968487 -0.02469982 0.000399573 -0.1982159 0.0057399697
6.890363e-05 0.00068823044 -0.085110284 0.008548172 -0.032209218 0.00020168793 0.0049272394 -0.13632762
0.0024752612 0.009071438 -0.14286023 -0.10857221 0.04947392 -0.0074379593 0.16327922 -0.0004934454
0.047364976 -0.00061434665 0.33057395 -0.009380529 -0.00021570385 -0.0015386376 0.14445636 -0.008701935
0.056911476 -0.00043205623 -0.00794104 0.23226668 -0.004247956 -0.010577633 0.22237094 0.184683

exp_avg_sq f4 [2, 20]
00000000: 5554 b03b 9461 8639 6b58 e33d 1d2d 8838
00000010: df28 ab3c c731 8c35 4f50 1a3f 840a eb39
00000020: b734 1738 5362 2c38 7442 1d3e 1cab 293d
00000030: 040e c93c 13f6 e536 6b3d 9e39 0259 ad3e
00000040: 201e 8b39 7f01 393b 773a 1b3e df0f 4a3e
00000050: 05b6 923b bb2a 6339 fdae b23d 8aee be38
00000060: b0e7 d63c 4887 5235 f780 133f cf62 e239
00000070: d52d 5538 7ffd 3e38 ee37 143e d3a0 6c3d
00000080: 7474 d03c a631 f636 dd8f 9339 2bfe b93e
00000090: de68 9d39 f9eb 6b3b 7e06 f03d 6054 5a3e
0.005381147 0.00025631173 0.11100849 6.493388e-05 0.020893512 1.04453e-06 0.6027879 0.00044830528
3.60503e-05 4.1099567e-05 0.15357381 0.04142295 0.024542816 6.8533786e-06 0.00030181868 0.3385697
0.0002653459 0.0028229652 0.15159021 0.19732617 0.004477265 0.00021664325 0.087247826 9.1043374e-05
0.026233524 7.8427956e-07 0.5761866 0.00043179697 5.082584e-05 4.5535617e-05 0.1447446 0.05777056
0.025446154 7.337151e-06 0.0002814521 0.36326727 0.00030023506 0.0035998805 0.11719988 0.21321249

exp_avg f4 [2]
00000000: e115 a6bc d76d 0d3d
-0.020274105 0.03452858

exp_avg_sq f4 [2]
00000000: 2c15 f63b bc1f f93b
0.007509848 0.00760266

exp_avg f4 [20, 6]
00000000: 34f8 3cb9 d14a 3bbb 85db c138 2882 65ba
00000010: d14a 3bbb a6df e13a dfd3 4a38 77fc 08b8
00000020: d799 0b38 f5dc 27b7 77fc 08b8 6234 a537
00000030: 81b0 b338 c520 1d39 c517 7d38 7d8b 4038
00000040: c520 1d39 e07e bdb8 e52e f338 833c 253b
00000050: 8b9c d7b8 267b 4a3a 833c 253b 3a46 c7ba
00000060: 1d04 f6b5 bac4 0537 0421 18b6 8feb 2336
00000070: bac4 0537 fb52 a1b6 dee8 c5b8 4f2c 49bb
00000080: 2695 2139 9784 76ba 4f2c 49bb 1e9d f23a
00000090: 013b d4b7 f657 be3a 780b 66b9 543f e939
000000a0: f657 be3a b38d 65ba 7386 9e37 788a 96b9
000000b0: 0628 de37 2079 b8b8 788a 96b9 378d 3539
000000c0: 77ef 5638 55ec 063b d86a e7b8 cf55 253a
000000d0: 55ec 063b 7eb7 a2ba e1cf c9b6 bdc8 07ba
000000e0: ba6a e037 e763 26b9 bdc8 07ba 49c1 a339
000000f0: 4d71 33b8 26f3 0439 33ee bcb7 c1ea 2238
00000100: 26f3 0439 3b56 a0b8 ffe4 08b3 f226 8db4
00000110: 397a 20b3 daf7 acb3 f226 8db4 993a 2a34
00000120: 417d dd37 a827 6db9 276e b437 174e 91b8
00000130: a827 6db9 fc00 0f39 61b7 d038 32c1 4d3b
00000140: e485 21b9 d921 7c3a 32c1 4d3b 9f23 f8ba
00000150: ac5e e738 27fd a43a 3c81 a0b7 882d ca39
00000160: 27fd a43a d3f9 46ba 9d4b bbb9 f8b5 2aba
00000170: 2a87 0eb9 8230 51b9 f8b5 2aba 65e0 cd39
00000180: 4b4f ab37 b261 cbba 032a eb38 6739 f9b9
00000190: b261 cbba f746 753a fbae 9238 118e 1d3b
000001a0: e531 ffb8 7511 413a 118e 1d3b b302 beba
000001b0: e31a 6bba ed4c 133b 3c17 2eba 9b80 343a
000001c0: ed4c 133b cba4 b1ba ddc9 5d38 a339 9cb9
000001d0: ceb4 6538 4b70 bfb8 a339 9cb9 2468 3c39
-0.0001802154 -0.002857853 9.243846e-05 -0.00087550515 -0.002857853 0.001723279 4.8357873e-05 -3.2660053e-05
3.3283457e-05 -1.0005421e-05 -3.2660053e-05 1.9693925e-05 8.5682615e-05 0.00014984894 6.0342038e-05 4.5906276e-05
0.00014984894 -9.0358546e-05 0.00011595878 0.002521307 -0.00010281157 0.0007724039 0.002521307 -0.0015203424
-1.8329625e-06 7.973222e-06 -2.2668983e-06 2.4426006e-06 7.973222e-06 -4.807834e-06 -9.437067e-05 -0.0030696576
0.00015409719 -0.00094039127 -0.0030696576 0.0018509959 -2.5299845e-05 0.0014522064 -0.00021938782 0.00044488406
0.0014522064 -0.00087567716 1.8897676e-05 -0.00028713397 2.64831e-05 -8.796365e-05 -0.00028713397 0.00017314112
5.1244595e-05 0.0020587642 -0.000110348396 0.0006307037 0.0020587642 -0.0012414304 -6.014467e-06 -0.00051797536
2.675258e-05 -0.0001586821 -0.00051797536 0.0003123379 -4.2782445e-05 0.00012679081 -2.2522267e-05 3.884244e-05
0.00012679081 -7.645456e-05 -3.187324e-08 -2.6291633e-07 -3.7364064e-08 -8.054458e-08 -2.6291633e-07 1.5853801e-07
2.6403579e-05 -0.00022616854 2.1508966e-05 -6.928684e-05 -0.00022616854 0.0001363791 9.95237e-05 0.003139567
-0.00015404035 0.0009618081 0.003139567 -0.0018931514 0.000110325724 0.0012587652 -1.9133666e-05 0.00038562366
0.0012587652 -0.00075903273 -0.00035723756 -0.0006512101 -0.00013592528 -0.00019949864 -0.0006512101 0.00039267834
2.0421712e-05 -0.0015516786 0.000112134985 -0.0004753575 -0.0015516786 0.0009356583 6.994415e-05 0.0024040977
-0.00012168641 0.0007364967 0.0024040977 -0.0014496654 -0.0008968545 0.0022476271 -0.00066410354 0.0006885619
0.0022476271 -0.001355314 5.2878506e-05 -0.0002979758 5.4766242e-05 -9.128506e-05 -0.0002979758 0.00017967873

exp_avg_sq f4 [20, 6]
00000000: 918f 753b 9eb5 1b3d 7b87 d53a a6d0 693b
00000010: 9eb5 1b3d a677 623c 3ede 3d37 6ee3 1239
00000020: 72db 9b36 f491 5c37 6ee3 1239 6ba3 5538
00000030: 9815 bb38 c916 0f3a a23d 8c37 19dd 5638
00000040: c916 0f3a ca1c 5039 2e1a 0f3b 9c88 b63c
00000050: bf49 7e3a 0d0c 093b 9c88 b63c 9dbd 043c
00000060: 73bd c431 5308 9733 0fed 6a31 99ca e231
00000070: 5308 9733 4faa db32 f7b2 793b aa06 203d
00000080: 17f6 da3a ec4b 703b aa06 203d c7be 683c
00000090: 7175 533a 7b45 013c ded2 cd39 721d 423a
000000a0: 7b45 013c d603 3c3b 9e20 bf37 3a60 6439
000000b0: 1c54 1937 5077 ab37 3a60 6439 f613 a638
000000c0: 3e78 bc3a 9a8f 793c 351d 2b3a 2b5f bb3a
000000d0: 9a8f 793c e57b b53b 0bf4 d838 8bde 5e3a
000000e0: a08a 1e38 df54 a738 8bde 5e3a c912 a239
000000f0: 7cc8 0736 4be0 7a37 302f d634 da5b bc35
00000100: 4be0 7a37 9b70 b636 00bf d72f a00f 8a31
00000110: 0369 082f 5950 cf2f a00f 8a31 82cc c830
00000120: a78d da38 0c28 953a 121c 3038 a5f9 df38
00000130: 0c28 953a ebef d839 c6ae 4a3b 34c6 023d
00000140: dc59 b63a 535f 443b 34c6 023d 8e33 3e3c
00000150: 8020 073a 235b 9e3b 6104 6d39 ecc9 ed39
00000160: 235b 9e3b 1951 e63a 3c2b f239 baa1 663b
00000170: 3ae5 3039 e428 ad39 baa1 663b f1b7 a73a
00000180: 0853 363a a5d0 d03b 50f2 9039 87c7 1c3a
00000190: a5d0 d03b 4dda 173b e69a 013b 1c0e a93c
000001a0: 7be7 683a 06db fd3a 1c0e a93c c7e0 f53b
000001b0: fcd0 d838 7985 fa3a 6868 a738 a617 3c39
000001c0: 7985 fa3a ac2e 363a ae04 ad37 db95 7139
000001d0: 9c82 1d37 3162 b537 db95 7139 17af af38
0.0037469605 0.038015 0.0016290987 0.0035677343 0.038015 0.013822472 1.1317023e-05 0.00014008369
4.6449068e-06 1.3147004e-05 0.00014008369 5.0935352e-05 8.920877e-05 0.00054584123 1.6718e-05 5.122749e-05
0.00054584123 0.0001984715 0.0021835673 0.022281937 0.000970032 0.0020911724 0.022281937 0.008101848
5.7258887e-09 7.0329996e-08 3.4186234e-09 6.6004984e-09 7.0329996e-08 2.5572403e-08 0.0038101056 0.039068855
0.001670542 0.0036666347 0.039068855 0.014205641 0.00080665114 0.007890101 0.00039257755 0.00074049004
0.007890101 0.002868881 2.2784163e-05 0.00021779622 9.139094e-06 2.0440348e-05 0.00021779622 7.919215e-05
0.0014379097 0.015231991 0.00065274845 0.001429533 0.015231991 0.005538451 0.00010345139 0.00085017894
3.779924e-05 7.978989e-05 0.00085017894 0.00030913044 2.0233265e-06 1.49533835e-05 3.989494e-07 1.4033824e-06
1.49533835e-05 5.4371317e-06 3.9243986e-10 4.018105e-09 1.2406436e-10 3.771017e-10 4.018105e-09 1.461004e-09
0.00010421435 0.0011379733 4.1987812e-05 0.000106799685 0.0011379733 0.00041377483 0.0030926927 0.031927302
0.0013912278 0.0029964044 0.031927302 0.011608971 0.0005154684 0.0048326417 0.00022603713 0.00045354606
0.0048326417 0.0017571776 0.0004619005 0.0035191611 0.00016870062 0.00033027597 0.0035191611 0.0012795908
0.00069551216 0.0063725286 0.00027646357 0.00059806596 0.0063725286 0.002317089 0.0019776165 0.02063661
0.0008884591 0.0019367642 0.02063661 0.007503602 0.00010338609 0.0019113264 7.982628e-05 0.00017937887
0.0019113264 0.00069497037 2.0625386e-05 0.00023039377 9.388339e-06 2.1622605e-05 0.00023039377 8.377263e-05

exp_avg f4 [20]
00000000: 2bb3 cfb9 8ce9 97b6 b33f ae37 a23d b739
00000010: 1458 9435 d717 dfb9 6a15 5339 abf1 26b8
00000020: e49f 9539 5194 96b8 aa6f 9337 4488 1cb3
00000030: 707f 03b8 852c e439 5ff7 3639 d04f bdb8
00000040: d28a 61b9 edb8 ae39 be59 a339 673f 2db8
-0.00039615607 -4.527339e-06 2.0772079e-05 0.000349504 1.1052493e-06 -0.00042551637 0.00020130505 -3.9802555e-05
0.00028538622 -7.1801835e-05 1.7575763e-05 -3.6445513e-08 -3.135152e-05 0.00043520718 0.00017449025 -9.0270885e-05
-0.00021509387 0.00033325647 0.00031156646 -4.1305462e-05

exp_avg_sq f4 [20]
00000000: 9d7d 3f3a 7ea4 3436 5bf8 2f37 aa7a e039
00000010: 22bd b930 8dcc 443a 17fa 1e39 a36d 8c36
00000020: 5874 9939 bd0a 8937 3f43 9a34 5bc9 a92e
00000030: 996e b737 59d3 203a b5be c238 abd0 8d38
00000040: 4a66 0039 17e7 cf39 7f0b 1a38 df8c 9436
0.00073047896 2.6917837e-06 1.0488638e-05 0.00042816 1.3514276e-09 0.0007507287 0.0001516122 4.1850885e-06
0.00029269117 1.6336673e-05 2.8733663e-07 7.720998e-11 2.1866801e-05 0.0006135009 9.286163e-05 6.7622714e-05
0.00012245137 0.00039654292 3.6727168e-05 4.4271433e-06

exp_avg f4 [1, 20]
00000000: 13da d1bb 063a 8c39 1459 5d38 ce20 5dbb
00000010: 07e1 a137 a8f6 adbb 62da 11b9 5bb4 8d39
00000020: 8935 7ebb 8108 563a a39e 7538 93b0 2a34
00000030: 345a 49b9 a7f5 03bb 9ba7 0eba ad38 5f39
00000040: 9d55 2aba 385a 9cbb c403 40ba 8c55 4c39
-0.0064041703 0.00026746112 5.2773466e-05 -0.0033741477 1.9297482e-05 -0.0053089447 -0.00013909632 0.0002702799
-0.0038789234 0.00081647193 5.8560294e-05 1.5896721e-07 -0.00019202457 -0.0020135434 -0.0005441845 0.0002128805
-0.0006497743 -0.004771497 -0.000732478 0.00019486825

exp_avg_sq f4 [1, 20]
00000000: 9883 073e 0806 2739 2ea6 0f39 8bee cf3c
00000010: a03a e834 31a4 133e 31e6 4538 4b9c 2939
00000020: 067e 923d da36 083c 6b29 e236 6308 9a30
00000030: 3415 b23a 4fac 233c f9d8 963a 2214 5c38
00000040: 7fe8 893c dc24 a13d 5019 413b 3953 f838
0.13233793 0.00015928608 0.0001369945 0.0253823 4.3256023e-07 0.14418103 4.7182843e-05 0.0001617532
0.07152943 0.008313859 6.7401465e-06 1.1207358e-09 0.0013586641 0.009989812 0.0011508755 5.2470838e-05
0.016834496 0.078683585 0.002946455 0.00011841063

network_body._body_endoder.seq_layers.0.weight f4 [20, 6]
00000000: 5c71 0c3f db8f b13e d614 e03c 94c1 4b3e
00000010: 7b90 133f 78ee a63c 2825 2a3e 812f 8a3d
00000020: c5f8 60bd feb0 46bd 7975 a9be b322 67be
00000030: 40e6 2abf dd73 24be 56fd 343f fca3 f5bd
00000040: 66bb debe 2195 36be d8d0 5e3e 3410 9d3d
00000050: 19ec 9bbd fe0f af3e c8fe ad3e b5c1 5e3c
00000060: d4d3 0d3f 7baa 03bf a6d2 0dbf 6117 d43e
00000070: 77c5 9abe 993d 4a3e 2494 71be 942c de3e
00000080: 53cf 0bbd c417 bcbe d6d8 193f 77bc 183e
00000090: 74b9 4b3e 17b6 033e ff46 9abe 92a7 64be
000000a0: 5656 98be 6fc0 ccbe b5a1 f23e 00ff 40be
000000b0: 7943 84be 0d7f 8e3d 0dae 3abd c3e3 bcbb
000000c0: fdd2 f3be 58b6 a1bd 3ed9 c5bc a5c1 8f3e
000000d0: de38 a63e 5bb8 ecbe e2ea 7dbf 4d5f adbe
000000e0: 3b47 ac3e 3f1a 1bbf 3c3b 5c3e 7592 fbbe
000000f0: 66dd 9bbd c006 363e ff90 7b3f fb71 9ebe
00000100: d86f 1fbe 195c 333f 0e19 bcbe 0b7a a3be
00000110: d52f 003f f01f 573e a950 88bf 7b35 a73e
00000120: eb78 2dbc bbd1 06bd e4b8 383e dcc0 6d3e
00000130: 14ff be3d 4ad4 d53d fa6f 59bc 7bd2 9dbe
00000140: 9857 f43d 5dac 5dbe e9bb 1b3f df28 30be
00000150: 834a 16be a01d e53e 3354 0d3d 9c60 fe3e
00000160: a72b 78be 9d73 c53e 308b acbd 70b4 c4be
00000170: 826b 7fbd 87bd 683e 708c c53e c3f7 603e
00000180: 7666 04bf 16f4 833e 306d aabe 9548 443f
00000190: 7430 00bf db43 7bbe 12c8 a7bd 0ce2 123f
000001a0: 14e8 4cbe a88b 0abf 791c 853d c65c d6be
000001b0: ae0c 2b3f bae5 7f3e a9c4 ba3a 030b b9be
000001c0: 83d6 d33e ef92 d83e 6dd2 e23e 330f 16bd
000001d0: e5ae 5ebe 7225 2e3f 17ed 6ebd 39ef 2f3f
0.5486047 0.34680066 0.027353685 0.19898063 0.57642335 0.020377383 0.16615736 0.06747342
-0.054924745 -0.048508637 -0.33097437 -0.2257183 -0.66757584 -0.16059823 0.7069906 -0.11994168
-0.4350235 -0.17830326 0.21759355 0.07669106 -0.076133914 0.3419189 0.33983445 0.013595988
0.5540135 -0.5143201 -0.5539955 0.41424087 -0.3022878 0.1975006 -0.23591667 0.43393385
-0.034133267 -0.36736882 0.6009649 0.14915644 0.19894964 0.1286243 -0.3013229 -0.22329548
-0.2975337 -0.39990565 0.47388998 -0.18847275 -0.25832728 0.06957827 -0.045576144 -0.005764456
-0.4762191 -0.078961074 -0.02415144 0.28077427 0.3246526 -0.46234402 -0.9918653 -0.3386177
0.33648095 -0.60586923 0.21506971 -0.49135175 -0.07610588 0.17776012 0.9826812 -0.30946335
-0.15570009 0.70062405 -0.36737865 -0.3192905 0.50072986 0.21008277 -1.0649616 0.3265799
-0.010587911 -0.03291486 0.1803928 0.23218101 0.09325996 0.104408816 -0.013271326 -0.30824646
0.1193077 -0.21647783 0.60833603 -0.17203091 -0.14676861 0.44749165 0.034504127 0.49683082
-0.24235402 0.38564768 -0.084249854 -0.38418913 -0.062358387 0.22728549 0.38583708 0.21969514
-0.51718843 0.2577216 -0.33286428 0.7667325 -0.50073934 -0.24537604 -0.08192457 0.5737617
-0.20010406 -0.5411935 0.06499571 -0.41867656 0.6681622 0.24989977 0.0014249283 -0.36141214
0.41374597 0.422996 0.44301167 -0.03663559 -0.21746404 0.68025887 -0.058331575 0.687244

network_body._body_endoder.seq_layers.0.bias f4 [20]
00000000: 24fa 1fbd 13b2 3abd 243f 88bc ea08 2a3d
00000010: 38cf c23c 4819 23bd b60a 813c 845a b3bc
00000020: 67f1 2f3d cdca 88bc 52e4 5a3e dd2d 62bd
00000030: 3193 27bd bf24 2d3d cf59 183d 5bd2 adbc
00000040: 6a91 bcbc 52e6 2c3d e4c1 a53d d3f2 11bd
-0.039056912 -0.04557998 -0.01663167 0.041512407 0.02378045 -0.039819032 0.015752178 -0.021893747
0.04295483 -0.016698265 0.2137616 -0.05521952 -0.040911857 0.042271372 0.037195023 -0.02121847
-0.023018558 0.042211838 0.08093622 -0.035631966

value_heads.value_heads.extrinsic.weight f4 [1, 20]
00000000: 3731 e63e 8bb4 363e e9ec 0a3f 0dbd bbbe
00000010: 496a 8f3d a6d2 ef3e 4b22 c1be 48ac ccbe
00000020: ff80 9ebe 9027 933d 319e c73e 5170 81be
00000030: 004d 4e3d c01a e1be 2914 55be 8b2b c03e
00000040: d71e 543e 1e41 babe 2663 62be 5150 c1be
0.44959423 0.17842309 0.54267746 -0.36667672 0.07002694 0.468404 -0.37721476 -0.3997519
-0.3095779 0.0718528 0.38987878 -0.25281003 0.0503664 -0.4396572 -0.20808472 0.3753322
0.2071489 -0.36377805 -0.22108135 -0.3775659
