results/MoveToGoal12/MoveToGoal.onnx (onnx, 2351 bytes, 5 tensors)

action_model._continuous_distribution.log_sigma f4 [1, 2]
0	0xbe869f5e	-0.26293463
1	0xbf25dba0	-0.64788246

action_model._continuous_distribution.mu.bias f4 [2]
0	0x3dbeb663	0.09312131
1	0xbca5d9c8	-0.020245448

action_model._continuous_distribution.mu.weight f4 [2, 20]
0	0x3dd1ef09	0.102506705
1	0xbdedcbc1	-0.116111286
2	0x3da93f5a	0.082640365
3	0xbc964732	-0.018344495
4	0x3dcaa6dc	0.09895107
5	0x3e675f49	0.22594942
6	0xbe200f60	-0.15630865
7	0xbd58a03b	-0.052887183
8	0x3e2dd534	0.16975862
9	0x3d80058f	0.0625106
10	0x3daaaaa6	0.0833333
11	0xbe25132a	-0.16120592
12	0xbe32e856	-0.17471442
13	0x3da30470	0.07959831
14	0x3dfc5056	0.1232001
15	0x3da600db	0.08105632
16	0xbc9976fd	-0.018733496
17	0x3cbe87d3	0.023258125
18	0x3d796e62	0.060896285
19	0xbd152492	-0.03641183
20	0xbd797eda	-0.06091199
21	0xbdb28e21	-0.08718515
22	0xbb2b46f3	-0.0026134818
23	0x3e429cf1	0.19005181
24	0x3cadf635	0.021235565
25	0x3c1cc69e	0.009568838
26	0x3d235834	0.03987904
27	0x3e7947a4	0.24343735
28	0x3c058645	0.008149688
29	0xbe9c89d7	-0.30573913
30	0xbd44d6de	-0.048056476
31	0xbe709be3	-0.23496966
32	0xbe85dbef	-0.2614436
33	0x3df839ef	0.12120425
34	0x3d1d97ea	0.038474955
35	0xbdb1a255	-0.086735405
36	0x3e286c49	0.16447558
37	0xbe567781	-0.20944025
38	0xbe2a2e1f	-0.16619156
39	0xbe0b1cf9	-0.13585271

network_body._body_endoder.seq_layers.0.bias f4 [20]
0	0x3daaec9f	0.08345913
1	0xbca4835d	-0.02008217
2	0x3d80d842	0.06291248
3	0x3de5543d	0.11197708
4	0x3d961e93	0.0733005
5	0x3e00df87	0.12585269
6	0x3e413f0f	0.18871711
7	0xbe19ff93	-0.150389
8	0x3e05f8e8	0.13083231
9	0x3e1d3951	0.15353896
10	0x3dd077b8	0.101790845
11	0x3bbac161	0.005699322
12	0x3e466395	0.19373925
13	0x3c9cbced	0.019133056
14	0x3d74bf8b	0.059752982
15	0x3e0b5ab4	0.13608819
16	0x3d078bf9	0.033092473
17	0xbcd8d616	-0.026469272
18	0x3ce0fab4	0.027463295
19	0xbd940fb0	-0.07229555

network_body._body_endoder.seq_layers.0.weight f4 [20, 6]
0	0xbd9f3ac0	-0.077748775
1	0x3f088a07	0.53335613
2	0xbdf56441	-0.119820125
3	0xbe96d520	-0.29459476
4	0x3e1847c0	0.1487112
5	0xbf683bde	-0.9071635
6	0x3e0d4725	0.1379667
7	0xbe31ddcd	-0.17369767
8	0xbe7ad937	-0.24496923
9	0xbf4e9383	-0.80693835
10	0x3c9b34a4	0.018946
11	0x3cb7c128	0.022430971
12	0xbec02118	-0.3752525
13	0x3f0168ec	0.50550723
14	0xbe459339	-0.19294442
15	0xbf26bef6	-0.65135133
16	0x3f30321b	0.68826455
17	0x3d8cdb8e	0.06877814
18	0xbf8508f8	-1.0393362
19	0xbd0b3037	-0.033981528
20	0x3dcc7f3a	0.09985204
21	0xbf26ccd5	-0.651563
22	0xbdc91343	-0.09818127
23	0x3eba3c7e	0.36374277
24	0xbe026ac5	-0.12736042
25	0x3dafca8a	0.08583553
26	0xbe88a46f	-0.26687953
27	0x3d0ce8cf	0.03440171
28	0x3cef4999	0.029209899
29	0xbeed3f76	-0.4633748
30	0xbed2baaa	-0.41158038
31	0xbe307388	-0.17231572
32	0xbdfb995a	-0.12285109
33	0x3e460e04	0.19341284
34	0x3e3b4c9a	0.1829094
35	0xbf0d73ff	-0.5525512
36	0xbe7e13c4	-0.24812227
37	0xbf0f62aa	-0.56009924
38	0xbd6cc091	-0.057800833
39	0x3f039d53	0.5141193
40	0xbe0b33a2	-0.13593915
41	0xbe58a35a	-0.21156064
42	0xbe985bf7	-0.29757664
43	0x3e41fe78	0.18944728
44	0x3f8efbf7	1.1170644
45	0xbe05bd50	-0.13060498
46	0x3c201b56	0.009772142
47	0x3d8abd7e	0.06774424
48	0xbdc4afca	-0.096038416
49	0xbe993b57	-0.29928085
50	0xbe1254f9	-0.14290227
51	0x3dbf4413	0.09339156
52	0x3efa2c4f	0.4886193
53	0xbe4d881b	-0.20071451
54	0xbf088da0	-0.533411
55	0x3cdd550d	0.027018094
56	0x3edbf5b9	0.4296091
57	0x3eb20651	0.34770444
58	0x3ec043af	0.37551638
59	0x3e6e353a	0.23262492
60	0x3ecba721	0.39775947
61	0x3ecfcea0	0.4058733
62	0x3e8b0bc1	0.27157405
63	0x3eac791d	0.33686152
64	0x3e96015a	0.29297906
65	0xbe4be834	-0.19912797
66	0xbe872655	-0.26396433
67	0xbf80f699	-1.0075256
68	0xbf3ffe55	-0.74997455
69	0xbd8da55b	-0.06916305
70	0x3e9eb2bf	0.30995747
71	0x3c82ef3a	0.015983213
72	0x3dc4634d	0.095892526
73	0xbe31fa9a	-0.17380753
74	0xbf4785ea	-0.7793871
75	0x3eeb2083	0.45923242
76	0xbf157a64	-0.5838988
77	0x3e4afb8d	0.19822522
78	0x3efce4c0	0.49393272
79	0x3ebf087b	0.37311158
80	0xbf49cf7c	-0.7883222
81	0xbf0a0440	-0.53912735
82	0x3e257a49	0.1615993
83	0xbd475827	-0.048668053
84	0xbe36005f	-0.17773579
85	0xbd1e8b05	-0.038706798
86	0xbd46935e	-0.048480384
87	0xbea1cada	-0.31600076
88	0x3f2600e3	0.64845103
89	0x3e1e543b	0.15461819
90	0xbfb9f427	-1.4527634
91	0xbc26ec62	-0.010188194
92	0x3de378ef	0.111070506
93	0x3e9b1548	0.30289674
94	0x3f0e45a3	0.5557501
95	0xbd0697f3	-0.032859754
96	0x3f145b23	0.57951564
97	0x3e088dfb	0.13335411
98	0xbf15f956	-0.5858358
99	0x3e9d0eef	0.30675456
100	0x3ed817ed	0.42205754
101	0x3f735a77	0.95059913
102	0xbee02bd5	-0.4378344
103	0xbd99f065	-0.07516555
104	0x3f1a3795	0.6024106
105	0x3f2487ed	0.64269906
106	0x3ebbbc3f	0.36667058
107	0xbe2c47f6	-0.16824326
108	0xb79617e7	-1.7892524e-05
109	0xbe6442d5	-0.2229112
110	0x3e5f4a3c	0.21805662
111	0x3e3d8ada	0.18509999
112	0x3f284209	0.6572576
113	0x3e0dea68	0.1385895
114	0xbe0de7d1	-0.13857962
115	0x3ea7bd7e	0.3276176
116	0x3ef9737f	0.4872093
117	0x3e84c2ca	0.25929862
118	0x3df3d244	0.11905339
119	0xbe7f26bb	-0.24917118
